weights/2024-06-27_16-05-54/best_policy.pt (torch, 167108 bytes, 63 tensors)

weight f4 [64, 3]
0	0xbf240ad8	-0.64079046
1	0x3db2ea7b	0.0873613
2	0xbe907df4	-0.28221095
3	0xbd882fa4	-0.06649712
4	0x3eee54df	0.46549127
5	0xbd14f1c8	-0.036363393
6	0xbf19ae8d	-0.6003197
7	0x3eb2cd3d	0.3492221
8	0x3ef3b942	0.47602278
9	0xbf1f9755	-0.6234029
10	0x3e8acf93	0.27111492
11	0xbf008964	-0.5020964
12	0xbf1d3805	-0.61413604
13	0xbe7a86c9	-0.24465479
14	0x3eb77b0c	0.35836065
15	0x3e3f999f	0.18710946
16	0x3eb290c2	0.34876066
17	0x3d97271c	0.073805064
18	0xbd99c7c4	-0.075088054
19	0x3e79eadf	0.24406002
20	0x3d5916e3	0.053000342
21	0xbf1dc669	-0.61630875
22	0x3f1b5a79	0.60684925
23	0xbebcef98	-0.36901546
24	0x3f01ee4c	0.5075424
25	0xbeb24fa5	-0.3482639
26	0xbecdd57c	-0.40201938
27	0xbed65407	-0.41860983
28	0x3ecef544	0.40421498
29	0xbefb1995	-0.49042955
30	0xbecb3deb	-0.39695677
31	0xbefd414b	-0.49463877
32	0xbd948054	-0.07251039
33	0xbf1e9aa4	-0.6195471
34	0x3f0a0705	0.5391696
35	0xbe94b75f	-0.2904615
36	0xbddfc7d7	-0.10926788
37	0x3eda406c	0.42627275
38	0x3e269b0e	0.16270086
39	0xbdbd4ab1	-0.09242762
40	0xbecaa10f	-0.39576003
41	0xbe2eff71	-0.1708963
42	0x3eeb7025	0.45983997
43	0xbe75d98c	-0.24008769
44	0x3e9f3a80	0.3109932
45	0xbd79e7a7	-0.061011937
46	0x3f062866	0.52405393
47	0x3ec6799a	0.3876465
48	0xbc267aef	-0.010161146
49	0x3f21780d	0.6307381
50	0x3ece6627	0.4031231
51	0x3dfc59b0	0.12321794
52	0x3ea0e902	0.3142777
53	0x3d688cbe	0.056774847
54	0xbf1d0474	-0.6133492
55	0xbc7d0469	-0.015442946
56	0xbe8a0df4	-0.2696377
57	0xbede72ff	-0.4344711
58	0x3e97654e	0.29569477
59	0x3d467172	0.048448034
60	0xbd147dc7	-0.036252763
61	0xbf0b25a1	-0.5435429
62	0x3dfd14de	0.12357496
63	0x3ece5589	0.40299633
64	0x3f163eea	0.5868975
65	0x3e8860ba	0.26636297
66	0xbf13bc0c	-0.5770881
67	0x3f26c8bd	0.6515005
68	0xbe85d282	-0.26137167
69	0xbf245a14	-0.6419995
70	0x3ec3fc58	0.3827846
71	0x3dd51d7d	0.10406015
72	0xbd2fa8b6	-0.042885505
73	0xbe915d67	-0.28391573
74	0xbe89ae50	-0.26890802
75	0x3e219444	0.15779215
76	0x3e504015	0.20336945
77	0xbcb4dc7f	-0.022077797
78	0xbf06521b	-0.52469033
79	0x3f08697a	0.53285944
80	0x3e38f11e	0.18060729
81	0x3ea051f8	0.31312537
82	0xbf18bd0f	-0.5966348
83	0xbdc4d840	-0.09611559
84	0x3e335628	0.17513335
85	0x3ed34e9e	0.41270918
86	0x3f01e3e2	0.50738347
87	0xbe9920fd	-0.2990798
88	0xbf158b4b	-0.5841567
89	0xbdaaa491	-0.0833217
90	0xbda3ec4a	-0.08004053
91	0x3f1cd6e7	0.61265415
92	0xbea472ea	-0.32118922
93	0xbed74171	-0.42042115
94	0x3f107447	0.56427425
95	0xbec1b7e0	-0.37835598
96	0x3ea3ba7e	0.3197822
97	0xbe69c59d	-0.2282929
98	0x3eba7f2a	0.36425143
99	0xbe87e944	-0.26545155
100	0x3f213974	0.6297829
101	0xbe804e79	-0.2505987
102	0xbecc6ace	-0.39925236
103	0x3e6f4c89	0.2336904
104	0x3e928143	0.28614244
105	0xbeec8e42	-0.46202284
106	0x3ee28fed	0.44250432
107	0xbe989349	-0.2979987
108	0x3ebf9ca5	0.37424198
109	0xbd50a6a5	-0.050940175
110	0xbeb6ed34	-0.35727847
111	0x3ec5601e	0.38549894
112	0xbe470120	-0.19434023
113	0xbe63934c	-0.22224158
114	0xbe952561	-0.2913008
115	0xbe6f7358	-0.23383844
116	0x3ed79403	0.4210511
117	0xbe607b21	-0.2192197
118	0xbeb27136	-0.34851998
119	0xbec7d36d	-0.39028493
120	0x3e1d1700	0.15340805
121	0x3eeb55df	0.45963952
122	0xbdf25a7b	-0.11833664
123	0xbed1cfa6	-0.40978736
124	0xbedfde2a	-0.43724185
125	0xbd2afaf1	-0.041743223
126	0x3ed6231f	0.4182367
127	0x3cdfc62a	0.027316172
128	0x3e820580	0.2539482
129	0x3f11af39	0.56907994
130	0x3ed5b9c3	0.41743287
131	0x3ee233df	0.441802
132	0xbe9af852	-0.30267578
133	0x3eca1b0b	0.39473757
134	0xbeb657e4	-0.3561393
135	0xbe54773b	-0.20748608
136	0x3bf20fa4	0.0073871184
137	0xbd0ae211	-0.033907
138	0x3ef420d6	0.47681302
139	0x3e34cb0b	0.1765558
140	0x3e5e4daf	0.21709321
141	0xbf1be1b8	-0.60891294
142	0x3f007f44	0.5019419
143	0x3ee787d0	0.45220804
144	0x3e5391c6	0.20661077
145	0x3e285edc	0.16442436
146	0xbe836f4b	-0.25670847
147	0x3c351f33	0.011054802
148	0xbf26ed18	-0.65205526
149	0xbf06bba1	-0.5263005
150	0xbd702e50	-0.058637917
151	0x3f16838a	0.5879446
152	0x3e6c5193	0.23077993
153	0x3e42ef2d	0.19036551
154	0xbdabd525	-0.083902635
155	0x3e3382e1	0.17530395
156	0xbf06890d	-0.5255287
157	0x3ddf710b	0.10910233
158	0x3db758d1	0.08952487
159	0xbe936adf	-0.28792474
160	0xbe685156	-0.22687277
161	0xbea5447b	-0.3227881
162	0x3ea6fbaf	0.32613894
163	0xbf0303aa	-0.51177466
164	0xbe5832f0	-0.21113181
165	0x3ea01db9	0.31272677
166	0x3e7298e5	0.23691137
167	0xbead1db3	-0.3381172
168	0xbf1e132f	-0.6174802
169	0x3eca4fe2	0.3951407
170	0x3e40839f	0.1880021
171	0x3e3cd920	0.18442202
172	0x3efed360	0.4977064
173	0xbdc95bae	-0.0983194
174	0xbede534e	-0.4342293
175	0xbed4a0dc	-0.41528976
176	0xbd4d84ca	-0.050175466
177	0x3ddb7eb9	0.1071753
178	0xbd6db0bc	-0.058029875
179	0xbe7f2e4a	-0.24920002
180	0xbd1d34ea	-0.03838054
181	0xbf0c6b5b	-0.5485131
182	0xbe8f985a	-0.28045923
183	0xbe922598	-0.28544307
184	0x3e829d53	0.25510654
185	0xbdb34069	-0.0875252
186	0xbf02f988	-0.51162004
187	0xbeaab2de	-0.3333959
188	0xbec716dd	-0.3888463
189	0xbc9d028e	-0.019166257
190	0x3e8ea788	0.2786219
191	0x3e4dd376	0.20100197

bias f4 [64]
0	0x3e666c4e	0.22502252
1	0x3ef9f007	0.4881594
2	0xbe62e744	-0.22158533
3	0xbedd59d6	-0.43232602
4	0xbee81288	-0.45326638
5	0x3e9dcc38	0.3081987
6	0xbea77bba	-0.32711583
7	0xbe95a975	-0.29230848
8	0x3f018e7e	0.5060805
9	0xbee94096	-0.45557088
10	0xbec7224f	-0.38893363
11	0xbe12318e	-0.14276716
12	0xbe0710c7	-0.13189994
13	0x3bbb46bf	0.0057152207
14	0xbe988bd8	-0.29794192
15	0xbc4f7a11	-0.01266338
16	0x3e354fbd	0.17706199
17	0x3d896a05	0.06709675
18	0xbed86c6a	-0.42270213
19	0x3ed10717	0.40825722
20	0xbd1aaf4f	-0.037764844
21	0xbedcbb52	-0.43111664
22	0x3e2870bf	0.16449259
23	0x3d92e531	0.07172621
24	0x3ec461ff	0.38356015
25	0x3ec6bf86	0.38817996
26	0x3ee8d67e	0.45476145
27	0x3e593d7f	0.21214865
28	0xbe700af0	-0.23441672
29	0xbe80062f	-0.25004718
30	0x3e90681c	0.2820443
31	0xbecc3353	-0.39882907
32	0xbe99a9ed	-0.30012456
33	0xbe9f5c3b	-0.31125054
34	0x3ee9f9bf	0.45698354
35	0x3f075332	0.5286132
36	0xbe4a850a	-0.19777313
37	0xbdeb0f67	-0.11477547
38	0x3e301253	0.1719449
39	0x3e92b1d8	0.2865131
40	0x3ea5ca26	0.3238079
41	0x3e0b0378	0.13575542
42	0xbe7bdb89	-0.24595465
43	0x3eba903c	0.36438167
44	0xbe2060d4	-0.15661937
45	0x3e4045fa	0.18776694
46	0x3d1df1f1	0.03856081
47	0xbe4ef39c	-0.20210117
48	0xbe9362e7	-0.28786394
49	0x3e0c8a4b	0.1372463
50	0x3ef5586f	0.47919032
51	0xbe068980	-0.1313839
52	0x3e968376	0.29397172
53	0xbebec858	-0.37262225
54	0xbea586ff	-0.32329556
55	0x3e8da17f	0.27662274
56	0xbe1f3bb4	-0.15550119
57	0xbd7c4923	-0.061593186
58	0x3e43fb05	0.19138725
59	0xbe9b280c	-0.3030399
60	0xbcd90e15	-0.026495973
61	0xbea6172c	-0.32439554
62	0xbdfec12f	-0.124391906
63	0xbd2d0d20	-0.042248845

weight f4 [64]
0	0x3f7b3ef8	0.9814296
1	0x3f747cd0	0.9550295
2	0x3f81e01a	1.0146515
3	0x3f7a0999	0.97670895
4	0x3f80c1cd	1.0059143
5	0x3f826038	1.0185614
6	0x3f7225ae	0.94588745
7	0x3f8353c2	1.0259936
8	0x3f811712	1.0085166
9	0x3f8120fe	1.0088193
10	0x3f80a9fa	1.0051873
11	0x3f839cc5	1.0282217
12	0x3f78797b	0.97060364
13	0x3f807651	1.0036107
14	0x3f7d0ae4	0.9884474
15	0x3f7c28d4	0.984998
16	0x3f7e6123	0.9936697
17	0x3f8327dd	1.024654
18	0x3f82163a	1.0163033
19	0x3f85a5b2	1.0441191
20	0x3f82587c	1.0183253
21	0x3f8649be	1.0491254
22	0x3f82a5da	1.0206864
23	0x3f8a5362	1.0806696
24	0x3f7cd647	0.9876446
25	0x3f638bbb	0.88885087
26	0x3f81d9a6	1.0144546
27	0x3f870c68	1.0550661
28	0x3f775c7d	0.966255
29	0x3f8131c4	1.0093312
30	0x3f76349e	0.9617404
31	0x3f80504a	1.0024502
32	0x3f71af47	0.94408077
33	0x3f7af099	0.9802337
34	0x3f836236	1.0264347
35	0x3f75dcd7	0.960401
36	0x3f843914	1.0329919
37	0x3f858e7d	1.0434109
38	0x3f816e86	1.0111854
39	0x3f699394	0.9124081
40	0x3f78d7b8	0.9720416
41	0x3f84055f	1.0314139
42	0x3f79bc14	0.9755261
43	0x3f82f915	1.0232264
44	0x3f81894c	1.0120025
45	0x3f854326	1.0411117
46	0x3f7fb34b	0.99882954
47	0x3f8427dc	1.0324664
48	0x3f7b28af	0.98108953
49	0x3f84b09a	1.0366395
50	0x3f74f35e	0.9568385
51	0x3f67b485	0.90509826
52	0x3f889f76	1.0673664
53	0x3f6e9cdc	0.932081
54	0x3f947d2e	1.1600702
55	0x3f6b830e	0.9199685
56	0x3f81a8d4	1.0129647
57	0x3f785a1c	0.97012496
58	0x3f8e0f7a	1.1098473
59	0x3f84c738	1.0373297
60	0x3f829bde	1.0203817
61	0x3f7f4b2b	0.9972407
62	0x3f61098e	0.87905204
63	0x3f7b4f0b	0.98167485

bias f4 [64]
0	0x3d1c4928	0.038155705
1	0xbd129ae8	-0.03579226
2	0xbb435d46	-0.0029810234
3	0x3c76b4bd	0.01505774
4	0x3d4859af	0.048913654
5	0xbc5de405	-0.013543134
6	0x3d1aa335	0.037753303
7	0x3bcf31ce	0.006323076
8	0xbb009ccc	-0.0019624708
9	0xbb3442c6	-0.002750562
10	0x3ca154d7	0.019693775
11	0x3b148ac0	0.002266571
12	0x3ce83c2c	0.028349005
13	0x3c5354d7	0.012898645
14	0xbc70cc32	-0.014697121
15	0x3c89b20b	0.01680853
16	0xbc2eaf16	-0.010661861
17	0x3a15080d	0.00056850986
18	0x3c86c545	0.016451487
19	0x3c6d3957	0.014479003
20	0x3c010de8	0.007876851
21	0xb9ada773	-0.0003312189
22	0xbb4e3810	-0.0031466521
23	0x3c8474a5	0.016168902
24	0xbc7ffdc0	-0.015624464
25	0xbd8abe49	-0.06774575
26	0xbbd31764	-0.0064419974
27	0xbc1a175c	-0.009404983
28	0xbbad5691	-0.0052898605
29	0x3c993469	0.018701749
30	0xbaa2a7e9	-0.001240966
31	0x3b5cbf53	0.0033683374
32	0xbd22ff1e	-0.03979408
33	0x3d4cca17	0.049997415
34	0x3c8534c2	0.016260508
35	0x3c02d76e	0.007985933
36	0x3ba429f4	0.005009884
37	0x3c18323b	0.00928932
38	0x394a4332	0.00019289253
39	0xbd1e8021	-0.038696412
40	0xbc237413	-0.009976405
41	0x3ce4c950	0.027928025
42	0xbc76fcc7	-0.015074915
43	0xbc6d0467	-0.014466382
44	0xbc71e336	-0.014763644
45	0x3c7b63f3	0.015343654
46	0xbca30a6a	-0.019902427
47	0x3c35fc3c	0.011107501
48	0xbb523c09	-0.003207924
49	0x3c00bedb	0.0078580035
50	0xbccb4beb	-0.024816474
51	0x3d911956	0.070849106
52	0x3c912c1e	0.017721232
53	0x3d6ea4d7	0.058262672
54	0x3b9ea3f1	0.0048413207
55	0xbd2a81a7	-0.041627552
56	0x3d3cbdba	0.046079375
57	0xbaf3a584	-0.0018588756
58	0x3c75daab	0.015005748
59	0xbb8b58d9	-0.004252535
60	0x3c84a72e	0.016192999
61	0xbbfd071e	-0.0077217957
62	0x3d189780	0.037253857
63	0xbb17d389	-0.0023166856

weight f4 [64, 64]
0	0xbde33a2f	-0.11095082
1	0xbd3a304d	-0.04545622
2	0x3e3a82fe	0.18214032
3	0xbdadb8fb	-0.08482548
4	0xbcc407f4	-0.023929574
5	0xbdd2d931	-0.10295332
6	0xbd645210	-0.055742323
7	0xbd8d793a	-0.06907888
8	0xbe2104f0	-0.1572454
9	0xbd7ccab8	-0.061716765
10	0x3d33bb7e	0.04387998
11	0xbd834f25	-0.0641158
12	0xbd0612b4	-0.03273268
13	0x3cdfb9da	0.0273103
14	0x3dc3091f	0.09523224
15	0x3e169861	0.14706565
16	0xbd61782c	-0.055046245
17	0xbe1b1a3a	-0.15146723
18	0x3de555e7	0.11198025
19	0x3dd8654a	0.10566194
20	0xbd717c7c	-0.05895661
21	0xbdeda1f1	-0.116031535
22	0xbcdeb6c1	-0.027186753
23	0x3d56d372	0.052447744
24	0xbe221b6d	-0.15830775
25	0xbe32f489	-0.17476095
26	0x3d51e03a	0.05123923
27	0x3d2cc2f7	0.04217812
28	0x3d79855a	0.06091819
29	0x3dd5db9d	0.104422785
30	0xbc2bf5f9	-0.010495656
31	0x3de2dd39	0.11077351
32	0xbda25c70	-0.07927787
33	0xbdc2cd65	-0.09511832
34	0xbcc20cc2	-0.023687724
35	0xbc20ed4b	-0.0098222
36	0xbd8b4143	-0.06799557
37	0x3ccf3fdc	0.025299005
38	0x3dc062f6	0.09393875
39	0xbb05ea33	-0.0020433783
40	0xb8c43dec	-9.357542e-05
41	0x3d83c8cc	0.06434783
42	0x3d1fd218	0.03901872
43	0xbdf0cc18	-0.11757678
44	0xbd2b1521	-0.041768197
45	0x3d4909d4	0.04908164
46	0xbbb6f7c5	-0.0055837356
47	0x3d9b9a14	0.075977474
48	0xbe054125	-0.13013132
49	0xbd8fa2a4	-0.07013443
50	0xbc4bc216	-0.01243641
51	0xbdc4b6b8	-0.09605163
52	0x3e3287f9	0.17434682
53	0x3d40c87d	0.0470662
54	0xbde88a49	-0.11354501
55	0xbe03c49b	-0.12867968
56	0x3e5b8a40	0.21439457
57	0xbdbfab4a	-0.09358843
58	0xbdabee50	-0.08395064
59	0xbdb0fb91	-0.086417325
60	0x3d7c56c9	0.061606202
61	0xbc76742c	-0.015042346
62	0xbe0d421a	-0.13794747
63	0x3d57e662	0.052709945
64	0xbd30b534	-0.04314156
65	0x3de535d1	0.11191905
66	0x3de4a58f	0.1116439
67	0xbdcaf479	-0.09909911
68	0x3e23772c	0.15963429
69	0xbddbbac5	-0.10728983
70	0xbd2880ab	-0.041138332
71	0xbc2b7ce1	-0.010466785
72	0xbae80b90	-0.0017703641
73	0xbb700858	-0.0036626067
74	0xbcfdd969	-0.030987458
75	0xbd8c3e0b	-0.06847771
76	0xbddbb730	-0.107282996
77	0xbd4c0225	-0.049806733
78	0xbde275c2	-0.11057617
79	0x3de0af88	0.1097098
80	0xbd21947d	-0.03944825
81	0xbdbc38bb	-0.09190508
82	0xbd8e51d6	-0.06949203
83	0x3de7fb09	0.11327178
84	0x3e223515	0.15840562
85	0x3c7182b9	0.014740639
86	0x3d21188e	0.039330058
87	0x3c894465	0.016756246
88	0x3abc5953	0.0014369882
89	0xbddd5e96	-0.108090565
90	0x3dbeb5a2	0.093119875
91	0x3dab8e12	0.08376707
92	0xbd9c702c	-0.076385826
93	0xb78dc1d4	-1.6898768e-05
94	0xbddb50f9	-0.10708804
95	0xbdfa8f02	-0.12234308
96	0xbddd002f	-0.10791051
97	0xbd477ad0	-0.048701108
98	0xbd78a59d	-0.060704816
99	0xbdb46b09	-0.08809478
100	0x3d791cac	0.06081836
101	0x3d3ad211	0.04561049
102	0xbd2e3cb2	-0.042538352
103	0x3d210198	0.03930816
104	0x3d8f4a98	0.069966495
105	0xbca65f89	-0.020309227
106	0xbdeee18f	-0.11664116
107	0xbe00413d	-0.12524886
108	0xbd9ba767	-0.07600289
109	0xbc557795	-0.013028999
110	0x3d8cdfe6	0.06878643
111	0xbac467fc	-0.0014984603
112	0xbb9e8c35	-0.0048384913
113	0xbd98aec0	-0.07455206
114	0x3c1a7876	0.009428134
115	0x3a8d191b	0.0010764928
116	0x3d570526	0.052495144
117	0xbdf66bd2	-0.12032284
118	0x3e0811bb	0.13288014
119	0xbd1dc0ca	-0.038513936
120	0x3e1fc938	0.15604103
121	0x3d3f7620	0.046743512
122	0x3e614f78	0.22002971
123	0x3c460c9f	0.01208797
124	0x3d8efdc2	0.06981994
125	0xbd546a16	-0.051858984
126	0xbd88d11b	-0.06680509
127	0xbdad3e15	-0.08459107
128	0x3dd578ea	0.10423453
129	0xbc9ce761	-0.019153299
130	0x3d87f19a	0.06637879
131	0xb9a3ecfe	-0.00031266356
132	0x3e0ceab6	0.1376141
133	0xbcb80165	-0.022461602
134	0x3ca9f93d	0.020748729
135	0xbcab573f	-0.020915626
136	0x3d482874	0.048866704
137	0xbc89cea4	-0.016822167
138	0xbdb7f281	-0.08981801
139	0xbdb877d5	-0.09007231
140	0xbd03e05b	-0.032196384
141	0x3cdb055e	0.026735958
142	0xbdbe6c01	-0.09297944
143	0x3d5a09e4	0.05323209
144	0x3da0d84b	0.078537546
145	0xbdc41c8c	-0.095757574
146	0x3d28ded4	0.04122813
147	0x3e1b00ae	0.15136978
148	0xbd70b70c	-0.058768317
149	0xbd817def	-0.06322848
150	0xbd55bc8a	-0.052181758
151	0x3e1e04c9	0.15431513
152	0x3d9a12f2	0.07523145
153	0x3db94e2a	0.09048112
154	0x3d1a1655	0.037618954
155	0xbd0b1eb4	-0.033964828
156	0x3d8fd1cb	0.07022437
157	0x3e01c3db	0.12672369
158	0x3c32c7ce	0.010911895
159	0xbd8ba45e	-0.0681846
160	0x3d4f92b2	0.05067701
161	0x3da97a88	0.08275324
162	0x3c19d1ad	0.0093883695
163	0xbdf84e34	-0.12124291
164	0xbd1cb984	-0.03826286
165	0xbd729149	-0.059220586
166	0x3d51a362	0.051181205
167	0xbdb7b4b8	-0.08970016
168	0xbde8f324	-0.113745004
169	0x3e0a1cd6	0.13487563
170	0x3d218a5e	0.039438598
171	0x3d06ee75	0.032942254
172	0xbd808535	-0.06275407
173	0xbd6f15b3	-0.058370303
174	0xbd6eeff6	-0.058334313
175	0x3e02a0bc	0.12756628
176	0x3d91ceeb	0.071195446
177	0xbd1e1e4e	-0.03860312
178	0x3d722d50	0.059125245
179	0xbb0ea2b4	-0.002176446
180	0x3dba837c	0.0910711
181	0x3d1314d5	0.03590854
182	0xbd4609b6	-0.048349105
183	0x3de279a0	0.110583544
184	0xbcb525bb	-0.022112718
185	0xbe08c629	-0.13356842
186	0x3e072f9e	0.13201758
187	0x3db4060d	0.087902166
188	0x3df542ef	0.11975657
189	0x3d9c0c4b	0.07619532
190	0x3cc7fa6b	0.0244114
191	0x3dceb9b1	0.100940116
192	0x3dc6e9ff	0.097126
193	0x3dadf07b	0.08493134
194	0x3ce077b2	0.027400825
195	0x3d8f3a6c	0.06993565
196	0xbda0dfc2	-0.078551784
197	0xbe0694fa	-0.13142768
198	0x3dfcf4cf	0.12351381
199	0x3c98ea58	0.018666431
200	0xbd9e4ed2	-0.077298775
201	0xbd9bfcc6	-0.07616572
202	0x3d7c689f	0.061623212
203	0x3d33acc8	0.04386595
204	0x3c61ecab	0.013789336
205	0x3d3102fe	0.043215744
206	0xbde1ff86	-0.11035065
207	0x3d9799e9	0.07402403
208	0xbddaa48c	-0.10675916
209	0x3d0986ce	0.033575825
210	0xbdb40260	-0.087895155
211	0xbd141c4d	-0.036159802
212	0xbd021249	-0.03175572
213	0xbcc6c1a5	-0.024262259
214	0xbd978dcb	-0.07400092
215	0x3d651f57	0.05593809
216	0x3db3b453	0.087746285
217	0xbe01c5ed	-0.12673159
218	0x3de16dac	0.110072464
219	0x3e1f78d2	0.15573433
220	0xbc85c7d8	-0.016330644
221	0x3defdd7d	0.117121674
222	0x3d5a6baa	0.053325333
223	0x3cf23b52	0.029569302
224	0xbcde8d10	-0.027166873
225	0xbd8c1842	-0.06840564
226	0x3d798a23	0.060922753
227	0x3d695b21	0.056971673
228	0x3deb3df5	0.11486427
229	0x3d57c9a6	0.05268254
230	0x3d9cf70c	0.07664308
231	0x3dabc16f	0.08386504
232	0x3d8c890a	0.068620756
233	0xbd2961fe	-0.04135322
234	0x3d0c9b8d	0.034328032
235	0xbde10d3e	-0.10988854
236	0xbd5b7dba	-0.0535867
237	0xbdcb3e9b	-0.099240504
238	0x3d9180ca	0.07104643
239	0x3d1f301a	0.038864233
240	0x3ddc7fed	0.107665874
241	0xbc52ca1c	-0.012865569
242	0xbdf72d03	-0.12069132
243	0xbb97df63	-0.004634784
244	0xbcb32e22	-0.021872584
245	0xbde7dff6	-0.11322014
246	0x3e43a55d	0.1910605
247	0x3d8bc4ba	0.06824632
248	0x3c3e7589	0.011624702
249	0xbd6df0f9	-0.058091138
250	0x3c100d22	0.008792194
251	0xbd65b358	-0.05607924
252	0xbda894e9	-0.08231527
253	0xbe0118b4	-0.1260708
254	0xbde4486c	-0.11146626
255	0x3dfc8921	0.12330843

bias f4 [64]
0	0x3d1cee99	0.038313482
1	0xbbedc4d5	-0.00725613
2	0xbddfe4ec	-0.10932335
3	0x3d23d130	0.03999442
4	0x3d8141f3	0.06311407
5	0x3d8d959d	0.06913302
6	0xbdce2a2c	-0.100666374
7	0x3d937b48	0.072012484
8	0xbcc51e9b	-0.024062445
9	0xbdb8245b	-0.08991309
10	0x3dab83ed	0.08374772
11	0x3d19046f	0.037357744
12	0xbdc1e4c0	-0.09467459
13	0xbcea8218	-0.028626487
14	0x3d625130	0.055253208
15	0xbd22a82c	-0.039711162
16	0x3dc5adfb	0.09652325
17	0xbdbe167f	-0.092816345
18	0x3c781fc4	0.015144292
19	0x3c81d5b0	0.015848964
20	0xbdb4f43d	-0.08835647
21	0xbe009884	-0.1255818
22	0xbdceee9f	-0.10104107
23	0x3d026edd	0.03184401
24	0x3d508b75	0.050914247
25	0xbdba6ca0	-0.0910275
26	0xbdb2f82a	-0.0873874
27	0xbdc7377d	-0.097273804
28	0x3dc20f0a	0.09475525
29	0xbd89bc62	-0.06725384
30	0xbdb5b884	-0.08873084
31	0xbd9948c3	-0.07484581
32	0x3c19227a	0.009346599
33	0x3cd598b9	0.0260738
34	0x3ce4911d	0.027901227
35	0xbc165ec1	-0.0091778645
36	0xbd355145	-0.044266958
37	0x3c04dd1b	0.008109356
38	0xbcc7a265	-0.024369428
39	0xbdbd1da7	-0.09234171
40	0xbda459b1	-0.0802492
41	0xbdc5d408	-0.096595824
42	0xbb9ac297	-0.004722904
43	0xbd117ec0	-0.03552127
44	0x3db0b981	0.08629132
45	0x3db05086	0.086091086
46	0xbdaca038	-0.08428997
47	0xbcd9d7f0	-0.026592225
48	0x3d89fdf4	0.06737891
49	0x3de87d51	0.11352027
50	0x3dbac057	0.09118717
51	0xbc0a9d23	-0.008460316
52	0x3dbe9e61	0.09307552
53	0x3dc9d337	0.09854739
54	0x3c9b8317	0.018983407
55	0xbc00ea56	-0.00786837
56	0x3dc043c7	0.093879275
57	0xbd8bb647	-0.06821876
58	0x3defc035	0.117065825
59	0x3d9c2722	0.076246515
60	0xbd549f05	-0.051909465
61	0x3d0abec4	0.033873335
62	0xbdde8976	-0.10866062
63	0xbc7cfed5	-0.015441616

weight f4 [64]
0	0x3f783e8a	0.9697043
1	0x3f88fa5f	1.0701407
2	0x3f81a681	1.0128938
3	0x3f7d42c2	0.9892999
4	0x3f7ef316	0.9958967
5	0x3f7dd1ff	0.99148554
6	0x3f842241	1.0322953
7	0x3f8fb9db	1.1228594
8	0x3f73749b	0.950998
9	0x3f807c90	1.0038013
10	0x3f77d6c9	0.9681211
11	0x3f782df5	0.96945125
12	0x3f82c6a5	1.0216872
13	0x3f840316	1.0313442
14	0x3f7bd70d	0.98375016
15	0x3f7c0d4e	0.984578
16	0x3f762d8b	0.96163243
17	0x3f841a33	1.0320495
18	0x3f84b33a	1.0367196
19	0x3f79e9e4	0.97622514
20	0x3f7e9941	0.99452597
21	0x3f7f505c	0.99731994
22	0x3f835c5f	1.0262564
23	0x3f7ae3b8	0.9800372
24	0x3f8326c7	1.0246209
25	0x3f7fbb15	0.9989484
26	0x3f7f617a	0.9975811
27	0x3f86bd4d	1.052652
28	0x3f7e9b20	0.9945545
29	0x3f83f6f9	1.0309745
30	0x3f8498c3	1.0359119
31	0x3f8108b3	1.008078
32	0x3f73f0f1	0.9528952
33	0x3f7dd546	0.99153554
34	0x3f80b46f	1.0055064
35	0x3f8130d8	1.0093031
36	0x3f8716a9	1.055379
37	0x3f7bf223	0.98416346
38	0x3f7b7cc3	0.98237246
39	0x3f818de2	1.0121424
40	0x3f8016ae	1.0006921
41	0x3f8199db	1.0125078
42	0x3f82da06	1.0222785
43	0x3f801fae	1.0009668
44	0x3f8891af	1.0669459
45	0x3f87570f	1.0573443
46	0x3f770f7f	0.9650802
47	0x3f7ce51f	0.9878711
48	0x3f840128	1.0312853
49	0x3f83694b	1.0266508
50	0x3f7aecc8	0.9801755
51	0x3f83ec25	1.030644
52	0x3f80c3c5	1.0059744
53	0x3f7f5832	0.9974395
54	0x3f79002d	0.97265893
55	0x3f7d9a99	0.9906402
56	0x3f79b0a5	0.97535163
57	0x3f7b9ea0	0.9828892
58	0x3f80ba43	1.0056843
59	0x3f7da6f3	0.9908287
60	0x3f88f094	1.0698419
61	0x3f83bfa4	1.0292859
62	0x3f82828b	1.0196089
63	0x3f820741	1.0158464

bias f4 [64]
0	0xbc1a6a10	-0.009424701
1	0x3cb71a2c	0.022351347
2	0x3c4c6329	0.0124748135
3	0x3c62ba9a	0.013838435
4	0x3c39483e	0.011308728
5	0xbbed6372	-0.007244521
6	0x3d0fde9b	0.035124402
7	0xbc75d826	-0.015005147
8	0x3d1a181f	0.03762066
9	0xbc5dcdf8	-0.013537876
10	0x3c8f5eae	0.017501201
11	0x3aec8803	0.0018045906
12	0x3c6df44f	0.01452358
13	0xbc9c2ee6	-0.019065332
14	0x3c5e6327	0.013573444
15	0xbbff6d2f	-0.007794998
16	0x3c21642c	0.009850543
17	0xbc53c049	-0.012924262
18	0xbc61f343	-0.013790908
19	0xbbdbb92a	-0.006705423
20	0xbc21d47e	-0.009877322
21	0x3c6202e5	0.013794635
22	0x3c77e981	0.015131355
23	0xbc878809	-0.016544359
24	0xbc93c053	-0.018036043
25	0xbc4e40d9	-0.012588703
26	0x3c6e9fa6	0.01456443
27	0xbc4ea8de	-0.012613503
28	0xbc0b8091	-0.008514539
29	0x3c32bf57	0.010909877
30	0x3c80f9e4	0.015744157
31	0xbcb4d10e	-0.022072341
32	0x3a0be401	0.00053364044
33	0xbc7ca188	-0.015419371
34	0xbc7f3fa7	-0.015579141
35	0xbc4f3b5b	-0.012648429
36	0xbc82885e	-0.015934166
37	0x3c351a46	0.011053627
38	0xbc832b4a	-0.016011853
39	0x3c60f163	0.013729426
40	0x3c7046ce	0.014665319
41	0xbc4b63f4	-0.012413967
42	0x3c7acb25	0.0153072225
43	0xbc6b5c6e	-0.014365299
44	0x3c48fa63	0.012266728
45	0xbc4de29d	-0.012566236
46	0xbc9b7aa2	-0.018979374
47	0x3c5ae579	0.013360375
48	0xbc4c96bf	-0.012487113
49	0xbc4a42a7	-0.012344993
50	0xbc4a8ef9	-0.012363189
51	0xbc3e428c	-0.011612546
52	0x3bc388a6	0.0059672175
53	0xbc29d673	-0.01036607
54	0xbc1bfae7	-0.009520269
55	0xbc43ac75	-0.011942972
56	0xbc198e9f	-0.009372382
57	0xb9b492a9	-0.00034441546
58	0xbc8dfd45	-0.017332682
59	0x3c72fe30	0.014831111
60	0xbc4ff67d	-0.012693045
61	0x3c5523ca	0.013009021
62	0xbc9ac423	-0.018892353
63	0x3c8e4564	0.017367072

weight f4 [1, 64]
0	0x3ce6dce6	0.028181504
1	0x3da7af31	0.08187712
2	0x3d65eda8	0.05613485
3	0x3d7dd10d	0.061966944
4	0x3dadf09e	0.0849316
5	0xbd3c6edb	-0.046004158
6	0x3d245baa	0.04012648
7	0xbe544f48	-0.20733368
8	0x3bc65632	0.0060527558
9	0xbe023d0e	-0.12718603
10	0x3bd7668e	0.006573505
11	0xbb326873	-0.00272229
12	0x3da02ab8	0.07820648
13	0xbd38f6f6	-0.045157395
14	0x3db4b78a	0.0882407
15	0xbca12dee	-0.019675221
16	0x3d0165e1	0.0315913
17	0xbe06ab1a	-0.13151208
18	0xbdf56707	-0.119825415
19	0xbcf98a6a	-0.030461509
20	0xbdc2de7a	-0.0951509
21	0x3d94219e	0.072329745
22	0x3d4d87e5	0.050178427
23	0xbc3137d9	-0.010816538
24	0xbd9211dd	-0.071323134
25	0xbdb2b3a5	-0.08725671
26	0x3ddb7e73	0.10717478
27	0xbde61aa8	-0.11235553
28	0xbd95168d	-0.07279692
29	0x3d558a27	0.052133705
30	0x3e080ed6	0.1328691
31	0xbd1b55a7	-0.03792348
32	0xbc67e25e	-0.014153091
33	0xbd3dc9eb	-0.046335142
34	0xbdd757fc	-0.105148286
35	0xbde4332f	-0.11142575
36	0xbe1deb6c	-0.15421838
37	0x3d6e3e2a	0.058164753
38	0xbd38325a	-0.044969894
39	0x3dd0d2fb	0.10196491
40	0x3de645b8	0.112437665
41	0xbdd20ab2	-0.10255946
42	0x3deabfa6	0.11462335
43	0xbdcc3215	-0.0997049
44	0x3d808d44	0.06276944
45	0xbdecdfb7	-0.11566108
46	0xb9ec805a	-0.00045109057
47	0x3d80324c	0.06259593
48	0xbdc8ce8f	-0.09805023
49	0xbe0d8f18	-0.13824117
50	0xbc633af9	-0.013869041
51	0xbdcaab21	-0.098959215
52	0x3d0212bb	0.031756144
53	0xbd2c1e8c	-0.04202132
54	0xbdbe3745	-0.092878856
55	0xbdbaa2f8	-0.09113115
56	0xbd2f37b1	-0.04277772
57	0xbcb81265	-0.022469709
58	0xbcdc0566	-0.026858043
59	0x3c97fc2c	0.018552862
60	0xbe02f714	-0.12789565
61	0x3da71049	0.08157403
62	0xbd7d9e1b	-0.06191836
63	0x3d217832	0.039421268

exp_avg f4 [64, 3]
0	0xbc1baca0	-0.009501606
1	0x3ac50313	0.0015030823
2	0x3b3af3d3	0.0028526678
3	0xbc5daf17	-0.013530514
4	0x37e68e40	2.7484377e-05
5	0xbc02547e	-0.007954715
6	0x3d187497	0.037220564
7	0xb9861799	-0.00025576053
8	0x3c90c358	0.017671272
9	0xbb403f50	-0.0029334612
10	0x3a9f3dc7	0.0012149148
11	0x3b7ef3fa	0.0038902746
12	0x3cdf734a	0.027276654
13	0xba0ff206	-0.00054910814
14	0x3b6c8050	0.0036087222
15	0xbd3b13da	-0.04567323
16	0xbb6612ab	-0.0035106342
17	0xbc84bc24	-0.016202994
18	0xbc55cdbb	-0.013049538
19	0xb976a876	-0.00023523145
20	0xbb5a69b6	-0.0033327169
21	0xbc4fb00e	-0.012676252
22	0x3b2c9b70	0.0026337765
23	0x3c38f2b5	0.011288335
24	0x3d033712	0.03203494
25	0x3b1e6d11	0.0024173895
26	0x3c580483	0.013184669
27	0xbbc35e9d	-0.0059622065
28	0x3a89628f	0.0010481643
29	0x3a61cdc6	0.00086137315
30	0x3c2438f7	0.010023347
31	0x3a8c6c84	0.0010713493
32	0xbc1e49ee	-0.009661181
33	0xbc7e47a3	-0.015520009
34	0x3ae1a071	0.0017213953
35	0x3bf855a9	0.007578571
36	0xbc7fac5c	-0.0156050585
37	0xb9117f82	-0.00013875778
38	0xbbad128c	-0.005281752
39	0x3cb36c38	0.021902189
40	0x3add8b06	0.0016902394
41	0x3b972342	0.0046123574
42	0xbd0078b1	-0.0313651
43	0xbb61eae1	-0.0034472274
44	0xbc6a0630	-0.014283702
45	0xbc9f8c7f	-0.019476173
46	0xbb23f808	-0.0025019664
47	0xbb760038	-0.0037536751
48	0xbd21dc16	-0.03951653
49	0xbb9100eb	-0.0044251583
50	0xbc6d4b7e	-0.014483331
51	0xbd1a84f1	-0.03772444
52	0xbb47d244	-0.0030490318
53	0xbca53625	-0.02016742
54	0xbbc0835f	-0.0058750357
55	0x3ad09a6c	0.0015915162
56	0x3c2bb8b4	0.010481048
57	0x396a4cda	0.00022344608
58	0xbaa3c310	-0.0012494046
59	0x3c2df367	0.010617114
60	0x3d63baad	0.05559795
61	0x3ade5052	0.0016961193
62	0x3cc44fc6	0.02396382
63	0xbdd9c2f2	-0.10632886
64	0xbbcd8aab	-0.006272634
65	0xbd5d15e3	-0.05397595
66	0xbcd92901	-0.02650881
67	0x3a647610	0.00087151024
68	0x3b97ec8c	0.004636353
69	0x3c0e0c64	0.008669946
70	0xba06f6ff	-0.00051484996
71	0xb91befb5	-0.0001487125
72	0x3cd4a798	0.025958821
73	0x3ac9adb2	0.0015386848
74	0x3bd71475	0.006563718
75	0xbaeb3609	-0.0017945181
76	0xbaa101ed	-0.0012283899
77	0xbb13635e	-0.0022489647
78	0xbcd72385	-0.026262054
79	0xbb39ab91	-0.0028331021
80	0x3a8cdd68	0.0010747137
81	0x3d843731	0.064558394
82	0x3b0a7883	0.002112896
83	0x3cb24d55	0.02176539
84	0xbce488ee	-0.027897324
85	0xbb47e7c1	-0.0030503126
86	0xbbc36cdd	-0.0059639052
87	0x3c8bb147	0.017052306
88	0x3a0b0ec2	0.0005304628
89	0xbc145aa0	-0.00905481
90	0xbc581bd4	-0.0131902285
91	0x3a8b4e72	0.0010628237
92	0xbbdbb14e	-0.006704486
93	0xbc3c41c7	-0.011490292
94	0x3ab6ddc2	0.0013951587
95	0x3b663671	0.0035127664
96	0xbc3e94fc	-0.0116322
97	0xbb04efcd	-0.0020284534
98	0xbb18fd77	-0.0023344436
99	0xbc839781	-0.016063454
100	0x39cf4cdf	0.0003953939
101	0x3a9fd713	0.0012194834
102	0xbc07209c	-0.008247521
103	0xbb333dda	-0.0027350099
104	0x3b1a27e0	0.0023522303
105	0xbcb0022a	-0.021485407
106	0x3a5e04bf	0.0008469335
107	0xbbc23931	-0.005927228
108	0x3d021ccd	0.031765748
109	0x3b3e751b	0.00290615
110	0x3c05066e	0.008119209
111	0x3d8d316b	0.06894191
112	0x3b4db859	0.0031390397
113	0x3cfb7f45	0.030700335
114	0x3d30ac5c	0.043133125
115	0x3a06516d	0.0005123828
116	0x3cc2ccd9	0.02377932
117	0x3bb4d076	0.0055180145
118	0x3a7c2e65	0.00096199504
119	0xb996e909	-0.00028783854
120	0xbace96c3	-0.0015761483
121	0x3a66964a	0.00087961985
122	0xbbceacb6	-0.00630721
123	0x3d2373a9	0.039905224
124	0x3ae6fb2f	0.0017622466
125	0xbaff7d4f	-0.0019492301
126	0xbc91b778	-0.01778768
127	0xbaeb4fdf	-0.0017952881
128	0xbbdf8617	-0.0068214047
129	0xbd231e3a	-0.03982375
130	0xbb9b9ba5	-0.004748779
131	0xbcd6842e	-0.026186075
132	0xbc6de023	-0.01451877
133	0x3a47b299	0.00076178607
134	0xbb8d4fb6	-0.004312481
135	0x3cf0639b	0.02934437
136	0x3accf0d5	0.0015635738
137	0x3c53716d	0.012905461
138	0xbcbca8b1	-0.023029657
139	0xbb03429c	-0.0020028716
140	0xbc49b502	-0.012311222
141	0x3cbf55f2	0.023356412
142	0xbaad5dd4	-0.0013226815
143	0x3c411eda	0.011787141
144	0x3c2c0572	0.010499345
145	0x3ac63081	0.0015120656
146	0xb95472c2	-0.00020260646
147	0x3cd98485	0.026552448
148	0x3b7347f0	0.0037121736
149	0x3c189cb2	0.009314703
150	0xbc6012c0	-0.013676345
151	0xbad91a2c	-0.0016563586
152	0xbb4d0dbe	-0.0031288709
153	0xbba14bd6	-0.0049223704
154	0xba0c61b9	-0.0005355138
155	0xb990b403	-0.0002759994
156	0x3b6524e8	0.0034964625
157	0xbb00ebc5	-0.001967178
158	0x3c203475	0.009778132
159	0xbb984e9f	-0.0046480442
160	0x3a00250b	0.00048883323
161	0x3ae60129	0.0017547953
162	0x3db7a5fd	0.089672066
163	0x3bb9ce37	0.0056703347
164	0x3d03d25c	0.032183036
165	0x3b4193ad	0.0029537485
166	0x39afa895	0.00033504204
167	0xbbb8f3ed	-0.0056443126
168	0x3c5f9f68	0.013648845
169	0xba4f5c2e	-0.0007910159
170	0xba88a5b9	-0.0010425366
171	0xbb581f18	-0.0032977518
172	0x39f50bf4	0.00046738947
173	0xbba791ae	-0.005113802
174	0x3da967f0	0.08271778
175	0x3b1cccd0	0.0023925789
176	0xba433e22	-0.0007447918
177	0x3c1effb1	0.009704516
178	0x3abd9d11	0.0014466365
179	0xbb583dac	-0.0032995744
180	0x3cc70168	0.024292663
181	0x3b65cb8d	0.0035063953
182	0x3c4a07ac	0.012330931
183	0xbc08d72e	-0.008352084
184	0x377edd09	1.51910435e-05
185	0x3a4cf823	0.00078189577
186	0xbb83771b	-0.004012001
187	0x3a1533bd	0.00056916085
188	0x3a3198cb	0.0006774782
189	0xbc9153d2	-0.017740164
190	0xbb151dd5	-0.0022753377
191	0xbb84c8ee	-0.004052273

exp_avg_sq f4 [64, 3]
0	0x389e2a13	7.541864e-05
1	0x36639c2c	3.391654e-06
2	0x398a1ba9	0.0002634202
3	0x39dba2c6	0.0004189221
4	0x378f1724	1.7057704e-05
5	0x3a93c57d	0.0011274066
6	0x39f64e61	0.00046979173
7	0x38106fdc	3.4436453e-05
8	0x3b001d89	0.0019548854
9	0x38772a21	5.8928625e-05
10	0x3645ce2c	2.9475295e-06
11	0x394b2d21	0.000193764
12	0x39a251a6	0.0003095988
13	0x38280545	4.005923e-05
14	0x3b2256c5	0.0024770957
15	0x3b19f3d2	0.0023491275
16	0x38f79a37	0.000118066026
17	0x3bc164d6	0.005901913
18	0x38a7b9e0	7.9978025e-05
19	0x369fb65c	4.7597987e-06
20	0x39c09753	0.0003673384
21	0x3a30d072	0.0006744928
22	0x3811def3	3.477833e-05
23	0x3b29ce69	0.0025910384
24	0x3a304100	0.0006723553
25	0x37a81ded	2.0041096e-05
26	0x3a2c65f3	0.0006576471
27	0x397a1fb6	0.00023853671
28	0x37465475	1.1821384e-05
29	0x3a4a49d0	0.00077166874
30	0x3985debf	0.00025533696
31	0x37df6a38	2.6633134e-05
32	0x3aef1804	0.001824141
33	0x3a05105b	0.00050759845
34	0x37926846	1.7453112e-05
35	0x3a9e070a	0.0012056541
36	0x38be379f	9.070266e-05
37	0x3695f241	4.468748e-06
38	0x39ac3120	0.00032842997
39	0x3a386c89	0.0007035216
40	0x379b4ae1	1.8512308e-05
41	0x3a656d59	0.0008751951
42	0x3a57200c	0.00082063745
43	0x381f768a	3.8018952e-05
44	0x3ac46969	0.0014985028
45	0x392eed48	0.00016682327
46	0x36905d0f	4.302368e-06
47	0x38d28f5a	0.000100402816
48	0x3a9db7ae	0.001203289
49	0x386d622f	5.6596644e-05
50	0x3b16c1dc	0.0023003733
51	0x3af24ead	0.0018486582
52	0x38afcd90	8.382939e-05
53	0x3b7bc8a0	0.0038419142
54	0x389fefd5	7.626383e-05
55	0x36a090e9	4.7852413e-06
56	0x39f492a5	0.00046648565
57	0x382c7364	4.111546e-05
58	0x3767ad8c	1.380908e-05
59	0x3a840eff	0.001007527
60	0x3afdf029	0.0019373941
61	0x38900a12	6.868331e-05
62	0x3b723d63	0.003696286
63	0x3bb70c98	0.005586218
64	0x396cd343	0.00022585415
65	0x3c1fc3c6	0.009751266
66	0x3a890322	0.0010453204
67	0x381ab690	3.6886486e-05
68	0x3b1d10bc	0.0023966273
69	0x38380dc9	4.3881857e-05
70	0x37292f9b	1.0084269e-05
71	0x3a2b50d1	0.0006535175
72	0x39df3b1f	0.00042577923
73	0x3736b4b7	1.0890121e-05
74	0x39e6bd95	0.00044010268
75	0x38b90b20	8.8235596e-05
76	0x36a67fc2	4.9620585e-06
77	0x394edfcc	0.00019729062
78	0x3a3dbf50	0.00072382856
79	0x38229837	3.876557e-05
80	0x3af709ee	0.0018847564
81	0x3b3ade77	0.0028513947
82	0x38ff848a	0.00012184035
83	0x3bcaae28	0.006185312
84	0x39c2dadb	0.00037165624
85	0x37c6e4e2	2.3710021e-05
86	0x3a680eab	0.00088522834
87	0x3a0d9c0f	0.00054019777
88	0x37f89ea1	2.9637771e-05
89	0x3b203a52	0.0024448824
90	0x392674a9	0.00015874453
91	0x36508480	3.107154e-06
92	0x395c3154	0.00020999211
93	0x3a0adf50	0.00052975584
94	0x37d81ebf	2.5763524e-05
95	0x3ae46ac5	0.0017426839
96	0x390ee1c9	0.00013626287
97	0x36d98b8d	6.48335e-06
98	0x3985370a	0.00025408744
99	0x396e88d6	0.00022748424
100	0x36fc72bd	7.5235425e-06
101	0x39fdfa84	0.0004844257
102	0x3908c303	0.00013042618
103	0x370b9823	8.320468e-06
104	0x39809240	0.00024523027
105	0x39ad1591	0.000330132
106	0x36c6a1a4	5.9196773e-06
107	0x39c00e93	0.00036631952
108	0x3a7bb264	0.00096014724
109	0x37b71912	2.1826974e-05
110	0x3a5082b3	0.0007954046
111	0x3b9c7521	0.004774705
112	0x390c3b32	0.00013373492
113	0x3bcb1bf7	0.006198402
114	0x3a446a3c	0.0007492637
115	0x38279323	3.9952934e-05
116	0x3b126035	0.0022335176
117	0x3736dae8	1.0899013e-05
118	0x34d36cc9	3.9380964e-07
119	0x376db318	1.4167999e-05
120	0x38152bb9	3.556509e-05
121	0x36902791	4.2961406e-06
122	0x396e8736	0.00022747819
123	0x3aedc8a1	0.0018141457
124	0x38ec3560	0.00011263299
125	0x3bc68b8f	0.006059117
126	0x398f9782	0.00027387968
127	0x37b4c453	2.1549093e-05
128	0x3a692232	0.000889334
129	0x3b004837	0.0019574293
130	0x38927852	6.984234e-05
131	0x3b2b04d3	0.0026095405
132	0x3a0bdca5	0.0005335308
133	0x378f38bf	1.7073353e-05
134	0x3a8cc054	0.0010738471
135	0x3a710f1d	0.00091956725
136	0x38947d8e	7.080576e-05
137	0x3b90e430	0.0044217333
138	0x3a25845f	0.00063139753
139	0x381d301b	3.747652e-05
140	0x3ae75a33	0.0017650783
141	0x392d1729	0.00016507194
142	0x37a7abc4	1.9987936e-05
143	0x3aa551c1	0.0012612866
144	0x39065e02	0.00012814256
145	0x365c7459	3.2850278e-06
146	0x38b3b11f	8.5683765e-05
147	0x3aa96a11	0.0012925287
148	0x37e38cbb	2.7126041e-05
149	0x3a86ff5f	0.0010299495
150	0x39814fc0	0.00024664216
151	0x373cbce9	1.1249657e-05
152	0x39e7f7d4	0.000442444
153	0x37b0b9c6	2.1067342e-05
154	0x358d8297	1.0543325e-06
155	0x37fe884b	3.0342626e-05
156	0x380dbfae	3.3795535e-05
157	0x3760739c	1.3378358e-05
158	0x3a46fcd6	0.0007590776
159	0x37b39a39	2.1410278e-05
160	0x36070c14	2.0123598e-06
161	0x393055b0	0.00016816589
162	0x3c0d77bc	0.008634504
163	0x395e9f85	0.00021230995
164	0x3c0f9e1d	0.0087657245
165	0x378e8c5f	1.6993085e-05
166	0x35455506	7.3511944e-07
167	0x37f8d664	2.9663737e-05
168	0x38b619cd	8.683242e-05
169	0x37452899	1.1751567e-05
170	0x3a6d5fd0	0.00090551097
171	0x37b6776f	2.1751706e-05
172	0x3580b820	9.590331e-07
173	0x3862718f	5.398836e-05
174	0x3bf09755	0.007342259
175	0x3a01a218	0.00049451133
176	0x3cf10ebc	0.029425971
177	0x39595e2f	0.00020729819
178	0x37096df7	8.1914395e-06
179	0x39a1106b	0.00030720545
180	0x3acf4477	0.0015813251
181	0x38349487	4.305367e-05
182	0x3ac7dedd	0.0015248914
183	0x38c2e1ae	9.292677e-05
184	0x369f9999	4.7564504e-06
185	0x39a4e548	0.00031451345
186	0x36c8ce1e	5.9844597e-06
187	0x350b20a3	5.182903e-07
188	0x3811e1fb	3.4781155e-05
189	0x3974c6f2	0.00023343766
190	0x3717b60c	9.042687e-06
191	0x398ce933	0.00026876628

exp_avg f4 [64]
0	0xbc67233b	-0.014107521
1	0xbc426d14	-0.011866827
2	0x3d0827ee	0.033241205
3	0xbc10b928	-0.008833207
4	0x3c9728f0	0.018452138
5	0xbd287953	-0.04113133
6	0xbc422d63	-0.011851641
7	0xbcc88402	-0.024477009
8	0x3d15bbba	0.036555983
9	0xbc50c1d5	-0.012741526
10	0x3c0ed5f3	0.008718002
11	0xbcafc735	-0.021457294
12	0xbc7a256e	-0.015267713
13	0x3ce2734a	0.027642865
14	0xbccb5cc0	-0.0248245
15	0xbc93c1db	-0.018036773
16	0xbd068c38	-0.032848567
17	0xbd058497	-0.03259715
18	0xbc4add03	-0.012381795
19	0xbbe0dcb4	-0.0068622474
20	0x3d5ef048	0.05442837
21	0xbdb2d508	-0.08732039
22	0xbd037a31	-0.032098953
23	0x3bc43a01	0.00598836
24	0x3cf1b63f	0.029505847
25	0xb8ef2043	-0.00011402417
26	0xbcfae113	-0.030624902
27	0x3d992209	0.07477195
28	0xbcae59b4	-0.021283008
29	0x3cb98310	0.022645503
30	0xbc7cfe14	-0.015441436
31	0xbcb626f5	-0.022235373
32	0xbbf6fc04	-0.007537367
33	0xbcb381eb	-0.021912536
34	0xbc480286	-0.012207633
35	0xbcba2666	-0.022723388
36	0x3d285b60	0.041102767
37	0x3db0d548	0.0863443
38	0x3d1e33da	0.03862367
39	0x3bb7af50	0.0056056157
40	0xba698661	-0.00089082686
41	0x3d18d089	0.03730825
42	0xbc4294f3	-0.011876333
43	0xbcfd302a	-0.030906755
44	0xbca1fa6b	-0.019772729
45	0x3cb93872	0.022609923
46	0xbc744479	-0.014908903
47	0x3c8f24c0	0.017473578
48	0x3c600326	0.013672626
49	0x3d116432	0.035495944
50	0xbc2f671d	-0.0107057365
51	0xbba38086	-0.0049896864
52	0xbb1ec0ed	-0.002422388
53	0xbc0421fc	-0.008064743
54	0x3df0aeac	0.11752066
55	0x3b6549a8	0.003498653
56	0x3c1b4e9b	0.00947919
57	0xbb257977	-0.00252494
58	0x3d9abbca	0.07555349
59	0x3c851609	0.016245859
60	0x3cfc551c	0.030802302
61	0xbc033d6f	-0.008010252
62	0xbbd8f8a0	-0.0066214353
63	0xbc896495	-0.016771594

exp_avg_sq f4 [64]
0	0x38bbebc4	8.9607696e-05
1	0x3a082d61	0.000519475
2	0x3a22f7a6	0.0006216712
3	0x388b30eb	6.637148e-05
4	0x3a019bf3	0.0004944198
5	0x3b3e348a	0.0029023015
6	0x38d6f2dd	0.00010249552
7	0x3a4fc34c	0.0007925525
8	0x3a41325c	0.000736987
9	0x398f41ba	0.00027324056
10	0x39b8618d	0.00035167896
11	0x3a16988f	0.0005744779
12	0x38ea5f2d	0.000111757174
13	0x3a49c64c	0.000769709
14	0x3a83b373	0.0010047987
15	0x393d4192	0.00018048871
16	0x3abe0001	0.0014495851
17	0x3b154e4c	0.0022782264
18	0x38c7e43c	9.5315714e-05
19	0x38a91ac6	8.063535e-05
20	0x3b15fdde	0.0022886912
21	0x3bddf88f	0.0067740153
22	0x3a9c36de	0.0011918207
23	0x38af38a9	8.355204e-05
24	0x39f3ecec	0.00046525092
25	0x38ebd8e2	0.00011246071
26	0x3a5cc091	0.00084210286
27	0x3b580aec	0.0032965494
28	0x39f48718	0.0004663996
29	0x3a2c3852	0.00065696717
30	0x3933daaf	0.00017152236
31	0x3a20fc8c	0.0006141148
32	0x3935ce0a	0.0001733826
33	0x3988405a	0.00025987887
34	0x390fd7c2	0.00013717919
35	0x39bd75bc	0.00036136608
36	0x3a86dfcb	0.0010290084
37	0x3baba362	0.0052379826
38	0x3a770319	0.0009422764
39	0x3748573a	1.1941238e-05
40	0x384b606c	4.848877e-05
41	0x3b181e36	0.0023211366
42	0x39c35c55	0.0003726209
43	0x3b18ab78	0.0023295563
44	0x3a1ab29f	0.00059012504
45	0x3aa22001	0.0012369157
46	0x3a5c143f	0.0008395351
47	0x398626bd	0.00025587334
48	0x390e62cb	0.00013578979
49	0x3ab335b8	0.0013672626
50	0x399e1ba9	0.00030156717
51	0x37cd11d9	2.4446215e-05
52	0x389653a2	7.168135e-05
53	0x37f307c4	2.8971474e-05
54	0x3c18f60f	0.009336009
55	0x379569c8	1.7811442e-05
56	0x391dc6e6	0.00015046782
57	0x37dc5967	2.6267675e-05
58	0x3c1cf391	0.009579555
59	0x396d5779	0.00022634667
60	0x3ae0aa36	0.001714057
61	0x38efcd76	0.00011434678
62	0x370aa560	8.263945e-06
63	0x398bb22c	0.00026644894

exp_avg f4 [64]
0	0x3b606b6d	0.0034243718
1	0xbb65c99d	-0.0035062798
2	0xbcf0aa4c	-0.029378079
3	0x3c4ba7ff	0.01243019
4	0xbd0b5477	-0.0340161
5	0xbcb8ad67	-0.022543622
6	0x3b401eae	0.0029315162
7	0x3cf1e980	0.029530287
8	0x3cf79190	0.030220777
9	0x3c848c8f	0.016180305
10	0xbc7c4738	-0.015397839
11	0x3ca8ed6d	0.020621026
12	0x3af39c01	0.0018585921
13	0xbb4be692	-0.0031112772
14	0xbc00f91d	-0.007871893
15	0xbac139c2	-0.0014741945
16	0xbc43b6c7	-0.011945433
17	0xbc093dbd	-0.008376536
18	0x3c57e155	0.013176282
19	0xbae60ab6	-0.00175508
20	0x391bbf79	0.00014853281
21	0xbc996b54	-0.018727936
22	0x3c50c913	0.012743252
23	0xbc0093e0	-0.007847756
24	0x3c269461	0.010167212
25	0x3aab8d39	0.0013088352
26	0xbb16a8b1	-0.0022988732
27	0x3d0fdb2b	0.035121124
28	0xbb8895a4	-0.004168229
29	0xbc8d52a6	-0.017251324
30	0xba6449b0	-0.000870849
31	0x3cc71fd6	0.024307173
32	0xba9134fb	-0.0011078411
33	0x3c608376	0.013703218
34	0xbaf3d00f	-0.0018601435
35	0x37b796be	2.1885495e-05
36	0x3b145875	0.0022635732
37	0x3c6a0c20	0.014285117
38	0x3b93a4ce	0.0045057302
39	0xb8d16fe6	-9.986739e-05
40	0x3b02975f	0.001992665
41	0xbc4cc3da	-0.0124978665
42	0xbb9b757d	-0.0047442303
43	0xbd2deb6c	-0.042460844
44	0x3c40b7ec	0.0117626
45	0x389cd103	7.477591e-05
46	0xbc42fef4	-0.011901606
47	0xbc8e4efd	-0.017371649
48	0xbb01ca4b	-0.0019804414
49	0xbac37a38	-0.0014913743
50	0xbb9edc36	-0.0048480285
51	0x3a5fa1cd	0.0008530885
52	0xbb0a3b5e	-0.0021092515
53	0x3b7b901c	0.0038385456
54	0xbc33982e	-0.010961575
55	0x3b953a1b	0.004554046
56	0xbc72dfaf	-0.014823838
57	0x39e0130c	0.000427388
58	0xbca1c557	-0.01974742
59	0xbba3850d	-0.004990226
60	0xbbc2ce4c	-0.0059450027
61	0x3b62f057	0.0034628117
62	0x3b18bd1e	0.0023306082
63	0xb7a845f3	-2.0059733e-05

exp_avg_sq f4 [64]
0	0x37480788	1.19226825e-05
1	0x385d21ed	5.2722102e-05
2	0x3a4e2d82	0.00078650576
3	0x390a0488	0.00013162394
4	0x3a43a44c	0.0007463142
5	0x3a211eee	0.00061462715
6	0x3719560d	9.139546e-06
7	0x3a9250b0	0.0011162963
8	0x3aa607fb	0.0012667173
9	0x39cb6285	0.0003879258
10	0x3a0d668e	0.0005394005
11	0x3a020a8a	0.0004960677
12	0x3702ffff	7.808208e-06
13	0x379f672d	1.9002322e-05
14	0x393fd239	0.00018293493
15	0x37c4e371	2.3470931e-05
16	0x39aaaabd	0.00032552137
17	0x38b7161e	8.73024e-05
18	0x390765e6	0.00012912563
19	0x3717200c	9.007763e-06
20	0x395bb7c1	0.00020953921
21	0x398d92d5	0.00027003014
22	0x39a79c86	0.0003196934
23	0x37e73a46	2.7564482e-05
24	0x3927d27b	0.00016004771
25	0x37026b6d	7.773616e-06
26	0x38523470	5.0116738e-05
27	0x3a8a0435	0.0010529818
28	0x38b2e7d4	8.530883e-05
29	0x39c64c1f	0.00037822218
30	0x378ed09d	1.7024862e-05
31	0x3a15fa92	0.0005721237
32	0x37a157a4	1.9233506e-05
33	0x39027552	0.00012441471
34	0x38166545	3.58571e-05
35	0x380e543e	3.3933895e-05
36	0x393c04f9	0.0001793093
37	0x3a2bb14f	0.00065495534
38	0x3a326897	0.0006805746
39	0x373008ca	1.0492464e-05
40	0x377e0b1a	1.5142165e-05
41	0x3917854d	0.0001445014
42	0x389ddc10	7.527333e-05
43	0x3b0a98b5	0.002114815
44	0x3987233f	0.00025775467
45	0x36d16bb0	6.241222e-06
46	0x398680ac	0.0002565434
47	0x395f021b	0.00021267722
48	0x37c3b4d8	2.3330023e-05
49	0x39c091c9	0.00036729712
50	0x38581508	5.1518e-05
51	0x36106641	2.1517192e-06
52	0x37182efa	9.070844e-06
53	0x36d1be8d	6.2508684e-06
54	0x39032bd7	0.00012509465
55	0x37a86d7c	2.0078143e-05
56	0x38ea4fd4	0.00011172859
57	0x360d4acc	2.1054175e-06
58	0x39afb521	0.00033513553
59	0x37aafc95	2.0383197e-05
60	0x39189492	0.00014551196
61	0x3806e60b	3.2162334e-05
62	0x36cd4e62	6.118601e-06
63	0x370f0af0	8.526011e-06

exp_avg f4 [64]
0	0xbc1c6ba0	-0.009547144
1	0xbb84b502	-0.004049898
2	0x3ce343b6	0.027742248
3	0xbc431158	-0.011905991
4	0x3cb06686	0.021533262
5	0xbc89c79b	-0.016818812
6	0xbb9b3d12	-0.0047375048
7	0xbcf320ac	-0.029678665
8	0x3c800118	0.015625522
9	0xbc6db2f7	-0.014508001
10	0x3c56eee6	0.013118481
11	0xbcb28875	-0.021793583
12	0xbbb5c41a	-0.005547059
13	0x3c946c6c	0.018118106
14	0xbc22a417	-0.009926817
15	0xbba2a83a	-0.004963902
16	0xbc5e1d31	-0.013556764
17	0xbc4e4138	-0.012588792
18	0xbc55b0e5	-0.013042663
19	0xba93483c	-0.0011236737
20	0x3ce2b60f	0.027674703
21	0xbd09c3ca	-0.033633985
22	0xbcb93693	-0.02260903
23	0x3be3c4ec	0.006950965
24	0x3c760b1a	0.015017295
25	0x3adc0417	0.0016785887
26	0xbc28434a	-0.010269949
27	0x3d0636fb	0.032767277
28	0xbbcdde66	-0.0062826155
29	0x3cb3bab9	0.021939622
30	0xbbb966d2	-0.005658009
31	0xbcc3684f	-0.02385345
32	0xba65710c	-0.0008752502
33	0xbc845e3a	-0.016158212
34	0xbb723434	-0.0036957385
35	0xbc2f7720	-0.010709554
36	0x3ca40943	0.020023948
37	0x3d1c6ab1	0.038187686
38	0x3c9da867	0.01924534
39	0x3bb14523	0.005409853
40	0x3a9ebe84	0.0012111221
41	0x3cd49829	0.025951462
42	0xbb55cf39	-0.0032624735
43	0xbc7a5a4c	-0.0152803175
44	0xbc70995b	-0.014685
45	0x3c496000	0.012290955
46	0xbbc20b08	-0.005921725
47	0x3c67c042	0.014144959
48	0x3c2384de	0.0099804085
49	0x3c9ca87e	0.019123312
50	0xbb5eef03	-0.0034016974
51	0xb9981a27	-0.00029011184
52	0x3a7d4ed6	0.00096629316
53	0xbba8a84e	-0.0051470166
54	0x3d593891	0.05303246
55	0x3b51d273	0.0032016307
56	0x3c2c36e4	0.010511134
57	0x3ab8ebe8	0.0014108391
58	0x3d39a118	0.045319647
59	0x3c4ec68a	0.012620578
60	0x3ca9f5fa	0.020747174
61	0xbb53b939	-0.0032306446
62	0xbb8077e9	-0.0039205444
63	0xbba479be	-0.0050193956

exp_avg_sq f4 [64]
0	0x3794be67	1.7731638e-05
1	0x38ae22da	8.303458e-05
2	0x3a29bb83	0.000647478
3	0x3890e157	6.908428e-05
4	0x3a34da57	0.000689899
5	0x3a1264a3	0.0005584454
6	0x37cea013	2.4631654e-05
7	0x3a471c48	0.0007595462
8	0x399e4825	0.0003018986
9	0x397da23b	0.00024188396
10	0x3a1934e8	0.00058443705
11	0x39dd8eb5	0.0004225873
12	0x3787102e	1.6100788e-05
13	0x39a336b4	0.0003113054
14	0x39445bd8	0.00018726231
15	0x37deb754	2.6549831e-05
16	0x398f3156	0.00027311844
17	0x39d75985	0.00041074693
18	0x38b2dbc8	8.528639e-05
19	0x389ef8cd	7.58037e-05
20	0x3a58ea42	0.0008274653
21	0x3ac650a3	0.0015130233
22	0x3a02857b	0.00049789966
23	0x38e40c5e	0.00010874191
24	0x394bd69b	0.00019439535
25	0x371d9a67	9.393879e-06
26	0x3928eedf	0.00016110715
27	0x3a73d97d	0.00093021226
28	0x38b319d5	8.540197e-05
29	0x3a219795	0.000616425
30	0x37e3bba3	2.7147884e-05
31	0x39ec7b43	0.00045105265
32	0x37b507c5	2.15805e-05
33	0x3910ea55	0.00013820206
34	0x38091eaf	3.269192e-05
35	0x38a67937	7.938075e-05
36	0x39b65dd4	0.00034783653
37	0x3ac94827	0.0015356586
38	0x39e1ca43	0.0004306604
39	0x37e3518e	2.7098486e-05
40	0x37848534	1.5797654e-05
41	0x3a8e40c2	0.001085304
42	0x389f1564	7.585695e-05
43	0x39cdfe51	0.00039290127
44	0x39968d1d	0.00028715367
45	0x3a07bb71	0.0005177772
46	0x39225506	0.00015481198
47	0x3986d5a6	0.00025717652
48	0x38cf9de9	9.899942e-05
49	0x3a0118a7	0.0004924633
50	0x3824aa5b	3.9259303e-05
51	0x365858ed	3.223827e-06
52	0x388ba352	6.658457e-05
53	0x36e8136f	6.916401e-06
54	0x3b09e239	0.002103938
55	0x36e78d4f	6.900787e-06
56	0x396035c8	0.0002138234
57	0x368089c6	3.830736e-06
58	0x3b65b0ee	0.0035048085
59	0x39016f97	0.00012343969
60	0x3a402d0c	0.0007330931
61	0x3843baa9	4.6665464e-05
62	0x36ed6d1f	7.075854e-06
63	0x380ae6af	3.3116605e-05
