weights/2024-06-27_16-01-47/actor.pt (torch, 22551 bytes, 9 tensors)

mu_network.0.weight f4 [64, 3]
0.3747169 0.5098289 -0.119906195 0.096562855 0.29953122 -0.39726567 0.32877374 -0.021256655
0.49937573 -0.0018232209 0.5366713 -0.1837762 -0.55441743 -0.07359998 0.45230943 0.5090382
-0.34395483 0.48787183 0.42304665 0.45273605 0.4038206 0.48746243 -0.005049968 -0.2668786
0.101522274 0.404008 -0.33058515 0.38835365 0.13519984 0.068291664 0.23454478 -0.4532447
-0.12898222 -0.11807544 -0.3575881 -0.13826808 0.4622882 -0.3964653 0.010901515 -0.54067874
0.12284552 -0.37236136 -0.10889542 0.1816437 0.11615066 0.3693952 0.51468605 0.5690314
-0.25270897 -0.20202199 0.36415225 -0.2521524 -0.116138 -0.17719497 -0.35229343 0.3480546
-0.19372548 -0.14825189 -0.46904644 0.19919112 -0.029275244 -0.40485972 -0.08024446 0.053674027
0.3898899 -0.24363981 0.11978341 0.5634263 0.5427403 0.46490604 -0.3006163 -0.51350754
0.12907526 -0.16394915 0.14721395 -0.0703062 -0.28259617 0.49223256 0.3383323 0.3443361
0.4676009 -0.22568929 0.37708202 0.32852665 0.4781895 0.22197375 -0.4277717 -0.009912975
0.29700306 -0.22658615 -0.1496607 -0.032729253 -0.020033972 -0.010149666 0.1389637 -0.3288392
0.2792933 -0.0768674 -0.49499312 -0.264374 0.47503614 -0.3586214 0.4833487 -0.40575647
0.046303432 0.17636217 0.3754148 -0.41912213 -0.11973441 0.23364067 -0.027326725 -0.20529264
-0.13353105 -0.53139395 0.3312361 -0.03725618 0.46330437 0.13033003 -0.3207087 -0.34527948
0.07502914 0.43728808 -0.06312294 -0.37764823 0.044158895 -0.11749469 -0.4339124 -0.5512148
0.071592815 0.29065108 0.56552494 0.3009389 -0.53886986 -0.5759093 0.4392965 -0.46351948
0.31064683 0.5175975 0.5171831 -0.4898968 0.49819008 -0.23415077 -0.24814945 -0.50245965
0.45171067 0.16954233 -0.19013493 -0.5629158 -0.3185047 0.058914196 0.12043209 0.45759466
-0.46897972 -0.39493468 -0.044431105 0.19289565 -0.36423287 -0.56475604 0.14667402 -0.16840664
0.3130571 0.37148717 -0.5372241 0.5415255 0.45153958 -0.17442143 0.17608482 -0.48408794
0.46281058 -0.27609956 0.10289177 -0.42085868 0.2648846 -0.00014883469 0.52149636 -0.18455827
-0.09436552 -0.026455803 -0.34700653 -0.24240962 -0.097055025 0.4103645 -0.22452813 0.43165755
0.45970017 -0.38891006 -0.1601526 0.55739385 0.08140995 0.14669542 0.23310138 0.31276545
00000000: e5da bf3e 2684 023f 6191 f5bd bfc2 c53d
00000010: 285c 993e 6866 cbbe 0855 a83e 7022 aebc
00000020: 2dae ff3e 24f9 eeba 4a63 093f d42f 3cbe
00000030: 4dee 0dbf 96bb 96bd 1a95 e73e 5450 023f
00000040: d91a b0be 56ca f93e 9299 d83e 05cd e73e
00000050: 93c1 ce3e ad94 f93e 347a a5bb 50a4 88be
00000060: e9ea cf3d 23da ce3e 7542 a9be 4ad6 c63e
00000070: d471 0a3e 80dc 8b3d 822c 703e b00f e8be
00000080: ea13 04be 89d1 f1bd ca15 b7be 2696 0dbe
00000090: 0ab1 ec3e 80fd cabe 459c 323c ec69 0abf
000000a0: 6f96 fb3d 26a6 bebe 9004 dfbd ce00 3a3e
000000b0: 66e0 ed3d 5e21 bd3e 77c2 033f 0bac 113f
000000c0: 1263 81be dade 4ebe 2a72 ba3e 1f1a 81be
000000d0: c2d9 edbd 9972 35be ce5f b4be 3634 b23e
000000e0: f95f 46be 58cf 17be db26 f0be c2f8 4b3e
000000f0: a3d2 efbc c649 cfbe 3557 a4bd 4cd9 5b3d
00000100: a69f c73e b77c 79be 0151 f53d b53c 103f
00000110: 07f1 0a3f 2a08 ee3e 61ea 99be 3b75 03bf
00000120: 4e2c 043e 49e2 27be 41bf 163e b2fc 8fbd
00000130: 72b0 90be e805 fc3e e439 ad3e d24c b03e
00000140: 6369 ef3e 181b 67be e510 c13e a534 a83e
00000150: 41d5 f43e 164d 633e e404 dbbe 086a 22bc
00000160: c910 983e 3306 68be a840 19be 1c0f 06bd
00000170: 491e a4bc c94a 26bc 804c 0e3e 9d5d a8be
00000180: 88ff 8e3e a86c 9dbd bd6f fdbe 075c 87be
00000190: f037 f33e 399d b7be 7b79 f73e 50bf cfbe
000001a0: aba8 3d3d 4998 343e 5e36 c03e 2d97 d6be
000001b0: 5037 f5bd 803f 6f3e 4cdc dfbc 3c38 52be
000001c0: 5dbc 08be 6f09 08bf c797 a93e f099 18bd
000001d0: 3b36 ed3e 3c75 053e ee33 a4be 79c8 b0be
000001e0: e1a8 993d 39e4 df3e 9a46 81bd 1c5b c1be
000001f0: f5df 343d 0ea1 f0bd c429 debe 6a1c 0dbf
00000200: 419f 923d 38d0 943e 3ec6 103f aa14 9a3e
00000210: 60f3 09bf cb6e 13bf 79eb e03e 6d52 edbe
00000220: 1a0d 9f3e 4581 043f 1d66 043f c1d3 fabe
00000230: c512 ff3e 38c5 6fbe e41a 7ebe 32a1 00bf
00000240: 9f46 e73e 819c 2d3e bbb2 42be 401b 10bf
00000250: 0c13 a3be 0350 713d 19a5 f63d d949 ea3e
00000260: 1c1e f0be e134 cabe 64fd 35bd 7086 453e
00000270: bb7c babe da93 10bf b731 163e ca72 2cbe
00000280: 0549 a03e 9133 be3e 8587 09bf 6aa1 0a3f
00000290: 3230 e73e 889b 32be 944f 343e 60da f7be
000002a0: 82f5 ec3e ec5c 8dbe ecb8 d23d ca7a d7be
000002b0: f49e 873e 8210 1cb9 c980 053f d8fc 3cbe
000002c0: b642 c1bd d7b9 d8bc d7aa b1be 3a3a 78be
000002d0: c9c4 c6bd 4c1b d23e b4ea 65be 3802 dd3e
000002e0: d25d eb3e 381f c7be 0bff 23be 5db1 0e3f
000002f0: 43ba a63d 5337 163e 21b2 6e3e cb22 a03e

mu_network.0.bias f4 [64]
-0.57282126 -0.05759501 -0.52373844 0.34754527 -0.2519976 -0.56539786 -0.35722026 0.44468397
-0.53480816 -0.5096633 0.576222 -0.32373413 0.34129572 -0.35649672 -0.57165915 0.5436819
-0.40369043 -0.15280093 0.3998032 -0.36915952 0.42387196 -0.35956848 0.4342458 0.22899993
-0.22848044 -0.46563214 0.16729297 -0.3325911 0.3399343 -0.22460584 0.0027311672 -0.3503374
-0.13295682 -0.36595437 -0.25385416 -0.47788987 -0.2539685 -0.5579845 0.24967732 -0.29048285
-0.1295386 -0.24343629 -0.07430661 -0.18653046 0.4692097 0.027647486 0.0018593537 0.22545686
0.043033946 -0.3961935 -0.42829445 0.27561954 0.38762018 -0.04585373 0.24560161 -0.09116845
0.14452459 -0.48665625 -0.5286106 0.13100031 0.29012316 -0.55423456 0.1542228 -0.44394928
00000000: 6aa4 12bf bfe8 6bbd b913 06bf 74f1 b13e
00000010: d405 81be eabd 10bf 93e5 b6be 9ead e33e
00000020: 30e9 08bf 4b79 02bf 4983 133f 7bc0 a5be
00000030: 50be ae3e bd86 b6be 4158 12bf bd2e 0b3f
00000040: 83b0 cebe d977 1cbe 01b3 cc3e 7a02 bdbe
00000050: bf05 d93e 5c19 b8be 7755 de3e f57e 6a3e
00000060: c7f6 69be 5667 eebe d94e 2b3e 6149 aabe
00000070: de0b ae3e 13ff 65be 62fd 323b 6c5f b3be
00000080: d525 08be 5f5e bbbe 2cf9 81be fbad f4be
00000090: 2908 82be 12d8 0ebf 69ab 7f3e 2bba 94be
000000a0: c4a5 04be 5d47 79be 102e 98bd d701 3fbe
000000b0: 413c f03e fb7c e23c 8fb5 f33a 2ade 663e
000000c0: 5d44 303d e0d9 cabe 6949 dbbe 011e 8d3e
000000d0: 2776 c63e 1fd1 3bbd fd7e 7b3e 86b6 babd
000000e0: 41fe 133e 022b f9be 0653 07bf f224 063e
000000f0: 068b 943e 51e2 0dbf 95ec 1d3e 524d e3be

mu_network.2.weight f4 [64]
1.001 0.999 1.001 1.001 0.999 1.001 0.999 0.999
1.001 0.999 1.001 1.001 0.999 0.999 0.999 0.999
1.001 1.001 0.999 1.001 0.999 1.001 0.999 0.999
0.999 0.999 1.001 1.001 0.999 0.999 0.999 0.999
1.001 0.999 0.999 1.001 1.001 1.001 0.999 0.999
1.001 1.001 1.0009999 1.001 0.999 1.001 1.001 1.001
0.999 0.999 0.999 0.999 0.999 1.001 1.001 0.999
1.001 0.999 1.001 1.001 1.001 0.999 1.0009999 1.001
00000000: c520 803f 77be 7f3f c520 803f c520 803f
00000010: 77be 7f3f c520 803f 77be 7f3f 77be 7f3f
00000020: c520 803f 77be 7f3f c520 803f c520 803f
00000030: 77be 7f3f 77be 7f3f 77be 7f3f 77be 7f3f
00000040: c520 803f c520 803f 77be 7f3f c520 803f
00000050: 77be 7f3f c520 803f 77be 7f3f 77be 7f3f
00000060: 77be 7f3f 77be 7f3f c520 803f c520 803f
00000070: 77be 7f3f 77be 7f3f 77be 7f3f 77be 7f3f
00000080: c520 803f 77be 7f3f 77be 7f3f c520 803f
00000090: c520 803f c520 803f 77be 7f3f 77be 7f3f
000000a0: c520 803f c520 803f c420 803f c520 803f
000000b0: 77be 7f3f c520 803f c520 803f c520 803f
000000c0: 77be 7f3f 77be 7f3f 77be 7f3f 77be 7f3f
000000d0: 77be 7f3f c520 803f c520 803f 77be 7f3f
000000e0: c520 803f 77be 7f3f c520 803f c520 803f
000000f0: c520 803f 77be 7f3f c420 803f c520 803f

mu_network.2.bias f4 [64]
0.0009999959 -0.000999966 -0.0009999989 0.000999999 0.0009999991 0.0009999954 0.0009999987 -0.0009999996
0.000999999 0.0009999991 0.0009999988 0.0009999991 -0.0009999975 -0.0009999995 -0.0009999208 0.0009999993
-0.0009999993 0.0009999975 -0.0009999987 -0.0009999996 -0.0009999989 0.0009999938 0.0009999991 -0.0009999977
0.0009999993 0.0009999991 -0.0009999961 -0.0009999985 0.0009999903 -0.0009999987 0.000999999 -0.0009999981
0.000999996 -0.0009999995 0.0009999991 0.0009999987 -0.0009999985 0.0009999983 0.0009999987 0.0009999963
0.0009999706 0.0009999977 0.0009999988 -0.0009999991 0.0009999968 -0.0009999964 -0.0009999981 0.0009999993
-0.0009999983 0.0009999992 -0.0009999968 0.0009999956 -0.000999999 0.00099999 -0.0009999985 -0.0009999985
-0.000999999 0.0009999993 -0.0009999967 0.0009999973 0.0009999992 -0.000999999 -0.0009999991 -0.0009999995
00000000: 4b12 833a 4b11 83ba 6512 83ba 6612 833a
00000010: 6712 833a 4712 833a 6312 833a 6b12 83ba
00000020: 6612 833a 6712 833a 6412 833a 6712 833a
00000030: 5912 83ba 6a12 83ba c60f 83ba 6912 833a
00000040: 6912 83ba 5912 833a 6312 83ba 6b12 83ba
00000050: 6512 83ba 3912 833a 6712 833a 5b12 83ba
00000060: 6912 833a 6712 833a 4d12 83ba 6212 83ba
00000070: 1b12 833a 6312 83ba 6612 833a 5e12 83ba
00000080: 4c12 833a 6a12 83ba 6712 833a 6312 833a
00000090: 6212 83ba 6012 833a 6312 833a 4f12 833a
000000a0: 7211 833a 5b12 833a 6412 833a 6712 83ba
000000b0: 5312 833a 5012 83ba 5e12 83ba 6912 833a
000000c0: 6012 83ba 6812 833a 5312 83ba 4912 833a
000000d0: 6612 83ba 1912 833a 6212 83ba 6212 83ba
000000e0: 6612 83ba 6912 833a 5212 83ba 5712 833a
000000f0: 6812 833a 6612 83ba 6712 83ba 6a12 83ba

mu_network.3.weight f4 [64, 64]
-0.0078037563 -0.1201718 0.05903356 0.071152136 -0.06862135 -0.006381286 -0.010787171 -0.035339717
0.06450111 -0.05495734 0.048660856 0.03548522 0.06787732 -0.057081867 0.09393625 0.049381707
-0.081507385 0.10092299 0.12500685 -0.0431347 -0.110420346 -0.036697138 0.0838778 0.08730282
0.027130933 -0.06158748 0.09644331 0.10494006 -0.089947835 -0.01045202 -0.03343112 0.09942135
-0.115578204 -0.051996652 -0.053088438 -0.07243964 -0.0063249064 -0.022423701 0.029063256 -0.10867521
-0.06277083 0.12202175 0.012898969 -0.06502415 -0.095433995 -0.11152771 0.115468904 0.005581138
0.11554462 0.07431352 -0.07506129 0.06957726 0.12368041 0.10514063 -0.016417054 -0.0014771543
0.087600365 0.0880517 0.10290188 -0.02656156 0.08893548 0.08009973 0.006315015 0.09071593
-0.028123293 0.08150475 -0.009626729 0.102726534 0.094468385 0.037769232 0.041130204 -0.021656783
0.06632365 0.08792746 0.09138188 -0.01286586 0.11139305 -0.024662094 -0.10075545 0.0076478296
-0.013018144 0.044418093 -0.11629276 0.04817905 -0.100959525 0.08441827 0.08179133 -0.115804926
0.04201256 -0.028158573 -0.07723701 -0.09560871 -0.022076102 -0.091885656 0.05195766 0.059222724
-0.003380554 0.12247141 0.043938372 0.065711424 -0.034940664 -0.024574043 0.08089857 0.11550267
0.04262994 -0.07143976 0.060497645 0.022202568 -0.104588464 -0.021351812 0.028536307 0.061961766
0.06901634 0.0294164 -0.106462136 0.06475119 -0.10799204 -0.11076227 0.080607906 -0.09760055
-0.020494549 0.026953418 -0.075639665 -0.09681597 0.09992699 0.0047845966 -0.06412476 -0.11033006
0.004843424 -0.0039145076 -0.102340266 0.058248308 0.0935584 0.069539726 0.044622798 0.08378935
0.10686454 -0.06827842 0.07116987 0.061724406 0.08754197 0.020253671 -0.09953551 -0.06325956
0.029625 -0.11363451 0.113672525 -0.12117784 -0.044274617 0.028978525 0.0068056607 0.060764056
0.0235834 0.081228584 0.057758037 0.1131956 -0.07871404 -0.11291693 0.07507314 -0.12098113
0.0012992449 -0.12181635 0.08602059 -0.046866138 0.045922857 -0.06187852 -0.018479181 0.10639249
-0.11684787 -0.06164815 -0.062049683 -0.109393224 -0.018383427 0.09559284 -0.12375522 0.038436618
0.08588302 -0.016822143 0.08802299 0.024196776 0.02641848 -0.12181912 -0.028822018 -0.042015497
-0.029038025 0.029135752 -0.07842763 -0.09414959 -0.031851504 -0.006538185 -0.0071032364 0.052047882
-0.083279386 0.025271444 -0.012265397 -0.088457584 -0.11891042 -0.12543818 0.045963187 0.027788682
-0.11562094 0.03452224 0.058199 0.09978439 -0.01250003 -0.08581738 -0.11487849 0.08025673
0.067864686 0.05896988 -0.048259143 -0.09714402 0.015238491 0.06669831 -0.020219041 0.033841517
-0.053763118 -0.043667074 -0.11308035 -0.05802427 -0.10196298 0.05376978 0.035650816 0.06361039
0.023980854 0.06624712 0.12285158 -0.10558024 -0.03228313 0.05729493 0.10323064 -0.075608015
0.022862686 0.06588295 0.07800034 0.029571103 0.10919994 0.122567 -0.07044929 0.10266212
-0.06070738 0.12227242 -0.062289465 -0.07718982 0.1116844 0.049912233 0.08633362 -0.02786705
0.096971795 0.051354695 -0.006560799 -0.108955905 0.04377159 -0.06828354 0.03753882 0.10853039
00000000: a7b6 ffbb a21c f6bd 2dcd 713d 36b8 913d
00000010: 5a89 8cbd 1b1a d1bb adbc 30bc 61c0 10bd
00000020: 2819 843d f31a 61bd 9b50 473d f358 113d
00000030: 4403 8b3d adce 69bd a661 c03d 7944 4a3d
00000040: 58ed a6bd b6b0 ce3d cc01 003e 03ae 30bd
00000050: 1024 e2bd bd4f 16bd 20c8 ab3d d2cb b23d
00000060: b141 de3c 2743 7cbd 1284 c53d d0ea d63d
00000070: 9236 b8bd f33e 2bbc 12ef 08bd 6c9d cb3d
00000080: 44b4 ecbd 71fa 54bd 4373 59bd 3c5b 94bd
00000090: 2941 cfbb e9b1 b7bc 1116 ee3c 1c91 debd
000000a0: fe8d 80bd 8ae6 f93d 3356 533c 622b 85bd
000000b0: e672 c3bd a468 e4bd f67a ec3d fbe1 b63b
000000c0: a8a2 ec3d b031 983d bcb9 99bd 867e 8e3d
000000d0: 284c fd3d f853 d73d 0f7d 86bc 139d c1ba
000000e0: d267 b33d 7354 b43d 39be d23d a197 d9bc
000000f0: ce23 b63d 540b a43d 2fee ce3b 46c9 b93d
00000100: d262 e6bc f6eb a63d 6eb9 1dbc 4a62 d23d
00000110: a478 c13d e9b3 1a3d 2578 283d 9169 b1bc
00000120: b2d4 873d 5013 b43d 6c26 bb3d 54cb 52bc
00000130: 0a22 e43d 2908 cabc e058 cebd a59a fa3b
00000140: 0e4a 55bc bfef 353d e62a eebd 6557 453d
00000150: dec3 cebd 7ce3 ac3d 3682 a73d 222b edbd
00000160: 5d15 2c3d cfac e6bc 702e 9ebd 80ce c3bd
00000170: f1d8 b4bc 8c2e bcbd 8ed1 543d 8793 723d
00000180: 498c 5dbb 4ad2 fa3d b9f8 333d b693 863d
00000190: f11d 0fbd 814f c9bc 26ae a53d aa8c ec3d
000001a0: bb9c 2e3d 024f 92bd 61cc 773d 29e2 b53c
000001b0: 7a32 d6bd ffe9 aebc f9c4 e93c 9fcb 7d3d
000001c0: 7058 8d3d a9fa f03c d208 dabd 469c 843d
000001d0: ee2a ddbd 54d7 e2bd c215 a53d cce2 c7bd
000001e0: 2fe4 a7bc 6acd dc3c f8e8 9abd 7447 c6bd
000001f0: 86a6 cc3d 1bc8 9c3b d853 83bd baf4 e1bd
00000200: 96b5 9e3b 4545 80bb c697 d1bd c795 6e3d
00000210: 8c9b bf3d d86a 8e3d 65c6 363d c099 ab3d
00000220: ccdb da3d 8ed5 8bbd 82c1 913d bbd2 7c3d
00000230: 3449 b33d 07eb a53c 46d9 cbbd 3a8e 81bd
00000240: 21b0 f23c 36b9 e8bd 24cd e83d 162c f8bd
00000250: 4d59 35bd 5f64 ed3c 0502 df3b bbe3 783d
00000260: f931 c13c 2c5b a63d b193 6c3d 18d3 e73d
00000270: d434 a1bd fe40 e7bd f2bf 993d f4c4 f7bd
00000280: 6d4b aa3a da7a f9bd 902b b03d b5f6 3fbd
00000290: 9b19 3c3d 5574 7dbd a761 97bc 4ee4 d93d
000002a0: f04d efbd c582 7cbd cf27 7ebd 8e09 e0bd
000002b0: d798 96bc 2ec6 c33d 6073 fdbd b76f 1d3d
000002c0: 70e3 af3d 97ce 89bc 6645 b43d 5138 c63c
000002d0: 916b d83c 4e7c f9bd 271c ecbc 7118 2cbd
000002e0: 27e1 edbc 1aae ee3c aa9e a0bd 80d1 c0bd
000002f0: b976 02bd 453e d6bb 44c2 e8bb 2930 553d
00000300: 628e aabd 0f06 cf3c cef4 48bc 4029 b5bd
00000310: 4e87 f3bd de72 00be e543 3c3d 17a5 e33c
00000320: acca ecbd 3167 0d3d 1362 6e3d c25b cc3d
00000330: edcc 4cbc 06c1 afbd 6a45 ebbd a45d a43d
00000340: a4fc 8a3d 678a 713d 61ab 45bd 72f3 c6bd
00000350: ddaa 793c 2099 883d 67a2 a5bc 679d 0a3d
00000360: b736 5cbd 3fdc 32bd ac96 e7bd dbaa 6dbd
00000370: f8d1 d0bd b33d 5c3d 9706 123d 2a46 823d
00000380: 7f73 c43c 92ac 873d 9c99 fb3d 743a d8bd
00000390: 513b 04bd 17ae 6a3d 966a d33d 60d8 9abd
000003a0: 874a bb3c a4ed 863d a4be 9f3d 193f f23c
000003b0: 38a4 df3d 6804 fb3d b847 90bd 8440 d23d
000003c0: 4da8 78bd f669 fa3d 3d23 7fbd b215 9ebd
000003d0: caba e43d c570 4c3d aecf b03d 7149 e4bc
000003e0: 2699 c63d 4d59 523d f9fb d6bb 4624 dfbd
000003f0: d749 333d 3ed8 8bbd 4ec2 193d 2e45 de3d

mu_network.3.bias f4 [64]
0.009957366 -0.06187742 -0.11483127 0.087262005 -0.055741884 0.09238197 0.061977763 0.052950848
0.103879645 -0.041415256 0.051890027 0.06871791 -0.004055401 0.0469142 -0.045095045 -0.095967084
-0.0010561025 -0.09915452 0.09048504 0.10531301 -0.044357765 0.105806634 0.076911226 -0.049168427
0.06888951 0.03618182 -0.03120376 0.08130372 0.038088325 0.009969745 -0.027270846 -0.112371184
-0.05653124 0.065430805 0.0036131397 0.089670464 0.07399821 -0.061807957 -0.11115333 0.10447982
-0.056527626 -0.045322534 -0.08986547 0.029490147 0.08837385 0.023574011 -0.07320021 -0.0628227
0.10040508 0.009007352 -0.057536554 -0.057646584 0.05166209 -0.0508281 0.031858545 0.07749614
-0.03481802 -0.025367295 0.0936863 0.06536336 0.0117949275 0.005477947 0.054387394 0.010087046
00000000: 3824 233c 2d73 7dbd a82c ebbd 6cb6 b23d
00000010: 9a51 64bd c232 bd3d 65dc 7d3d fde2 583d
00000020: dabe d43d 0ba3 29bd a38a 543d fabb 8c3d
00000030: 2be3 84bb 1b29 403d 95b5 38bd 648a c4bd
00000040: eb6c 8aba 8611 cbbd 3850 b93d 59ae d73d
00000050: 7db0 35bd 26b1 d83d a283 9d3d d564 49bd
00000060: f215 8d3d 6333 143d 079f ffbc 9182 a63d
00000070: 8102 1c3d 2458 233c 1c67 dfbc dd22 e6bd
00000080: 4d8d 67bd 9600 863d 6dca 6c3b 26a5 b73d
00000090: 608c 973d 572a 7dbd 5ba4 e3bd 84f9 d53d
000000a0: 8389 67bd 1fa4 39bd 630b b8bd 5295 f13c
000000b0: 59fd b43d 491e c13c fee9 95bd 30a9 80bd
000000c0: 2ea1 cd3d 9393 133c 73ab 6bbd d31e 6cbd
000000d0: a19b 533d 2031 50bd 1b7e 023d 4cb6 9e3d
000000e0: 579d 0ebd 13cf cfbc 9ade bf3d 3add 853d
000000f0: 833f 413c 5a80 b33b 51c5 5e3d 2344 253c

mu_network.5.weight f4 [64]
0.999 0.99900013 0.999 0.999 1.001 1.001 1.001 0.999
0.999 1.001 1.001 0.999 1.001 1.001 1.001 0.999
0.999 0.999 0.999 1.0009999 0.999 0.999 1.001 0.999
1.001 1.001 0.999 0.999 0.999 1.0009999 1.001 1.001
0.999 0.999 0.999 1.001 1.001 1.001 1.0009999 0.999
0.999 1.001 1.001 0.999 1.001 0.999 0.999 1.001
1.001 1.001 0.999 1.0009999 0.999 1.001 1.0009999 1.001
0.999 1.001 1.001 1.001 1.001 0.999 0.999 1.0009999
00000000: 77be 7f3f 79be 7f3f 77be 7f3f 77be 7f3f
00000010: c520 803f c520 803f c520 803f 77be 7f3f
00000020: 77be 7f3f c520 803f c520 803f 77be 7f3f
00000030: c520 803f c520 803f c520 803f 77be 7f3f
00000040: 77be 7f3f 77be 7f3f 77be 7f3f c420 803f
00000050: 77be 7f3f 77be 7f3f c520 803f 77be 7f3f
00000060: c520 803f c520 803f 77be 7f3f 77be 7f3f
00000070: 77be 7f3f c420 803f c520 803f c520 803f
00000080: 77be 7f3f 77be 7f3f 77be 7f3f c520 803f
00000090: c520 803f c520 803f c420 803f 77be 7f3f
000000a0: 77be 7f3f c520 803f c520 803f 77be 7f3f
000000b0: c520 803f 77be 7f3f 77be 7f3f c520 803f
000000c0: c520 803f c520 803f 77be 7f3f c420 803f
000000d0: 77be 7f3f c520 803f c420 803f c520 803f
000000e0: 77be 7f3f c520 803f c520 803f c520 803f
000000f0: c520 803f 77be 7f3f 77be 7f3f c420 803f

mu_network.5.bias f4 [64]
0.0009999987 0.000999999 0.0009999987 0.000999999 -0.0009999982 -0.0009999991 -0.0009999988 -0.0009999968
0.000999999 -0.000999999 0.000999999 0.0009999991 -0.000999999 0.0009999988 0.000999999 0.0009999874
-0.0009999991 -0.0009999913 0.0009999948 0.0009999956 0.0009999973 0.0009999988 0.000999997 0.0009999991
0.0009999987 0.0009999988 -0.0009999988 -0.0009999763 -0.0009999989 -0.0009999962 -0.0009999991 -0.0009999978
0.0009999992 -0.000999998 0.0009999977 0.0009999991 0.0009999962 -0.0009999983 -0.0009999772 -0.0009999991
-0.0009999987 -0.0009999991 -0.0009999982 -0.0009999962 0.0009999957 -0.0009999992 0.0009999991 0.000999999
0.0009999981 -0.0009999988 -0.0009999985 -0.0009999786 -0.000999999 -0.0009999857 0.0009999985 0.0009999982
-0.0009999985 0.0009999956 0.000999999 -0.000999999 -0.0009999988 0.0009999985 -0.0009999985 -0.0009999983
00000000: 6312 833a 6612 833a 6312 833a 6612 833a
00000010: 5f12 83ba 6712 83ba 6412 83ba 5312 83ba
00000020: 6612 833a 6612 83ba 6612 833a 6712 833a
00000030: 6612 83ba 6412 833a 6612 833a 0212 833a
00000040: 6712 83ba 2412 83ba 4212 833a 4912 833a
00000050: 5712 833a 6412 833a 5512 833a 6712 833a
00000060: 6312 833a 6412 833a 6412 83ba a311 83ba
00000070: 6512 83ba 4e12 83ba 6712 83ba 5c12 83ba
00000080: 6812 833a 5d12 83ba 5b12 833a 6712 833a
00000090: 4e12 833a 6012 83ba ab11 83ba 6712 83ba
000000a0: 6312 83ba 6712 83ba 5f12 83ba 4e12 83ba
000000b0: 4a12 833a 6812 83ba 6712 833a 6612 833a
000000c0: 5e12 833a 6412 83ba 6212 83ba b711 83ba
000000d0: 6612 83ba f411 83ba 6212 833a 5f12 833a
000000e0: 6212 83ba 4912 833a 6612 833a 6612 83ba
000000f0: 6412 83ba 6212 833a 6212 83ba 6012 83ba

mu_network.6.weight f4 [1, 64]
-0.06535989 -0.09995702 -0.065675125 -0.10587837 0.05015674 0.11498022 0.07740876 0.026788803
-0.096144676 0.10183202 -0.09582052 -0.10238184 0.1074993 -0.0777221 -0.089979485 -0.006040024
0.118360415 0.009180279 -0.016152503 -0.021698384 -0.031995226 -0.07695086 -0.03198078 -0.12217642
-0.07059929 -0.07718943 0.0811118 0.0027247989 0.08873086 0.024999602 0.105578065 0.041938644
-0.11293979 0.043606136 -0.039530445 -0.12329739 -0.024617327 0.052032482 0.0048930473 0.12281501
0.07138148 0.110064104 0.04992604 0.022658663 -0.022205083 0.119355336 -0.11895198 -0.088140726
-0.045772742 0.08164881 0.060847837 0.0051402575 0.09872711 0.00719401 -0.07023166 -0.050696056
0.05970599 -0.021532727 -0.094171435 0.096208245 0.08127698 -0.059088696 0.0583929 0.054152485
00000000: 68db 85bd 44b6 ccbd ae80 86bd c2d6 d8bd
00000010: 2771 4d3d c07a eb3d 7c88 9e3d 3174 db3c
00000020: 80e7 c4bd 4e8d d03d 8c3d c4bd 92ad d1bd
00000030: 9828 dc3d c42c 9fbd 2a47 b8bd 65eb c5bb
00000040: f266 f23d e268 163c 4152 84bc cfc0 b1bc
00000050: 6d0d 03bd 6a98 9dbd 47fe 02bd a237 fabd
00000060: 5c96 90bd 7e15 9ebd f21d a63d 8a92 323b
00000070: 86b8 b53d f7cb cc3c 5039 d83d dbc7 2b3d
00000080: fa4c e7bd 599c 323d adea 21bd 5883 fcbd
00000090: 47aa c9bc 0320 553d db55 a03b 7086 fb3d
000000a0: 7430 923d 4a69 e13d 3f7f 4c3d a99e b93c
000000b0: 6fe7 b5bc 9270 f43d 189d f3bd 2083 b4bd
000000c0: 337c 3bbd 7e37 a73d 953b 793d 9b6f a83b
000000d0: 7031 ca3d bbbb eb3b 9ed5 8fbd aba6 4fbd
000000e0: 458e 743d 6765 b0bc f4dc c0bd d408 c53d
000000f0: 8c74 a63d fd06 72bd 652d 6f3d ffce 5d3d
