weights/2024-06-27_16-01-47/critic.pt (torch, 22250 bytes, 9 tensors)

critic.0.weight f4 [64, 3]
000000 73 2a da bd b2 0f 10 3f d2 a7 e3 3e 2d 38 f4 3e
       -0.10652628 0.5627395 0.44463974 0.4769911
000010 63 fe 04 3f 0a 11 db 3e cf 86 b1 3e 43 3f be 3c
       0.51950663 0.42786437 0.34673163 0.023223525
000020 02 e9 35 be 39 2d 7a be ac 06 52 3e 56 33 cd 3e
       -0.17764667 -0.24431314 0.20510358 0.4007823
000030 59 d4 d1 be 0b 86 fe 3e 45 e0 91 be 58 68 17 be
       -0.4098232 0.49711642 -0.28491417 -0.14785898
000040 f3 49 d9 be e3 a3 e6 bd d2 30 c2 be bd b0 5a 3e
       -0.4243923 -0.11261728 -0.37927872 0.21356483
000050 04 cf 28 3e 80 e0 b7 3d bd ac 01 bf 51 dd 1f be
       0.1648522 0.08978367 -0.506542 -0.1561177
000060 69 84 09 be 5c 85 e5 be 32 01 03 bf ab d4 25 be
       -0.13429417 -0.44828308 -0.511737 -0.16194408
000070 fa f1 0e bf 8f a4 e0 3e b4 fe ad 3e dc 98 6b 3e
       -0.55837977 0.43875548 0.33983386 0.2300753
000080 22 68 09 3f 96 69 2d be 19 5f f9 3d 72 7f 99 be
       0.5367452 -0.16934809 0.121763416 -0.29980046
000090 0e 3d 0c bf e4 4c 99 3e 7b 0c 09 3f e9 1b e3 3e
       -0.5478066 0.29941475 0.5353467 0.4435723
0000a0 0e 31 19 3e 5e 99 34 3e dc 54 c7 be b2 3e 6b be
       0.14960119 0.1763663 -0.3893193 -0.22973135
0000b0 98 3d af 3e fc d6 ff be fa cc 91 3e 54 7a 77 be
       0.3422668 -0.49968708 0.28476697 -0.24167758
0000c0 7e 86 1d be 18 e6 d5 3e 5b 92 f7 3d d3 cc ab 3e
       -0.15383336 0.4177711 0.12088462 0.33554706
0000d0 48 3a a7 be 83 85 c9 be 56 d6 89 bd fe 68 81 3e
       -0.32661653 -0.39359674 -0.067303345 0.25275415
0000e0 a9 45 49 3e bd a5 05 bf e3 43 b1 be 50 65 94 bd
       0.1965548 -0.5220602 -0.34622106 -0.07245886
0000f0 1c 87 63 3c 0f 13 29 be a0 06 e6 3e c8 f3 68 3e
       0.013887193 -0.16511177 0.4492693 0.22749245
000100 5e 38 05 bf c8 97 9d bd b6 7e 9d 3e 34 9f ca be
       -0.52039135 -0.076949656 0.30760735 -0.39574587
000110 6e bb af bd 82 eb 46 3e 82 27 90 3d 65 bf 45 be
       -0.08580671 0.19425777 0.070387855 -0.19311292
000120 33 9e 4e be 8a 26 9c be 0c 4e b1 3e bd d3 ce be
       -0.20177536 -0.30498153 0.34629858 -0.40395918
000130 cc 51 a0 3e 06 e1 05 be 3e ce 5c bc 1e 1b 07 3f
       0.31312406 -0.13074121 -0.013476906 0.5277575
000140 37 a8 d6 bd 5c b1 80 bc cf 61 9b 3e 0f 3c e7 be
       -0.10481303 -0.015709572 0.3034806 -0.4516301
000150 e3 c4 0a 3e 16 24 95 3d cb cf 41 3e db be 40 3d
       0.13551669 0.072822735 0.18926923 0.047057014
000160 1d 7d 95 3e 09 dd 01 bd 56 97 fb be 78 6e 1c 3e
       0.29197016 -0.031704936 -0.49138898 0.15276515
000170 c8 2a 67 be 2f c2 80 3e b8 42 af 3d b0 22 3b be
       -0.22574914 0.2514815 0.085576475 -0.18274951
000180 1d 6d 0d 3f bc 15 07 3f 88 55 b7 3e 8b db 01 3f
       0.5524462 0.5276754 0.35807443 0.5072562
000190 81 f0 eb 3d e3 63 b2 bd af 4e a6 3e e5 01 f6 bc
       0.11520482 -0.08710458 0.32481906 -0.0300302
0001a0 60 b5 e3 be 18 ab a5 3e eb 38 ef bd ab f1 9c 3e
       -0.44474316 0.32357097 -0.11680778 0.30653128
0001b0 9e 65 ef 3e 07 0d ab 3e 30 27 98 bd 09 cb c7 3b
       0.46757215 0.33408377 -0.074293494 0.0060972017
0001c0 85 0b 01 bf 71 c6 f1 3e f0 4b c9 bc ed 5b d0 be
       -0.504082 0.4722171 -0.024572343 -0.40695134
0001d0 c7 9d fd 3e 32 fa 0e bf f4 89 ad 3e 36 cb c9 3e
       0.49534437 -0.5585052 0.33894312 0.3941285
0001e0 24 02 b1 3e ba 14 a1 bb 00 a2 96 be 66 55 07 3f
       0.34571946 -0.004915801 -0.2942047 0.5286468
0001f0 1d 2b e6 be ce 9b 5d 3d d9 96 0f 3e bc 70 cb 3e
       -0.44954768 0.054103665 0.14022388 0.39734447
000200 e5 2a 9b bd 97 6d 8c 3e 67 60 d2 3d 16 1f 43 bd
       -0.07576541 0.2742736 0.102722935 -0.047637068
000210 ae 9d 0c be e0 d0 01 bd 26 92 48 bd a8 0b 72 3e
       -0.13732025 -0.03169334 -0.048967503 0.23637259
000220 be 19 cc be 51 ce 61 be a6 ac 53 bc d7 cf 8b bd
       -0.3986339 -0.2205136 -0.012919581 -0.06826752
000230 65 3c 92 bc 5b f1 b0 3e aa bb 19 3e 53 f4 3f 3e
       -0.017851064 0.3455914 0.15012994 0.18745546
000240 e3 05 9f be a1 6c f1 3e 89 73 72 3e e7 af 5b be
       -0.3105918 0.4715319 0.23676886 -0.2145382
000250 d6 f3 14 be c6 d2 e8 3e 98 c5 da 3e 26 c6 ed 3e
       -0.14546141 0.45473307 0.42728877 0.46440238
000260 11 bb c1 be b9 9a 4e 3e 89 70 fe bd 46 81 30 be
       -0.37838033 0.2017621 -0.12423808 -0.17236814
000270 87 d8 d7 bd 67 a2 27 be 02 ef 62 be 97 bb e5 3e
       -0.10539346 -0.16370545 -0.22161487 0.44869682
000280 f7 0d 69 be 50 f9 97 be c9 9f e2 3d 0b 12 c6 3e
       -0.22759233 -0.29682398 0.11065633 0.3868564
000290 a4 8e e9 be 13 54 01 bf c0 67 ce 3d 93 0e 37 3e
       -0.4561664 -0.5051891 0.100783825 0.17876653
0002a0 d1 a5 b2 bd 35 19 52 be c8 9c 6e 3e 04 3a bc be
       -0.08723033 -0.20517428 0.23301995 -0.36763012
0002b0 10 bb f4 bc 74 9e 3f be 19 4c f0 3e b3 11 1d 3e
       -0.029874355 -0.18712789 0.46933058 0.15338783
0002c0 66 c2 7d be 73 7a 03 3f 2d 85 64 3e 08 ec 29 be
       -0.24781188 0.5135872 0.22316428 -0.16593945
0002d0 70 2d f7 3e 50 e4 97 3e 91 62 e6 3e 53 80 dd be
       0.48276854 0.29666376 0.44997075 -0.43261966
0002e0 9f f4 cd 3e 3e 93 b1 3d 29 d9 e0 be d6 3a da be
       0.40225694 0.08670662 -0.4391568 -0.42623013
0002f0 7f 3c 9c 3d 1b d9 a7 be 8a 9a 11 bf 75 aa 0f bc
       0.07628726 -0.32782826 -0.5687643 -0.0087686675

critic.0.bias f4 [64]
000000 f2 2f ea bd 73 7a d9 be bc 24 26 bd dd 8f af 3e
       -0.11434926 -0.42476234 -0.040562376 0.34289446
000010 0e 1e 1a 3f e5 2c 97 bd de dc 8c 3e 61 23 08 3f
       0.6020211 -0.0738161 0.27512258 0.53178984
000020 72 d1 d9 be 6f a6 58 3e 03 87 b9 3d 6d e0 86 3e
       -0.42542607 0.2115724 0.090589546 0.26343098
000030 c2 ac ca 3e 11 e1 83 3e df 83 c4 3d 0c 07 14 bf
       0.3958493 0.2575765 0.09595465 -0.5782325
000040 2c 1a 23 bd 3b 18 4f 3e c5 71 8c 3e b8 0b 05 3f
       -0.03981988 0.20224087 0.2743055 0.51971006
000050 44 3c 9f 3e 30 89 a7 be 86 8b 10 3f 92 1a 63 be
       0.31100667 -0.32721853 0.56462896 -0.22178105
000060 08 72 db bd c3 c6 2f 3e c6 fa 44 be 5a e9 02 3f
       -0.10715109 0.17165665 -0.19236287 0.51137316
000070 0e 8a c4 3e e8 1a 42 be c4 a3 8d 3d 74 0e 00 bf
       0.38386577 -0.18955576 0.069160014 -0.50022054
000080 15 7b c8 3e 0f 86 86 bd be 09 da 3e e1 1a 18 bf
       0.39156404 -0.065685384 0.42585558 -0.59416014
000090 0c 6f 88 be fa 41 d7 be 6a 4f e2 bd 10 e2 90 be
       -0.26647222 -0.42042524 -0.11050303 -0.28297472
0000a0 8c e4 a5 be 4a 51 8e 3e 9f ca 05 bf 2f 89 3b be
       -0.3240093 0.27796394 -0.522623 -0.1831405
0000b0 e3 f3 6f 3e c1 5a 8c 3e cc d2 59 3e b8 6b a2 be
       0.23432879 0.2741299 0.21271819 -0.31722808
0000c0 a9 26 83 be 28 09 1c bf f1 d4 95 3d 9c ed 0b bf
       -0.25615433 -0.6095147 0.07316006 -0.5465944
0000d0 fa ff 1a bf 4d e7 8c 3e 75 63 06 be 7f f4 26 3e
       -0.6054684 0.27520218 -0.13123877 0.16304205
0000e0 af 45 cb 3e c5 49 a9 3e 51 3a c0 be ec f6 bb 3e
       0.39701602 0.33064094 -0.37544492 0.36711824
0000f0 dd c7 b5 be 8b 05 17 3e b6 52 d2 3e 91 96 0e bf
       -0.35504046 0.14748208 0.41078728 -0.55698496

critic.2.weight f4 [64]
000000 1a 69 78 3f 05 bc 80 3f 1c e9 81 3f 8c bc 78 3f
       0.9703537 1.0057379 1.0149264 0.971627
000010 58 24 81 3f 60 0b 81 3f bf af 7a 3f fc d5 76 3f
       1.0089216 1.0081596 0.9792442 0.96420264
000020 ab d1 7b 3f 77 ef 7d 3f 90 9d 7d 3f de 04 84 3f
       0.983668 0.9919352 0.99068546 1.0313985
000030 c6 da 82 3f b4 32 7e 3f 82 f5 80 3f e2 28 84 3f
       1.0223014 0.99296117 1.0074923 1.0324976
000040 b1 95 76 3f 69 8d 78 3f 91 31 83 3f 88 49 81 3f
       0.9632216 0.97090775 1.0249501 1.0100565
000050 80 e2 83 3f 98 d7 82 3f ac 3d 76 3f 5d fa 79 3f
       1.0303497 1.0222044 0.96187854 0.9764765
000060 5b 04 7e 3f 2d 8d 78 3f ab 50 76 3f da 61 83 3f
       0.99225396 0.9709042 0.9621684 1.0264237
000070 11 34 84 3f 27 c7 85 3f 26 b6 77 3f ce 96 7b 3f
       1.032839 1.0451401 0.9676231 0.98276985
000080 c4 41 78 3f 3e 2a 77 3f 83 44 74 3f f5 46 80 3f
       0.9697535 0.9654883 0.9541704 1.0021654
000090 68 bd 7e 3f 79 de 83 3f b0 82 78 3f fa f5 82 3f
       0.9950776 1.0302268 0.97074413 1.0231316
0000a0 19 e9 78 3f 3b 66 74 3f 37 61 83 3f cb ad 78 3f
       0.9723068 0.9546849 1.0264043 0.9714019
0000b0 25 1d 7a 3f e0 9e 79 3f 24 83 7f 3f 1b 84 7c 3f
       0.9770072 0.9750805 0.9980948 0.98639077
0000c0 94 0a 7d 3f 3e ad 84 3f 4c f3 77 3f d0 be 84 3f
       0.98844266 1.0365369 0.96855617 1.0370731
0000d0 61 7c 85 3f df b1 79 3f 63 99 78 3f 0a d3 80 3f
       1.0428582 0.97537035 0.9710905 1.0064404
0000e0 e4 3c 78 3f 76 14 7b 3f a9 52 81 3f bf b6 77 3f
       0.9696791 0.98078096 1.0103351 0.96763223
0000f0 4c 25 84 3f 45 98 7a 3f 76 0e 80 3f aa 9c 84 3f
       1.0323882 0.97888595 1.0004413 1.036031

critic.2.bias f4 [64]
000000 65 70 ba 3c 03 0f 40 bd 30 fc 25 bd 55 f8 8c bc
       0.022758672 -0.046889316 -0.040523708 -0.017208258
000010 0a a7 3b 3d d4 b1 26 bd 6f e7 32 3c 4b 16 06 bd
       0.045813598 -0.040696934 0.010919436 -0.032736104
000020 53 a8 70 bc 5c df 1c 3d 27 eb 00 3d 42 36 0f 3d
       -0.014688569 0.03829895 0.03147426 0.034963854
000030 ad 1f 20 3d ac f5 1b 3d 56 be 1d 3d e5 78 f6 bc
       0.03909271 0.038076088 0.038511597 -0.030086944
000040 8b c5 51 bc f2 e8 28 bd c5 db 0e 3d a3 7e 41 3d
       -0.012803446 -0.04123778 0.034877557 0.04723991
000050 76 ca 12 3d 9a 08 0e bd dd 53 66 bc 2d fa 6d bb
       0.035837613 -0.03467617 -0.0140580805 -0.0036312446
000060 1a bb 1e bd 9f e4 02 bd c3 04 a6 3c c4 4b 24 3d
       -0.038752653 -0.03195631 0.020265942 0.04011132
000070 b7 a0 0a 3d a7 35 26 bd c3 59 23 3c 7b e5 83 3c
       0.033844676 -0.04057851 0.009970131 0.016100636
000080 45 36 e9 bc fc 4f 9c 3c 3a c7 15 bd ad fb 99 bc
       -0.02846826 0.019081108 -0.03656695 -0.018796766
000090 1f fa de bc 06 87 28 bd 10 bb 16 bd 34 ff 13 3c
       -0.027218876 -0.041144393 -0.03679949 0.009033013
0000a0 d6 cf d7 3c 98 c3 72 3c 2d 72 a5 bc b1 da ee 3c
       0.026344221 0.014817141 -0.020196045 0.029157015
0000b0 a0 8d db bc 45 c3 16 3d 10 8b 85 bc a6 83 2b 3c
       -0.02680093 0.036807317 -0.016301662 0.010468399
0000c0 84 3a 2c bd 84 0a 1a bd 41 67 05 bd 98 5e 2d bd
       -0.042047992 -0.037607685 -0.032569174 -0.04232654
0000d0 d6 04 2c bd 2e 53 79 ba 01 7a 26 bd e1 e2 05 3d
       -0.0419968 -0.0009510991 -0.040643696 0.03268707
0000e0 ae a0 d2 ba d6 fb 7c 3b 84 2f 21 bd 3c 82 04 bb
       -0.0016069615 0.0038602254 -0.039351955 -0.0020219227
0000f0 25 df 13 bd 0f dc cb bc 0c c0 ed 3c 67 88 03 bd
       -0.03610148 -0.024885206 0.02902224 -0.032112505

critic.3.weight f4 [64, 64]
000000 df 8c 06 3e a8 c0 a8 bd c5 87 a7 3d 9f 1d e8 3d
       0.13139676 -0.08239871 0.08180193 0.11333775
000010 60 76 2e bc d6 f3 26 3b e9 f7 89 bd 29 8d 6e 3d
       -0.01064834 0.0025474927 -0.06736738 0.05824009
000020 0a d5 f3 bb fb da 84 bd 13 d8 96 3b 64 7d a6 bc
       -0.0074411677 -0.0648708 0.004603395 -0.020323463
000030 77 b8 b3 3d cc dd 07 bd 53 20 92 bc 04 1b f6 bd
       0.08775418 -0.033170506 -0.017837679 -0.120168716
000040 a5 b1 99 bd db 11 fd 3d 3e 68 8f bd 66 7f e5 3d
       -0.07504586 0.12356921 -0.070023045 0.1120594
000050 24 f8 76 3d 8b 18 9f 3d 04 f3 89 3c 55 81 ca 3d
       0.06029524 0.07768353 0.016839512 0.098879494
000060 42 25 45 bd d3 90 dd 3d ca 5d 9e 3d 86 b6 28 3c
       -0.048131235 0.10818639 0.077327326 0.010297423
000070 67 61 ec bc 5a 21 d0 bd 9e 63 c5 bd 76 52 86 bd
       -0.028855039 -0.10162611 -0.09638141 -0.06558697
000080 0d 13 1c 3d e3 71 d6 3c 0f 30 70 3d 30 df 83 bd
       0.038104106 0.026177352 0.058639582 -0.06439054
000090 5c dc 0f bd 36 1c 83 3d fe b3 ea bd c5 ce 86 bd
       -0.03512226 0.06401865 -0.11460112 -0.06582407
0000a0 6d b9 ea bd 54 a0 a5 3d 4a a3 0b 3c 93 cc 4e 3b
       -0.114611484 0.08087221 0.008522818 0.0031555041
0000b0 91 ec b4 3c f9 0d cf bd 88 13 f1 3c 75 3a fc bd
       0.02208546 -0.10110087 0.029428259 -0.12315837
0000c0 4c 3c 76 3d 26 60 9e bd 19 a6 c6 3d 21 a0 a6 bd
       0.060116097 -0.077331826 0.09699649 -0.08136011
0000d0 4a 36 d6 bd f8 5d d2 bc f5 c8 5f 3d 42 61 d3 3d
       -0.104595736 -0.025679573 0.054635007 0.10321285
0000e0 f8 46 32 3d a6 9f 0e 3d ca 73 64 bd 57 a7 bb bd
       0.043524712 0.03482022 -0.055774488 -0.09162777
0000f0 7b 1d 80 3d d9 ce e2 bb 35 9f ee 3d e4 d2 5d bd
       0.06255623 -0.006921631 0.1165146 -0.0541562
000100 34 9e 55 3b 4a 19 f2 3d 36 cc 41 bd ef cd 86 3d
       0.0032595517 0.1182123 -0.04731389 0.065822475
000110 09 d8 be bc 1c 7c 4b bd 6a f9 e1 bd 70 57 7b 3d
       -0.023296373 -0.049678907 -0.110339 0.061362684
000120 86 f1 58 3d a9 af 7f 3d 44 30 64 3d 58 ea d6 bc
       0.05296471 0.062423382 0.055710092 -0.02623479
000130 f3 01 4b 3d 92 ea 03 be c7 83 d8 bd 4c 4c a2 3b
       0.049562406 -0.1288245 -0.105720095 0.004952943
000140 86 48 d8 3d 14 94 cd 3d 93 2e b7 bc a1 5f 0f 3d
       0.10560708 0.10038009 -0.022361076 0.03500331
000150 b4 c8 69 3d 5f b9 b8 3d 44 9a d6 bd d1 4c ab bd
       0.05707617 0.09019732 -0.104786426 -0.08364261
000160 11 2c b3 3d 12 56 f0 38 72 e8 dc 3b 16 b8 40 3d
       0.087486394 0.00011460124 0.006741577 0.047050558
000170 cd 07 80 bd 9a 6c 04 3d 91 9c bb bd 57 a8 ea 3c
       -0.06251488 0.032330133 -0.09160722 0.028644724
000180 fb 6b 11 be 8e 33 75 bc 65 e6 80 bd 57 82 86 bd
       -0.14201348 -0.014965905 -0.06293944 -0.06567829
000190 cf 6e f3 3b 79 cd ce 3b c2 06 c8 bd 3f 4d 56 bc
       0.007428981 0.0063111153 -0.09766914 -0.01307994
0001a0 38 c5 2a 3d 30 6c 75 3d c0 4b 27 3d af c4 c0 bc
       0.04169199 0.05991763 0.040843725 -0.023531286
0001b0 71 97 06 be ee 1f cd bd 12 aa e6 bd da de 49 bd
       -0.13143708 -0.10015856 -0.11262907 -0.049284793
0001c0 9a eb 79 bc 6f b9 12 bd 43 91 16 3d 29 ee 0b 3e
       -0.015253926 -0.035821375 0.036759626 0.1366507
0001d0 72 3a c7 3d 75 f9 dd 3c 51 01 e2 3d 0d e6 80 bd
       0.097279444 0.02709649 0.11035407 -0.06293879
0001e0 bb a0 c6 bb dd 05 64 bc f5 16 3b bd bc be 96 bd
       -0.006061641 -0.013917414 -0.04567619 -0.073605984
0001f0 cc 22 ca 3d 07 a7 c6 3d c6 3a 9f bd 38 72 96 3c
       0.09869918 0.09699827 -0.07774882 0.01836501
000200 c9 7f 85 bd d3 32 96 bd e5 7e 6a bd d0 f3 37 3d
       -0.06518514 -0.07333913 -0.057249922 0.044910252
000210 34 66 2b bc 63 29 91 bd e1 d2 15 3d 92 9c 02 3e
       -0.010461379 -0.07087972 0.036578063 0.1275504
000220 40 e4 10 be fc d4 3c 3d 0c 37 97 bd b4 f1 a6 bd
       -0.1414957 0.046101555 -0.07383546 -0.0815157
000230 54 06 11 3d 8f 76 91 bd b9 e2 de bb c1 4f 54 3d
       0.035406426 -0.071026914 -0.00680193 0.05183387
000240 b4 27 9f 3d f7 9b cc 3c 5f 85 8c 3d dc e9 ea bb
       0.07771245 0.024976714 0.06861376 -0.0071689915
000250 ba 59 1d 3d 9a bf 56 bc 92 85 32 bd a6 77 97 bd
       0.038415648 -0.013107205 -0.043584414 -0.07395868
000260 08 c6 0a be 7d 41 8a bd 26 b0 0b be 09 b1 8f bd
       -0.13552105 -0.06750772 -0.13641414 -0.07016189
000270 31 c9 aa 3d 63 28 63 bd 30 df 84 3d 0d 3d 66 bd
       0.083391555 -0.055458438 0.06487882 -0.056210566
000280 20 73 7a bd 02 51 b2 3d 66 bb 99 bc c9 0a 1e be
       -0.061144948 0.08706857 -0.018766116 -0.15433802
000290 80 1c 8e bd bf c4 a1 bd a8 3b d0 3d 60 a6 bb bc
       -0.0693903 -0.078988545 0.101676285 -0.022906482
0002a0 53 bd 1a be 45 3c c7 3c a5 ae 93 3d f4 c5 26 3d
       -0.15111284 0.024320731 0.07211045 0.040716127
0002b0 58 66 26 bd b9 40 0e 3e 46 8c 3c 3d 11 be bc 3d
       -0.040624946 0.13891877 0.046032213 0.0921594
0002c0 31 ee 91 3d 34 b7 d7 bd 48 73 6a 3d 3c 33 a5 3c
       0.071255095 -0.1053299 0.057238847 0.020166032
0002d0 dc 08 e3 bd 4e 15 5f 3d 73 94 e4 bb 1a 85 0d 3d
       -0.11085674 0.054463677 -0.0069757043 0.034550764
0002e0 04 8f 4a 3d ff f5 ea 3d 6d 47 37 3d 0f fc 13 bb
       0.049452797 0.11472701 0.04474585 -0.0022580659
0002f0 1f fd a7 bd 60 c2 9e 3d f4 ee 2e bd ba e3 23 be
       -0.08202576 0.07751918 -0.042708352 -0.1600484
000300 47 8d 8e bc 95 99 8a 3d 47 e8 ba bd 10 1c 6e bd
       -0.01740135 0.06767575 -0.09126335 -0.05813223
000310 8b 32 ed 3d 08 01 3d 3d c5 7b 82 bd da 66 ea bc
       0.11581906 0.04614356 -0.063712634 -0.028613497
000320 23 34 8b 3c a3 e3 03 bd fa b4 21 3b f8 26 9d bd
       0.016992634 -0.032199513 0.002467452 -0.07673448
000330 e5 87 65 3c 88 6a be bd db 80 fd bb 96 bf f0 bd
       0.014009451 -0.09297663 -0.007736308 -0.11755292
000340 b6 6b 46 bd 59 b5 af bd 6d 43 9e 3d 35 52 53 bd
       -0.048442565 -0.08579511 0.07727704 -0.05159207
000350 e4 ba 07 3e 8c 1d ad bd 68 91 b8 3d 06 06 11 ba
       0.13254887 -0.08452901 0.09012109 -0.00055322086
000360 41 67 3b 3c 7a 78 91 bd 22 cf c4 bc fd cf ec 3d
       0.011438192 -0.07103057 -0.02402455 0.11563108
000370 a1 a2 b9 3d 28 94 65 3a 43 41 c0 3d f0 f4 6a bd
       0.09064222 0.0008757734 0.09387448 -0.057362497
000380 1c 63 ac bd 08 4d 04 be 2b fc 92 3d 78 b5 e8 bd
       -0.08417341 -0.1292001 0.071770035 -0.113627374
000390 b6 60 6a bd 35 c7 1a bd bc 21 88 bd 2f 43 a4 3c
       -0.057221137 -0.037787635 -0.06647059 0.020051567
0003a0 bd f2 f4 bc 3e 07 1f 3d 20 dc 07 be 3a a4 ba 3d
       -0.029900903 0.038825266 -0.13267565 0.09113355
0003b0 21 eb 82 bc b7 94 b9 bd 88 78 a4 3d 8b 0a 0a 3d
       -0.015981259 -0.09061568 0.08030802 0.03370146
0003c0 73 6e 49 bd 50 1d 8b 3d 56 e1 28 bd b8 ae 89 3c
       -0.0491776 0.067927 -0.041230522 0.016806945
0003d0 31 f6 9b bd 90 5d 21 bd ea b2 29 bd ca 7a 03 bd
       -0.07615317 -0.03939587 -0.04143039 -0.032099523
0003e0 bc a3 12 bd 9d bf 32 bd 71 0f ab 3d 35 77 e6 3c
       -0.03580068 -0.043639768 0.083525546 0.028133014
0003f0 94 fa 9e bd 19 2c a1 bd 3c 89 d2 3d 8e ff e1 bd
       -0.07762638 -0.07869739 0.10280082 -0.11035071

critic.3.bias f4 [64]
000000 f3 b0 97 bd 6a 8b 37 3d ef 89 1e 3e 8e 6c a8 3c
       -0.07406797 0.04481069 0.15482305 0.020559575
000010 98 c9 37 bd f1 4f fa bc 4d 7b cb 3d ab 09 3c 3d
       -0.04486999 -0.030555697 0.09935627 0.045907658
000020 d3 96 01 be 16 a1 09 3d 36 f8 46 bd d4 e4 b2 bd
       -0.12655191 0.03360089 -0.048576556 -0.08735052
000030 d8 59 be bd 0a e6 d1 3d 13 91 13 be b9 03 aa 3d
       -0.0929448 0.102489546 -0.1441081 0.08301491
000040 0d 86 3e bd be 87 91 bd d1 c5 b2 3d 29 e9 0a be
       -0.04651456 -0.07105969 0.08729137 -0.13565506
000050 04 b9 a6 bc 80 9c b4 3c 77 c1 8e 3d 05 30 72 bb
       -0.020351894 0.022047281 0.06970494 -0.0036954891
000060 49 7a 41 bd f0 e3 63 3d 2e 94 06 3e 4c 73 38 3c
       -0.04723576 0.0556373 0.13142464 0.011257958
000070 53 bf 52 bd b3 0a 14 be 69 09 04 3e 92 f5 ce 3d
       -0.051451992 -0.14457206 0.12894215 0.101054326
000080 b1 8a 0f bd fb 63 06 3d 67 56 0f 3e c6 2e 0a 3e
       -0.035044376 0.032810193 0.13997804 0.13494405
000090 6e f1 be bc e0 0c e0 3d cc 6a 47 bd ae ff aa 3d
       -0.023308482 0.10939956 -0.048685834 0.08349548
0000a0 22 57 a8 bc 83 d5 20 bc 36 8d 30 bc b9 5e 7c bd
       -0.02054936 -0.00981653 -0.010775855 -0.061613772
0000b0 03 4f e2 bd 56 e4 55 bd 12 cf b7 3d a0 a9 96 3c
       -0.110502265 -0.05221971 0.089750424 0.01839143
0000c0 7a 83 fd bd 2e 1e 89 3d fb 69 40 bc a3 be 87 3d
       -0.12378593 0.066952094 -0.011744018 0.06628158
0000d0 25 89 bf 3c c2 49 56 3d 87 c9 6e bc b4 0b 83 bd
       0.023380825 0.052316435 -0.014574415 -0.063987166
0000e0 bd d4 dd 3d 46 43 87 3d 51 df b9 3d 8f d3 c1 3d
       0.10831592 0.06604628 0.09075797 0.0946418
0000f0 f7 4a 59 3d 8d 7a b8 3d 2a 55 89 3d 2e 75 00 3e
       0.053050008 0.0900775 0.06705697 0.125447

critic.5.weight f4 [64]
000000 f9 c8 87 3f 2e 19 89 3f 86 fc 88 3f c4 12 88 3f
       1.0608207 1.0710809 1.0702064 1.0630727
000010 b0 7f 87 3f 5a 35 81 3f 40 38 89 3f e5 f6 88 3f
       1.0585842 1.0094407 1.0720291 1.0700346
000020 d2 e8 88 3f a7 fd 88 3f c5 84 86 3f 7a ec 87 3f
       1.0696051 1.0702409 1.0509268 1.0619042
000030 c1 6b 88 3f 71 92 83 3f fa bc 88 3f ee 20 88 3f
       1.0657884 1.0279065 1.0682671 1.0635049
000040 c9 ac 85 3f 2a 1d 89 3f ee b5 88 3f 9f 1d 89 3f
       1.0443355 1.0712025 1.068052 1.0712165
000050 0c 02 89 3f 87 87 88 3f 9f dd 85 3f 3e 73 82 3f
       1.070375 1.066636 1.0458258 1.0191419
000060 34 7a 88 3f 5e 24 87 3f 08 7c 7d 3f 51 97 79 3f
       1.0662293 1.0557973 0.9901738 0.97496516
000070 21 15 89 3f ce 5a 89 3f d0 0c 88 3f a2 17 88 3f
       1.0709573 1.0730836 1.062891 1.0632212
000080 5b d9 81 3f 74 02 89 3f 1f 11 89 3f bb aa 88 3f
       1.0144457 1.0703874 1.070835 1.0677103
000090 5c f0 87 3f a1 87 87 3f b9 a5 88 3f 6f 90 89 3f
       1.0620227 1.0588266 1.0675575 1.0747203
0000a0 81 76 88 3f a6 9a 86 3f c1 ad 88 3f 90 5e 88 3f
       1.0661165 1.0515945 1.0678025 1.0653858
0000b0 fa 3d 89 3f 2e 0e 89 3f 99 4b 89 3f 7b 4d 89 3f
       1.0722039 1.0707452 1.0726196 1.072677
0000c0 4e a4 88 3f 88 98 88 3f 68 4b 88 3f 92 c8 88 3f
       1.0675142 1.0671549 1.0648012 1.0686209
0000d0 82 53 89 3f 5c 8f 86 3f a1 4a 89 3f 8c 2e 89 3f
       1.072861 1.05125 1.07259 1.071733
0000e0 85 dc 81 3f e8 99 89 3f c2 4c 81 3f b7 ab 84 3f
       1.0145422 1.0750093 1.010155 1.0364903
0000f0 01 40 89 3f 6c b9 87 3f 79 3e 82 3f 2c f3 87 3f
       1.0722657 1.0603461 1.0175315 1.0621085

critic.5.bias f4 [64]
000000 9d b9 8c 3d 24 6b 8c bd 6e 6c 8b 3d 08 15 95 3d
       0.068713404 -0.06856373 0.06807791 0.07279402
000010 20 5c 8a bd f2 47 7e 3d 8e 12 8e 3d f2 8a 8f 3d
       -0.06755853 0.06208033 0.06937133 0.070089236
000020 bc d7 88 bd a8 eb 8a 3d ca 71 87 3d 12 35 73 3d
       -0.06681773 0.06783229 0.066135004 0.059376784
000030 0f 7a 9c 3d cc 92 8d bd 4a 91 8b bd c7 a2 8b bd
       0.07640468 -0.06912765 -0.06814821 -0.06818157
000040 52 4b 82 bd 9c b4 92 bd a2 89 88 bd 03 ae 88 bd
       -0.063620225 -0.07163355 -0.066668764 -0.06673815
000050 78 36 94 bd 36 91 8b bd 24 8a 89 bd e6 d2 83 bd
       -0.072369516 -0.06814806 -0.06715801 -0.0643671
000060 64 00 8d bd 70 a0 8d 3d f0 75 06 bd 16 37 65 bd
       -0.0688484 0.06915367 -0.032827318 -0.055960737
000070 37 be 89 3d 86 e7 88 bd bd 01 8b 3d c9 a1 8e bd
       0.06725734 -0.066847846 0.06787441 -0.06964452
000080 0f 49 82 3d 6b 67 89 bd f5 2a 8b 3d 80 60 8c 3d
       0.06361591 -0.067091785 0.06795303 0.068543434
000090 0e e1 8e bd ff 85 8a 3d 7a 98 9c 3d cf 49 89 3d
       -0.069765195 0.06763839 0.0764627 0.06703531
0000a0 95 cb 91 bd 61 d3 89 bd 91 c1 94 bd c5 bf 8f bd
       -0.07118908 -0.067297705 -0.07263482 -0.07018999
0000b0 1f 6b 89 bd e9 b3 8b bd 22 c3 8a 3d b7 a1 95 3d
       -0.06709885 -0.068214245 0.067755 0.07306235
0000c0 11 39 8f bd a5 8a 8a bd 5f f5 8c 3d 50 d6 8c 3d
       -0.069933064 -0.067647256 0.06882738 0.06876814
0000d0 7f 52 96 3d bd 97 32 3d d7 83 88 bd 12 34 89 3d
       0.07339954 0.04360174 -0.066657715 0.06699385
0000e0 02 25 80 3d a8 51 a2 3d f4 ba 83 bd b1 20 8a bd
       0.06257059 0.07925731 -0.06432143 -0.06744517
0000f0 5b 5c 92 bd e3 1e 89 bd 6f 23 81 bd 72 b0 8b 3d
       -0.07146522 -0.06695344 -0.063055865 0.06820764

critic.6.weight f4 [1, 64]
000000 9d 5c e7 bd e3 a6 0d 3e 69 b2 1c be 54 0b b6 bd
       -0.112969615 0.13833193 -0.15302433 -0.088888794
000010 c6 e9 11 3e a6 de a9 bd 63 e1 04 be a0 a0 e7 bd
       0.14249334 -0.0829442 -0.12976603 -0.11309934
000020 e5 b0 3b 3e 37 df 21 be f9 7c 18 be 1b 93 6f bd
       0.18329199 -0.15807806 -0.14891423 -0.0584899
000030 7f b4 93 bd 3d bf 4f 3d df 89 0e 3e fc 32 0b 3e
       -0.07212161 0.05071949 0.13919781 0.13593668
000040 10 9b 08 3d 0a 62 cc 3d 8d 48 38 3e 0f 41 40 3e
       0.033351004 0.09979637 0.17996426 0.18774818
000050 f5 58 c2 3d 95 72 0a 3e 77 7d e7 3d e1 32 99 3d
       0.094896235 0.13520272 0.113032274 0.074804075
000060 3b cf 08 3e 59 98 dd bd 74 d6 13 bc b8 e6 28 3d
       0.13360302 -0.10820074 -0.009023298 0.041235656
000070 c1 e4 2d be d1 98 41 3e 5d 93 09 be 63 a4 d7 3d
       -0.16981794 0.18905951 -0.13435121 0.10529401
000080 97 d7 44 bd dc 84 30 3e 69 68 1b be 9d 8e 07 be
       -0.048057165 0.17238182 -0.15176548 -0.13237996
000090 be b7 cf 3d ad 99 12 be 5e 20 86 bd f3 61 40 be
       0.10142468 -0.14316435 -0.06549142 -0.18787365
0000a0 c3 f8 d4 3d 22 3c 04 3e a3 66 a7 3d 99 d0 e5 3d
       0.1039901 0.12913564 0.08173873 0.112214275
0000b0 40 10 37 3e c3 77 13 3e 8a 8b 24 be df e7 b9 bd
       0.17877293 0.14401154 -0.16068855 -0.09077429
0000c0 e7 50 f0 3d 86 0d 17 3e cf 4b 08 be 3c b3 0f be
       0.11734181 0.14751253 -0.13310169 -0.14033216
0000d0 0e f6 b7 bd 1c a6 53 bd 80 8d 47 3e c6 e2 39 be
       -0.08982478 -0.051672086 0.19487572 -0.18152913
0000e0 c6 8c ec bd 01 6b 8e bd fc 72 44 3d aa 8c a8 3d
       -0.11550288 -0.06954003 0.04796122 0.082299545
0000f0 bd 29 d5 3d a8 a2 28 3e 62 7b 05 3e 58 80 0a be
       0.104083516 0.16468298 0.13035348 -0.13525522
