best_policy.pt (torch, 171747 bytes, 45 tensors)

weight f4 [128, 3]
000000 6c c1 e3 be 25 e4 30 3e 0c 55 46 3d 1f 39 fb 3e
       -0.44483507 0.1727453 0.04842095 0.49067017
000010 07 6a 0a bf af bb 97 3e 7d 21 01 bf 17 94 4a be
       -0.54068035 0.2963538 -0.50441724 -0.19783054
000020 dc a4 0a 3e 32 12 6e be fe 75 5c be 11 a0 c4 be
       0.13539451 -0.23249128 -0.21529385 -0.3840337
000030 fd a3 00 be a9 6d cc 3d e7 6f 85 3e 89 46 05 3f
       -0.12562557 0.099818535 0.26061937 0.52060753
000040 0d bf c3 3e da 65 ea 3d d1 69 15 3d 3c c1 8f 3e
       0.38231698 0.11445208 0.036477868 0.28077114
000050 ca e6 26 be d6 ac a7 bd 96 53 e0 3d e8 2f c2 3e
       -0.16298977 -0.08187263 0.10953443 0.37927175
000060 24 b8 98 bd ba a4 98 be 00 f0 e7 be 83 3d 1f be
       -0.07456997 -0.29813176 -0.45300293 -0.15550809
000070 f2 3d 0f 3f a2 3a 29 3d e7 c2 0d bf 4c 55 aa be
       0.55953896 0.041315682 -0.5537552 -0.332682
000080 7b 38 3f be 7e c2 e1 3e 9d 13 02 3e ca 96 f3 be
       -0.1867389 0.44093698 0.12702794 -0.4757598
000090 09 e3 05 bf 3d cb 29 3e 63 cb e0 bb 94 c8 82 be
       -0.52299553 0.16581436 -0.006860183 -0.25543654
0000a0 2e 09 05 3f a1 3c 87 3e d3 71 60 bd 80 d2 06 3f
       0.5196713 0.26413444 -0.05479605 0.5266495
0000b0 1b c1 09 3f a1 17 9b 3e c9 3f 88 be 09 7a af bd
       0.5381028 0.30291465 -0.26611164 -0.08568198
0000c0 4d 69 39 3e ca 6f 13 3f c2 b8 54 3e 8e 32 e5 3d
       0.18106575 0.5759245 0.20773605 0.11191283
0000d0 63 59 c7 3e 8c 81 ce 3d 76 5a bc 3e 44 73 b6 be
       0.38935384 0.10083303 0.36787766 -0.35634816
0000e0 74 8d d0 3d eb 83 5b 3e 54 3d 68 be 49 d8 0c 3f
       0.1018323 0.21437041 -0.22679645 0.55017525
0000f0 f7 7e 36 bd 26 f8 a9 bd 49 c5 44 3e 78 ab 87 3e
       -0.044554677 -0.08299284 0.19215883 0.26498008
000100 0e e5 a7 be 36 5d 05 bf 0e 6f 83 be aa 24 aa be
       -0.32791942 -0.52095354 -0.25670666 -0.33231097
000110 93 0e 9d 3e a1 81 79 3e d3 84 63 3e 2d 2d 07 3f
       0.30675182 0.24365856 0.22218637 0.5280331
000120 73 42 15 3e 33 d4 d4 be 69 9c 01 be e2 eb e0 be
       0.1457613 -0.41568145 -0.12657322 -0.43929964
000130 86 29 fd be 7e 2d a4 be f5 2b 20 be 98 42 af 3e
       -0.49445742 -0.32065958 -0.15641768 0.34230494
000140 6d ff 04 bf 0f dc ca 3e 2d 54 6f be 24 3f 0e 3d
       -0.5195225 0.39621016 -0.23371954 0.034728184
000150 17 0e 0a bf 73 65 45 3c 69 2c 03 3f a7 54 af 3e
       -0.5392775 0.012048113 0.5123964 0.34244272
000160 a0 c8 b9 be 12 b4 da bd cc e2 01 bf b3 46 3d 3c
       -0.36285877 -0.10678877 -0.5073669 0.011552501
000170 fc bb 8e 3e be 2b 22 3d b9 0f bc 3e be 60 b2 3e
       0.27877796 0.039592497 0.36730745 0.34839433
000180 e3 51 03 bf 4b 59 b2 3e 13 8a 9f 3e c4 fc 06 bf
       -0.51296824 0.3483375 0.3116003 -0.5272944
000190 82 e8 03 bf 6f 2f 0d bf 9b c3 f2 3e b5 3b 21 3d
       -0.51526654 -0.551505 0.4741486 0.03936358
0001a0 b8 f9 b7 3e 4b 48 d3 be 61 f4 f7 be 06 1e 66 3e
       0.35932708 -0.41266093 -0.48428634 0.2247239
0001b0 23 3d d8 3e 24 c9 df be f4 5a 4f 3e 53 57 0b bf
       0.42234144 -0.43708146 0.2024954 -0.5443012
0001c0 e7 26 c0 be f2 0b 83 bc 90 ce de 3d 77 ce 98 3e
       -0.3752968 -0.015996907 0.108792424 0.2984502
0001d0 e0 dd 8e be c0 60 a4 bd 33 73 7d be af db b4 be
       -0.27903652 -0.08026266 -0.24750976 -0.35323855
0001e0 48 dc 1d 3d 40 88 10 be c6 75 5a 3e a2 17 45 3e
       0.038540155 -0.14114475 0.2133399 0.19247296
0001f0 0a e0 ee 3d 10 48 83 bd f4 a4 73 3d 16 0d 9f bd
       0.11663826 -0.06410229 0.059483483 -0.07766168
000200 08 c1 e3 be ab de a4 be 86 0a ea 3d ea 3d a8 3e
       -0.4448321 -0.32201132 0.114277884 0.32859737
000210 27 de 11 3f 95 8f bf 3e b9 c2 da bd 42 a0 fa 3e
       0.569796 0.37414232 -0.10681672 0.48950392
000220 c7 f8 f5 3d 05 10 88 3e 77 39 7d be 95 76 26 3d
       0.12010341 0.26574722 -0.24728952 0.040640432
000230 25 76 69 bd 38 38 bc 3e c2 ed e1 be 7f 25 e8 3e
       -0.056997437 0.36761642 -0.44126707 0.45341107
000240 cc c7 96 3d 59 11 6f be 7a dc a5 be 71 63 81 3e
       0.07362327 -0.23346461 -0.32394773 0.2527118
000250 e0 f4 3b bd cc d9 23 bd ab ff 0f bf 4e 93 09 bd
       -0.045887828 -0.04000263 -0.56249493 -0.033587746
000260 c4 50 57 3e d2 0e 10 bf 4a dc 10 be 57 19 0d bf
       0.21026903 -0.56272614 -0.14146534 -0.5511679
000270 66 a2 fd 3c 03 cd 0b bf 6f c7 f4 3e 47 22 0e bf
       0.030961227 -0.546097 0.47808406 -0.55521053
000280 73 aa f5 be 30 6b 0f 3f 7b 5a ed 3e 59 5b fd 3e
       -0.47981605 0.5602293 0.46358094 0.49483755
000290 da 6f 58 3e 3f c4 97 3d 01 07 0c bf 67 47 8a bd
       0.21136418 0.07410478 -0.5469819 -0.067519
0002a0 8f 7d ea 3e 84 a3 d5 3e 78 db 1a 3e dc a1 c4 be
       0.4579892 0.41726315 0.15122783 -0.3840474
0002b0 b1 98 06 3f 0c 48 6b be cf d1 d1 be a3 ac bb bd
       0.5257674 -0.22976702 -0.40980384 -0.09163787
0002c0 1e 3a 92 be 60 ea ba 3e e0 7f 59 3d d1 f1 2c be
       -0.28559965 0.3650694 0.053100467 -0.1688912
0002d0 64 59 3d 3d eb ea 56 3e f1 0b 79 be cf b0 f5 3e
       0.046227828 0.20988052 -0.24320962 0.47986457
0002e0 53 30 b0 be 48 d4 00 3f 2d e1 e4 3e b2 ad d9 3e
       -0.34411868 0.50323915 0.44703045 0.42515332
0002f0 3d ed 81 be 06 c3 90 be 7c fd bd be b8 43 0d 3f
       -0.2537631 -0.2827379 -0.37107456 0.55181456
000300 15 45 e4 3e 55 6d aa be 3f 1e 94 be 24 f2 2a be
       0.44583955 -0.3328654 -0.28929326 -0.16693932
000310 5e 84 e5 be 78 ee a0 3e 6a 82 dc 3e 81 e7 ea 3d
       -0.4482755 0.31431937 0.43068248 0.11469937
000320 2f 89 e2 3e 8b ce aa be 9a e1 98 3e 52 81 76 3e
       0.44245288 -0.33360705 0.2985962 0.2407277
000330 55 2b 42 bd 5c 1d 00 bf 44 ff 85 bd 45 31 a1 3e
       -0.047404606 -0.500448 -0.06542829 0.31482902
000340 13 14 e8 be 0d 91 01 3f e7 e4 02 bf 4b af ab 3e
       -0.45327815 0.50611955 -0.5113053 0.33532175
000350 e3 3c 07 bf 73 db d8 3e c1 40 06 bf 2f ba d4 3e
       -0.5282728 0.42354926 -0.52442557 0.41548297
000360 ac 22 9c 3e 65 87 86 be 15 db d2 3e 1a ce 37 be
       0.30495203 -0.26275173 0.4118277 -0.17949715
000370 ae 46 e4 be 4b bd 0a bf 81 2e 25 be 71 fa 03 3f
       -0.44585174 -0.5419509 -0.16131021 0.5155402
000380 46 9f 91 3e 28 c6 b2 bd 25 ca 06 bf b2 21 03 3f
       0.28441828 -0.087292016 -0.526522 0.5122329
000390 ea 43 8d 3e 36 0e dd be 74 24 70 3e 30 2f 93 be
       0.27590877 -0.43174905 0.23451406 -0.2874694
0003a0 b4 bd 09 bf 22 ab e7 be 85 38 8d 3c 2b f2 88 3e
       -0.5380509 -0.4524775 0.017238865 0.2674726
0003b0 55 f2 06 3d bd f9 0a 3f 6f ea 41 3e 4e 45 f8 3e
       0.03294595 0.5428732 0.18937086 0.48490375
0003c0 ad 27 c1 be 36 8e fe be 22 6b 06 3f fe e6 47 be
       -0.37725583 -0.49717873 0.5250722 -0.1952171
0003d0 ba 78 51 3d fd 32 ce 3e 90 94 b7 bd 82 1f 87 3c
       0.051140524 0.40273276 -0.08963883 0.016494516
0003e0 7e ec 86 be bc 5c f8 3e 5c 35 b2 be 07 4a b4 3e
       -0.26352304 0.4850825 -0.34806335 0.35212728
0003f0 2c 76 94 be 52 8a 72 be 28 f0 e9 3e fc d5 8f 3e
       -0.28996408 -0.23685578 0.45691037 0.28092945

bias f4 [128]
000000 ef f8 d2 be 60 1f ff 3e 73 d5 58 be 19 c3 56 3e
       -0.41205546 0.49828625 -0.21175174 0.20972861
000010 c2 d0 80 3e 26 dd 95 be 63 6b e5 bd c0 af 64 3e
       0.2515927 -0.29270285 -0.11202123 0.22332668
000020 01 c6 09 3e c9 32 14 3e 7d 20 91 3e 67 2e ec 3e
       0.13454439 0.14472498 0.283451 0.46129152
000030 12 0c 09 bf e9 dd e2 be 56 e7 89 3e f6 e7 f5 ba
       -0.5353404 -0.4430993 0.26934308 -0.0018761146
000040 af 53 a8 3e a1 44 44 be db 32 78 be 25 d6 68 3d
       0.32876346 -0.19166805 -0.2423815 0.05684485
000050 c0 d9 c9 3d a9 73 f3 3e 68 43 7d be 34 13 22 bd
       0.09855986 0.4754918 -0.24732745 -0.039569095
000060 65 b3 02 3f 39 7e f0 3e 34 be 04 3e 6e d1 43 3e
       0.51054984 0.469713 0.12963182 0.1912286
000070 ec 7f 05 bf af 83 07 bf 58 1c b1 be 61 f4 a2 be
       -0.5214832 -0.5293531 -0.34591937 -0.3182707
000080 ea 6e 0a 3c f0 de 3f be e1 05 02 bf df e7 07 3f
       0.008449296 -0.18737388 -0.5079022 0.5308818
000090 e5 9a 65 be 84 b1 c6 3e 1c 88 96 bd dd d1 5d 3d
       -0.22422369 0.3880731 -0.073501796 0.05415522
0000a0 ff f7 85 be 08 f1 38 be d8 fa ea 3d 0d 47 bc be
       -0.26165769 -0.18060696 0.11473626 -0.36772957
0000b0 44 83 bd be 69 38 a8 3d a8 38 9e 3e 09 12 43 be
       -0.3701421 0.082138844 0.309026 -0.19049849
0000c0 42 d2 90 3e f2 35 14 3d 24 20 0b bf cd 3d ee 3e
       0.28285414 0.03618426 -0.5434592 0.46531525
0000d0 c7 e2 21 3c 6c e0 11 bf 88 6b a4 3e 7f 83 0d bf
       0.009880728 -0.56983066 0.3211329 -0.5527877
0000e0 94 a6 f5 be 31 66 0c 3f 08 b0 fe be ea 97 af 3e
       -0.47978652 0.5484343 -0.49743676 0.3429559
0000f0 8d 05 9e 3e f5 46 f9 be b2 f9 f1 3e 8c ae c5 3e
       0.3086361 -0.48686948 0.47260815 0.3860973
000100 b5 e3 ab 3e 01 07 d0 3d 6c 4f ef 3e fc a9 0d 3e
       0.33572164 0.10157586 0.46740282 0.13834375
000110 d2 90 2d be 8e 54 d6 be b9 b8 fa 3e 33 a9 32 3e
       -0.16949776 -0.41861385 0.48969057 0.17447357
000120 2e a4 46 be 3c b0 16 bc d3 5c d5 3e 87 49 d3 3e
       -0.19398567 -0.009197291 0.41672382 0.41267034
000130 17 65 b1 3e 2e 6d 1f 3e 91 4c 2b 3d fd 98 26 3e
       0.34647438 0.15568992 0.041821066 0.16269298
000140 c5 2e 0d bf 3c 00 7c 3e 4e 74 00 3f ff 44 0d bf
       -0.5514949 0.24609464 0.50177467 -0.55183405
000150 2c 68 0a bf 4d cb fd be a6 72 04 3f 60 a7 87 be
       -0.54065204 -0.4956917 0.5173744 -0.26494884
000160 f1 24 72 ba e7 53 85 3d d5 78 b5 3e de fb ca bd
       -0.0009237072 0.06510144 0.3544375 -0.09911321
000170 e3 0d ce 3e f9 a3 69 3d 3e ae 12 bf db e0 91 3d
       0.4024497 0.057041142 -0.5729712 0.07122966
000180 d4 8e 06 be 6a 49 b1 be 7a 64 80 3d fe c3 e2 bb
       -0.13140422 -0.34626323 0.062691644 -0.0069203367
000190 e7 04 a9 be 3d f9 b5 be 75 63 13 3f fd b3 ed 3e
       -0.33011553 -0.35541716 0.57573634 0.46426383
0001a0 5c 8e 56 3d 33 14 00 3f 7d 2e f3 bd 93 72 39 3e
       0.05238186 0.5003082 -0.11874101 0.18110113
0001b0 2e 94 60 3e b5 74 bf 3e 4b 84 e1 3e bd 21 b1 be
       0.21931526 0.37393728 0.44046244 -0.34596053
0001c0 16 18 fb bd 10 d0 12 3f cf cd 9b be ed 67 00 3e
       -0.122604534 0.5734873 -0.30430457 0.12539645
0001d0 e8 92 df be 7d 5d 08 3f 11 04 ba 3e 73 e5 38 3e
       -0.43666768 0.5326765 0.36331227 0.18056278
0001e0 82 da ef 3e 70 c6 f2 3e e4 a2 ed 3d 43 1e 06 3e
       0.46846396 0.4741702 0.116033345 0.13097481
0001f0 eb 17 77 3e 84 ba 12 3e 64 c7 39 3e 8e 24 ce 3d
       0.24130218 0.14328963 0.18142468 0.10065566

weight f4 [128]
000000 00 00 80 3f 00 00 80 3f 00 00 80 3f 00 00 80 3f
       1.0 1.0 1.0 1.0
000010 00 00 80 3f 00 00 80 3f 00 00 80 3f 00 00 80 3f
       1.0 1.0 1.0 1.0
000020 00 00 80 3f 00 00 80 3f 00 00 80 3f 00 00 80 3f
       1.0 1.0 1.0 1.0
000030 00 00 80 3f 00 00 80 3f 00 00 80 3f 00 00 80 3f
       1.0 1.0 1.0 1.0
000040 00 00 80 3f 00 00 80 3f 00 00 80 3f 00 00 80 3f
       1.0 1.0 1.0 1.0
000050 00 00 80 3f 00 00 80 3f 00 00 80 3f 00 00 80 3f
       1.0 1.0 1.0 1.0
000060 00 00 80 3f 00 00 80 3f 00 00 80 3f 00 00 80 3f
       1.0 1.0 1.0 1.0
000070 00 00 80 3f 00 00 80 3f 00 00 80 3f 00 00 80 3f
       1.0 1.0 1.0 1.0
000080 00 00 80 3f 00 00 80 3f 00 00 80 3f 00 00 80 3f
       1.0 1.0 1.0 1.0
000090 00 00 80 3f 00 00 80 3f 00 00 80 3f 00 00 80 3f
       1.0 1.0 1.0 1.0
0000a0 00 00 80 3f 00 00 80 3f 00 00 80 3f 00 00 80 3f
       1.0 1.0 1.0 1.0
0000b0 00 00 80 3f 00 00 80 3f 00 00 80 3f 00 00 80 3f
       1.0 1.0 1.0 1.0
0000c0 00 00 80 3f 00 00 80 3f 00 00 80 3f 00 00 80 3f
       1.0 1.0 1.0 1.0
0000d0 00 00 80 3f 00 00 80 3f 00 00 80 3f 00 00 80 3f
       1.0 1.0 1.0 1.0
0000e0 00 00 80 3f 00 00 80 3f 00 00 80 3f 00 00 80 3f
       1.0 1.0 1.0 1.0
0000f0 00 00 80 3f 00 00 80 3f 00 00 80 3f 00 00 80 3f
       1.0 1.0 1.0 1.0
000100 00 00 80 3f 00 00 80 3f 00 00 80 3f 00 00 80 3f
       1.0 1.0 1.0 1.0
000110 00 00 80 3f 00 00 80 3f 00 00 80 3f 00 00 80 3f
       1.0 1.0 1.0 1.0
000120 00 00 80 3f 00 00 80 3f 00 00 80 3f 00 00 80 3f
       1.0 1.0 1.0 1.0
000130 00 00 80 3f 00 00 80 3f 00 00 80 3f 00 00 80 3f
       1.0 1.0 1.0 1.0
000140 00 00 80 3f 00 00 80 3f 00 00 80 3f 00 00 80 3f
       1.0 1.0 1.0 1.0
000150 00 00 80 3f 00 00 80 3f 00 00 80 3f 00 00 80 3f
       1.0 1.0 1.0 1.0
000160 00 00 80 3f 00 00 80 3f 00 00 80 3f 00 00 80 3f
       1.0 1.0 1.0 1.0
000170 00 00 80 3f 00 00 80 3f 00 00 80 3f 00 00 80 3f
       1.0 1.0 1.0 1.0
000180 00 00 80 3f 00 00 80 3f 00 00 80 3f 00 00 80 3f
       1.0 1.0 1.0 1.0
000190 00 00 80 3f 00 00 80 3f 00 00 80 3f 00 00 80 3f
       1.0 1.0 1.0 1.0
0001a0 00 00 80 3f 00 00 80 3f 00 00 80 3f 00 00 80 3f
       1.0 1.0 1.0 1.0
0001b0 00 00 80 3f 00 00 80 3f 00 00 80 3f 00 00 80 3f
       1.0 1.0 1.0 1.0
0001c0 00 00 80 3f 00 00 80 3f 00 00 80 3f 00 00 80 3f
       1.0 1.0 1.0 1.0
0001d0 00 00 80 3f 00 00 80 3f 00 00 80 3f 00 00 80 3f
       1.0 1.0 1.0 1.0
0001e0 00 00 80 3f 00 00 80 3f 00 00 80 3f 00 00 80 3f
       1.0 1.0 1.0 1.0
0001f0 00 00 80 3f 00 00 80 3f 00 00 80 3f 00 00 80 3f
       1.0 1.0 1.0 1.0

bias f4 [128]
000000 00 00 00 00 00 00 00 00 00 00 00 00 00 00 00 00
       0.0 0.0 0.0 0.0
000010 00 00 00 00 00 00 00 00 00 00 00 00 00 00 00 00
       0.0 0.0 0.0 0.0
000020 00 00 00 00 00 00 00 00 00 00 00 00 00 00 00 00
       0.0 0.0 0.0 0.0
000030 00 00 00 00 00 00 00 00 00 00 00 00 00 00 00 00
       0.0 0.0 0.0 0.0
000040 00 00 00 00 00 00 00 00 00 00 00 00 00 00 00 00
       0.0 0.0 0.0 0.0
000050 00 00 00 00 00 00 00 00 00 00 00 00 00 00 00 00
       0.0 0.0 0.0 0.0
000060 00 00 00 00 00 00 00 00 00 00 00 00 00 00 00 00
       0.0 0.0 0.0 0.0
000070 00 00 00 00 00 00 00 00 00 00 00 00 00 00 00 00
       0.0 0.0 0.0 0.0
000080 00 00 00 00 00 00 00 00 00 00 00 00 00 00 00 00
       0.0 0.0 0.0 0.0
000090 00 00 00 00 00 00 00 00 00 00 00 00 00 00 00 00
       0.0 0.0 0.0 0.0
0000a0 00 00 00 00 00 00 00 00 00 00 00 00 00 00 00 00
       0.0 0.0 0.0 0.0
0000b0 00 00 00 00 00 00 00 00 00 00 00 00 00 00 00 00
       0.0 0.0 0.0 0.0
0000c0 00 00 00 00 00 00 00 00 00 00 00 00 00 00 00 00
       0.0 0.0 0.0 0.0
0000d0 00 00 00 00 00 00 00 00 00 00 00 00 00 00 00 00
       0.0 0.0 0.0 0.0
0000e0 00 00 00 00 00 00 00 00 00 00 00 00 00 00 00 00
       0.0 0.0 0.0 0.0
0000f0 00 00 00 00 00 00 00 00 00 00 00 00 00 00 00 00
       0.0 0.0 0.0 0.0
000100 00 00 00 00 00 00 00 00 00 00 00 00 00 00 00 00
       0.0 0.0 0.0 0.0
000110 00 00 00 00 00 00 00 00 00 00 00 00 00 00 00 00
       0.0 0.0 0.0 0.0
000120 00 00 00 00 00 00 00 00 00 00 00 00 00 00 00 00
       0.0 0.0 0.0 0.0
000130 00 00 00 00 00 00 00 00 00 00 00 00 00 00 00 00
       0.0 0.0 0.0 0.0
000140 00 00 00 00 00 00 00 00 00 00 00 00 00 00 00 00
       0.0 0.0 0.0 0.0
000150 00 00 00 00 00 00 00 00 00 00 00 00 00 00 00 00
       0.0 0.0 0.0 0.0
000160 00 00 00 00 00 00 00 00 00 00 00 00 00 00 00 00
       0.0 0.0 0.0 0.0
000170 00 00 00 00 00 00 00 00 00 00 00 00 00 00 00 00
       0.0 0.0 0.0 0.0
000180 00 00 00 00 00 00 00 00 00 00 00 00 00 00 00 00
       0.0 0.0 0.0 0.0
000190 00 00 00 00 00 00 00 00 00 00 00 00 00 00 00 00
       0.0 0.0 0.0 0.0
0001a0 00 00 00 00 00 00 00 00 00 00 00 00 00 00 00 00
       0.0 0.0 0.0 0.0
0001b0 00 00 00 00 00 00 00 00 00 00 00 00 00 00 00 00
       0.0 0.0 0.0 0.0
0001c0 00 00 00 00 00 00 00 00 00 00 00 00 00 00 00 00
       0.0 0.0 0.0 0.0
0001d0 00 00 00 00 00 00 00 00 00 00 00 00 00 00 00 00
       0.0 0.0 0.0 0.0
0001e0 00 00 00 00 00 00 00 00 00 00 00 00 00 00 00 00
       0.0 0.0 0.0 0.0
0001f0 00 00 00 00 00 00 00 00 00 00 00 00 00 00 00 00
       0.0 0.0 0.0 0.0

weight f4 [128, 128]
000000 94 fb 04 3d c1 1b 91 bd a3 c4 16 bd 9e 23 9b bd
       0.032466486 -0.07085372 -0.03680862 -0.07575153
000010 8e 75 e8 3c 16 2f 01 bd 46 b9 a8 bd 97 e2 96 3b
       0.028376367 -0.031539045 -0.08238463 0.0046046483
000020 4e ed 84 bd d2 ab 90 3d e1 b8 9d bc 8b c7 ac bd
       -0.06490575 0.07064022 -0.019253196 -0.08436497
000030 b5 b7 0a bd 86 5a 41 3d c1 c6 26 3d 31 7a f1 3b
       -0.033866603 0.04720547 0.04071689 0.0073693027
000040 f9 4a 1a bd b0 c8 eb bc 22 1c a8 bc 56 37 8b 3d
       -0.037669156 -0.028782219 -0.020521227 0.06797664
000050 67 47 8d 3d f4 0b 8e bd 16 b4 71 3a 64 6e 4f bd
       0.068983845 -0.06935874 0.00092202553 -0.050642386
000060 be f5 61 bd c1 8c 71 bd 27 b9 54 bd 4e a4 91 bd
       -0.055166 -0.058972124 -0.051934388 -0.07111417
000070 f3 78 3d 3d db 1f 7e 3c c2 70 29 b8 78 46 df 3c
       0.046257924 0.015510525 -4.0397754e-05 0.027255282
000080 59 72 97 bd 81 e2 8c bd dd 0f 87 bc bb 58 1e bd
       -0.07394857 -0.0687914 -0.016487056 -0.03865884
000090 25 0b ff 3c c2 3d 75 3d 90 81 3e 3d 41 85 a7 3c
       0.031133244 0.05987335 0.04651028 0.020449283
0000a0 fc a9 19 3d 27 fc 6d bd 08 cf 0a bc 21 c0 73 3d
       0.037515625 -0.0581018 -0.008472212 0.0595094
0000b0 12 17 61 bd 28 54 48 bb a5 f5 58 bc 4e 91 ed 3c
       -0.054953642 -0.003056774 -0.01324216 0.02899995
0000c0 ba 9d 2d bd 47 35 f4 bc 49 db a4 3d 94 14 b1 3d
       -0.042386748 -0.02981056 0.08049638 0.08646503
0000d0 e0 76 8c bd fe aa 60 bd 1f f7 01 3d 19 7a 15 3c
       -0.06858611 -0.05485057 0.031729814 0.009123349
0000e0 0b 35 72 bc c0 d4 76 3d 6b 6a f4 bc 4a 05 3c 3c
       -0.014783154 0.060261488 -0.0298359 0.01147587
0000f0 e0 f9 90 3d fd 52 93 3d 52 6b 60 3d 8f 91 9a bd
       0.0707891 0.07193563 0.05478985 -0.07547294
000100 72 42 db bc 28 97 2c 3d 2a 1f d1 bc f1 1c 71 bb
       -0.026765082 0.04213634 -0.025527555 -0.0036790932
000110 4e 12 01 3d 0e 5f b1 3d aa d9 81 3c b5 41 95 bd
       0.031511597 0.08660708 0.01585086 -0.07287923
000120 cb 87 03 bd 18 32 b1 bc 59 89 e5 3c ed bb 3b 3d
       -0.032111924 -0.021630332 0.028019594 0.045833517
000130 61 6d b4 bd fb 57 bf bc 76 1d bc 3c bb b3 54 bd
       -0.08809925 -0.023357382 0.022963267 -0.051929217
000140 f0 42 47 3d 67 9d 86 bd 2d 3b ce bc 90 af 0d 3d
       0.04864782 -0.06572991 -0.025174702 0.034591258
000150 ab d0 12 bb 2e 08 5a bd d9 70 29 3d e5 9c a3 bc
       -0.0022402208 -0.053230457 0.041367386 -0.019972274
000160 aa b5 6f 3d 19 fb 05 3c d0 e1 08 bd 26 ca eb 3c
       0.058522858 0.008177542 -0.033418477 0.028782915
000170 07 bb 97 3d 51 9d 77 3d b2 c8 68 3d 50 31 04 3d
       0.074087195 0.060452763 0.056832023 0.03227359
000180 5f 7f 32 3d 7c db 45 bd 16 08 35 3c 25 fd a2 bd
       0.0435785 -0.04830502 0.011049291 -0.0795844
000190 da d4 95 3d 9e 41 87 bd cc 2d 90 3d 4a c8 67 3d
       0.07315989 -0.06604312 0.07039985 0.056587495
0001a0 b6 07 46 3c ab 7f 83 3d f6 01 14 3d 67 b4 11 bd
       0.012086799 0.06420835 0.036134683 -0.035572436
0001b0 64 ff 95 bc c2 06 cf 3c 99 32 23 3d 71 89 fd 3c
       -0.018310256 0.025271777 0.039843176 0.030949326
0001c0 f7 a0 4c bd 69 90 e6 3b af 42 89 bd 96 9a d3 bc
       -0.049958196 0.007036258 -0.06702172 -0.025830548
0001d0 6d 43 ee bc 99 a8 25 bc e4 75 d6 bb d6 63 4e 3d
       -0.029084885 -0.010110998 -0.0065448154 0.05038818
0001e0 22 df 10 bd b0 ee 01 bd 50 d2 95 bd c6 e8 eb bc
       -0.035369046 -0.03172177 -0.073155046 -0.028797518
0001f0 96 ff 9d bd 14 1e 86 3c d5 8f 8f 3d a8 99 32 bd
       -0.07714765 0.016371764 0.07009856 -0.04360357
000200 e4 12 ae 3d ca ed 93 3c 8f ff c9 bc 2b c1 f5 bc
       0.08499697 0.018057723 -0.024657993 -0.029999336
000210 28 bb 9c bd 39 55 0c 3d e9 c1 6e bc b2 08 fa 3c
       -0.07652885 0.034260962 -0.014572599 0.030521724
000220 17 d4 39 bd b1 97 16 3d 1c 8e 93 bd 90 a3 a5 bd
       -0.04536828 0.036765758 -0.072048396 -0.08087838
000230 09 64 6b 3d d7 82 02 3d 17 11 07 bd 09 ae b5 bb
       0.057468448 0.03186306 -0.032975283 -0.0055444282
000240 08 08 4c bb ea ab 1a bd cd d6 60 3c 59 94 9a 3c
       -0.0031132717 -0.037761606 0.0137230875 0.018869566
000250 10 5c 38 bd eb c8 31 bd 41 f4 8a 3d 21 c2 2b 3d
       -0.045009673 -0.0434045 0.06784869 0.041933183
000260 72 6e 9b 3c 59 a9 79 bc 58 63 a1 3c ed 95 a8 bd
       0.018973563 -0.0152381295 0.019700691 -0.08231721
000270 7e f7 62 3b 7f e6 a1 bd d6 0f 45 bd 11 9f 72 bd
       0.003463238 -0.07905292 -0.048110805 -0.05923373
000280 b7 83 a7 bd ac d0 88 3d 29 9a bb bb 7e fe 9d 3d
       -0.081794195 0.06680426 -0.0057251644 0.07714556
000290 1a 8b a3 3d b1 db ad bd f7 23 e9 3b 8d 92 6f 3c
       0.07985516 -0.084891684 0.007114883 0.014622343
0002a0 dc 48 a6 3d 5f 88 4c 3d 96 54 1c 3d c7 56 b9 3c
       0.081193656 0.04993474 0.038166605 0.022624386
0002b0 b6 d5 ae bd d6 46 04 3d 9d 51 2f 3c 41 72 50 3d
       -0.08536856 0.032294117 0.0107006105 0.05089021
0002c0 95 ea b1 bc a8 3e a9 3d 89 7a 03 3d 8b ff 85 3d
       -0.021718303 0.08263904 0.03209928 0.065428816
0002d0 77 5f 5c 3d 8a 89 42 bd 26 eb 96 bd 6e b6 03 3d
       0.05380198 -0.04749445 -0.0736907 0.0321564
0002e0 87 0a 40 bc b6 9c 9c bd 30 f7 8f 3d 76 c9 3d bd
       -0.01172126 -0.07647078 0.07029569 -0.046334706
0002f0 bd a2 5a bd 2b 5d 2b bc 5c 0c 60 bd 44 ad ce 3c
       -0.053377856 -0.010459225 -0.054699287 0.025229104
000300 5f d7 e5 3c 72 c1 cd bc b4 27 d3 3c ea 81 71 3d
       0.028056799 -0.025116656 0.025775768 0.058961786
000310 e1 6a f5 bc 06 95 0f bd 4d e6 30 bc e3 09 9e 3d
       -0.02995819 -0.03505423 -0.0107970955 0.077167295
000320 b5 3e a7 3d 38 8a ad 3d a0 01 bb 3c 3d a9 16 bd
       0.08166257 0.08473629 0.022827923 -0.036782492
000330 b8 15 c6 3c f5 96 fa 3c cb 0e 6a 3d 90 34 58 3c
       0.024180278 0.03058956 0.057143014 0.013196126
000340 12 83 ac 3d e8 46 7b 3d dd ad 67 bd 35 a6 49 bd
       0.08423437 0.06134692 -0.056562293 -0.049230773
000350 f3 76 a5 bd 51 e9 ae 3c 9e 64 16 3d fb b6 47 bd
       -0.080793284 0.021351488 0.03671705 -0.04875849
000360 27 44 45 bc 12 d7 b1 bc b0 9f ed ba d5 5a 78 3d
       -0.012040175 -0.021708999 -0.0018129256 0.0606335
000370 90 df 40 3d c6 dc 6b bd a3 2c 0f bd 88 02 24 3d
       0.047088206 -0.057583593 -0.03495468 0.040041476
000380 2b a7 c9 bc 49 2d ae 3d d0 35 38 bd d1 66 db 3c
       -0.024615845 0.08504731 -0.044973195 0.026782425
000390 88 20 1d bd e4 ee 9e bd aa ff 0f bd cf 47 49 bd
       -0.038361102 -0.077604085 -0.03515593 -0.049140748
0003a0 91 55 d5 3b 41 6f 53 bd 78 e3 74 3d 41 ee 65 3d
       0.0065104445 -0.051619772 0.059787244 0.05613542
0003b0 f0 cb b1 bd 26 2f f1 b9 77 16 a1 3a f7 ad 4b bc
       -0.08681476 -0.0004600223 0.001229002 -0.012431613
0003c0 5e 5f f9 ba 1b 31 0e 3c 42 fa 44 bc f5 ce ad bc
       -0.0019025614 0.0086787 -0.012022557 -0.021216849
0003d0 cd 16 93 3d fb d4 0b bd 2c bc 8b 3d 21 5d 8a bd
       0.07182083 -0.03413866 0.06823 -0.06756044
0003e0 0d f9 29 3c f0 86 41 3d 07 3a f4 3a ba d6 86 bd
       0.01037432 0.047247827 0.0018633016 -0.065839246
0003f0 33 b5 b3 3d 4a 8b 46 3d 17 c8 8e bd 60 50 97 bd
       0.087747954 0.04847268 -0.06971758 -0.07388377

bias f4 [128]
000000 1b c1 4e 3c da 65 8a 3d d8 87 1b bd da d2 f4 bb
       0.012619282 0.06757708 -0.037971348 -0.0074714245
000010 8e 79 9f 3d 75 b6 fc bc 40 cf 39 bd 86 4e 6b 3d
       0.077868566 -0.030848721 -0.045363665 0.057447933
000020 d1 90 45 bd 37 19 96 bd a0 0f 83 3d 98 5f c1 3c
       -0.04823381 -0.07329028 0.063994646 0.023605153
000030 88 17 31 bd 1d 0d a0 3d 6b 47 b2 bd 8b a6 18 3d
       -0.04323533 0.07815001 -0.08705028 0.037268203
000040 0b 88 93 bd 98 c8 a9 bc ac 47 91 3c 20 ca 9c 3d
       -0.072036825 -0.020725533 0.017734371 0.0765574
000050 8f dc 60 bd e5 37 b3 bd 30 c7 1d bd c9 77 77 bd
       -0.05489784 -0.087508954 -0.038520038 -0.06041697
000060 fe 4c 8c bd 45 23 a6 bd 12 13 f8 bc f6 f4 dc 3c
       -0.068506226 -0.08112196 -0.030282531 0.026972275
000070 80 86 3a 3d 05 6e 70 3d 2b 6d 9d 3d 27 c8 01 3d
       0.045538425 0.058698673 0.07686838 0.03168502
000080 aa cb 27 3d c0 f3 46 bc 35 33 80 3d 85 df 4d bd
       0.040965714 -0.0121430755 0.06259767 -0.050261993
000090 1d b8 a7 bd 99 72 08 bd 1f f8 f5 bb 8b 35 93 3c
       -0.08189414 -0.033312414 -0.007506385 0.017969867
0000a0 6b 02 8d bd 37 b9 6e bd 92 68 80 bd 40 bf a1 3d
       -0.06885227 -0.058282103 -0.06269945 0.07897806
0000b0 6d 16 98 bd 6e c4 80 3d a4 ce 4a bd 29 b4 65 3d
       -0.074261524 0.06287466 -0.049513474 0.056080017
0000c0 07 2c 9a 3d 79 df 99 3d 62 9d a3 bb c9 37 bb 3c
       0.07527929 0.07513327 -0.0049931267 0.022853749
0000d0 bc 6a 23 3b 61 7c 29 3c 3d 6b 3d 3d bb d6 98 bd
       0.0024935445 0.010344596 0.04624485 -0.074628316
0000e0 51 a5 97 bd 19 92 00 3c b8 a4 8f bd c1 34 68 3d
       -0.074045785 0.007847332 -0.070138395 0.056690935
0000f0 ba 38 fc 3c 95 63 39 3d f1 b0 63 3d 45 35 ba 3c
       0.030788768 0.045260984 0.055588666 0.022730479
000100 b8 89 44 3d f9 2f 46 3c e4 65 4c 3d d5 11 76 bd
       0.0479829 0.0120963985 0.049901858 -0.0600756
000110 1b 31 92 3c c5 98 22 3d 95 79 0e bd da c3 b0 bc
       0.017845681 0.039696474 -0.03478392 -0.021577764
000120 70 43 d3 3c 60 12 bf 3b c3 27 6a bd a6 9d 97 bd
       0.025788993 0.005831048 -0.057166826 -0.07403116
000130 0e 59 87 bd 4a 91 02 3d 4b 76 c4 bc 10 32 69 bc
       -0.06608783 0.03187684 -0.023982188 -0.014233127
000140 0f 92 ba 3c 9c a8 6e bd 31 70 8a 3a 5c 51 05 3d
       0.022774724 -0.058266267 0.0010562 0.032548293
000150 0b f6 67 bd 5e 67 98 3c ee de 8a bd 02 08 79 bd
       -0.05663113 0.018603977 -0.06780802 -0.060798652
000160 06 7f f2 3a 98 ce b3 bd 34 a3 cb 3c ca 20 a5 3d
       0.0018500991 -0.08779639 0.024858095 0.08062895
000170 34 9b 1d bd c4 0e 56 bd 84 64 4b bc 83 31 af bd
       -0.03847809 -0.052260175 -0.0124141015 -0.085543655
000180 f4 07 4a bc 8c 77 7c bd db ec 94 3c 17 97 bf 3c
       -0.012330998 -0.061637446 0.018179348 0.023387475
000190 ad 6f 64 3d db c0 43 bd 60 4e 2b 3d 3e 8a 1b 3c
       0.055770565 -0.047791343 0.04182279 0.009493409
0001a0 f9 92 f3 bb 45 74 f9 bc 15 10 29 bd 6d df 4e bd
       -0.007433292 -0.03045095 -0.041275103 -0.050506044
0001b0 bb 5b b3 bd b7 65 26 bd a3 75 9c bd 63 15 83 bd
       -0.087577306 -0.040624347 -0.07639625 -0.064005636
0001c0 ff 60 b4 bd 8f 83 9d bb 88 b1 ac 3d e4 a1 95 bd
       -0.08807563 -0.004806943 0.08432299 -0.07306269
0001d0 c3 95 f2 3c 49 1a 33 3d 37 87 5c bd 72 07 22 bd
       0.029612428 0.04372624 -0.05383989 -0.03955788
0001e0 d0 5c 0a bd 8e 21 a3 3d 6a 0b c8 bb d0 76 e4 3c
       -0.03377992 0.079653844 -0.0061048763 0.027888685
0001f0 a1 f6 5a 3d 1e 31 36 bd 99 ee 19 bd a6 82 8d 3c
       0.05345786 -0.044480436 -0.03758106 0.017274212

weight f4 [128]
000000 00 00 80 3f 00 00 80 3f 00 00 80 3f 00 00 80 3f
       1.0 1.0 1.0 1.0
000010 00 00 80 3f 00 00 80 3f 00 00 80 3f 00 00 80 3f
       1.0 1.0 1.0 1.0
000020 00 00 80 3f 00 00 80 3f 00 00 80 3f 00 00 80 3f
       1.0 1.0 1.0 1.0
000030 00 00 80 3f 00 00 80 3f 00 00 80 3f 00 00 80 3f
       1.0 1.0 1.0 1.0
000040 00 00 80 3f 00 00 80 3f 00 00 80 3f 00 00 80 3f
       1.0 1.0 1.0 1.0
000050 00 00 80 3f 00 00 80 3f 00 00 80 3f 00 00 80 3f
       1.0 1.0 1.0 1.0
000060 00 00 80 3f 00 00 80 3f 00 00 80 3f 00 00 80 3f
       1.0 1.0 1.0 1.0
000070 00 00 80 3f 00 00 80 3f 00 00 80 3f 00 00 80 3f
       1.0 1.0 1.0 1.0
000080 00 00 80 3f 00 00 80 3f 00 00 80 3f 00 00 80 3f
       1.0 1.0 1.0 1.0
000090 00 00 80 3f 00 00 80 3f 00 00 80 3f 00 00 80 3f
       1.0 1.0 1.0 1.0
0000a0 00 00 80 3f 00 00 80 3f 00 00 80 3f 00 00 80 3f
       1.0 1.0 1.0 1.0
0000b0 00 00 80 3f 00 00 80 3f 00 00 80 3f 00 00 80 3f
       1.0 1.0 1.0 1.0
0000c0 00 00 80 3f 00 00 80 3f 00 00 80 3f 00 00 80 3f
       1.0 1.0 1.0 1.0
0000d0 00 00 80 3f 00 00 80 3f 00 00 80 3f 00 00 80 3f
       1.0 1.0 1.0 1.0
0000e0 00 00 80 3f 00 00 80 3f 00 00 80 3f 00 00 80 3f
       1.0 1.0 1.0 1.0
0000f0 00 00 80 3f 00 00 80 3f 00 00 80 3f 00 00 80 3f
       1.0 1.0 1.0 1.0
000100 00 00 80 3f 00 00 80 3f 00 00 80 3f 00 00 80 3f
       1.0 1.0 1.0 1.0
000110 00 00 80 3f 00 00 80 3f 00 00 80 3f 00 00 80 3f
       1.0 1.0 1.0 1.0
000120 00 00 80 3f 00 00 80 3f 00 00 80 3f 00 00 80 3f
       1.0 1.0 1.0 1.0
000130 00 00 80 3f 00 00 80 3f 00 00 80 3f 00 00 80 3f
       1.0 1.0 1.0 1.0
000140 00 00 80 3f 00 00 80 3f 00 00 80 3f 00 00 80 3f
       1.0 1.0 1.0 1.0
000150 00 00 80 3f 00 00 80 3f 00 00 80 3f 00 00 80 3f
       1.0 1.0 1.0 1.0
000160 00 00 80 3f 00 00 80 3f 00 00 80 3f 00 00 80 3f
       1.0 1.0 1.0 1.0
000170 00 00 80 3f 00 00 80 3f 00 00 80 3f 00 00 80 3f
       1.0 1.0 1.0 1.0
000180 00 00 80 3f 00 00 80 3f 00 00 80 3f 00 00 80 3f
       1.0 1.0 1.0 1.0
000190 00 00 80 3f 00 00 80 3f 00 00 80 3f 00 00 80 3f
       1.0 1.0 1.0 1.0
0001a0 00 00 80 3f 00 00 80 3f 00 00 80 3f 00 00 80 3f
       1.0 1.0 1.0 1.0
0001b0 00 00 80 3f 00 00 80 3f 00 00 80 3f 00 00 80 3f
       1.0 1.0 1.0 1.0
0001c0 00 00 80 3f 00 00 80 3f 00 00 80 3f 00 00 80 3f
       1.0 1.0 1.0 1.0
0001d0 00 00 80 3f 00 00 80 3f 00 00 80 3f 00 00 80 3f
       1.0 1.0 1.0 1.0
0001e0 00 00 80 3f 00 00 80 3f 00 00 80 3f 00 00 80 3f
       1.0 1.0 1.0 1.0
0001f0 00 00 80 3f 00 00 80 3f 00 00 80 3f 00 00 80 3f
       1.0 1.0 1.0 1.0

bias f4 [128]
000000 00 00 00 00 00 00 00 00 00 00 00 00 00 00 00 00
       0.0 0.0 0.0 0.0
000010 00 00 00 00 00 00 00 00 00 00 00 00 00 00 00 00
       0.0 0.0 0.0 0.0
000020 00 00 00 00 00 00 00 00 00 00 00 00 00 00 00 00
       0.0 0.0 0.0 0.0
000030 00 00 00 00 00 00 00 00 00 00 00 00 00 00 00 00
       0.0 0.0 0.0 0.0
000040 00 00 00 00 00 00 00 00 00 00 00 00 00 00 00 00
       0.0 0.0 0.0 0.0
000050 00 00 00 00 00 00 00 00 00 00 00 00 00 00 00 00
       0.0 0.0 0.0 0.0
000060 00 00 00 00 00 00 00 00 00 00 00 00 00 00 00 00
       0.0 0.0 0.0 0.0
000070 00 00 00 00 00 00 00 00 00 00 00 00 00 00 00 00
       0.0 0.0 0.0 0.0
000080 00 00 00 00 00 00 00 00 00 00 00 00 00 00 00 00
       0.0 0.0 0.0 0.0
000090 00 00 00 00 00 00 00 00 00 00 00 00 00 00 00 00
       0.0 0.0 0.0 0.0
0000a0 00 00 00 00 00 00 00 00 00 00 00 00 00 00 00 00
       0.0 0.0 0.0 0.0
0000b0 00 00 00 00 00 00 00 00 00 00 00 00 00 00 00 00
       0.0 0.0 0.0 0.0
0000c0 00 00 00 00 00 00 00 00 00 00 00 00 00 00 00 00
       0.0 0.0 0.0 0.0
0000d0 00 00 00 00 00 00 00 00 00 00 00 00 00 00 00 00
       0.0 0.0 0.0 0.0
0000e0 00 00 00 00 00 00 00 00 00 00 00 00 00 00 00 00
       0.0 0.0 0.0 0.0
0000f0 00 00 00 00 00 00 00 00 00 00 00 00 00 00 00 00
       0.0 0.0 0.0 0.0
000100 00 00 00 00 00 00 00 00 00 00 00 00 00 00 00 00
       0.0 0.0 0.0 0.0
000110 00 00 00 00 00 00 00 00 00 00 00 00 00 00 00 00
       0.0 0.0 0.0 0.0
000120 00 00 00 00 00 00 00 00 00 00 00 00 00 00 00 00
       0.0 0.0 0.0 0.0
000130 00 00 00 00 00 00 00 00 00 00 00 00 00 00 00 00
       0.0 0.0 0.0 0.0
000140 00 00 00 00 00 00 00 00 00 00 00 00 00 00 00 00
       0.0 0.0 0.0 0.0
000150 00 00 00 00 00 00 00 00 00 00 00 00 00 00 00 00
       0.0 0.0 0.0 0.0
000160 00 00 00 00 00 00 00 00 00 00 00 00 00 00 00 00
       0.0 0.0 0.0 0.0
000170 00 00 00 00 00 00 00 00 00 00 00 00 00 00 00 00
       0.0 0.0 0.0 0.0
000180 00 00 00 00 00 00 00 00 00 00 00 00 00 00 00 00
       0.0 0.0 0.0 0.0
000190 00 00 00 00 00 00 00 00 00 00 00 00 00 00 00 00
       0.0 0.0 0.0 0.0
0001a0 00 00 00 00 00 00 00 00 00 00 00 00 00 00 00 00
       0.0 0.0 0.0 0.0
0001b0 00 00 00 00 00 00 00 00 00 00 00 00 00 00 00 00
       0.0 0.0 0.0 0.0
0001c0 00 00 00 00 00 00 00 00 00 00 00 00 00 00 00 00
       0.0 0.0 0.0 0.0
0001d0 00 00 00 00 00 00 00 00 00 00 00 00 00 00 00 00
       0.0 0.0 0.0 0.0
0001e0 00 00 00 00 00 00 00 00 00 00 00 00 00 00 00 00
       0.0 0.0 0.0 0.0
0001f0 00 00 00 00 00 00 00 00 00 00 00 00 00 00 00 00
       0.0 0.0 0.0 0.0

weight f4 [1, 128]
000000 53 71 05 3d f6 21 46 bd d5 48 63 bd c6 27 57 3d
       0.032578778 -0.04837223 -0.05548938 0.052528165
000010 b2 80 9c 3d 49 af 6e bd 15 d7 b0 bd 74 59 a2 3d
       0.07641734 -0.058272634 -0.08634774 0.07927218
000020 5b 66 97 3d 41 5b 84 bc 1b 3b 90 3c cf 61 2b 3d
       0.0739257 -0.016156795 0.017606309 0.041841324
000030 98 e7 b3 3d 9b 76 76 3c e0 2c 14 3d 83 a3 d8 3c
       0.087844074 0.015042926 0.03617561 0.026445156
000040 c5 81 9d bc bb 4c 72 bc 07 87 87 bd 1a cd 80 bd
       -0.019226918 -0.014788802 -0.06617551 -0.0628912
000050 64 76 0a 3d eb c7 81 bd 14 f7 92 3d 69 2c 64 bd
       0.033804312 -0.063369595 0.07176033 -0.055706415
000060 2d 18 24 bd f4 63 9a bc 71 b2 9a 3d 88 a2 a9 bd
       -0.04006212 -0.01884649 0.07553566 -0.082829535
000070 2f 5d 63 3d 58 21 b5 3c 9b 7a 9e 3a 79 52 25 bd
       0.05550879 0.022110626 0.0012090983 -0.040361855
000080 3c 7d 5f bd b3 98 64 bd b5 40 e2 bb ce e8 70 3d
       -0.054562792 -0.055809688 -0.0069046863 0.05881577
000090 14 de 00 3d ef 72 ea 3c f6 0a ac 3c a0 08 c0 3c
       0.03146179 0.028619258 0.02100132 0.023441613
0000a0 3d af 9a bd 69 8d 1e 3d 44 16 2a 3c 28 20 9d bd
       -0.07552955 0.038709078 0.010381285 -0.07672149
0000b0 6b be 75 bd 74 e9 9d 3d 5d d5 73 3d de a1 16 bd
       -0.05999605 0.07710543 0.05952965 -0.036775462
0000c0 d4 20 9b bd 8a 7a 5f bd 24 d5 aa 39 95 90 00 bd
       -0.07574621 -0.05456022 0.0003258373 -0.031387884
0000d0 f3 73 a0 bd 20 80 53 3d be 57 9e bd e3 22 79 bd
       -0.078346156 0.05163586 -0.07731579 -0.060824286
0000e0 ed f8 1d 3d a6 c2 b4 bd 1a 1c 4f bd f6 a4 53 3d
       0.038567472 -0.08826189 -0.05056391 0.05167099
0000f0 fe 39 c8 3c a6 af f4 3c 74 e3 88 3d 55 d7 53 bd
       0.024441715 0.029868912 0.06684008 -0.05171903
000100 ce ef 16 bd 06 d9 82 3d 73 a8 41 bc a6 c6 85 bd
       -0.03684979 0.0638905 -0.011819947 -0.0653203
000110 20 e8 a7 bd 44 8f 89 3c 2a 13 5c 3d 96 f5 74 3d
       -0.08198571 0.016791947 0.053729214 0.05980452
000120 e6 34 89 bd 63 e3 14 bd a6 30 80 3b 5d aa 96 bd
       -0.06699543 -0.036349665 0.0039120493 -0.07356713
000130 af 54 a6 bd 26 ce 8a 3d 84 99 0e 3d 6b 61 fa 3c
       -0.08121621 0.06777601 0.034814373 0.03056403
000140 34 cf 85 bd cc 0b 4f bd 85 b3 26 3d de 83 2a bd
       -0.065336615 -0.05054836 0.040698547 -0.041629665
000150 f7 24 be bc 9e 7b 97 bd ad bf 95 bd b5 8c 98 3d
       -0.023210986 -0.07396625 -0.0731195 0.07448713
000160 02 4a 10 bd 92 b4 69 bc 3b ff 8d bd a3 d6 a4 bd
       -0.03522683 -0.014264243 -0.06933447 -0.08048751
000170 78 01 11 3d cc 4f 04 3d a2 e7 28 bd 3b db 36 bd
       0.03540179 0.032302663 -0.041236527 -0.04464267
000180 f6 17 81 bc c7 58 4e bd 82 e0 80 3d 3f 5e ad 3d
       -0.015758496 -0.050377633 0.062928215 0.08465242
000190 d2 d7 b5 bc 3f 04 02 bd af 38 41 3c 76 24 52 bc
       -0.022197638 -0.03174233 0.0117933 -0.012826076
0001a0 34 e3 a6 bd 93 bb 97 bd 3d 76 6e 3d 6b 24 08 3d
       -0.08148804 -0.07408824 0.05821823 0.033237856
0001b0 79 b2 4b bc 2a 4c d3 bc 71 a9 0b ba 67 2c 0d bb
       -0.012432688 -0.025793154 -0.0005327678 -0.0021541358
0001c0 e8 2d 9a 3d 74 65 14 bd 14 d6 e7 bc 0d 2b e2 bc
       0.07528287 -0.036229566 -0.028300323 -0.027608419
0001d0 26 ec 9c 3a 78 e2 a0 3d b4 2f b4 3d 40 88 07 3d
       0.0011972233 0.078556955 0.08798161 0.033088923
0001e0 ce b3 8f bc d3 51 b5 bc c7 7a cd 3c 2c f3 34 bd
       -0.017541792 -0.022133743 0.025082959 -0.04417722
0001f0 7d 2d ad 3d 48 ad 96 3d fe 9c 21 bd 8a 8a 98 bd
       0.08455942 0.073572695 -0.03945636 -0.07448299

weight f4 [64, 3]
000000 3a 2f 43 be 93 82 00 bf ec 0f ac be c9 41 21 be
       -0.19060984 -0.5019924 -0.33605897 -0.15747751
000010 72 82 b0 be 07 bf 82 3e d5 7e 99 3e 6e c2 c5 3e
       -0.34474522 0.25536367 0.29979578 0.386249
000020 dc ac a8 be 06 8e 69 3e 19 83 5a 3e 62 a5 c2 3e
       -0.3294438 0.22808084 0.21339072 0.38016802
000030 36 7f 25 be 02 2c ea 3e 66 d0 f2 3e f0 b9 ad 3e
       -0.16161808 0.457367 0.4742462 0.33930922
000040 35 4b 3e 3d 4e 5b 09 3e df 83 e5 be 7a a5 99 bd
       0.04645844 0.13413736 -0.44827172 -0.07502265
000050 85 57 43 be ad 7c ba be 6a f8 d1 be e0 ea 19 3e
       -0.19076355 -0.36423245 -0.41009837 0.15031004
000060 06 4b 50 3e 33 6e 1d be 75 01 be 3e 43 ae 05 bd
       0.20341119 -0.15374069 0.37110487 -0.032636892
000070 6e 1f 10 3f 83 fd f5 3e 25 e1 fe 3d ba 5f f4 bd
       0.5629796 0.48044977 0.12445287 -0.11932321
000080 f3 90 84 bd e4 4c 87 3e 87 83 5a be 3e 14 c5 be
       -0.06472959 0.2642585 -0.21339236 -0.38492006
000090 21 85 fb 3c 1d f6 81 be 3b 11 22 be d4 89 27 be
       0.03070313 -0.25383082 -0.15826885 -0.16361171
0000a0 59 f2 fa bd a2 1f bf 3e d1 ad 64 be 09 7c 80 3b
       -0.122532554 0.3732882 -0.2233193 0.003921036
0000b0 73 f7 08 bf 86 de 44 be 79 b4 cc 3e 28 f7 fa bc
       -0.5350258 -0.19225511 0.3998144 -0.030635431
0000c0 38 aa b4 be 65 7d d9 3e a1 f9 0f 3f 59 e7 d5 be
       -0.35286117 0.4247848 0.5624028 -0.41778067
0000d0 8a ea dc 3e 4a c5 d8 3e 58 95 dd 3e ea ac 9a be
       0.4314769 0.4233802 0.43278003 -0.30210048
0000e0 4c 42 53 3e d3 b0 d9 3d 83 49 2f 3e a7 4e a3 3e
       0.20630759 0.1062943 0.17117886 0.31895944
0000f0 d1 23 c2 be 3a 81 96 be d4 f0 b4 be 69 83 36 3e
       -0.3791795 -0.29395467 -0.35339987 0.17823566
000100 fc 92 04 3f 7c 10 a2 bd bb 5c d0 be 47 31 b1 be
       0.5178678 -0.079133004 -0.40695748 -0.34607908
000110 e2 6d 68 3d fa 23 56 be 7c f0 c4 bd a1 df 85 3e
       0.056745417 -0.20912161 -0.09616181 0.26147178
000120 17 f8 03 bf 99 d4 d0 be 90 e7 af be e0 79 16 3f
       -0.5155043 -0.407872 -0.34356356 0.58779716
000130 3a 91 06 3d b3 ca b0 bd 7a b6 52 3e ee f5 f5 be
       0.032853343 -0.08632412 0.20577422 -0.48039192
000140 51 f1 25 be de 66 8e be 7b b5 03 be 93 45 4b 3e
       -0.16205336 -0.27812856 -0.12862198 0.19850759
000150 6b 3f b6 3e e1 56 7c 3d db 59 7c 3d 96 8d 28 3e
       0.3559526 0.06160629 0.06160913 0.16460261
000160 6d e3 fb 3e 98 27 cc 3e d0 4a b9 3e 82 cb 05 bd
       0.4919695 0.39873958 0.3618989 -0.032664783
000170 40 73 f8 3e 44 eb a9 bc a1 59 e0 be e7 4c a4 be
       0.4852543 -0.020742066 -0.4381838 -0.32089922
000180 dc c8 9e 3e f1 d4 05 3f 38 e7 b5 be 7b 54 00 bf
       0.3101262 0.5227805 -0.35527968 -0.50128907
000190 a1 33 d2 3e 58 01 45 be cb e6 85 be 60 1c 6a be
       0.41055015 -0.19238794 -0.26152644 -0.22862387
0001a0 34 8d b5 3d 5e 61 10 be 0f 30 c4 be 5c 83 12 3e
       0.08864823 -0.14099643 -0.38317916 0.14307922
0001b0 b5 6b 9f be c9 66 2e 3e 43 20 ae be 79 72 ec 3e
       -0.3113686 0.17031397 -0.3400899 0.46181086
0001c0 1f 6d 8e 3d db d9 93 bd 36 70 a4 3d 4f 4d 0d 3f
       0.06954407 -0.07219287 0.08029215 0.5519609
0001d0 c7 78 fb be 98 76 9e be 66 44 77 3e 55 f2 b4 be
       -0.49115583 -0.30949855 0.24147186 -0.35341135
0001e0 94 81 a8 3e 5f c3 2b 3e 5c f9 e6 be 2d b8 18 3e
       0.3291136 0.16773747 -0.4511212 0.14914007
0001f0 51 de b3 be 62 c9 e2 be d6 7d f7 be 89 dd 44 3e
       -0.3513055 -0.44294268 -0.48338193 0.19225134
000200 b7 d2 db bc 12 cf 96 be 6d a2 b5 be c3 e6 06 bf
       -0.026833875 -0.29454857 -0.35475484 -0.52695864
000210 f7 5e 84 3e 9e 15 68 3d 49 f4 d4 be 0f 4a 80 be
       0.25853702 0.05666124 -0.41592625 -0.25056502
000220 13 f4 a5 3e 5f 39 67 3d db 03 d1 3e 44 ff 08 3f
       0.32412776 0.056451198 0.40823254 0.53514504
000230 72 a9 24 3d a2 ce 83 be 94 9e 2b be 4f 1a 9a be
       0.04020066 -0.25743586 -0.16759712 -0.30098197
000240 bb 1d d9 3e a5 73 c9 bc 31 70 c8 be 0b b5 7b 3e
       0.42405495 -0.024591276 -0.39148095 0.24580781
000250 85 c7 96 3e 1f a5 f8 be 54 04 10 bf 93 ce 8c 3e
       0.29449096 -0.48563477 -0.56256604 0.27501354
000260 bb 23 b8 3c 1a 31 0d be 46 8d f1 3c f4 cc fc be
       0.022477975 -0.13788262 0.02948631 -0.49375117
000270 1b ff b3 3e 38 3d 0c bd 6c 07 fc be 1d 85 af 3e
       0.35155568 -0.03423807 -0.49224412 0.34281245
000280 ce c6 04 bd 36 ce c8 3e 97 89 e2 3e b4 b0 49 3e
       -0.032416157 0.39219826 0.44245598 0.19696313
000290 2e 55 f3 be 33 82 22 be f9 13 08 3f 35 08 ed 3e
       -0.47525924 -0.1586998 0.53155476 0.46295324
0002a0 aa 83 bb 3e 79 ef c9 be f5 e0 2a be 19 5c e7 bc
       0.3662389 -0.39440516 -0.16687377 -0.028242158
0002b0 51 06 7f 3e 34 20 9d 3e 13 57 d6 bc 02 f3 01 be
       0.24904753 0.30688632 -0.026164567 -0.12690356
0002c0 35 d5 76 3e fc d3 82 3e 11 b9 8d be 39 fa 48 3e
       0.2410477 0.25552356 -0.27680257 0.19626702
0002d0 96 9d 90 3e e8 c9 c0 bc 04 fd f6 be 37 9d ea 3e
       0.2824523 -0.023533776 -0.4823991 0.4582307
0002e0 10 b3 36 be 1e e7 50 3e e7 5b c2 3e 07 77 bd 3e
       -0.17841744 0.20400664 0.3796074 0.37004873
0002f0 12 30 0d 3d 2a 04 d2 be df 48 a0 3d 20 16 02 3f
       0.03446967 -0.41018802 0.07826399 0.5081501

bias f4 [64]
000000 cd 51 07 3f 5a 1f 9a 3e c1 c7 02 bf 1b 18 c8 3e
       0.52859193 0.30102044 -0.5108605 0.3908089
000010 f3 c1 7a be 32 98 71 3d 71 44 95 be 44 f0 76 3e
       -0.24488048 0.058983035 -0.2915378 0.24115092
000020 67 5a 50 3e 88 d3 47 3e 7b c9 82 bd 45 73 00 3f
       0.20346986 0.19514287 -0.063860856 0.5017589
000030 2d 0a 13 3f 94 a9 cf be 28 35 a3 bd 1a 4c c5 be
       0.574374 -0.40559065 -0.07969123 -0.38534623
000040 18 8a de 3e e1 cb 82 bd 7b a6 d0 3e 82 1d 12 bf
       0.43464732 -0.06386543 0.40752015 -0.57076275
000050 89 a5 03 3f 28 8b e3 3e 9a 4c 5d 3e 93 37 d2 3e
       0.5142446 0.44442105 0.21611252 0.41058025
000060 13 54 f1 3d 64 9d 8d 3e d5 33 5b bd 76 64 9c be
       0.11783614 0.27659142 -0.053516228 -0.30545396
000070 f4 56 05 bf dd 1f 85 be 73 ab 8e 3e 0d de 2e 3d
       -0.52085805 -0.26000872 0.2786518 0.042692233
000080 33 b2 97 3e 27 b6 04 3f 4b 87 31 3b 20 53 15 bf
       0.29628143 0.5184044 0.0027088698 -0.58329964
000090 58 79 fa 3e 4d e1 f7 be db e9 02 3f b2 74 1a 3f
       0.48920703 -0.48414078 0.51138085 0.6033431
0000a0 c6 7e 8c 3e c1 3f 9e 3e 37 2f 05 bf 7d fc 8e be
       0.2744047 0.30908015 -0.5202517 -0.27927008
0000b0 eb e6 8c be 23 fc cc bd ab 3e 65 be 0f 9e ba 3e
       -0.27519926 -0.10009029 -0.22387187 0.36448714
0000c0 ff 7a 24 3e 05 4c bf 3e 69 21 13 3f e9 58 05 3e
       0.16062544 0.37362686 0.57472855 0.13022198
0000d0 64 87 05 3e 74 5a a2 bd b8 19 c6 be eb 23 87 3e
       0.13039929 -0.07927409 -0.38691497 0.2639459
0000e0 4d c5 80 3d 9c b2 b2 be 58 79 f3 be 49 98 d0 3d
       0.06287632 -0.34901893 -0.47553515 0.10185296
0000f0 df b9 15 3f 85 28 a7 be 41 50 f4 3e 9f 41 0c bf
       0.5848674 -0.326481 0.4771748 -0.5478763

weight f4 [64]
000000 4e 4e 83 3f 0a 4d 8d 3f 15 6a 85 3f d9 d9 78 3f
       1.0258272 1.1039135 1.0422999 0.9720741
000010 3d f8 7a 3f f9 de 7a 3f 31 4b 7f 3f 0b fd 69 3f
       0.9803503 0.9799648 0.9972411 0.9140174
000020 8f f0 83 3f 13 e9 80 3f 53 9d 89 3f 3c d7 76 3f
       1.0307788 1.0071129 1.0751137 0.9642217
000030 52 ac 82 3f 75 87 7d 3f d3 92 7b 3f 70 df 76 3f
       1.0208838 0.99034816 0.9827091 0.9643469
000040 12 85 84 3f f7 07 7a 3f 56 ab 82 3f 0f e2 7c 3f
       1.035311 0.97668403 1.0208538 0.9878244
000050 74 53 78 3f 6d e4 88 3f f3 35 81 3f bf b8 83 3f
       0.9700234 1.069471 1.0094589 1.0290755
000060 3c 7e 81 3f 81 7b 84 3f 1a a2 87 3f a5 2e 7c 3f
       1.0116649 1.035019 1.0596344 0.98508674
000070 0a 03 87 3f 7f e9 84 3f 7f 5a 7b 3f 2c 50 78 3f
       1.0547802 1.0383757 0.9818496 0.9699733
000080 bd ae 83 3f 64 9b 78 3f 81 91 7e 3f e2 f6 81 3f
       1.0287701 0.9711211 0.9944077 1.0153468
000090 20 87 82 3f e1 e0 82 3f db 36 82 3f f7 07 87 3f
       1.0197487 1.0224878 1.017299 1.0549306
0000a0 31 cf 80 3f 48 33 76 3f b6 ae 83 3f 53 e4 7c 3f
       1.006323 0.96172 1.0287693 0.98785895
0000b0 f7 0b 81 3f f1 9a 78 3f db b5 7e 3f 3a 21 84 3f
       1.0081776 0.9711142 0.9949624 1.032264
0000c0 95 a5 79 3f 6d 11 6d 3f 76 42 85 3f 7a 99 83 3f
       0.97518283 0.92604715 1.0410907 1.0281212
0000d0 e8 ea 80 3f 00 7f 82 3f d2 50 8d 3f d1 d8 81 3f
       1.0071688 1.0195007 1.1040289 1.0144292
0000e0 83 d6 86 3f e9 ea 7c 3f 46 a5 76 3f 70 e3 7e 3f
       1.0534214 0.98795944 0.9634594 0.9956579
0000f0 0a 29 83 3f 7c 8f 7c 3f 58 d7 7e 3f b7 44 82 3f
       1.0246899 0.9865644 0.9954734 1.017722

bias f4 [64]
000000 18 b2 28 3d 90 9d 54 3d a7 77 c5 bc c2 3f 21 3d
       0.04118547 0.051908076 -0.024104906 0.039367445
000010 4c 14 14 bc 3d 68 39 bd 83 f7 37 bd e2 8a 52 bc
       -0.009038042 -0.045265425 -0.04491378 -0.012850495
000020 54 90 db 3c 7c 91 ed 3c 12 b0 48 bd e8 ac 13 bd
       0.02680222 0.029000036 -0.04899604 -0.036053568
000030 dd 7b de 3c b2 be bd 3c e5 1a 91 3c c3 72 f4 bc
       0.027158672 0.02316222 0.01771302 -0.029839879
000040 24 b5 ea 3c e3 f4 93 3c 90 51 e6 3c cf a5 7a bc
       0.028650828 0.018061107 0.028115064 -0.015298321
000050 32 f7 28 3d a1 8f 71 3d 92 4c 51 3d b2 ec 59 3d
       0.04125137 0.058974866 0.051098414 0.053204246
000060 de f2 fc bc 9d 4a f2 bc 41 de 42 bd 22 3d 04 39
       -0.030877527 -0.029576594 -0.04757524 0.00012611275
000070 d8 de ab bc 3b ae 33 bd 29 85 40 bd 34 54 95 bc
       -0.020980284 -0.04386733 -0.04700199 -0.018228628
000080 76 b2 13 bb e0 07 24 3d e8 b5 3d bc 4a d3 bc bc
       -0.002253679 0.040046573 -0.011579014 -0.02304997
000090 44 d6 93 3c 93 4b 29 bb fd 95 24 bc 67 41 3d 3d
       0.018046506 -0.00258324 -0.010045526 0.04620495
0000a0 29 79 b6 3c 33 ed 1e 3d 44 a3 3f bd d1 f8 ba bc
       0.02227457 0.03880043 -0.04678656 -0.022823723
0000b0 61 f3 91 3c ab 59 0b bc 99 57 8d bc 6a b6 ea 3c
       0.017816247 -0.008505265 -0.017253684 0.028651435
0000c0 35 04 b6 bc f9 03 7e bb b3 3b 3c 3d 9b 3d ba 3c
       -0.022218803 -0.0038759692 0.04595537 0.022734454
0000d0 83 8b 02 3d 17 52 7d 3c 26 26 39 bd 9c 0b 17 3d
       0.03187133 0.015461466 -0.045202397 0.036876306
0000e0 82 6e 6f bd ea ac 0c bd d0 a0 24 3d 99 d8 08 3d
       -0.058454998 -0.03434459 0.040192425 0.03340969
0000f0 41 f5 57 3d 7c 21 bf 3c a3 9e 16 3d 7a 5f ef bc
       0.052724127 0.023331396 0.03677238 -0.029220331
