best_policy.pt (torch, 167108 bytes, 63 tensors)

weight f4 [64, 3]
00000000: 0840 febd b046 a03e f627 ecbe c864 09bf
00000010: adb5 81be c387 2c3e db25 1ebd 8ba1 0c3f
00000020: 65cc afbd 1b51 8d3e bce0 17be cc30 17be
00000030: b523 5cbf ba52 f7be cac6 7abe 9bb7 e23b
00000040: d5cf d43e 581f 893e 4770 1cbf 59fa 70be
00000050: b40b 4e3e d24b ff3e 726e bf3b e525 d83e
00000060: 3dc4 4cbe 0872 d23c 5748 fe3e dc4d 1fbf
00000070: ccd0 9dbe 9fc3 2cbe edbc 8ebe 6f20 e93e
00000080: cf57 98be 2252 a9be 7422 ccbe 0bae fdbe
00000090: b828 0bbf fda6 2e3f dc8a 673e 7daa 803e
000000a0: afef 0dbe e76e 7cbe 2f4d f13d 7d83 fabe
000000b0: 61b4 cfbe 87c4 b3be cb6a b23e 63ec a03e
000000c0: c488 43be a1e2 3c3d 20d6 b83e 08cd 153f
000000d0: 1478 c63e bd05 db3d 7381 b03e 4ed3 7cbe
000000e0: 9e60 ef3d 8092 23bf b190 ddbe 78bf 98be
000000f0: 1fae 913e 834d ab3e 0419 9ebe 4222 513e
00000100: 3d17 013f 311b 86bd bb06 a93d d8ce 813e
00000110: e0f0 a53e 10f5 103f 38f6 0dbf b808 5abe
00000120: 31c3 663e b565 033f 012a f23e 16ef 0a3f
00000130: 4342 883d bbb3 ecbe 1657 c03c 0044 04bf
00000140: 108c f7be 9e0a 003f bb46 a73e 5b2f f9be
00000150: 7f6e 043e 2a5d 91be 0c96 d8bd d2af 93be
00000160: ef68 be3e 27dc b2be ea4d 2b3e 2356 aa3e
00000170: 763a d33e 474c 603e 99ec 33bf d552 b9be
00000180: 793b fe3e 5a2f a43d 5875 d2be b5da 7dbe
00000190: 3a42 293f 11a0 c73e de63 3ebe 1ea8 49be
000001a0: 0ff6 04bf 8dc6 0b3e aee0 03bf 7076 d7be
000001b0: 81f7 073d 1a0d 063c 273e 4cbe 59e8 af3e
000001c0: 0e92 c1be 060c fb3e becc c53e 6318 16bf
000001d0: f1ed 1ebe bb5f 84bc f1b3 8b3e 5d32 403d
000001e0: 23f2 3f3e 5ffb 1e3e 5d47 7ebe c2b1 703e
000001f0: 1f21 49bf 277f 90be 2349 e2bd f252 fabe
00000200: 3ed8 1bbe b986 2fbf 5e1f f9bc 9c07 213e
00000210: 5291 f5be 91c8 c93b a53b bd3e efbd 3fbd
00000220: 9cec 7f3b f29f 18bd e797 7a3e 4d8a d53e
00000230: 6736 083f b32a bf3e 02df 3a3f 8eb1 ea3b
00000240: a38c 22bf ec22 92be bacd c33e 4f57 8c3a
00000250: 9352 f3be 8ec5 c9be e3b3 2fbf d176 04bf
00000260: 0339 3dbe 370c a23e 829a 073f e4dd 0fbf
00000270: 6970 ab3e 9337 19bf 3db0 08be 5a63 bcbe
00000280: 08e3 00be 0885 12be dc56 2fbf b0f8 02bf
00000290: 9c96 93bd e00b e53d 659c 87be a75d 823e
000002a0: be66 25bf a642 7fbd f45a fb3e 3d7e c4be
000002b0: 53cf 213f 6d1b 3f3e 59a2 20bf 7eb8 ad3e
000002c0: 6d21 e6bd f05d c8be bc28 ea3e 3ec6 eabe
000002d0: 6091 cf3b 1824 01be 2a37 b73e eeb5 6d3e
000002e0: 21dd cf3e 5892 463e a1ff 33bd 5412 3bbe
000002f0: 6d01 e6be e661 aa3e e0e5 0b3f 543a b53e
-0.12414557 0.3130393 -0.46124238 -0.53669405 -0.2533392 0.16848664 -0.03861032 0.54933995
-0.08583907 0.2760094 -0.14831823 -0.14764708 -0.85991985 -0.48305303 -0.24489895 0.00691886
0.41564813 0.26781726 -0.6110882 -0.23533 0.20121652 0.49862534 0.0058420235 0.4221641
-0.19996734 0.02568914 0.49664566 -0.6222818 -0.30823362 -0.16871499 -0.27878514 0.45532557
-0.29754493 -0.33070475 -0.39870036 -0.49546847 -0.54359007 0.68223554 0.22611564 0.25130072
-0.13860963 -0.24651681 0.117823 -0.48928443 -0.40567306 -0.35110876 0.34847102 0.3143035
-0.1909514 0.046114568 0.36100864 0.5851598 0.38763487 0.10694454 0.34473762 -0.24689981
0.1168835 -0.63895416 -0.43274453 -0.2983358 0.28453156 0.33457574 -0.3087846 0.20423225
0.50426084 -0.06548155 0.08253237 0.25353122 0.32410336 0.56623936 -0.55453825 -0.21292388
0.22535397 0.5132707 0.4729767 0.54271066 0.066532634 -0.46230873 0.023479026 -0.5166626
-0.48349047 0.500162 0.3267115 -0.48668942 0.12932776 -0.2839139 -0.10575494 -0.28845078
0.37189433 -0.34933588 0.1672894 0.33268842 0.4125554 0.21904097 -0.70282894 -0.36196008
0.4965475 0.08016844 -0.4110515 -0.24790461 0.6611668 0.38989308 -0.18592784 -0.19693038
-0.51937956 0.1364996 -0.5151471 -0.42082548 0.033195022 0.008181835 -0.19945584 0.34356955
-0.37806743 0.4903261 0.38632768 -0.5863096 -0.15520455 -0.01615893 0.27285722 0.04692303
0.18744712 0.15525578 -0.2483191 0.23505309 -0.78566164 -0.2822201 -0.11049106 -0.48891407
-0.15219209 -0.68564945 -0.030410465 0.15725559 -0.47962433 0.0061579426 0.36959568 -0.046811994
0.0039050942 -0.03726191 0.24472009 0.41707078 0.5320801 0.37337264 0.7299653 0.0071622794
-0.63495845 -0.28542268 0.38242894 0.0010707172 -0.47523937 -0.39408535 -0.6863386 -0.517438
-0.1847878 0.31649944 0.52970135 -0.56197953 0.334842 -0.59850425 -0.1334848 -0.3679455
-0.12586606 -0.1430856 -0.6849191 -0.51160717 -0.07206461 0.111839056 -0.26486507 0.25462076
-0.646099 -0.06231942 0.4909283 -0.38377562 0.63206977 0.18662806 -0.6274772 0.3392982
-0.11236844 -0.3913417 0.45734203 -0.45854372 0.0063344687 -0.12611425 0.35784274 0.23213932
0.40598395 0.19391763 -0.04394496 -0.1826871 -0.44922963 0.33277816 0.54647636 0.35396063

bias f4 [64]
00000000: 8f8d c6be 056e aa3d 3770 a5be 2e7c 8bbe
00000010: 3500 a3be 1fd8 103e 9c2e 9abe f01d 53bd
00000020: e4c1 043d 4702 c23e 0a9c f8be 64ba dabe
00000030: cee0 abbe 9964 ad3e a3cc 5fbe a82e fc3e
00000040: 41ce 3e3e c0d5 803d 3c18 a4bd be66 d7bd
00000050: 242f 123d 7344 ddbd 6052 a2bc 64a4 0f3d
00000060: 15a1 04bf cf62 cdbe 328e d23e 529d 0abf
00000070: cf7e 1abd 3283 163f 090c 593e 1316 abbc
00000080: 46f1 05bf b0db a33e b545 f0be c8e9 36be
00000090: 2ada 86be 5f5d 0abe c0e4 0cbd 7fd8 f83e
000000a0: 058e 363d e0bd 043f 4594 b23e 46c3 8dbe
000000b0: 7421 893e 0865 d7be e1b2 7ebe 775b 393e
000000c0: 25cc 693e 9d97 d33e 9723 15be b1d6 9a3c
000000d0: 2d73 8c3e a98a febe e1eb fd3e d19f fbbe
000000e0: 93af 2b3d ce90 aabd 1d20 8bbe 4d5e b53d
000000f0: 09dd d73e 8b10 25be 84ee ccbe b0bc 80be
-0.38779876 0.08321766 -0.32312176 -0.2724318 -0.31836095 0.14144944 -0.30113685 -0.051542222
0.03241147 0.37892362 -0.48556548 -0.4272033 -0.3356995 0.33865812 -0.21855406 0.49254346
0.18633367 0.062907696 -0.08012435 -0.105176434 0.035689488 -0.10804071 -0.01981467 0.035068884
-0.5180829 -0.40114447 0.4112411 -0.541463 -0.03771859 0.5879394 0.21195997 -0.02088455
-0.5232128 0.32003546 -0.46928182 -0.17862618 -0.2633832 -0.13512181 -0.03439784 0.48602673
0.044569034 0.51852226 0.34878746 -0.27688044 0.26783335 -0.42069268 -0.24872924 0.18101297
0.22831781 0.4132661 -0.14564358 0.018901201 0.27431622 -0.49715164 0.49594024 -0.49145368
0.041915487 -0.083284006 -0.27172938 0.08855877 0.42160824 -0.16119592 -0.40025723 -0.25143957

weight f4 [64]
00000000: 97a6 753f f977 863f ebc7 803f 3a8d 763f
00000010: f4d4 873f adc4 773f df8e 813f a6b0 7d3f
00000020: 5ca3 7a3f 881d 7d3f 6206 703f 7e6c 6e3f
00000030: 834d 823f 11a7 713f abfb 753f ca5d 7b3f
00000040: 7bc2 783f 420d 843f 67d4 723f 9031 843f
00000050: 4f7e 793f 773a 833f 601b 7e3f 743a 883f
00000060: 497d 7b3f d015 7f3f 039b 7a3f 3682 703f
00000070: 4faf 803f e102 843f b123 7b3f c292 843f
00000080: da32 813f 28ca 803f 207c 783f 7fa0 7f3f
00000090: 24a9 7b3f 40e6 773f a929 883f 2b52 7f3f
000000a0: 19f8 773f e72a 803f 4fd1 7c3f bb14 7b3f
000000b0: dc56 7c3f 3018 7a3f 1af9 7f3f de0e 8a3f
000000c0: edd2 823f cfa9 7b3f 7b9d 783f 652a 813f
000000d0: 0f59 813f 785e 783f bccc 873f 0198 7b3f
000000e0: 9faa 813f aba4 733f bc86 7c3f 2c71 813f
000000f0: 6bbf 723f 405b 893f ce1d 7e3f d644 833f
0.9595732 1.0505363 1.006101 0.96309245 1.0611863 0.9678448 1.0121726 0.9909767
0.97905517 0.98873186 0.9375974 0.93134296 1.0179905 0.9439555 0.9608714 0.98189986
0.97171754 1.0316546 0.9485535 1.0327625 0.97458357 1.0252217 0.9926052 1.0642838
0.98238045 0.9964266 0.9789278 0.93948686 1.00535 1.0313379 0.98101336 1.0357287
1.0093644 1.0061693 0.970644 0.9985427 0.98304963 0.9683571 1.0637714 0.99734753
0.9686294 1.0013093 0.9875688 0.9807851 0.98570037 0.9769316 0.99989474 1.0785787
1.022062 0.9830598 0.97115296 1.0091063 1.0105304 0.9701915 1.0609355 0.98278815
1.0130194 0.9517314 0.9864309 1.0112662 0.9482333 1.0730972 0.9926423 1.0255382

bias f4 [64]
00000000: 96ff de3c 9591 8e3c e38c 603a 56db 373d
00000010: 5972 a53c 9d0b 1abd 165c 003c 9007 8ebb
00000020: 77f7 93ba aa22 3c3d 4945 123c 9836 e63b
00000030: 0ef8 df3c 1774 96bc 2cf8 b43c 19f3 5d3c
00000040: 6038 dd3c c5d2 1a3c 37ff 93bc 6b33 943c
00000050: 42b0 9fba ea3c a03c b88d b1bc 222d 84bc
00000060: eed6 643c 7903 ddbc c200 b0bc ed27 9bbc
00000070: d897 e63c 2f2a 873a e999 e23b 382d 643c
00000080: 02ba f63a c1b0 b93b 8845 fe3a 535c dabb
00000090: 45f5 023c 812f 56bc 555f 61bc 4ca8 2f3c
000000a0: 6950 fabb 0aa8 a7ba 09e5 1f3c e3c2 683d
000000b0: 25d1 6abb 21b3 b13c de9e c13a 842a 063c
000000c0: 6a91 dc3b 9a8d 41bb b800 683d 407d d43c
000000d0: 033a 03bc 2458 ee3c 0379 4a3d 3c3b 093d
000000e0: c11d 843b ee43 693d bdef 9a3c 6619 bbbb
000000f0: b32f 54bd ba77 ea3b 0199 9bbc df1e b9bb
0.027221482 0.017403403 0.00085659156 0.04488691 0.020196127 -0.03760873 0.007834455 -0.0043343976
-0.001128896 0.045931496 0.008927652 0.007025551 0.027339961 -0.018365903 0.022090994 0.0135467285
0.02700442 0.009449665 -0.018066032 0.018090924 -0.0012183266 0.019560296 -0.021674022 -0.016134802
0.013967259 -0.026979195 -0.021484736 -0.018939937 0.028148577 0.0010312254 0.00691532 0.013926797
0.0018823745 0.0056668227 0.0019399384 -0.006663838 0.007993047 -0.013072849 -0.013755639 0.010721277
-0.00763898 -0.0012791168 0.009759196 0.056826483 -0.0035830226 0.02169186 0.0014772078 0.008188847
0.006731202 -0.0029533864 0.05664131 0.02593863 -0.008009437 0.029094763 0.049431812 0.033503756
0.0040318673 0.05694955 0.018913144 -0.005709815 -0.051803302 0.007155386 -0.018993856 -0.005649432

weight f4 [64, 64]
00000000: 197e 05be 97bb 7a3d a63d 84bd 8190 6fbd
00000010: 7c04 a1bd 4d4e 693d 5c19 913d 904e ad3d
00000020: abbe 493d 88f2 87bd e606 5cbd 3ac0 873d
00000030: df92 db3d 53d5 ae3c 3ba5 75bb 25f3 b6bd
00000040: ed10 ebbd 8726 dfbb 471c 85bd 72de c1bd
00000050: 92d7 bb3d 8a81 ffbd 76d1 8ebc f124 ac3d
00000060: bf9e 153c 4f41 91bd 4bc7 c7bd 3a13 d43d
00000070: 5008 823d d334 873d c8d7 83bd 891a df3d
00000080: 1183 a6bb 95c4 c4bc 75b8 80bd c07a a73d
00000090: 4e47 803d bf80 0cbc 3e3f 8a3d 7c30 04be
000000a0: c945 9e3d 92cd 99bd 5286 9d3d a902 1bbd
000000b0: 8ef9 63bd de2f e33c a302 80bd c3ac 21bd
000000c0: 79dd f13c 344e babd 90bc 9f3c be50 213d
000000d0: b65e ac3d 9c1f 46bc 61e7 f3bd 0808 6dbc
000000e0: b619 463d 266b 33bd a474 e03c 33e9 5a3d
000000f0: 6645 a1bd 005e 48bb 1911 8a3d f2a4 89bb
00000100: 19f5 e53b b0e2 b53d 67fe a2bd 8bf9 fa3c
00000110: 9c2e e43d 5277 d43d 67ac 153e 3c15 68bc
00000120: af2d 3b3d 8d8d 6dbc 98f3 c2bd 51bb c3bd
00000130: 8ef4 633e c9d3 983d 87ec a2bd 4117 533d
00000140: 6d50 c73d 5142 543d 3f43 b83d 54eb f53d
00000150: 6c7c 29bd 6dca 25bd d548 a93d c6f9 f73d
00000160: b678 0bbe 0d4b dc3d 0587 5a3d 2739 7d3d
00000170: a9da 56bd e4b5 a13c 4ce5 8abd 8054 e13d
00000180: fabc bcbc a3ed 2d3d e1e5 dc3c e10f 713d
00000190: 8591 d1bc 1cc9 1f3d 75fb ccbc a458 243d
000001a0: d1cd b8bd 9d5c 81bd 145e 50bd cb0d 323e
000001b0: a79d 983d 9238 113e 2b3b 813d 4cda 22be
000001c0: ec9a 8ebd 874c babc dd9a 4dbd 6b09 943d
000001d0: b7d0 1bbd 7e2a 16bd 13d7 fbbc ce72 20be
000001e0: 998d d73d 6dfb 203e b9fd ea3d a492 a13d
000001f0: f0f5 db3d bf55 0cbe 1437 773d a7e5 4d3d
00000200: 089f 0c3d eca2 ee3d 478d 903d 484f 6c3d
00000210: 5a61 853d d746 6e3d fb9e 2f3c ec5d c1bc
00000220: aadd a2bd 6cc8 1dbc 9d83 a6bd 19c4 a63d
00000230: 9171 b13d fd45 ddbb 79dd cdbd 6370 b63d
00000240: 6dfe 8b3d 0816 0e3d 5771 61bd 0d7c 253e
00000250: a34e 3f3d 1f84 b5bd 7888 f33d 2c8b 3d3c
00000260: 98ad 2abd 1dfd 2a3d c712 86bd 8ea7 2cbd
00000270: 458e bd3d 9fb8 ea3c e79b b3bd dc04 8cbd
00000280: e8dc a1bd 652f 02bd f7e9 3f3c 4de9 cc3d
00000290: 4dde 4dbc 8a8c 99bd 0bb5 90bd 9bdc ac3d
000002a0: b036 603d c6f6 efbd 68d3 eb3b ed89 c5bd
000002b0: ed07 91bd c18f 493d d8cc b1bd 21c8 b73d
000002c0: b3f2 af3d a00f 8b3c fc40 c0bc 16d2 47bd
000002d0: 07f1 0dbd db28 aebd 2ef8 0f3e 50e7 debd
000002e0: aa1c 0dbe b7f4 fbbd d77c 263c 0df9 d13d
000002f0: 77aa 02be 616a e03d c86f 65bd e6a1 2c3d
00000300: 4d25 a83c 7454 34be dde6 de3d 5787 8c3d
00000310: 7643 083e 52e8 9f3d 6395 fcbd 1177 da3d
00000320: 366e 78bb 3159 4e3d 88d2 b7bd f9b0 ddbc
00000330: a039 17be a319 1ebd 3a1f f13c ff94 d8bd
00000340: 5e27 953c f56f f83d f0fb b93a 33bf 98bd
00000350: 89ea 80bd 0b6b 31b9 79c4 833d 7ce6 ad3d
00000360: c54a de3d 5b24 083c 050c 213d 49cd debd
00000370: bf03 f1bd 8330 e03d b8d5 7ebd 09eb 573b
00000380: 49f6 a6bd 2a76 52bd 576b b7bd fb88 8f3d
00000390: 7839 b5bb f19b ab3d 9d35 913c 1243 893d
000003a0: b014 d93c 92d8 a8bd 9da3 8fbd 8564 81bc
000003b0: 0bf5 143d c6a4 afbd 9064 f33d 63c5 4e3d
000003c0: ec4f 0dbe fbc9 96bd ecff e93d d909 263e
000003d0: a348 27be b4a0 b93d fbe2 1c3b 45cd d23d
000003e0: eb40 b13d 67c0 99bd 1b2a 383d 54fc a13d
000003f0: dc97 5dbd 4934 323e d223 c8bc ef8a 1c3e
-0.13036384 0.061214056 -0.06457071 -0.05848742 -0.078621835 0.05695944 0.07084915 0.0846225
0.0492541 -0.06638056 -0.053717516 0.06628461 0.10721373 0.021341955 -0.0037482518 -0.08933095
-0.11477838 -0.0068100127 -0.06499534 -0.09466256 0.09171976 -0.124758795 -0.017433863 0.084054835
0.009132086 -0.07092535 -0.09754809 0.1035523 0.06349242 0.06601872 -0.064376414 0.10893733
-0.0050815423 -0.024019519 -0.062851824 0.081777096 0.062636 -0.008575617 0.06750344 -0.1290912
0.07728154 -0.075099126 0.07691635 -0.037844334 -0.055657916 0.027732786 -0.06250503 -0.0394714
0.029524552 -0.09096947 0.019499093 0.039383642 0.08416502 -0.012092497 -0.119093664 -0.014467247
0.048364364 -0.043803357 0.027399369 0.053445052 -0.07874565 -0.0030573606 0.06741542 -0.004200571
0.0070177433 0.08881128 -0.0795868 0.03063657 0.111417025 0.10374321 0.14616548 -0.014165219
0.045697864 -0.01449908 -0.09519118 -0.09557212 0.22261259 0.0746227 -0.0795527 0.05153585
0.09732137 0.051821057 0.08997201 0.12007776 -0.041378424 -0.04047625 0.08265845 0.121081874
-0.13620266 0.10756502 0.05335142 0.061822083 -0.052454624 0.019740053 -0.06782016 0.11002445
-0.02303933 0.042462956 0.026965084 0.058853034 -0.025582084 0.039010152 -0.025022248 0.040123597
-0.09023631 -0.06316493 -0.05087097 0.17388074 0.07451945 0.14181736 0.063101135 -0.15903586
-0.06963143 -0.02274157 -0.050196517 0.07228359 -0.038040843 -0.036661617 -0.030742204 -0.15668795
0.105250545 0.15720911 0.11474175 0.078892976 0.10740268 -0.13704585 0.06035526 0.05026784
0.03433135 0.11652169 0.070581965 0.057692796 0.06512709 0.058173027 0.010719056 -0.023604356
-0.07952435 -0.009630304 -0.08130572 0.081428714 0.08664239 -0.006752728 -0.10052008 0.08908155
0.06835637 0.03468898 -0.05503973 0.16160603 0.046705853 -0.08863091 0.11891264 0.011568826
-0.04166946 0.041745294 -0.0654655 -0.04215198 0.092556514 0.028652487 -0.087699704 -0.06836864
-0.07903463 -0.03178348 0.011713496 0.10005436 -0.012565208 -0.07497509 -0.07065781 0.08440515
0.054739654 -0.1171699 0.0071968324 -0.09645448 -0.0708159 0.04920936 -0.08681649 0.089737184
0.08591213 0.016975224 -0.023468487 -0.048784338 -0.03465369 -0.08503886 0.14059517 -0.10883963
-0.13780466 -0.12302535 0.0101616 0.10252581 -0.1276034 0.1095779 -0.056014806 0.042146586
0.020525599 -0.17610341 0.108838774 0.068617515 0.13306984 0.078079835 -0.12333181 0.10667241
-0.0037907488 0.05037803 -0.089757025 -0.027061926 -0.14768076 -0.038598668 0.029433835 -0.10575294
0.018207248 0.12130729 0.0014189463 -0.07458343 -0.06294734 -0.00016919912 0.064339586 0.08491227
0.10854105 0.008309449 0.039318103 -0.10878999 -0.11768293 0.10946753 -0.062215537 0.0032946488
-0.08152444 -0.05138222 -0.0895602 0.07008549 -0.0055305324 0.08379353 0.01772576 0.06702246
0.026499122 -0.082444325 -0.07013629 -0.015795002 0.036366504 -0.0857635 0.11884415 0.05048121
-0.13800019 -0.073627435 0.11425766 0.16214694 -0.16336302 0.09063855 0.0023939002 0.10293058
0.0865496 -0.07507401 0.04496203 0.07909456 -0.054099903 0.17402758 -0.024431143 0.15287374

bias f4 [64]
00000000: c0dc 91bd ff81 80bb ead5 e63d cab3 7b3c
00000010: 5a17 83bd 0c94 89b9 90bb d2bd d57a b8bd
00000020: d1e3 26bd d3a1 7ebd c15d a33d 02c0 5e3c
00000030: be94 ae3d 6297 b3bc 9604 e6bc 567e d43c
00000040: eeda 3dbd 1e16 34bd 6317 fcbd dfb1 9e3d
00000050: bb02 fe3d 8ed1 05be 09dd 33bd 10db d1bd
00000060: 46d5 95bd c8a4 b13d 8cf2 803d 7d34 05bd
00000070: 359d 003d 6f9b e63b 2c9b 653d 117c cabd
00000080: e731 773c eee0 15be ac02 dbbd f155 88bd
00000090: b104 0abd d014 05be 6da0 8d3b fe6e 153c
000000a0: 069d 80bd 9862 f33c 8b90 853d 81ca cfbc
000000b0: ca29 9dbd 2eed f9bd 1316 d0bd 1411 b9bd
000000c0: f7c4 c6bd 59fe 55bd 918c 3b3d d909 943c
000000d0: 0fdf b63d df85 e93d 1c9d 91bd 23af 54bd
000000e0: add8 ba39 ad1a c8bd eac1 953d fa0c c9bc
000000f0: e47e eabd 6c00 d3bd 7485 c6bd c163 ed3c
-0.07122183 -0.0039217467 0.112712696 0.015362689 -0.06400938 -0.0002624098 -0.10289681 -0.09007803
-0.040744606 -0.062166046 0.079768665 0.013595583 0.08524464 -0.02192277 -0.028078359 0.025939148
-0.046351366 -0.043966405 -0.12309148 0.0774877 0.124028645 -0.1306822 -0.043911967 -0.10246861
-0.07316069 0.08674008 0.06296262 -0.03252076 0.031399924 0.007037572 0.056056187 -0.09886945
0.015087581 -0.14636585 -0.10693869 -0.06657017 -0.03369588 -0.1299622 0.0043221028 0.009120701
-0.0627995 0.0297101 0.0652171 -0.025365116 -0.07673986 -0.122034416 -0.1016046 -0.090364605
-0.09705537 -0.052244518 0.04578835 0.018071102 0.08929264 0.11402487 -0.07110044 -0.051924836
0.0003563812 -0.09770713 0.07312377 -0.02454232 -0.11449984 -0.10302815 -0.09693423 0.02897823

weight f4 [64]
00000000: b8b8 7d3f 159e 803f ba90 803f 1422 883f
00000010: 2787 863f accc 7e3f 21d5 853f db01 7e3f
00000020: c601 883f 4f87 8b3f 10cd 813f f0f5 853f
00000030: 4247 843f a9ed 873f b91e 863f b9d3 803f
00000040: e4d0 823f 6a2f 843f 4621 803f 3a44 7d3f
00000050: ae8b 8a3f 88ff 7f3f 87e6 813f a12a 793f
00000060: bfa4 793f 00e4 803f f3e8 853f 2023 823f
00000070: dad9 823f 08a9 883f 816e 853f cbe2 813f
00000080: 7d6f 7e3f 41dd 7d3f 87f9 7b3f 9ea9 7b3f
00000090: 4edc 7d3f 2106 7c3f 16ae 853f cab0 803f
000000a0: f9bd 7f3f 3792 7e3f 2460 7d3f 39f1 7a3f
000000b0: 4aad 863f 4731 813f 284b 813f 7b64 863f
000000c0: 90e8 783f f45f 853f 00f0 853f a482 803f
000000d0: 3618 7c3f c0c4 7e3f 7343 803f 59ba 873f
000000e0: 91c3 843f 44d0 8f3f b2dc 8e3f cf38 8a3f
000000f0: 526b 803f 3efd 793f 9eaf 7c3f 018b 843f
0.99109983 1.0048243 1.0044167 1.06354 1.0509995 0.99531054 1.0455667 0.9922158
1.0625541 1.0900668 1.0140705 1.0465679 1.0334246 1.0619403 1.0478126 1.0064613
1.0219998 1.032697 1.0010154 0.9893223 1.0823877 0.99999285 1.0148476 0.9733067
0.9751701 1.006958 1.0461715 1.0166969 1.0222733 1.0676584 1.0424348 1.0147337
0.9938887 0.9916573 0.98427624 0.9830569 0.99164283 0.9844685 1.0443752 1.0053952
0.9989925 0.99441856 0.98974824 0.98024327 1.0521634 1.0093163 1.0101061 1.0499414
0.9722986 1.0419908 1.0463867 1.0039868 0.9847444 0.99518967 1.0020584 1.0603744
1.0372182 1.1235433 1.1161101 1.0798587 1.0032752 0.9765204 0.9870547 1.0354921

bias f4 [64]
00000000: f4dd 7c3b 84e0 303b 542f 21bb be68 62bb
00000010: 7654 29bb f6e9 8cba f62e edba fbd0 52bb
00000020: 2ba6 303b 3032 4fbb 5261 6ebb 4de4 7d3b
00000030: 81b6 4fbb 038c e63b bfe2 463b 69d0 623b
00000040: e555 853b 31df 93bb 8265 463b c273 3dbb
00000050: 1f40 06bb 2da1 f83b 55ab c93b 2966 843b
00000060: 8402 7f3b 384c 853b fe16 853b 9c25 efbb
00000070: db76 213b 740d 103b ac35 6dbb f2ab f73b
00000080: f614 c7ba e8aa f0ba 0c40 b03b 9dcd 3a3c
00000090: ea46 ef3a 7c1e 89bb f05e bc3b f705 833b
000000a0: 8f31 053c 2b89 403b 9af6 6bbb ceda 443b
000000b0: e814 a63a ed6a bb3b eeb1 6e3b fd4d b0bb
000000c0: f1ea 293d abeb 403b d39c 453b 60b7 9fba
000000d0: e93d 1f3b 8f0d 733b 7054 383a e196 38bb
000000e0: 489c 323b 526c fbba 623b 153b 5c35 2bbb
000000f0: 7288 d33a 99d7 2a3c efa2 17bb e63f 543b
0.0038584443 0.002698929 -0.002459486 -0.0034547294 -0.0025837696 -0.0010750878 -0.001809566 -0.003216802
0.0026954513 -0.0031615607 -0.0036373925 0.0038740814 -0.0031694474 0.0070357337 0.0030347554 0.0034609085
0.0040690773 -0.0045126905 0.0030272906 -0.0028908108 -0.0020484996 0.007587573 0.0061544576 0.0040404988
0.0038911412 0.004067924 0.004061579 -0.0072981846 0.0024637494 0.0021980675 -0.003619532 0.0075583393
-0.0015188742 -0.0018361481 0.0053787287 0.011401561 0.0018255387 -0.004184542 0.005748622 0.003998514
0.0081294915 0.0029378633 -0.003600514 0.0030037644 0.0012671025 0.0057195337 0.0036421972 -0.0053803907
0.041483823 0.0029437344 0.003015329 -0.0012185387 0.0024298376 0.003708694 0.0007031625 -0.0028166103
0.0027253795 -0.0019182062 0.002277099 -0.0026124334 0.0016138686 0.010427379 -0.0023137887 0.003238672

weight f4 [1, 64]
00000000: 67dd b43d 94d8 d63d 7c54 2cbd 7c54 03be
00000010: e088 ccbd b5b1 a9bd 5ada 98bd 7d5d d9bd
00000020: fbb3 fa3d e404 4cbe 7366 bdbd 1ec7 013e
00000030: a94e febd 0157 a53d e8c3 0c3e be9c 053e
00000040: 9734 af3d c8ba 78bd f1fd 963d f745 493c
00000050: 161e d8bd a7ce abbc 1952 3f3d 78c1 633d
00000060: 9c5c f03c 45f6 883d 72df 7d3d b3d3 dfbc
00000070: 9394 983d a542 a93d 264c 23be 24cf 243d
00000080: 7a86 53bd 8e1f 75bd 9638 1a3d e536 943c
00000090: 1071 993c 53e2 39bd 6d5a c33d 3756 fc3d
000000a0: 12f8 b53c 81e9 443d a120 cdbd 1e9a 623d
000000b0: 810f b43d 451c 833d eee1 823d 9a06 95bd
000000c0: d7be 90bc 43e0 233e bc2a 0b3e aaba c2bd
000000d0: dbb7 ad3d 0daf f23d 9e64 c63c a409 1fbe
000000e0: 525f 723d 2dce f3bd 74ac 433e dd7b 47be
000000f0: e88a 1d3d f2cc 36bc bae2 423c 8dbf f63d
0.08831292 0.10490528 -0.042072758 -0.12825197 -0.09987044 -0.08285848 -0.07463522 -0.106135346
0.1224136 -0.1992374 -0.09248056 0.12673613 -0.12417347 0.08073235 0.13746607 0.13048074
0.085549526 -0.060725003 0.07372654 0.012284747 -0.105526134 -0.020972563 0.046709154 0.055604428
0.029341035 0.06687597 0.061980672 -0.027322626 0.07450213 0.082646646 -0.15947017 0.040236607
-0.05164192 -0.059844546 0.03765162 0.018092582 0.01873067 -0.045381855 0.09538732 0.12321132
0.022213016 0.04807425 -0.10015989 0.05532276 0.0879202 0.06401876 0.06390749 -0.0727665
-0.017669125 0.16003518 0.1359052 -0.095082596 0.08482333 0.118497945 0.0242179 -0.15531021
0.059172936 -0.11904559 0.19108754 -0.19480844 0.03846255 -0.011157261 0.011894876 0.12048254

exp_avg f4 [64, 3]
00000000: 8fc2 003a 4761 933a f556 2e3b 8af1 5f3b
00000010: 47bf c6bb 1c71 ad3a 560d af38 5a81 3139
00000020: 2c19 9fba 76b4 1ebb f7e8 6fba 7877 e539
00000030: d3db 0739 7a7f 463b cea9 b03b f75f a33b
00000040: 116f 183b 88b7 a2ba 58b5 1b3b 5a0c 3ebb
00000050: 0b52 1c3b f8aa 613b 3aa1 553b 44d7 afbb
00000060: 31d0 1d3b a23a c7ba 1bf3 d43a a74d 0137
00000070: 5d3d 2b3b d239 8a3b 9362 1438 f04c f2b7
00000080: ae13 c8b9 60ec de38 5be2 d839 d69d 5b38
00000090: 6c6d a03a 2d22 23bb 875f b8ba 0cba e8ba
000000a0: e503 feb9 74b7 173a fc2e 18b9 357d 2eba
000000b0: 2c09 e0b9 a16d 1c3b 02a9 efba f78d 203b
000000c0: 74c8 9aba eae4 66b9 8078 d9ba cb0a b23b
000000d0: d3ab bc3b 21d8 1abc 3359 8d3a cf16 8b39
000000e0: 5c3b c1bb 9da3 cc39 7607 4c3b 2773 5b3b
000000f0: 6c92 573b c77a aa39 152b 9fb9 6559 cb3b
00000100: ba1d d33a 863c 3f3b 9b1a 213a a738 023b
00000110: 5f2a a1b9 0744 1cbc 04ce c1bb 8dc7 56bb
00000120: 58db 30ba 16dd 8a3a 0fbc 6dbb 23d7 2abb
00000130: d3f0 00bb 398a 35bb 64a8 adbb a285 42ba
00000140: 53a7 423a b5ab f7ba 45ff a1ba 91ab 93ba
00000150: 863f 0ebc af28 13bb ef29 92b8 208b 0c3c
00000160: 7d41 b63b c63a f93b ec3d 863b 0334 663a
00000170: 10fd fc39 1ca3 3abc 0dae 4ebb 7868 feb7
00000180: 2a9e 20bb 0de0 2ebb f972 27bb ed3a 8a3b
00000190: ade0 523b e361 4dbb 9436 96b9 4fc0 18ba
000001a0: bc20 ac38 9455 02bb 028d f0ba c03d b8ba
000001b0: 5c1a f8b9 eb43 98ba 5a6e d3ba faa2 34bb
000001c0: b5a3 233a 636d 39ba 7352 68bc fa3a ccbb
000001d0: 5e3e 643a 238e ed3b cbf0 a43a 628a 3c3a
000001e0: 0814 003b d081 5839 84e9 1dbb 7c87 5abb
000001f0: 8ae2 1cbb d29c c73b 05f9 3bbb e2fd a7ba
00000200: 6898 7a3b c48e b63a 0eb0 f7ba 6c38 81ba
00000210: 515f 113b b79b 14bb a49f 463b 0400 0080
00000220: 0400 0000 0600 0080 cbd0 42ba 00d5 333b
00000230: df47 6dbb 8f3c df3b 4ac7 9d3b 1fe5 46b9
00000240: 177f 4f3b e00c 87bb d44c 523b 7d03 43bb
00000250: 34de a7ba e11b 91b9 11ab 5539 24f3 943a
00000260: 986e fb3a 6475 933b 62e9 ad3a 9ede c33a
00000270: d7ac e1bb 4b30 97bb 83eb 0b3c 0469 2139
00000280: d1a0 8139 2dfa c738 7816 bf3a fcd4 c439
00000290: 4f71 ca3b 7c45 aeba adf9 f93a 21cb 0bbc
000002a0: bd84 003b a8ea 0cbb 087a 983a 71d3 a93a
000002b0: 36d2 08bb f3ae 5ab9 5554 3038 0d89 ac3a
000002c0: f91e 593a 1ee1 2b3a 263b 4e3b 847c 883b
000002d0: 0e9c ec3a 825b 84ba 6a80 3f3b 9d86 843b
000002e0: ad17 123c a4e9 2cbc b09f 77b9 9d19 36ba
000002f0: 8b15 4fba d834 c23a 2747 833b e19f c9bb
0.0004911804 0.0011244201 0.0026602123 0.0034171068 -0.0060652825 0.0013232562 8.347134e-05 0.00016928223
-0.0012138239 -0.002421645 -0.0009151841 0.00043767295 0.00012956494 0.0030288384 0.005391336 0.004985805
0.002325956 -0.0012414316 0.0023759212 -0.0028999061 0.0023852612 0.003443418 0.003259732 -0.005366238
0.002408039 -0.0015199969 0.0016246767 7.707079e-06 0.0026129105 0.0042183185 3.5377754e-05 -2.8884475e-05
-0.00038161635 0.00010629813 0.00041367378 5.2360665e-05 0.0012239642 -0.0024892197 -0.0014066555 -0.0017755642
-0.00048449557 0.00057875295 -0.00014513353 -0.00066562305 -0.00042731443 0.0023869055 -0.0018284621 0.002449868
-0.0011809007 -0.00022019786 -0.0016591698 0.0054334155 0.0057577877 -0.009450943 0.001078403 0.0002652914
-0.0058969688 0.00039031814 0.0031132377 0.0033485384 0.003289367 0.00032516403 -0.00030358942 0.006205725
0.0016106882 0.0029180362 0.0006145627 0.0019870193 -0.00030739882 -0.009537703 -0.0059144516 -0.003277275
-0.0006746552 0.0010594453 -0.0036275422 -0.0026068173 -0.0019674792 -0.0027700795 -0.0052996147 -0.00074204255
0.0007425446 -0.0018895777 -0.0012359401 -0.0011266341 -0.008682137 -0.002245467 -6.969633e-05 0.008578092
0.005562006 0.0076058833 0.004096737 0.0008781554 0.00048253732 -0.011391427 -0.0031536848 -3.0327807e-05
-0.0024508336 -0.0026683838 -0.0025550707 0.0042184503 0.0032177374 -0.0031338863 -0.00028650893 -0.0005826996
8.2076964e-05 -0.0019887434 -0.001835257 -0.0014056489 -0.00047321885 -0.0011616921 -0.001613091 -0.0027562962
0.0006242351 -0.000707349 -0.014179814 -0.0062326165 0.0008706803 0.00724961 0.0012583969 0.00071922515
0.001954319 0.00020647724 -0.0024095485 -0.0033344915 -0.0023938739 0.0060916925 -0.0028682363 -0.0012816752
0.0038237814 0.0013928046 -0.0018897073 -0.0009858734 0.0022182057 -0.002267582 0.0030307556 -6e-45
6e-45 -8e-45 -0.0007431625 0.002744019 -0.0036206169 0.006812639 0.004815017 -0.00018968106
0.0031661445 -0.004121408 0.003208925 -0.0029756718 -0.001280731 -0.00027677327 0.0002037699 0.0011363965
0.001918274 0.004500078 0.0013268406 0.0014943664 -0.006887059 -0.0046139113 0.008540037 0.00015393278
0.00024724615 9.535658e-05 0.001457884 0.0003754272 0.006178058 -0.0013295854 0.0019071602 -0.008532316
0.0019610368 -0.002150217 0.0011633048 0.0012956691 -0.0020877249 -0.00020855274 4.204021e-05 0.0013163403
0.00082825084 0.00065566774 0.003146836 0.004165234 0.0018051879 -0.0010098072 0.0029220828 0.0040443675
0.008916778 -0.010553751 -0.00023615244 -0.00069465657 -0.00078996335 0.0014816774 0.0040062848 -0.0061530923

exp_avg_sq f4 [64, 3]
00000000: 6b84 f638 c8e5 ef38 d80a c93b 520c 423a
00000010: 0e33 893a 0986 603d eb07 dc38 c37c 1a39
00000020: 2510 2f3b 7ba0 4f39 f508 1739 0252 613b
00000030: ad2a 3e38 283a 6d38 3d6f c53b f579 333d
00000040: 13c9 1839 b8ce 243b 15a5 1039 edfe 7639
00000050: 650a 7e3c 2fc0 0b3d d3c9 e239 a1c3 563c
00000060: c8c9 b239 b4ce 1439 a87a b93b 654f bc39
00000070: 6525 0d3a 79ee 873c 245d bf36 5c1b c436
00000080: 3cbf 9d39 caff 2438 3cc3 6e38 0832 113b
00000090: 9b6c 2238 369e 1338 f64f 553b 3e92 b73b
000000a0: 427a 2939 ac2d 183b 3ff7 9a38 63d4 f137
000000b0: d37e bb3a 9aad 393a 7e0c af38 5fa8 7f3b
000000c0: 9824 de38 5982 4b38 b0f8 223b 9165 383e
000000d0: e00a e13a 2666 0a3d c769 9b3a 40c5 0939
000000e0: 1ef7 933b cc34 4239 30bd 9539 f1e1 7e3c
000000f0: 4b3f 863c 672d 6838 be98 c63a 698f 0e3d
00000100: 7df2 2b39 b1c2 0b3b 4e07 723c 4ddf f838
00000110: 8a12 823b c2c4 f63d 9146 8e3b 1f1b 013e
00000120: d9ca 9338 e95d 9e38 b5ae 343b eb30 573a
00000130: b2c2 ab39 c9ba 2f3c 842e 923c f86d c438
00000140: 6a92 763a dd57 013a 7c54 bd39 bcd8 bf3b
00000150: 1c90 893d d2a1 ef39 7ec1 0e3c 8968 373e
00000160: 9340 1e3b 3cf1 673d d912 8c3c ffc1 4938
00000170: 74a4 913a c1ad 9d3d 4b1c cf3a 5d5f 053d
00000180: a1ae bf39 d1ce b639 a7e5 233c 17ba b33d
00000190: df53 d239 f9d6 573c 285b 3c39 942c 7639
000001a0: 6459 a53b bf5e 543a 4a33 6d3a 9736 d03c
000001b0: 70e9 6839 e346 6739 aa36 aa3b b8d2 653c
000001c0: 07f3 4838 e5e4 2e3b 7adb 7f3e d530 853b
000001d0: 6413 c03d 4b32 253d 3e07 df39 2a2b e53b
000001e0: 2a0b 473c 0fd5 fb38 2fbb 593b b8e8 ae3d
000001f0: 4e63 483a e533 1f3c f5e1 f93c ff11 3a39
00000200: 8114 313b 36d0 2a38 ede5 5838 b67a 933b
00000210: f570 ff38 4451 d238 11f9 843b d836 2c34
00000220: 085e f032 4e61 5037 a2c6 af39 76fd 5339
00000230: b25d 113c 25b5 7c3e a9fd 4c3b 8ff2 583d
00000240: 86b2 e639 ea53 e439 d523 b13c 51a4 6e3d
00000250: bbe0 c439 fafa a43b c192 0b37 ab18 f236
00000260: 585b 183a d596 643d 4bd5 8939 daa7 9a3b
00000270: dff4 013e 9768 de3a 771c 063d 771b c835
00000280: 96bb 3936 fecf 8739 5463 f038 95c0 6b39
00000290: 7c07 2a3c 3e17 9838 2ad7 da38 23ed 6f3b
000002a0: 9c0f 2839 3609 2239 e709 053c 8d57 1f38
000002b0: 6958 c937 eaad e23a 9124 af37 70ca 9438
000002c0: 59b0 4e3b 13ea 7b3a 5c0f 843a e54e 143d
000002d0: 3669 363a e990 1738 2d61 863a 23ae 753e
000002e0: 870d d03a 46b8 553d 3d21 2a39 8593 4239
000002f0: 4dfa cc3b 34ff fc3c 3608 c339 e8ae 4d3c
0.00011754859 0.00011439208 0.006135326 0.00074023486 0.0010467486 0.054815326 0.00010491892 0.00014733062
0.0026712504 0.00019800842 0.00014403819 0.0034381156 4.5339275e-05 5.6559365e-05 0.0060252235 0.04381748
0.00014570756 0.0025147628 0.00013794408 0.00023555355 0.015505408 0.034118827 0.0004325645 0.013108165
0.00034101144 0.00014191383 0.0056603737 0.00035917308 0.00053842954 0.016593205 5.7030866e-06 5.8444402e-06
0.00030087854 3.933887e-05 5.6925448e-05 0.0022155065 3.8724957e-05 3.5194877e-05 0.003254888 0.00560215
0.0001616264 0.0023220582 7.3893454e-05 2.8828339e-05 0.0014304764 0.00070830586 8.346977e-05 0.003901027
0.00010592601 4.8520367e-05 0.0024867468 0.18007495 0.0017169379 0.033788823 0.0011857086 0.0001313882
0.0045155426 0.0001852095 0.0002856045 0.015556798 0.016387602 5.5355395e-05 0.0015151722 0.034804735
0.00016398165 0.0021325762 0.014772249 0.000118671545 0.003969495 0.12049247 0.0043419083 0.12608002
7.0472895e-05 7.551519e-05 0.0027569954 0.00082088885 0.0003276072 0.010725685 0.017844446 9.3664916e-05
0.00094059727 0.0004934052 0.00036111835 0.005854694 0.0671694 0.00045706198 0.008713124 0.17910971
0.0024147376 0.056626543 0.017098831 4.8102807e-05 0.0011111633 0.076991566 0.0015801279 0.03256165
0.00036560468 0.00034867835 0.010003484 0.08775728 0.0004011681 0.013173812 0.00017963035 0.00023476995
0.0050460566 0.00081012765 0.0009048475 0.025416655 0.00022212206 0.00022056284 0.0051945047 0.01402729
4.7910053e-05 0.0026686725 0.24986067 0.004064659 0.093786985 0.040331166 0.0004253927 0.006993671
0.012148658 0.00012008298 0.0033223142 0.08540481 0.0007644192 0.009716962 0.030503253 0.00017745046
0.0027020278 4.072507e-05 5.1712548e-05 0.0045007123 0.000121803874 0.00010028717 0.0040580113 1.60387e-07
2.7982438e-08 1.2420422e-05 0.00033526594 0.0002021695 0.008872436 0.24678476 0.0031279123 0.052965697
0.0004400203 0.0004355007 0.021623531 0.058262173 0.0003755147 0.0050348016 8.319214e-06 7.2150337e-06
0.0005811951 0.055807907 0.00026289592 0.0047197165 0.12691067 0.0016968426 0.03274199 1.4909155e-06
2.7676338e-06 0.00025904173 0.00011462593 0.00022483089 0.010377761 7.252254e-05 0.000104351275 0.003660985
0.00016027543 0.00015452955 0.008120037 3.7990092e-05 2.4002236e-05 0.0017294262 2.0878653e-05 7.094897e-05
0.0031538217 0.000960977 0.0010075378 0.036208052 0.00069584267 3.6136164e-05 0.0010252349 0.23992209
0.0015873172 0.05217769 0.00016224846 0.00018556237 0.006255424 0.03088341 0.00037199416 0.012553908

exp_avg f4 [64]
00000000: 6ba5 9aba c2fe 2dba b1a7 3039 0d62 eeba
00000010: 0533 85ba 9c4d d93b 945e c0ba 7e91 9d3b
00000020: b541 e4b9 3e11 39ba 5557 ccb8 388c 86b9
00000030: 7512 e3ba bbba d5ba c83a c339 cf4a c13a
00000040: 8ed1 70ba 162f 083c 07d1 d637 b118 61ba
00000050: c28d 433b f2dc 073c 3956 2e3b e038 8ebb
00000060: abb9 41ba e553 9cb9 064d 92bb a13d 14ba
00000070: b1b4 e6bb 4b09 1f3c 33e3 943b f79b 13bc
00000080: 8621 9c39 8fb5 bd3b 568d 4239 230d 82b9
00000090: bef3 623a 1bee 2cbb 4916 18bc 7b00 b03b
000000a0: c212 133b b7c9 41bb bcd6 1cbb 4122 d4ba
000000b0: cc3d 8b39 0400 0000 5ee6 263a b15d 473c
000000c0: 0bd9 fdb9 4768 0cbb cac1 0bba 6d8d 2a3b
000000d0: 15b8 64bb 14b5 17b9 c649 62b9 b40f eaba
000000e0: efb4 77ba 995e a7ba c825 d839 76b3 adba
000000f0: cc48 a23a f0b7 113c bcaa 0f3a 6a3b 543b
-0.0011798566 -0.0006637388 0.00016847138 -0.001818718 -0.00101623 0.006631566 -0.0014676624 0.004808604
-0.00043536504 -0.0007059759 -9.743745e-05 -0.00025662943 -0.0017324226 -0.001630626 0.00037237094 0.0014747026
-0.00091864995 0.008312007 2.5608124e-05 -0.0008586748 0.0029839133 0.008292424 0.0026601686 -0.004340276
-0.00073900324 -0.00029817145 -0.0044647483 -0.00056549354 -0.007040583 0.009706805 0.004543686 -0.009009353
0.00029779616 0.0057894657 0.00018553933 -0.0002480532 0.0008657536 -0.002638704 -0.009282657 0.005371151
0.00224416 -0.0029569694 -0.0023931703 -0.0016184525 0.00026558188 6e-45 0.0006366725 0.012168334
-0.0004841763 -0.0021424459 -0.0005331306 0.0026024238 -0.003489976 -0.00014467939 -0.00021580522 -0.0017857463
-0.00094492635 -0.0012769281 0.0004122688 -0.0013252336 0.0012381314 0.008893952 0.00054804585 0.0032384046

exp_avg_sq f4 [64]
00000000: c408 d239 2c78 5a3b a9e0 8d39 261d d239
00000010: 6e19 6d39 1260 353d 1eb2 483a 939e 103d
00000020: faad 223a f14a 9e3a c4db 8e37 2f90 1239
00000030: 958f 0d39 5c03 c03b 838c 1439 b740 713a
00000040: b5af 4439 db7d 3d3e 079e bb3a 82dc 533a
00000050: fa5f 873c dfdd 0f3d 6f87 773c 0fc4 063e
00000060: 053b 6739 31f2 b03a 84de 933c c5bf 753a
00000070: 3750 8c3d 8d27 3e3e e875 8c3c fad4 a43d
00000080: 0d3c 743a a245 b63d 8a31 f839 ac22 0f3b
00000090: f671 0e3a 1856 673c 13ac 853e 015b 293d
000000a0: 5393 4c3c 663e b23d a003 fe3c 8dd0 4b39
000000b0: 7768 a839 8912 5434 dbed 473a 2c4e 823e
000000c0: a2c7 c23a 944b 723d db08 b137 f6c1 673d
000000d0: 6cec 063e 953a db36 b4a5 2c3a edad 8239
000000e0: 5cd4 0b3a b619 bd38 a5b0 0d39 21f9 373b
000000f0: 3827 483a 7e12 7b3e a92e 003a f976 023d
0.00040060852 0.0033335788 0.00027061 0.0004007604 0.00022611555 0.044281073 0.0007655936 0.03530748
0.0006205734 0.0012076778 1.7030055e-05 0.00013977358 0.00013500296 0.0058597755 0.00014166725 0.00092030637
0.00018757473 0.18505041 0.0014314064 0.00080818695 0.016525257 0.035123702 0.0151079735 0.13160728
0.00022051863 0.0013499913 0.01805044 0.0009374584 0.06851237 0.18569775 0.017146066 0.080484346
0.00093168096 0.089 0.00047339156 0.0021840734 0.00054338516 0.014119647 0.26107845 0.041346554
0.012486297 0.08703308 0.031007588 0.0001943728 0.0003212129 1.9750782e-07 0.0007626691 0.25450265
0.0014860521 0.05915411 2.1104168e-05 0.05658146 0.13176125 6.5335284e-06 0.0006585971 0.00024925117
0.0005334073 9.017011e-05 0.00013512613 0.0028072076 0.00076352386 0.24518773 0.00048897654 0.031851742

exp_avg f4 [64]
00000000: 32ae a3b8 7887 0c3a 96bb 6eba fc6d 653a
00000010: b0a8 35bb 8c40 e239 945f ff39 e36b 86ba
00000020: 156b 673a e929 02bb 5498 e839 2b63 d6b9
00000030: 6bf6 09bb f072 6fba d9a4 d139 6e59 17b9
00000040: eb48 4039 44d9 933b 9f34 cdb9 052d 39bb
00000050: e3ff 753a 9cef a239 a102 1cb9 edb6 a3ba
00000060: 8781 5db9 e07e e7b9 f921 99ba 0a20 a0b9
00000070: 5b4c 563a 0eaf 053b f14c d63a 03e6 6e3a
00000080: c0f5 ceb9 87c1 893a 9b68 373a 0745 e23a
00000090: 6ab8 03b8 4579 48ba 1623 10ba 7508 1c3b
000000a0: 5ab0 e639 904a c9ba 7f05 bb37 e77d 1c39
000000b0: 7092 8038 0105 c3b9 682d c1ba 127a e83b
000000c0: 4313 223a 4b12 2fb8 ecd8 aaba baa8 9b3a
000000d0: 2147 c3ba 7acc 12ba a12b 2abb 08b3 19bb
000000e0: 68b7 3238 53f2 b7ba 1818 0339 7ae1 36ba
000000f0: c132 a73a bef3 e339 b565 9139 75fd acb8
-7.804892e-05 0.00053607626 -0.0009106932 0.00087520457 -0.0027718954 0.0004315417 0.000487086 -0.0010255541
0.0008827907 -0.0019861406 0.00044363982 -0.00040891147 -0.0021051418 -0.00091342535 0.00039986408 -0.00014433797
0.00018337711 0.004511984 -0.00039139853 -0.0028255593 0.00093841384 0.0003107757 -0.00014878299 -0.0012490429
-0.00021124455 -0.00044154283 -0.0011683098 -0.0003054145 0.000817483 0.002039853 0.0016349835 0.0009113254
-0.0003947448 0.0010509946 0.00069964834 0.0017263003 -3.1404583e-05 -0.0007647465 -0.0005498392 0.0023808752
0.0004400041 -0.0015357304 2.2294696e-05 0.00014924222 6.130792e-05 -0.00037197027 -0.0014738264 0.00709463
0.000618268 -4.1740288e-05 -0.0013034618 0.0011875846 -0.0014898517 -0.00055999274 -0.0025965946 -0.0023452658
4.2609317e-05 -0.001403401 0.00012502109 -0.00069763476 0.0012756215 0.00043478416 0.00027732333 -8.248809e-05

exp_avg_sq f4 [64]
00000000: b6b5 1a3a e415 7f3b 71c5 2c39 4905 7339
00000010: 3d54 9b3a 214d 8739 e55d 013b 6ade aa3b
00000020: a062 fd3a fd61 0c3a 7a9f 4538 91a3 1739
00000030: 7956 8e39 0ce3 a63a eae3 cd38 8ad7 9a39
00000040: d238 113a a025 293d 4009 a238 6577 f639
00000050: 3a67 3a3a cc03 2339 f69e f039 8b68 a83c
00000060: c8fe 1f39 a5ee 523a 4ebc e93a 86b1 8e3a
00000070: f125 d339 1089 5b3c 62cd 933a 2bf9 353a
00000080: fa1f 893a 8a96 e43a d587 343a 3ff2 293b
00000090: c491 5d3a 4b04 043a 0358 073c 9e24 8f3b
000000a0: 1538 8239 f3da f63c 73c1 9139 58e7 d13a
000000b0: 0937 2a3a 8c40 553a 64bc 813a 32c0 0f3d
000000c0: 4a19 593b 39a1 9a3b cbed dc39 e468 813b
000000d0: 7618 cc3c a1c0 2b3a 1522 193a 9c67 4f3a
000000e0: c793 a63a 3e50 9839 d724 073b 5814 b63b
000000f0: 0582 9139 e073 443b 4fb3 d939 4708 223a
0.0005901711 0.003892296 0.00016476751 0.00023176255 0.0011850666 0.00025806672 0.0019739803 0.005214502
0.0019331761 0.00053551776 4.7116984e-05 0.00014461415 0.00027148778 0.001273246 9.817614e-05 0.00029533758
0.0005539778 0.041295648 7.726485e-05 0.00047009732 0.0007110719 0.00015546306 0.00045894802 0.020557662
0.00015258335 0.0008046425 0.0017832608 0.0010886646 0.00040273325 0.013399377 0.0011276419 0.0006941731
0.00104618 0.0017439884 0.00068866956 0.0025931743 0.0008452202 0.000503604 0.00826073 0.004368379
0.00024837317 0.0301337 0.00027800686 0.001601438 0.0006493186 0.00081349234 0.0009898064 0.0350954
0.0033126646 0.0047189263 0.0004213884 0.0039492715 0.024914008 0.0006551836 0.00058415654 0.00079118623
0.0012708836 0.00029051484 0.0020621323 0.0055566244 0.00027753427 0.0029976293 0.0004152306 0.0006181043

exp_avg f4 [64]
00000000: 853b 10ba f7dc 51ba 1573 b83a 6c54 b2ba
00000010: f750 f039 d0e3 e23a ece8 e9b9 ff3f cf39
00000020: 6002 46ba 95ad 6639 f4e7 ceb9 0df2 7b39
00000030: a0ea 1839 e904 60b9 8dc8 00b9 da63 e439
00000040: 8304 78ba 093b 123a 9bfc 8837 e40d 0b3a
00000050: a856 0b3a f973 7c3a 4861 493a b83f cfb9
00000060: 924e 81ba ef5e bb39 8b07 9dba cad6 9cb9
00000070: c7e2 c1ba bbd9 4d3a 7e49 6d3a a204 beba
00000080: 1567 85b9 54aa 853a 469e 82ba e51b 41ba
00000090: fb71 e938 8bd3 2eba 751a beba e2de 6a3a
000000a0: 3ab6 723a 7256 48ba ea6a 3dba f91a 81ba
000000b0: f1e1 4e39 cb8c 083a fcf4 da39 3819 7b3a
000000c0: 4dbe b7b9 875e 85b9 e997 8d39 cdc7 a439
000000d0: daf6 1bb9 2178 2c3a d416 ac3a b178 f339
000000e0: 0b88 49ba 419a fdb9 b045 2c39 db0e 54b9
000000f0: 7813 623a 126b 4e3a 34e8 d6b8 94e2 7db9
-0.0005502033 -0.00080056436 0.0014072383 -0.0013605482 0.0004583669 0.0017310325 -0.00044614763 0.00039529798
-0.00075534545 0.00021999174 -0.000394642 0.00024027396 0.00014583254 -0.00021364134 -0.00012281742 0.00043561944
-0.00094611215 0.0005578255 1.6330092e-05 0.0005304499 0.0005315342 0.00096303184 0.00076820375 -0.0003952959
-0.0009865335 0.0003573815 -0.0011980397 -0.0002991467 -0.0014792316 0.0007852574 0.00090517837 -0.001449723
-0.0002544454 0.0010197856 -0.0009965382 -0.00073665223 0.00011131536 -0.00066690956 -0.0014503734 0.0008959604
0.0009258721 -0.0007642276 -0.0007225709 -0.0009849957 0.0001972986 0.0005208968 0.00041762728 0.0009578648
-0.00035046265 -0.00025438165 0.00027006798 0.0003142938 -0.00014873911 0.000657918 0.0013129362 0.00046438494
-0.00076878135 -0.00048370849 0.00016429159 -0.0002022343 0.0008624117 0.0007874231 -0.000102475664 -0.00024212367

exp_avg_sq f4 [64]
00000000: ae58 413a a619 173c 9c6b d839 ecca 0d3a
00000010: bd15 233b a714 3f3b 5c19 8c3b 8674 2a3b
00000020: a072 183b d9e9 e13a b329 9f38 142e 8539
00000030: a8f4 253a e596 133a 54e6 4a39 872f ab39
00000040: 72d2 a439 aea3 263c 14cc 6239 fa75 cf3a
00000050: f996 823a 0fc9 f43a 0495 9c3a 131c 233c
00000060: 692b 5939 0a03 ca39 1d62 6a3a 116d 983a
00000070: e385 633b 7ef3 423c 175e a23a c11e a13b
00000080: 7181 0e3b 30f3 b33b e475 b43a bbac b73b
00000090: 1989 f63a ba08 693a 3d16 713c 2db5 243b
000000a0: 69a2 593a 8d19 a63b 5825 d73a e6e1 4d3b
000000b0: e95b 633a 6d8e c83a 57fe 6e3a 7879 643c
000000c0: 2a6a 903b 58f9 653b 3528 593a 03aa 523b
000000d0: 861a fc3b de66 a23a 57f2 c43a c706 de3a
000000e0: ddbe 963a cf3c 253a f57d 853b 5ccf 823b
000000f0: 3333 d038 fa25 6c3c 9ccc 4a3a 5f63 1b3b
0.000737558 0.009222424 0.00041278906 0.0005408961 0.0024884783 0.0029156597 0.004275484 0.0026009395
0.0023261681 0.001723583 7.589478e-05 0.00025402068 0.0006330707 0.000563009 0.00019350025 0.00032651072
0.00031437312 0.01017086 0.00021629065 0.0015828006 0.0009963206 0.0018675643 0.0011946266 0.009955424
0.00020710904 0.00038530707 0.00089410116 0.0011629184 0.0034717254 0.011898873 0.001238766 0.004916996
0.0021744634 0.0054916367 0.0013768044 0.005605308 0.0018809169 0.0008889545 0.014714775 0.0025132403
0.0008302094 0.005068964 0.0016414328 0.0031415164 0.00086730585 0.0015301235 0.0009116879 0.013944976
0.004407187 0.0035091247 0.00082838844 0.0032144792 0.0076935915 0.0012390276 0.0015025836 0.0016939276
0.0011500973 0.00063033117 0.004073853 0.0039920043 9.9277495e-05 0.014413351 0.00077361776 0.0023710353

exp_avg f4 [64, 64]
00000000: 1ecd f437 97b8 a338 bc10 3336 6806 7934
00000010: f650 243a 592e c2b8 1d15 9438 1f8e f6b9
00000020: be04 9138 c1f3 213a f9cd 2db9 deb1 b339
00000030: 1cd2 9038 eff7 d3b9 49fa d339 716f 93b8
00000040: c820 8938 7f3b 43ba 2f07 89b9 d23f 143a
00000050: 0e4c deb9 5304 0bb9 7e74 4c38 ccba 06ba
00000060: 893e 8e38 77e9 8eb9 0401 2539 c717 57b9
00000070: ba3a ad38 57b8 df36 ff96 ccb9 4b2a 8639
00000080: 72ef 0eb9 d467 0538 074b 7839 4d68 e639
00000090: 4f49 1938 63e3 51b8 f331 29b9 c9ee f3b9
000000a0: 2a56 67b9 0c8c 69b9 e574 8639 f74c 8538
000000b0: 2a64 9238 179c 8b38 9c2f 9338 5465 46ba
000000c0: 21ad 9538 8103 0839 bccf 183a 97e5 f1b9
000000d0: 0331 b0b9 146c f738 c48d 5b3a d9e9 8938
000000e0: 1c06 9538 5afe 8038 d4e5 5637 6787 b439
000000f0: b249 e0b9 f59c 0eb7 3dc8 6639 247b 7637
00000100: ac2d c1b9 3c32 2239 bd9d dcb9 bf2e c4b9
00000110: e834 03ba f1b0 ad38 7778 d038 6d03 083b
00000120: 6580 be3a c375 0eba 71af c1b9 ceb4 b7b9
00000130: 8e75 8aba f34f 9ab9 b3c2 c9b9 9890 2b39
00000140: 5e44 703a 3c70 5138 585d 3a3a 99ed f2b9
00000150: d352 cdb9 e3bd 0dba fe3a 353a 6236 91b9
00000160: 5c41 423a ab96 e2b9 1253 ccb9 9f7f d3b9
00000170: d044 d1b9 7892 12ba c939 963a 7948 e8b9
00000180: be0f dcb9 8b00 3ab7 1f21 cfb9 ee02 dbb9
00000190: dc38 d4b9 c11a 383b 0796 a4b9 7778 edb9
000001a0: 980c d0b9 362a 3eb9 2c4e ceb9 4d5d c3b9
000001b0: d97b 383a db84 ceb9 4a99 b93a 41e9 7cba
000001c0: a0fd 8d3a aeab d3b9 5a64 f5b9 69ac b8b9
000001d0: 830a fe38 8b98 cab9 8d90 cbb9 a98d 733a
000001e0: 541d 8a3a ba27 7fba 3498 ccb9 70a3 87b9
000001f0: 18f2 c03a 455b 09b9 673f deb9 267c de39
00000200: 4cb3 5739 cd63 fc39 0220 2239 36cc 7a37
00000210: 4b3c cab9 006b 2039 d73f 8339 c3f9 88b6
00000220: 06a9 9b39 bd9b a9b8 f889 bc39 26f4 e6b9
00000230: 1473 5b39 072e c3b9 6ce8 f3b9 8024 233a
00000240: 3a07 b939 5f1d beb8 d1ca 23b6 ef8f cfb9
00000250: a72d e338 1164 0a39 c7d1 7d38 56db 0cba
00000260: 5a2d fd37 822c 0039 a2d6 42ba 1999 cc39
00000270: 0310 74b9 2dd5 0c39 c978 0e39 924e 3aba
00000280: e7c6 8039 2c90 ea39 7b18 83b9 6852 0aba
00000290: 4e40 6838 397b bc37 b478 00ba dd19 9839
000002a0: 19f9 c1b7 c507 62ba e9f1 cfb9 0b3c 8d39
000002b0: f5c1 1f3a ba83 0037 e3da 4038 a928 0039
000002c0: 9d63 423a 0ff0 26ba be84 b4b9 0fc4 0b39
000002d0: fcc8 1dba a122 20b8 f6a5 0ab9 f41d 0137
000002e0: c1bb 1c3a ab3c 7439 07d2 9039 1ffc 0639
000002f0: 3a63 d039 c2e1 3f37 8135 56b9 98e3 e337
00000300: ecf4 c1b9 b0ea ebba d856 23ba e9b1 07ba
00000310: 3b07 a9ba bd4f 89b9 c299 ddba 5a26 a2ba
00000320: 25d5 59bb b5d4 81ba a1fa 13ba 2f6e 38ba
00000330: ca65 0e3a 7605 873b f951 12ba f5b0 06ba
00000340: db4d 35bb ffd3 843b c07f 56ba c6f0 8eba
00000350: d4a0 3f3b 1752 593a 77fc f9ba bc49 893b
00000360: cbd7 f9ba 1d45 c93a 61fd 5c3b 4eeb 2d39
00000370: deac 05b8 1659 433b bf49 e7b8 61d6 9c3a
00000380: 9d58 31b8 5ee6 0bba f35c 17ba 6dbc 09ba
00000390: cb92 2aba 0a88 94bb d879 f33a ccaa 5b3b
000003a0: 2383 f33a f160 9f3b ab41 553a 74ef 4cba
000003b0: af5d 14bb 0aed 4cba a185 50bb cd04 bd3b
000003c0: 4d53 43bb f69f 453b 989c 8eba 420b 813b
000003d0: c03c 4f3b 3c0b 6cba 21f7 d5ba ba1c 31bb
000003e0: 852f 32bb d82b 083a 29d3 73ba c075 eab9
000003f0: d23b 69ba 3593 0dba 8202 1aba c8ec a3ba
2.9182582e-05 7.806828e-05 2.668282e-06 2.3192263e-07 0.00062681676 -9.259274e-05 7.0611226e-05 -0.00047026665
6.915022e-05 0.0006177985 -0.00016575296 0.00034274062 6.905591e-05 -0.0004042978 0.00040431533 -7.030264e-05
6.538775e-05 -0.0007447525 -0.00026136028 0.0005655262 -0.00042399805 -0.00013257684 4.8745882e-05 -0.0005139529
6.782736e-05 -0.00027258295 0.00015736005 -0.00020512856 8.2602215e-05 6.667378e-06 -0.00039022413 0.00025589982
-0.00013631376 3.180637e-05 0.00023679073 0.0004394673 3.6546317e-05 -5.0041253e-05 -0.00016135703 -0.0004652648
-0.00022061975 -0.00022272783 0.00025645565 6.35627e-05 6.9804795e-05 6.6571105e-05 7.018374e-05 -0.00075681997
7.1371214e-05 0.00012971276 0.00058292947 -0.0004613816 -0.00033605853 0.00011798009 0.0008375312 6.5762266e-05
7.1060116e-05 6.150892e-05 1.2808905e-05 0.00034433158 -0.00042779517 -8.500404e-06 0.00022009104 1.46914135e-05
-0.00036845857 0.00015468238 -0.00042079194 -0.00037418862 -0.0005005137 8.282241e-05 9.940651e-05 0.0020753995
0.0014534114 -0.0005434418 -0.00036942543 -0.0003503919 -0.0010563598 -0.00029432736 -0.0003848277 0.00016361696
0.0009165461 4.993401e-05 0.0007109246 -0.0004633486 -0.00039162356 -0.00054070185 0.00069133926 -0.00027697074
0.0007410252 -0.00043218335 -0.00038971804 -0.0004034014 -0.00039914856 -0.00055912836 0.0011461313 -0.00044304485
-0.000419734 -1.108659e-05 -0.00039506794 -0.00041773118 -0.00040478155 0.0028092118 -0.00031392297 -0.00045293916
-0.00039682235 -0.00018135537 -0.00039349624 -0.00037262813 0.00070374977 -0.00039390367 0.0014160064 -0.00096477946
0.0010833032 -0.00040372967 -0.0004680481 -0.0003522367 0.00012113622 -0.00038642096 -0.00038826876 0.00092908234
0.0010537305 -0.0009733398 -0.00039023312 -0.00025870977 0.0014720587 -0.00013099339 -0.00042390378 0.00042435637
0.00020570791 0.00048139543 0.00015461448 1.4948708e-05 -0.00038573364 0.0001529865 0.00025033831 -4.082192e-06
0.00029689836 -8.0875565e-05 0.0003596095 -0.00044050923 0.00020928337 -0.0003722759 -0.0004652174 0.00062233955
0.00035291334 -9.065377e-05 -2.4406947e-06 -0.00039589356 0.00010832707 0.00013197983 6.051527e-05 -0.000537326
3.0181069e-05 0.00012223612 -0.00074324955 0.0003902398 -0.00023275618 0.00013430855 0.00013587171 -0.0007107045
0.00024562256 0.00044739374 -0.00025004506 -0.0005276562 5.5373e-05 2.2468726e-05 -0.00049007987 0.0002901097
-2.3123388e-05 -0.00086223736 -0.00039662354 0.0002693835 0.00060942705 7.6600645e-06 4.598022e-05 0.00012222178
0.0007415356 -0.0006368169 -0.00034431176 0.0001332911 -0.0006019024 -3.8179223e-05 -0.00013222531 7.695973e-06
0.0005978905 0.00023292254 0.00027622303 0.00012873158 0.0003974678 1.14370505e-05 -0.00020428562 2.716649e-05
-0.0003699431 -0.001799902 -0.0006230897 -0.0005176352 -0.0012895832 -0.00026190086 -0.0016906785 -0.0012371049
-0.0033238616 -0.000990531 -0.00056449516 -0.00070354616 0.0005432038 0.004120524 -0.0005581673 -0.0005138063
-0.0027664814 0.004053592 -0.00081824884 -0.0010905496 0.0029240148 0.00082901254 -0.0019072433 0.004189698
-0.0019061504 0.001535568 0.0033720362 0.00016586224 -3.1870666e-05 0.0029807738 -0.000110286746 0.0011965745
-4.2282616e-05 -0.00053367566 -0.00057740434 -0.0005254213 -0.0006506859 -0.0045328187 0.0018575741 0.003351855
0.001857851 0.0048638512 0.00081350905 -0.0007817664 -0.0022638848 -0.0007817304 -0.003181793 0.0057683946
-0.002980429 0.0030155159 -0.0010880409 0.0039381096 0.0031621903 -0.00090043596 -0.001632426 -0.002702518
-0.0027188968 0.00051945215 -0.00093011797 -0.0004471969 -0.00088971586 -0.00054006587 -0.00058750075 -0.0012506479
