experiments/training_curves/SHAC/seed_300/best_policy.pt (torch, 167108 bytes, 63 tensors)

weight f4 [64, 3]
00000000: 39d8 b83c d4bd aabd b5ab df3d dd22 ac3e
00000010: b63a 72bd 54c4 89bd d2e6 aebd 33cc d7be
00000020: bdd9 653e bc82 87be 1ef1 a0be b431 cdbe
00000030: d7c8 7d3e 7fef 55be 6e57 093e a33b 21be
00000040: f144 2b3e 2434 e3ba f954 0b3f 5901 e53e
00000050: e3d9 fdbe bb0f 6f3e 5913 ed3e b4ab 7e3e
00000060: 341d b63e e38a 11bf a748 9abe c741 9d3e
00000070: cf11 3ebe fea1 df3e ac0e d8bd 1123 a83e
00000080: a84c acbe cbfb b83e 6584 9b3e 798c ebbe
00000090: 90b6 6a3e ca16 f63e 42e7 51bd ccb7 86be
000000a0: 7f06 8bbe 0bd4 bbbe 0567 01be 1684 c33e
000000b0: 1a16 27be 7e7b 123f 90d1 0dbf 7121 94be
000000c0: 3f77 b43e fa46 f03e 0af4 db3e 6585 e63d
000000d0: 7552 e5be 0bfe 003e 80fe 81be e82b 113f
000000e0: 17df ccbe f5b4 c73d b5a1 0bbe f42f a03e
000000f0: d5a8 debe 6233 1fbe ac02 0b3f 7700 97be
00000100: 2716 01bf 9eaf 883e 1ef0 10bf 411a 8e3e
00000110: 3654 c4be ca96 1fbf 185a d5be ce28 603d
00000120: a457 183f 4595 8abe 69e9 6bbe 61b1 02bf
00000130: 6ac7 d9be 19a1 e93e 5337 f33e ae51 19bf
00000140: fd95 c4be 4b8e 2cbe 3a69 933e 4abb cbbe
00000150: 79ae cdbe c4a8 fc3d a7b5 c5be 7f0f b13e
00000160: d111 983c cea1 403e 233e c3be 3411 0c3e
00000170: c3d4 493e 3760 9abd c7a7 043f c215 01bf
00000180: f429 02be 774e debe 1d92 88bd 9da3 f2be
00000190: 9ece 04bf ef71 473e f7bf 95be 778c 10bf
000001a0: f992 f0be 5a39 083d 254b 6a3e 6c10 08bf
000001b0: 8730 0f3e 317f dbbd 0732 953b f05e f03e
000001c0: 63c0 623e 3244 763e 50e0 db3e 0848 c73b
000001d0: 5da7 58be 3dc6 e3be 83c6 e03d 13f3 d1be
000001e0: 874a 09be 4ad3 f8be fb89 053f dc3e a03e
000001f0: d373 f03d 0ff3 04bf 8053 b33c aa20 f5be
00000200: af7d 92be 9ecc 2fbf da73 ac3e e57d d03d
00000210: a279 17bf 9229 a23e b59b 303d ab4d 0f3e
00000220: f259 a43e c84a aa3e 2adc a5be 4065 20bf
00000230: e811 05be 9f5f 6a3d dda0 5abe ac17 b33e
00000240: 4868 b9be e218 73be e682 b13e c44a e9bb
00000250: 51db f53e 1fe2 a9be 27a3 fe3e 5df6 f4be
00000260: c691 c43e 7160 afbe 5884 f63d e7ce adbe
00000270: e4e0 ba3e 97b6 ccbd 98ff 9abe 28b4 113c
00000280: 36ce acbe c3b6 a13e e804 e23e edb1 03bf
00000290: cebc 943e 06cd c23d 97ed 3b3e 25b3 0a3f
000002a0: dd2a ef3e 3392 14bf 0757 d6be 7723 9a3e
000002b0: 3452 253f 91ff d73e 0c2f 1e3e 2a67 c8be
000002c0: d2b7 08bf 9738 f43e 62df 0bbe 5b83 b7be
000002d0: ee1b 65be 3d84 20bf f646 16be 3511 a73d
000002e0: a5fe 273f b60e 9a3e 60d6 93be dd5f 6b3e
000002f0: 4c12 4a3e 208f 05bf 5f99 d0be 2b5a af3e
0.02256404 -0.08336988 0.109214224 0.3362035 -0.059138022 -0.067269 -0.08540119 -0.4214798
0.22446342 -0.2646693 -0.31433958 -0.40076983 0.24783646 -0.20892142 0.13412258 -0.15745406
0.16725518 -0.0017334265 0.54426533 0.4472759 -0.49580297 0.23345844 0.46303824 0.24870187
0.35569155 -0.5685255 -0.30133554 0.30714247 -0.18561481 0.43678278 -0.105496734 0.32839254
-0.33652234 0.36129603 0.30374447 -0.4600561 0.22921205 0.48064262 -0.051245935 -0.263121
-0.27153394 -0.36685213 -0.12636955 0.3818671 -0.16317025 0.57219684 -0.5539789 -0.28931764
0.35247228 0.4692915 0.42959625 0.11255912 -0.44789472 0.1259691 -0.2538948 0.5670762
-0.40013954 0.09751312 -0.13635905 0.31286585 -0.43488184 -0.15546945 0.5430095 -0.29492542
-0.50424427 0.26696485 -0.5661639 0.27754405 -0.38345498 -0.6233946 -0.416703 0.054726414
0.5950873 -0.2706701 -0.23038258 -0.5105191 -0.42534953 0.4563072 0.47503147 -0.5989026
-0.38395682 -0.16851155 0.2879122 -0.39791328 -0.40172175 0.12336877 -0.38615152 0.34582135
0.018563183 0.18811724 -0.38133344 0.13678437 0.19710068 -0.07537883 0.5181851 -0.50423825
-0.12711316 -0.4341924 -0.06668494 -0.47390452 -0.5187777 0.19477056 -0.2924802 -0.5646433
-0.4698713 0.03325782 0.22880228 -0.5315006 0.13983355 -0.10717619 0.004553083 0.46947432
0.22143702 0.24049452 0.42944574 0.006081585 -0.21157594 -0.4448718 0.10975363 -0.41005763
-0.13407336 -0.485987 0.52163666 0.31297958 0.11740842 -0.5193338 0.021890402 -0.47876483
-0.28611514 -0.68671596 0.33682138 0.101802625 -0.5916997 0.3167234 0.043117244 0.13994472
0.32099873 0.3326018 -0.32394534 -0.62654495 -0.12995112 0.057220098 -0.21350427 0.34978998
-0.36212373 -0.23739961 0.3467018 -0.0071195085 0.48018888 -0.3318033 0.4973385 -0.4784421
0.38392466 -0.34253266 0.12036961 -0.33946916 0.36499703 -0.09995764 -0.30273128 0.00889305
-0.33751076 0.3158475 0.44144368 -0.5144337 0.29050297 0.09511761 0.18352352 0.541796
0.4671239 -0.5803558 -0.41863272 0.30105183 0.64578557 0.4218717 0.15447634 -0.39141208
-0.5340549 0.47699425 -0.13659433 -0.35842404 -0.22373936 -0.6270178 -0.14675507 0.08157579
0.6562293 0.3008935 -0.28874493 0.22985788 0.19733542 -0.52171516 -0.40742013 0.3424848

bias f4 [64]
00000000: 6f96 09bf fe1c 713e 3fcb bc3e 8337 ac3e
00000010: 71a6 0dbf 6340 80be d7c6 093f 9ca2 b0be
00000020: 3bca f83e 6a74 de3e 6b6a a2bd b70e 7cbe
00000030: 6a65 cfbe beb2 b9be f0d7 2b3e 507f 0fbe
00000040: 8935 023e 3a10 fb3e 2021 d0be fe28 663e
00000050: 999e d6bc 9327 b23e f174 cdbe 59f1 45bd
00000060: 74b8 8ebe 6736 9d3d b1e3 c3be cf30 443e
00000070: e7b4 d8be 411e 01bf 2c65 893c 0608 d13e
00000080: dabb c1be bd28 02be 702e 5c3e ebb7 f8be
00000090: 94df 7bbe 33c9 d33e e4f6 02bf aeb9 a03e
000000a0: 1f4b 22be 7c1e 9a3e 7b47 35be 297e a53e
000000b0: e4cd 5e3e 38e5 b7be 594a c93e 21d9 c13d
000000c0: 8688 193e 12b1 c9be c18f 393e 67c5 03bf
000000d0: 5c2c 75be c1c3 06bf 16ae 3dbd 01e8 03bf
000000e0: 2a3b 06bf bd8f ca3e f100 d4be 53fd f8be
000000f0: 23f7 b23e cb1e 573e 90e5 703e f3ff 16bf
-0.5374517 0.23546216 0.36873814 0.33636102 -0.55332094 -0.25049123 0.5381903 -0.3449906
0.4859179 0.43448192 -0.07930454 -0.24614988 -0.4050706 -0.36269182 0.16781592 -0.1401341
0.12715735 0.49035817 -0.40650272 0.22476575 -0.026198672 0.34795818 -0.40128282 -0.04832587
-0.27875102 0.07676392 -0.38259652 0.19159244 -0.42325518 -0.5043679 0.016771875 0.40826434
-0.37838632 -0.12710853 0.2150209 -0.48577818 -0.24597007 0.4136444 -0.51157975 0.31391662
-0.15848969 0.30101383 -0.17703049 0.32322815 0.21758229 -0.35917068 0.39314535 0.09465242
0.14993486 -0.39392906 0.18121244 -0.5147309 -0.23942703 -0.52642447 -0.0463086 -0.51525885
-0.5243403 0.3956279 -0.41406968 -0.4863077 0.34954175 0.2100784 0.23525071 -0.589843

weight f4 [64]
00000000: 334c 803f 97e8 803f d918 803f 1e45 783f
00000010: a65c 823f 9c0f 7c3f c8ff 7a3f aabf 863f
00000020: 17b3 813f bec9 7c3f 5e1c 803f f81e 803f
00000030: c4ca 7a3f ff2e 813f 25e8 833f 64e2 863f
00000040: 06a6 7c3f d30c 773f 3742 7d3f 95f3 763f
00000050: 1949 803f dd3f 813f 903e 823f 9c1b 803f
00000060: 8a9f 863f fbb5 7d3f 6a77 873f 2659 803f
00000070: b883 7f3f fbf7 823f e4a6 813f c0a4 7c3f
00000080: 8ad0 7d3f b4af 853f 2ba2 753f a55a 793f
00000090: d9ea 7a3f d9ed 7b3f e1bb 7c3f ab4c 823f
000000a0: 63a0 763f c9d9 773f 9873 7f3f b5c4 8c3f
000000b0: 9de2 833f 9260 7c3f b577 833f 1731 753f
000000c0: fa0f 803f b5a9 723f 7edc 7a3f 721e 7c3f
000000d0: 7a29 803f 34c0 7c3f 6106 7f3f 2381 7b3f
000000e0: acdc 843f 8a68 7e3f 6c32 773f 67da 843f
000000f0: 8495 833f fe04 833f 711b 7b3f f574 7c3f
1.0023254 1.0070981 1.0007583 0.96980464 1.0184524 0.9846132 0.9804654 1.0527241
1.0132779 0.98745334 1.0008657 1.0009451 0.97965646 1.0092467 1.030522 1.0537839
0.9869083 0.96503943 0.9892916 0.96465427 1.0022308 1.0097615 1.0175343 1.0008426
1.0517437 0.99105805 1.0583317 1.0027206 0.9981036 1.0231928 1.0129056 0.9868889
0.9914633 1.0444245 0.95950574 0.9740394 0.980146 0.984098 0.9872418 1.0179647
0.9633848 0.9681669 0.9978576 1.099753 1.0303532 0.98584855 1.0270907 0.9577803
1.0004876 0.947902 0.97992694 0.98483956 1.0012658 0.9873078 0.9961911 0.9824392
1.0379844 0.99378264 0.9656131 1.0379151 1.0280004 1.0235898 0.9808875 0.9861596

bias f4 [64]
00000000: fc01 95bb 385f c33a afaf 133c 6a8e f43a
00000010: bb83 a1bb 0753 a73c 3e71 9dbc b911 343a
00000020: 8513 b7bb 3d5f 1fbc b33f aa3a ad67 67bc
00000030: 02ae ac3c 4618 08bb 16b2 d5bb 48e7 35bb
00000040: e52d cc3c d804 f5bc b40a b0bb 537b 9bbc
00000050: 72ed f5bb 3c46 e4bb e2fb fabb 9792 583c
00000060: f708 bcba 24f6 b6b9 1d31 023a 1a66 293b
00000070: b190 89bc 33b6 0f3c d11e 0ebc 7e81 e1ba
00000080: 63a7 e93b 7651 d239 2bbb 4fb8 22d1 673b
00000090: f56a 9b3c c51a 3d3c 5275 d93b 55ca 593b
000000a0: ae5a e0bb fc6e 3b3b cbb6 8cbb 9210 733a
000000b0: 369a 2b3c c99c 193c 57f5 abbb 6cd3 c1bc
000000c0: ceef 433c 649b 993c 08b3 373a 8e3b 023a
000000d0: f9e5 7c3c 31a0 d43b 99c4 423c 7f0b 87bc
000000e0: 342f 0aba 18db 923a f1bb e53a 8a04 ab3b
000000f0: b1ee 063b e442 d8bb 1a1d 043c 1616 fabb
-0.0045473557 0.0014905697 0.009014054 0.0018658165 -0.0049290336 0.020425333 -0.019219037 0.0006869096
-0.0055870437 -0.009727296 0.0012988955 -0.014123839 0.021079067 -0.0020766421 -0.0065214736 -0.0027756263
0.024924228 -0.029909536 -0.0053723697 -0.018979704 -0.0075051123 -0.0069663804 -0.0076594213 0.0132185435
-0.0014345933 -0.00034897134 0.0004966425 0.002584821 -0.016792627 0.008771467 -0.008674339 -0.0017204729
0.0071305498 0.00040115014 -4.952696e-05 0.0035372456 0.0189719 0.011542027 0.0066363 0.0033232172
-0.0068467474 0.0028600087 -0.0042942516 0.00092721835 0.0104737785 0.009375759 -0.0052477526 -0.023660384
0.011959029 0.018750854 0.0007007574 0.0004967981 0.015435689 0.006488823 0.011887693 -0.016484974
-0.0005271316 0.0011204211 0.0017527324 0.005219047 0.0020589049 -0.006599771 0.008063579 -0.0076320274

weight f4 [64, 64]
00000000: 5759 5c3d e048 6fbd 2ca8 9cbd 9cb7 a53d
00000010: 2609 59bb 63cd 8ebd 7f93 153d e814 7dbc
00000020: ef49 253b ef86 ffbc e697 f7bd 87fa 29bc
00000030: 1960 663d 9c0a f53c c277 baba 3588 9d3d
00000040: d252 08bd bb63 a8bd fde9 6d3b 851e 153d
00000050: 617b 5a3b e2b9 ba3d 5b33 973d 285f c5bd
00000060: 754c 91bd 5dae e2bb 70d0 57bc a94e 11bb
00000070: 1a94 1c3d d8b6 673d 509f a0bb 5218 f4bd
00000080: 6897 983d 98c2 80bc ba96 4a3c 19e5 a4bd
00000090: c281 d1bd 4f91 c7bd e99e acbd b54c e6bd
000000a0: 2d06 d33d bc5b dd3d a3c5 0ebc d5e9 b8bd
000000b0: 5f3b cd3c 1a55 bd3d 77f1 88bd 18dd 393c
000000c0: 24ae 463d 7c67 633b 06b6 64bd a9f7 87bd
000000d0: 1c09 cf3c 2ba9 8cbd 541c 3c3b fe98 a73d
000000e0: 7bba 3c3c dd98 86bc 1559 46bd 2834 853d
000000f0: b55f 70bd b545 49bd ae0b 5bbd 6f0e f4bd
00000100: 0730 6cbc c557 82bd dc35 11be fe93 bb3d
00000110: c571 dc3d f029 73bd a4b3 e43d 31b1 26bd
00000120: b0d7 cd3d fcde c93d e397 d83c 891a 5d39
00000130: 237d ffbc ddbc 2fbd 88cb f43d 85a9 21be
00000140: 458e 963b f81c 5d3d 868d ee3d f476 04bd
00000150: b30b d93d 1f19 f43c 5573 e73c bf25 323d
00000160: 16fb d7bd 8405 e2bd d149 c5bd 1112 d13b
00000170: 8546 f13d 3e04 5fbd a0ad 073d f418 703d
00000180: d2d3 f53d 7c51 013d 8be7 b33d d326 1c3d
00000190: b564 b43d e67a 2d39 3dc2 86bc ac6b b3bd
000001a0: f5a4 03be ba23 bbbd 7c4e a83d 9a37 923d
000001b0: 4746 683d 4cb2 52bd 7ec2 afbd fa6b a63c
000001c0: 621e 183d 381a a6bc 04c6 20bd e73e 893d
000001d0: d488 973d c430 25bd 6bdd 793d 3e2a da3c
000001e0: 6938 0cbe 4808 efbb 3906 46bc c60f 28be
000001f0: ebed cc3d 3ef1 3d3c 2bfb 2cbc 6e9e 21bc
00000200: ff80 603d cb9d f63d a1b5 f03d 6ce7 d3bd
00000210: ce6d 523d 7617 063b 87d9 e83d 3868 00bd
00000220: ed17 ca3d 3bf2 e23d 90b8 90bc b6b2 abbc
00000230: 88e7 8f3d 3320 b6bd 95b7 c93c 0d93 773d
00000240: 2808 943d 7fb5 94bb 95d7 f13d 870c b7bd
00000250: 43bc 95bd 8754 963d 40d5 163d a036 dabb
00000260: 7295 ecbc 793c c23b 7133 333e 9045 1fbd
00000270: e735 c03d 17f3 b53d 3256 89bd 5afa cdbd
00000280: 7e2a c63d 356f 823d 9d12 b33d 505c aabd
00000290: 57dd 38bd eb93 f8bd 4f1a edbc 29f0 0bbe
000002a0: 560c 78bc 50ca d23d 1476 e83d ba0b 433d
000002b0: f5de bd3d b48f c83d 03ef 05bc 79cb 4c3d
000002c0: 7c33 973c 402b 5bbd 7060 bcbd b354 4c3d
000002d0: bfd1 e73d 96e3 e13d 71ca af3d 5b4a e13c
000002e0: 4e2f 01bc af3f cdbd c0ec 9a3d 92c8 b53d
000002f0: 8ca0 2fbd faf2 09be 832b 9cbd 4819 6bbd
00000300: 6994 36bd cf14 babd 9335 093e 9745 9ebd
00000310: 19fd e83d 5828 723d b49f 65bb 19f6 4dbd
00000320: f7b5 823d 0be4 94b8 a446 d33d 9915 d13c
00000330: 702e c1bd 1b9d 743c 7e78 e0bd 5e76 a5bc
00000340: 7687 b9bd 5b1e de3c 5935 98bc de0a c43d
00000350: 8309 d83d 245b 773c 83b4 a13d f80b 943c
00000360: eeae 70bd 9b59 52bd 3c43 7c3d 08ec 96bd
00000370: 979c ccbc 3568 e83d eed9 b93c 81e7 c23d
00000380: e0ac 89bd 328b 8a3d 8492 c43d 860e dc3c
00000390: 713f d23d bd73 75bb 89cf ae3c 7f4c 23bd
000003a0: 0e52 2dbd fbbe 9c3c a971 013e 6eeb 163d
000003b0: a36b 76bc 96ea 073c eccb 8e3d fe0c f23d
000003c0: cae8 86bd fc14 963d d89b cebd baa1 6f3d
000003d0: 44a4 983c c27a dc3d 0d9c 2dbd c026 52bd
000003e0: 689b 5abd 276c c73d 3ffe cf3c 096e bebc
000003f0: 24dd 42bb f78d e4bd fe56 983c b0b3 2d3d
0.05379614 -0.05841911 -0.07649264 0.08091661 -0.0033117025 -0.06972768 0.036517616 -0.015446879
0.002522107 -0.031192271 -0.12089519 -0.010374672 0.05624399 0.029912286 -0.0014226364 0.07691995
-0.03328211 -0.08222147 0.0036302798 0.03640606 0.00333377 0.091174856 0.07382842 -0.0963729
-0.07094661 -0.0069177584 -0.013172254 -0.002217213 0.03822718 0.056570858 -0.004901804 -0.11918701
0.074507535 -0.01571779 0.012365038 -0.080515094 -0.102298275 -0.09744512 -0.08428747 -0.112450995
0.10303912 0.108085126 -0.008714112 -0.09028975 0.025052724 0.092447475 -0.06686681 0.011344217
0.048505917 0.0034699133 -0.055837654 -0.06639034 0.025272898 -0.06868204 0.0028703408 0.08183478
0.01151907 -0.016430313 -0.0484248 0.06504089 -0.058685023 -0.049138743 -0.053477935 -0.119168155
-0.0144157475 -0.06364397 -0.14180702 0.09159087 0.10763887 -0.059366167 0.11167076 -0.040696327
0.10050905 0.09856984 0.026439613 0.00021086088 -0.0311876 -0.042904723 0.11952883 -0.15787323
0.0045945966 0.053982705 0.11648087 -0.032340005 0.105979346 0.029797135 0.028253237 0.04349303
-0.10545938 -0.11036208 -0.0963322 0.0063803275 0.11781029 -0.054447405 0.033124566 0.058617547
0.12003292 0.03157185 0.08784398 0.038122963 0.08808271 0.00016544349 -0.016450042 -0.08760771
-0.12855895 -0.09137674 0.08218095 0.071395114 0.056707647 -0.05143957 -0.08582018 0.02031516
0.03713835 -0.020276174 -0.039251342 0.06701451 0.07399145 -0.04032971 0.061002176 0.02663147
-0.13693394 -0.0072946884 -0.012086445 -0.16412267 0.10006317 0.011593161 -0.01055793 -0.009864433
0.05481052 0.12041815 0.11753393 -0.103468746 0.05137425 0.002046076 0.11369615 -0.03134939
0.09867845 0.11081358 -0.017666131 -0.02095924 0.07026583 -0.0889286 0.024623672 0.060442973
0.07228118 -0.0045382376 0.11808697 -0.08937936 -0.07311299 0.07340341 0.036824465 -0.006659344
-0.028879855 0.005927619 0.17500092 -0.0388847 0.09385281 0.08884256 -0.067058936 -0.100575164
0.096760735 0.06368867 0.087437846 -0.083183885 -0.04513296 -0.12137588 -0.028943209 -0.13665833
-0.01513966 0.10292494 0.113506466 0.047618605 0.09271041 0.09793034 -0.008174661 0.049998734
0.018457167 -0.053508043 -0.091980815 0.049885463 0.11319303 0.11029737 0.085835345 0.027501276
-0.0078848135 -0.10021912 0.07564688 0.088761464 -0.04287772 -0.13471594 -0.07625487 -0.057397157
-0.04457513 -0.09086 0.13399343 -0.07728117 0.113763995 0.059120506 -0.0035037817 -0.050283525
0.06382363 -7.099666e-05 0.10316208 0.025522994 -0.094326854 0.014930035 -0.10960482 -0.020198043
-0.0905904 0.027114084 -0.018580126 0.09572385 0.10548689 0.015097413 0.07895758 0.018072113
-0.058760576 -0.051354986 0.061587557 -0.07369238 -0.024977012 0.11348001 0.022686925 0.09516812
-0.067224264 0.06764831 0.09598258 0.026862394 0.10266007 -0.0037453019 0.021339195 -0.039867874
-0.04231458 0.019134035 0.12641014 0.036845617 -0.015040311 0.008295676 0.06972489 0.11818884
-0.0658737 0.07328221 -0.100883186 0.058503844 0.018633015 0.10765602 -0.04238515 -0.051306486
-0.053370863 0.09737425 0.025389789 -0.023245828 -0.002973386 -0.1115989 0.018596169 0.04240769

bias f4 [64]
00000000: 80fd c03d ff46 b53d 63a2 b33d cc24 dfbc
00000010: 9537 2cbd 7d49 bbbd a600 9fbb cd0f c43d
00000020: 372d 803b 137a 74bd 7cf1 a03d 4e8c 443d
00000030: a317 bf3d 86e9 453d 7a69 d5bd 00c8 c63d
00000040: 7f62 3f3d bed8 053d ed5d 8e3d 193c 7a3c
00000050: 7c73 1d3d 9cc4 aebd 6356 87bd 64b2 783d
00000060: 21f3 74bd 154c 493d b44f afbc ce05 25bd
00000070: 1501 f33d 85ad 913d 34a4 6e3c 0449 a5bd
00000080: 37a1 f43c 9b1c eb3d c107 f73c c747 7b3d
00000090: eab7 f4bc cc87 c8bd 2e80 cdbd 5c1b 4f3d
000000a0: 0ed5 013d 7332 6bbd eace f3bb 5658 983d
000000b0: 609a 6d3d 7be9 5c3d 56b4 acbd 8543 0f3d
000000c0: 588e 8d3d 2a5b 833b 49dc bfbd 7d4e f2bd
000000d0: 34ce 6dbd e2db 813d f806 f63c 6692 80bd
000000e0: da87 80bd 3ea4 9fbd 99ba d4bd 4d75 34bd
000000f0: 8476 e0bc 7064 463c 97e7 7f3d 9031 403c
0.09423351 0.08851432 0.08771207 -0.027239226 -0.042045195 -0.09144876 -0.004852372 0.09573326
0.00391164 -0.05968673 0.078585595 0.047985367 0.0933068 0.04831841 -0.10420509 0.09706116
0.046724793 0.032677405 0.06951509 0.015273117 0.038440213 -0.08533594 -0.06608274 0.060717
-0.05980218 0.049144823 -0.02140031 -0.04028874 0.11865441 0.07113174 0.014565516 -0.08070567
0.02986203 0.114800654 0.030155065 0.06134775 -0.029872853 -0.09791526 -0.10034214 0.0505632
0.031697325 -0.05742116 -0.0074404376 0.07438724 0.05800855 0.0539336 -0.08432834 0.0349765
0.069119155 0.0040086703 -0.09368188 -0.11831377 -0.05805798 0.063407674 0.03003262 -0.06277923
-0.06275912 -0.077949986 -0.10387153 -0.04405718 -0.027400263 0.012108907 0.06247672 0.011730567

weight f4 [64]
00000000: 7533 783f 2c67 833f 7374 823f 8c39 7d3f
00000010: a465 7d3f a966 823f 5255 833f 2b8e 833f
00000020: a8ff 823f 8059 823f 9cd3 803f a244 7b3f
00000030: 699a 843f fdba 7f3f 7ba8 803f 1ce0 7e3f
00000040: b8c9 833f 8612 833f 09da 7a3f 398a 773f
00000050: 29c2 7a3f a7f3 7d3f a44b 843f 093e 833f
00000060: 65ae 823f d822 823f aa35 803f 92e8 813f
00000070: 3b64 833f 43cd 813f b2ce 803f 08cf 833f
00000080: 3b36 813f 15a8 813f 9ca6 7e3f 1aa9 7c3f
00000090: 1aec 803f c072 833f 6530 853f f48f 833f
000000a0: 6950 823f e7d3 803f 26bc 813f 77ea 7e3f
000000b0: 0204 7e3f 9f51 7f3f 9797 883f 056a 843f
000000c0: 0a78 7d3f c7e3 823f f985 813f e2b8 873f
000000d0: 42bc 7a3f de59 803f f6ce 7f3f 2672 803f
000000e0: b400 803f 7ecd 7d3f 8c0e 7e3f ce11 7c3f
000000f0: 9e72 823f 1cdd 823f 2378 7d3f c9f0 803f
0.9695352 1.026586 1.0191787 0.98915935 0.98983216 1.0187579 1.0260413 1.0277761
1.023427 1.0183563 1.0064578 0.981516 1.0359622 0.99894696 1.0051416 0.99560714
1.0295935 1.0240028 0.97988945 0.96695286 0.97952515 0.9919991 1.0335584 1.0253307
1.0209471 1.0166883 1.0016377 1.01491 1.0264963 1.0140766 1.0063078 1.0297556
1.0094675 1.012942 0.99472976 0.9869553 1.0072052 1.0269394 1.0405394 1.0278306
1.0180789 1.0064667 1.0135543 0.99576515 0.99224865 0.9973392 1.0671262 1.0344855
0.9901129 1.0225762 1.011901 1.0603297 0.9794351 1.0027425 0.9992517 1.0034835
1.0000215 0.9914168 0.99240947 0.9846467 1.0191228 1.0223727 0.9901144 1.0073482

bias f4 [64]
00000000: 59e4 a2bb 87e9 23bc bb4c 333c b4ec e03b
00000010: 6f56 0a3b 495a 273c 19ff 14bc fdd2 213c
00000020: 270c 20bc ae84 173c 05b8 2ebc 844d 603c
00000030: f5e7 193c c0ce 2e3c f98b 1d3c 7395 103c
00000040: c94b 1dbc ef07 333c b21b 103c e17d 093c
00000050: 2a85 1fbb 2b63 0abc a30b 443c 2f48 243c
00000060: abde 10bc b6a8 253c 40b7 50bc fafa 383c
00000070: 4da6 f93a 616c 2f3c 9f91 153c 0c65 283c
00000080: 9b60 123c ddf4 3f3c e9c1 6a3b d437 18bc
00000090: 49ae 133c ff16 17bc 04d2 273c ab18 203c
000000a0: 2678 193c cd17 1a3c a313 143c ec2e 2a3c
000000b0: ae33 083c 7623 193c be02 1fbc b2c4 18bc
000000c0: 1c86 f23b 322f 26bc 55e6 5e3c 3697 30bc
000000d0: ff87 52bb d2a7 03bc 96f5 0dbc fc20 6bbc
000000e0: d8db 2f3c 06de 0f3c caf0 98bb d46d 14bc
000000f0: 671a 26bc 1a55 1d3c 92da 13bc 51c5 1a3c
-0.004971069 -0.010004408 0.010943587 0.0068641547 0.0021108647 0.010214397 -0.009094023 0.009876964
-0.009768522 0.009247942 -0.010663991 0.013690356 0.009393682 0.01066941 0.009615892 0.008824694
-0.009600588 0.0109271845 0.008795666 0.008391828 -0.0024340847 -0.008446495 0.011965665 0.010026976
-0.008842151 0.010111025 -0.012739003 0.011290306 0.0019046754 0.010706992 0.009128957 0.010277998
0.008934165 0.011716095 0.0035821146 -0.009290654 0.009013721 -0.009221791 0.010242943 0.009771506
0.0093670245 0.009405089 0.009037885 0.010387164 0.008313103 0.009346833 -0.009705244 -0.00932424
0.007401241 -0.010143088 0.01360472 -0.010778239 -0.0032124517 -0.008035617 -0.008664509 -0.014351126
0.010733567 0.008780962 -0.004667376 -0.009059388 -0.010138131 0.009602809 -0.009024279 0.009446458

weight f4 [1, 64]
00000000: cdef 263b 8f98 c1bd 2160 613d 3f04 1e3b
00000010: 9a74 1d3c 970d f43d e7ee e4bd 9569 063e
00000020: ccba dbbd 12cf e23d bba2 93bd 1d0b 53bb
00000030: 3375 933d 41c7 403d a274 fd3d 82e4 b63d
00000040: 0a3d 1bbe 244e 1e3d b553 bfba 1a0f 053c
00000050: 0c0d d53a 42e7 c0bd cff6 0fbd 7dd3 883d
00000060: d245 6cbd 165c dd3d 0661 80bc 46ad 7a3d
00000070: 066e e6bc eaf9 693d a97b 613d 639c 183e
00000080: 4cce 9a3d 62cb ec3c 21d2 87bc adc8 d5bd
00000090: 09e2 043d 0f0f c1bd 1611 253e ab22 063e
000000a0: b8a1 d93d cd57 003e fb27 963d 7655 663d
000000b0: 3a7c e93c 9642 f23d 2f0b 3fbe ee79 afbd
000000c0: e1db e23b 857d 60bd 7c26 c2bc be55 80bd
000000d0: 7efc eb3b b493 2cbd 3525 b0bd fcad 89bc
000000e0: 33cd 8c3c 7c6d 333d eb5b 59bc 3e2d c7bd
000000f0: a1e7 adbd 50d7 e73d ae6c 4bbd 2036 8d3d
0.0025472522 -0.09452926 0.055023316 0.0024111418 0.0096103195 0.119166546 -0.111783795 0.13126214
-0.10728988 0.11074652 -0.07208773 -0.003220267 0.07200088 0.047065023 0.123757616 0.08930303
-0.15160003 0.03864874 -0.001459709 0.008121276 0.0016254499 -0.09419109 -0.035147484 0.06680963
-0.057683773 0.108085796 -0.015671264 0.061200403 -0.028128635 0.057123102 0.055049572 0.14903407
0.07558879 0.028905574 -0.01657969 -0.104386665 0.032442126 -0.094267 0.16119799 0.13099162
0.106265485 0.12533493 0.073318444 0.056233846 0.028501619 0.118291065 -0.1865661 -0.08568178
0.0069231843 -0.054807205 -0.023699991 -0.06266354 0.0072017303 -0.04213305 -0.08600847 -0.016806595
0.01718769 0.043805584 -0.013266544 -0.09725426 -0.08491445 0.113203645 -0.049664192 0.06895089

exp_avg f4 [64, 3]
00000000: 4eda 9ab9 ee9f f136 6306 7fb9 93d9 efba
00000010: 532a 4838 e32f 3abc 81c6 b0b9 141d 4cba
00000020: 69dd 19bb 8541 d13a 2c5d feb8 47f0 733b
00000030: a444 88b9 9ccb a6b9 acdc a3b9 f1ef 8496
00000040: 4b10 8516 b2a8 2997 5815 a83b c2eb 92b8
00000050: 5ed2 153b 476a b0bb 0f42 813b 25e1 863c
00000060: cbd0 fabb 7c6d af3a 8efc 6dbc 66ea 753b
00000070: c365 8f3a dd1e 193c b166 6dba 8747 a2ba
00000080: 7a9a 963b 26bc af3a 641f a539 183c 8cbb
00000090: 9540 83ba 7d59 85ba bbde 363b 1a03 5f3a
000000a0: e350 493a 19d5 aeb9 a6cf 1d3c a6c5 9d38
000000b0: 2c20 163d 4e84 0dbc 2362 083b 8ef2 0fbd
000000c0: fcd0 953a 0cd3 363a 7a74 0e3b 0f4c 5abb
000000d0: 75b4 d4ba bea2 22bc 2e47 b1b9 7894 8db9
000000e0: fb4a e33b eb71 6eba a817 8639 0b51 02ba
000000f0: 14ad 543a 754d a1ba cd3b 39bb 56a2 92ba
00000100: fcc0 0dbb 537f 01bc de41 b83a c77b 233a
00000110: 2518 653c 4f60 3e3a f0dd 00bb 6724 00bc
00000120: 49ce 01bc d7c2 af3a 2255 f0bc caf1 a239
00000130: 5731 13bb 1dc5 a5bb d533 13bc a730 2f3b
00000140: 9eb2 26bd 9621 3b3b d72b c2ba f623 a03c
00000150: d90b dc3a 75c1 ec3a c3b8 c135 5203 3ebb
00000160: 97f5 da3a 8603 363b 5fa8 cb39 5501 19bb
00000170: 0adb 8fbb 4d98 ae3b 6bb0 6d39 4c1f 543c
00000180: bab7 dd38 6fc5 3f39 fadb 2a3a 0693 3b3b
00000190: 7b2b 97bb d991 59bc 14d6 7e3a daf7 163a
000001a0: bf87 643a 5e66 133a f939 703a 3b31 313b
000001b0: 0000 0000 0000 0000 0000 0000 a76d 8a37
000001c0: 7a22 deba 2b8a 0b3c b3ab 483a 935c 5e3a
000001d0: c4fd a9bb 69da 953a 32a4 86ba c325 b23c
000001e0: dcca a33a f32e e7ba 0dc9 5abb 063a 953a
000001f0: 9cce f839 736e c5bb 987d df3a 75ec 103b
00000200: 09c0 a3bb ebd9 2c3b da76 53bb 9b58 46bc
00000210: c0b0 853a 6c1b 1bba a3fe fe3b 8a68 b2ba
00000220: f0bf 3c3a 0d69 de3b 5d1d 9abb c69d fcba
00000230: 6194 f63b 389c b7b8 8c9b b339 202f 42b9
00000240: 5bc5 23b8 7153 d8ba b70b 8abb 1129 0a38
00000250: 85c7 1839 8687 0a3c 0ad2 cc39 0aa2 a5ba
00000260: d8b3 67bb ee03 883a e22f 3f3a f08c 993b
00000270: 974d b7bb d40c 4c3a 2a49 65bc 9012 e6ba
00000280: 9a8a a53a 4e83 993b 38f8 0bbb 1942 e53a
00000290: 61dc ac3a f907 94ba 01a0 163a bb8b 643b
000002a0: 4a8d 61ba 0978 c93a f8a2 15bd a1d4 1f3b
000002b0: 35e6 e839 48a8 6f3c 70e7 843a a2d4 b93a
000002c0: a67e 03bb 5806 1ebb e1f6 8e3a 3481 d8bc
000002d0: 4c66 26bb 852c cc38 5cff 1f3c 1f72 913b
000002e0: b8cf 503a 080b 883c 151f 27b8 0427 25b9
000002f0: 0047 ac3a 282f f939 637d 07ba 4895 ccb9
-0.0002953582 7.200978e-06 -0.00024321074 -0.0018299095 4.7723133e-05 -0.011363956 -0.00033717233 -0.00077863154
-0.0023477918 0.0015964961 -0.000121290184 0.0037222074 -0.00025991083 -0.00031813688 -0.00031254196 -2.1477174e-25
2.149759e-25 -5.481977e-25 0.0051294975 -7.005736e-05 0.0022860984 -0.005383763 0.0039446424 0.01646478
-0.0076542846 0.0013384069 -0.014525546 0.0037523746 0.0010940362 0.009345737 -0.0009056135 -0.0012380936
0.0045960518 0.0013407513 0.0003149464 -0.0042796247 -0.0010013754 -0.0010173764 0.0027903754 0.0008507237
0.00076795946 -0.00033346636 0.009632027 7.523158e-05 0.036651775 -0.008637501 0.0020810447 -0.035143428
0.001143008 0.00069741975 0.0021736906 -0.0033309495 -0.0016228097 -0.009926496 -0.00033813104 -0.00027004234
0.0069364286 -0.00090959546 0.00025576097 -0.0004971183 0.0008112949 -0.0012306409 -0.0028264404 -0.0011187296
-0.002162992 -0.007903892 0.0014057716 0.0006236401 0.013982807 0.0007262276 -0.0019663535 -0.007821179
-0.007922717 0.0013409507 -0.02933747 0.00031079195 -0.0022459829 -0.005058898 -0.008984526 0.002673188
-0.040697686 0.0028553954 -0.0014814091 0.019548398 0.0016788199 0.0018063026 1.4433393e-06 -0.0028993678
0.0016705272 0.0027773096 0.00038844623 -0.0023346741 -0.004390125 0.0053282143 0.00022667802 0.012946915
0.00010572323 0.00018288729 0.00065177644 0.0028621568 -0.0046133376 -0.013279402 0.0009721231 0.00057589787
0.00087177375 0.0005622859 0.0009163912 0.00270374 0.0 0.0 0.0 1.6501943e-05
-0.0016947531 0.0085168285 0.00076549797 0.00084824226 -0.005187722 0.0011432889 -0.0010272323 0.021746522
0.001249637 -0.0017637893 -0.0033383996 0.001138509 0.00047456182 -0.0060251295 0.001705098 0.0022113596
-0.0049972576 0.0026375006 -0.0032266886 -0.012106086 0.001019977 -0.0005916867 0.00778182 -0.0013611477
0.0007200232 0.0067874254 -0.0047032074 -0.0019273094 0.0075250124 -8.755218e-05 0.00034257432 -0.00018518837
-3.904603e-05 -0.001650436 -0.0042128223 3.294001e-05 0.00014570176 0.008455163 0.00039066403 -0.0012636792
-0.0035354998 0.0010377148 0.0007293207 0.0046859905 -0.005593966 0.0007783894 -0.013994494 -0.001755314
0.0012629807 0.004684842 -0.0021357667 0.0017491012 0.0013188237 -0.001129388 0.00057458883 0.0034873325
-0.00086041226 0.0015370856 -0.036532372 0.0024388211 0.00044422006 0.014627524 0.0010139775 0.0014177749
-0.0020064502 -0.0024112668 0.0010907316 -0.026428796 -0.0025390564 9.7357704e-05 0.009765472 0.004438653
0.0007965523 0.016606823 -3.984485e-05 -0.0001575016 0.0013143718 0.00047528115 -0.00051685254 -0.00039021135

exp_avg_sq f4 [64, 3]
00000000: abb3 9836 128d 0f37 b24f 723a 78a8 df39
00000010: 71d7 a438 78fa 883b 68ec 243a c3b6 5738
00000020: 180a 3b3b 5494 4838 c7f6 4837 c906 073a
00000030: e7e4 3038 c426 fe38 211b 9b3b 5efe a432
00000040: 0e17 9932 d99e 7435 8434 7c3b 61be f838
00000050: 93e6 823b 12dd 253a c3d3 1a3a c5dc 5b3d
00000060: 9274 383c e29e 243a c5b0 143c 06c2 f33b
00000070: 9863 133a e9aa b43c cf5f 9e37 b9bd 7637
00000080: 37a2 d339 74ac c939 e991 bb37 1f4a 923a
00000090: 6924 6738 8d86 4838 fb60 a03a 5d24 2d37
000000a0: b122 8837 a8ef 433a 5665 533c 0287 fb39
000000b0: 092e 873c f9dc 843c f6c0 793a c28a 113d
000000c0: cfdf 8e3a 8326 db38 5f70 523b 6473 2c3b
000000d0: 2c07 3039 ab84 a23b d892 c038 e8e9 7738
000000e0: 61b3 5d3b 5a2f f138 aa5c 3c37 9cce a239
000000f0: d104 5439 22f4 4439 1947 593c 845e ee3a
00000100: 3382 2239 26c2 2e3c 330c c738 8a58 b138
00000110: 6cec bf3b 026b 2b38 e439 9338 f828 083c
00000120: 6a46 273c a6b6 173a a3ac 9a3c 27fc 8b38
00000130: 9563 0838 69c9 7b3b ef1c 4f3c 3d83 1f3a
00000140: 575f db3c 2279 d83a 74e1 5639 4b75 1a3c
00000150: 56c7 7137 60b5 2937 2def 0f3a 1333 b939
00000160: 3894 b439 c686 da3c 22a9 8f38 b854 0d38
00000170: f547 423b 595d 2e3b b406 6d38 9d5a 253b
00000180: f33a 9233 1e71 0434 843a 8136 b4f6 dc39
00000190: 8747 223a 69ff 3f3d b448 2738 d4ca 7836
000001a0: ba3d b938 68bd cf38 2ce0 2038 d5bf 2b3b
000001b0: 0000 0000 0000 0000 0000 0000 a3ad 0b3a
000001c0: fd2b 7038 6368 f23a bcac a337 f2c6 8537
000001d0: 422e 293a 2b6f 8b39 2510 0f39 703f b63b
000001e0: 94d4 5b38 9cae 6e37 4cfc 5c3a 549b d438
000001f0: e6bc a037 1b0d 653a f77c bf38 6c8e 7238
00000200: e7fe 033b 0382 4339 8af2 6739 a290 ff3c
00000210: 0861 7838 5097 f237 a34b 463b 0be9 ba38
00000220: b002 e338 b236 bb3b e1c7 453b 084f 8939
00000230: 11d5 f03b bdde 8638 ca1a 6d37 04cf b439
00000240: 3765 df38 9ec5 9238 2e56 e03b a1dc 2f38
00000250: 6fbe c137 92d3 c93a fcdd 7f3a fe4b e938
00000260: 6381 f53b aad9 9737 33ba 2d37 9791 003a
00000270: 66d5 a43b e3b7 2039 ca06 7c3b 6fac a338
00000280: da26 e538 7b8b 293c 55a8 b639 657b b038
00000290: 9da9 b53b 7bd9 a737 1c5a ed37 a775 103b
000002a0: 1b89 353b 6b8e 1b3a b947 0a3d 5e7d c73b
000002b0: 14c5 a439 17be 3f3c fa2c 8338 bb27 7237
000002c0: 55bf cb39 c1ca 513a 6927 4e39 b334 233c
000002d0: 1fdb 8c3b 84db 0b3a e78c 273c f55b 823c
000002e0: b517 4c3a d1ac df3c d923 2138 b367 7137
000002f0: 7fa5 433a 6c4d c237 5e73 8b37 4dcc b33a
4.550869e-06 8.55631e-06 0.0009243443 0.00042659394 7.8602585e-05 0.004180249 0.0006291331 5.1430205e-05
0.0028539952 4.7821857e-05 1.1978386e-05 0.00051508524 4.2174852e-05 0.000121188845 0.0047334586 1.9207786e-08
1.7822028e-08 9.1128237e-07 0.003848345 0.00011861022 0.0039947717 0.00063271925 0.0005906189 0.05367734
0.011258261 0.0006279779 0.009075348 0.007438901 0.00056224456 0.022054153 1.8879682e-05 1.4706916e-05
0.00040365916 0.00038466195 2.2360082e-05 0.0011161006 5.51086e-05 4.7809026e-05 0.0012235934 1.032007e-05
1.6228618e-05 0.0007474371 0.012902578 0.0004797504 0.016501443 0.01621865 0.00095273496 0.03553272
0.001090044 0.00010449907 0.0032110435 0.0026313895 0.0001678734 0.004959663 9.182625e-05 5.910723e-05
0.0033828842 0.000115005954 1.1227248e-05 0.00031052984 0.0002021969 0.00018782963 0.01326158 0.0018186127
0.00015498027 0.010666406 9.491332e-05 8.4565094e-05 0.005857041 4.0869236e-05 7.020289e-05 0.008310549
0.010209659 0.00057874096 0.018881148 6.6750035e-05 3.251767e-05 0.003841961 0.012641176 0.00060849247
0.02677886 0.0016515593 0.00020492618 0.009427379 1.4411131e-05 1.0115415e-05 0.0005490657 0.00035324003
0.00034442707 0.026675593 6.850275e-05 3.369592e-05 0.002964494 0.0026605933 5.6511446e-05 0.0025231012
6.8093776e-08 1.233461e-07 3.8513117e-06 0.00042145478 0.0006190468 0.046874437 3.9883613e-05 3.7072941e-06
8.832985e-05 9.905809e-05 3.835575e-05 0.002620687 0.0 0.0 0.0 0.0005328303
5.7261426e-05 0.0018494244 1.951155e-05 1.5947477e-05 0.00064537313 0.00026594973 0.00013643557 0.0055617616
5.2411648e-05 1.422656e-05 0.0008429929 0.0001013788 1.9161449e-05 0.00087376096 9.130866e-05 5.7829937e-05
0.0020140947 0.00018645082 0.0002212023 0.031196896 5.9218175e-05 2.8919108e-05 0.0030257485 8.912579e-05
0.00010824704 0.0057133073 0.0030178952 0.0002618956 0.0073496182 6.431106e-05 1.4132538e-05 0.00034486514
0.00010652321 6.9986316e-05 0.006846211 4.1928728e-05 2.309607e-05 0.0015398136 0.0009760556 0.000111244604
0.0074922307 1.810196e-05 1.0354956e-05 0.0004904507 0.005030322 0.00015327292 0.0038456195 7.804564e-05
0.000109268076 0.010348196 0.00034839162 8.415318e-05 0.005543901 2.0009224e-05 2.8294562e-05 0.0022042783
0.002770013 0.00059340027 0.033759806 0.006087943 0.00031427352 0.011703036 6.254944e-05 1.44335745e-05
0.0003886173 0.000800293 0.00019660372 0.009961295 0.004298582 0.00053351396 0.010226465 0.01591299
0.0007785515 0.027304085 3.8418777e-05 1.4388864e-05 0.00074633205 2.3162655e-05 1.6623813e-05 0.0013717503

exp_avg f4 [64]
00000000: ab6d 07b7 100b 193b 342b b4ba 6107 5fba
00000010: e78f 7539 7a58 be16 b9e2 143b b379 963b
00000020: 6343 3dbb 0f63 123c 13c6 dbba 04be 2b3b
00000030: a92e bbba 5985 1dba bdbf 0dbb 7355 303b
00000040: 658f 3f3b c3a5 a6ba b150 2bbb a1c3 72ba
00000050: 624f 0eb9 fa16 b9bb 594d bbbb 9489 54ba
00000060: ac76 eb3a 7ad2 f4b9 0b2d 733b f0c7 86bb
00000070: 3daa 73ba 8c6e 733a 8f62 4b39 67f1 70ba
00000080: 3ce8 61b9 b3d7 1cbb 07d6 23ba b9d7 a3ba
00000090: 0000 0000 a18e d937 e6d9 083b 0dcd 08bc
000000a0: 469a a6ba 003d a03a 9a0c f13a 53d4 6abb
000000b0: f62d 81bb 2a11 093b 6a45 6ebb 9289 ffb9
000000c0: 2f82 0638 d60a 43bb 7799 38bb 4e29 0fbb
000000d0: 1ac0 80ba 2292 ba3a 714b 78b9 10af 6d3a
000000e0: 206f 363c d911 e63b 5110 7439 b42b c93b
000000f0: 853f b3bb 0292 2c3c db28 ff39 61bd d9b9
-8.072161e-06 0.002335254 -0.0013745786 -0.00085078744 0.00023418629 3.0751992e-25 0.0022718145 0.0045921444
-0.0028879277 0.00893475 -0.0016767405 0.0026205787 -0.0014280874 -0.0006008945 -0.0021629177 0.00269064
0.0029229757 -0.0012714196 -0.0026140625 -0.00092607184 -0.00013571748 -0.005648491 -0.0057160077 -0.0008107659
0.0017964444 -0.00046696124 0.0037105705 -0.00411319 -0.0009295082 0.0009286187 0.00019396305 -0.0009191245
-0.00021544186 -0.0023932278 -0.0006249849 -0.0012500203 0.0 2.5934833e-05 0.002088183 -0.008349669
-0.0012710772 0.0012225211 0.0018390596 -0.0035832122 -0.0039422465 0.0020914772 -0.0036357292 -0.00048739888
3.2069333e-05 -0.0029761097 -0.0028167644 -0.0021844688 -0.0009822876 0.0014234225 -0.00023679227 0.0009066919
0.011134893 0.0070211706 0.00023275732 0.006139243 -0.0054702186 0.010532858 0.0004866783 -0.00041530564

exp_avg_sq f4 [64]
00000000: 59ce c537 c7b7 333a c3b5 533a 9295 9b38
00000010: 99ac 7939 9d6a 2b33 4cf2 8c3b c05c 3b3b
00000020: 63dd 473c 59d3 103c d4c3 0f38 272f c839
00000030: d3ba 0039 8cc8 2e38 b264 6f3c 9cb3 9e3c
00000040: 1946 a83a ff38 3e3b 2929 8639 c837 0739
00000050: e784 573a 0127 183b 38e5 ac39 a7c1 8439
00000060: d610 413c b311 7b39 e0dd 733c a0b6 193b
00000070: 5c08 0738 3e5f ca3a f0ca 4e39 4276 413b
00000080: 1ed8 5b34 7fd2 213b 1ab4 3038 3fbf 6639
00000090: 0000 0000 994d 223a 2087 4438 aa91 193a
000000a0: 01fc c238 63b3 f938 ad09 4739 2946 9f3a
000000b0: 0a52 3a39 83cb c939 7041 613b 0319 b538
000000c0: 627a de39 f14c ea38 8c6b b23a e322 2438
000000d0: f2f6 b33b 6839 013a 3aa7 293a 715b c738
000000e0: 78e9 a23b 4629 d83b 6a37 a038 831c bb3a
000000f0: 3635 9c3b 3477 8c3c f3cd 8338 0d6b 9538
2.3580318e-05 0.0006855693 0.0008076096 7.4188356e-05 0.00023810788 3.9911004e-08 0.004301345 0.002858922
0.012198779 0.008839452 3.4276236e-05 0.00038182104 0.00012276629 4.1671607e-05 0.01461141 0.019372754
0.0012838274 0.0029025672 0.00025589138 0.00012895383 0.0008221403 0.0023216608 0.00032977178 0.00025321284
0.011783799 0.00023943819 0.014884442 0.00234548 3.2194293e-05 0.0015439761 0.00019721291 0.002951995
2.0474587e-07 0.0024692116 4.2129403e-05 0.00022005754 0.0 0.00061913725 4.6855886e-05 0.00058581925
9.29758e-05 0.000119066586 0.00018981723 0.0012151647 0.00017768904 0.00038489336 0.003437128 8.635411e-05
0.00042434322 0.00011172321 0.0013612374 3.9133138e-05 0.0054920847 0.00049295137 0.0006471757 9.506092e-05
0.0049716793 0.006596717 7.639716e-05 0.0014275465 0.0047670854 0.017146684 6.284928e-05 7.1248134e-05

exp_avg f4 [64]
00000000: e25d 70ba 0c71 7aba 61f0 7cba b528 f7ba
00000010: ea5d 0f3a 816d 153b ab40 b83a a30f cd39
00000020: f50a 11b9 be49 143c 7fe2 bfba c290 643a
00000030: 36ef 00b9 ef4d 5bba 1d34 98bb 5755 163a
00000040: a8d4 0f3b ad06 2ebb 7236 f8ba a5e6 49ba
00000050: dd88 34bb 8177 8bba 0671 19bb 07e1 903a
00000060: 4c83 9fba 5e21 dcba 9aee 783b 7f7a e9bb
00000070: 1baa 19ba b147 2bbb b639 4bba 2040 c4bb
00000080: afda ab38 f5d4 893a ea83 98ba c83b 1fba
00000090: aa1f bd3a f216 3d3b 4dc1 ad39 356b 29bc
000000a0: 4bca b4ba 6b73 293b 0745 6a39 5452 45bb
000000b0: c530 423a 7a9d 38b9 6d00 3b3b e549 31ba
000000c0: 542a e6ba dd37 9e39 0947 ceba f204 dfb9
000000d0: 7db3 013b e143 e9b9 ed66 cdba 7dd3 a93a
000000e0: 6632 b53b f75d 283c 27cc df38 7f94 0c3b
000000f0: e9dc 9939 280a 083c 40dc 703a 31e7 f3b9
-0.0009169263 -0.00095535885 -0.00096488564 -0.0018856736 0.00054690114 0.0022800865 0.0014057358 0.00039112297
-0.0001383236 0.009050785 -0.0014639645 0.00087190804 -0.00012296144 -0.00083658 -0.0046448843 0.00057347625
0.0021946821 -0.0026554272 -0.0018937124 -0.000770191 -0.0027547397 -0.0010640473 -0.0023413314 0.0011053391
-0.0012169867 -0.0016794612 0.0037984014 -0.0071251984 -0.00058618345 -0.002613526 -0.0007752435 -0.0059890896
8.1946484e-05 0.0010515737 -0.0011635993 -0.0006074277 0.0014428992 0.0028852788 0.00033141152 -0.010340502
-0.0013793198 0.0025856148 0.00022341694 -0.0030108886 0.000740778 -0.00017606272 0.002853419 -0.00067630253
-0.0017560222 0.0003017773 -0.0015737723 -0.0004253756 0.0019790821 -0.00044491797 -0.0015670933 0.0012956705
0.0055296896 0.010276309 0.00010671495 0.0021450815 0.00029347025 0.008303203 0.0009188093 -0.00046520823

exp_avg_sq f4 [64]
00000000: a7a8 4738 5cc3 9638 fb08 3f39 0862 9d38
00000010: 3937 8039 28a8 a239 58d6 bf3b ce86 af39
00000020: 1429 c63b d61a d63b 750e ef37 8c96 1e39
00000030: 20ab 3c38 04a7 7639 77f4 393a e839 e03a
00000040: 7a87 dc39 3848 353a af1e 4539 ac81 b637
00000050: 38e5 0c3b 9f04 2f3a 830d 3739 7d69 6f39
00000060: cffd 023a 1716 113a c733 013a 7572 473a
00000070: e00d e837 fb91 6e39 4fad 6c38 a877 5e3a
00000080: d44b 7f37 addc 8939 9354 c537 b4ca 8839
00000090: 77cb 3e39 0e54 9439 71bf 5939 9f04 743a
000000a0: b699 a039 509f c939 c58b fc38 ac38 2539
000000b0: cc34 8339 8200 a738 db95 9b39 cb23 4638
000000c0: 8b1d 073a 9b7c 2138 fa37 b93a 4c6b 9c38
000000d0: 9862 9639 5419 1639 d3fd 8f39 26b7 2b39
000000e0: 8627 b63a fc3d 313b 9291 3939 ab95 2f39
000000f0: 0cf5 073a 841c 953a 8acf 0539 c5e4 fb38
4.7602367e-05 7.188946e-05 0.00018218525 7.504603e-05 0.00024455207 0.00031024334 0.005854409 0.00033479038
0.0060473774 0.006533961 2.8497752e-05 0.00015124137 4.4982065e-05 0.00023522606 0.0007093618 0.0017107101
0.00042062608 0.00069153635 0.00018798815 2.1756474e-05 0.002149893 0.0006676409 0.00017457273 0.00022832114
0.0004996927 0.00055346027 0.0004928675 0.0007608303 2.7663016e-05 0.0002275183 5.642819e-05 0.0008486458
1.52168395e-05 0.00026295093 2.3523613e-05 0.00026090967 0.00018195609 0.00028291385 0.0002076605 0.000930855
0.00030632102 0.00038456405 0.000120423305 0.00015756738 0.00025025604 7.963275e-05 0.00029675555 4.7240213e-05
0.00051542436 3.850144e-05 0.0014131062 7.458645e-05 0.00028683688 0.0001431455 0.000274642 0.00016376059
0.0013897277 0.0027045002 0.00017697204 0.00016745056 0.0005186356 0.0011376296 0.00012761183 0.00012011224

exp_avg f4 [64]
00000000: 96eb 953a 526a 073b 1b25 4939 f5c9 05ba
00000010: 5916 3eba 7596 3fbb c28c 063b 1875 653b
00000020: 672a 86ba e267 e3b8 190e 88b9 2d06 c63a
00000030: 2b29 05b9 2579 833a 5686 47bb 0281 603b
00000040: ac0f d8b9 7a0c 8b3a 7364 d439 6062 9438
00000050: 625b 7a3a b944 23bb 59c5 ccba c67a e2ba
00000060: eb20 333b 8aa3 6db9 7474 a13b 9910 42bb
00000070: 29c1 4e3a 0116 263b e21e 72ba 5381 c9ba
00000080: f473 1db9 c1ed 5bbb 52d2 77b9 597b db38
00000090: 5f1e eeba 97c3 e3ba 47de a938 7608 01bb
000000a0: 21c0 b939 f167 ef3a 2aef 6bb9 1670 34bb
000000b0: 0d27 3abb 1adc 103b 53fc 73bb dda9 cf39
000000c0: c84b 1a3a 1eb5 21bb e3c9 aa39 834c 9bb9
000000d0: afd3 8139 eaaf 873a b25b bc38 d43c b2b7
000000e0: c025 263b 2796 fcb9 5ceb 333a 5934 683b
000000f0: 7a40 8ebb bc04 b5b9 d0ed 70ba df7a 113a
0.0011438008 0.0020662737 0.00019182677 -0.00051036413 -0.0007251255 -0.0029233966 0.0020530676 0.003501242
-0.0010236026 -0.00010843553 -0.00025950445 0.0015108042 -0.00012699205 0.0010030611 -0.003044506 0.0034256582
-0.00041210407 0.0010608577 0.00040510632 7.075514e-05 0.000955036 -0.0024912788 -0.0015622779 -0.0017279021
0.0027332853 -0.00022663004 0.0049272124 -0.0029611944 0.00078870595 0.0025342705 -0.0009236169 -0.0015373625
-0.00015015883 -0.003355846 -0.00023634106 0.00010465709 -0.001816701 -0.0017377016 8.09995e-05 -0.001968888
0.00035429097 0.001826523 -0.00022500442 -0.0027532629 -0.0028404624 0.0022103847 -0.0037229254 0.00039608675
0.0005885926 -0.0024674605 0.00032575344 -0.0002962091 0.00024762514 0.0010352109 8.981618e-05 -2.1247579e-05
0.002535209 -0.00048177058 0.00068633794 0.0035431592 -0.0043411823 -0.00034526538 -0.000919071 0.000554962

exp_avg_sq f4 [64]
00000000: c4f2 cc38 5894 8539 6d69 3f39 981c d938
00000010: bbae 1b3a 4380 183a 6bb9 4a3a ec30 2a3b
00000020: 071c 003b e203 043b 36ba 5c38 60cb 4939
00000030: bf02 fd38 64cc 023a 108d 223b 999b 3a3b
00000040: 7fd2 5639 cf2d 063a bdad 1b3a 75bd 0538
00000050: 88d9 493a be72 133a f995 e139 e978 4b3a
00000060: d621 e93a 1b41 5e39 56f8 0e3b 8e05 1e3a
00000070: 19c3 6038 a6bd a03a 37e1 6639 4fa6 f039
00000080: 8b17 ed37 c957 1b3b 0a6f 3638 3de1 ce39
00000090: ee0f a939 ee8a f438 4eac ce39 f16f 883a
000000a0: e08b cd39 5e97 1a3a 048d c339 5a5d d13a
000000b0: 03b6 2f3a 1a12 8839 7e35 773a 1ec6 2538
000000c0: d4d2 c039 ae39 0239 ecc0 ed39 a6fb 3c39
000000d0: 470d 7f3a 0143 063a 7625 9039 90fe a238
000000e0: d777 873b efc2 8e3a 86ff c639 22c4 393a
000000f0: d807 c23a 718d 193b fade 8839 2b71 5439
9.772697e-05 0.00025478262 0.00018254454 0.00010352692 0.00059388176 0.00058174523 0.0007733318 0.00259691
0.0019547956 0.0020143916 5.262551e-05 0.00019244617 0.000120644916 0.0004989563 0.0024803318 0.002847409
0.00020487046 0.00051185203 0.000593867 3.1886117e-05 0.0007699956 0.0005624703 0.00043027083 0.00077618525
0.0017786573 0.00021195824 0.00218155 0.00060280494 5.358746e-05 0.0012263551 0.00022018408 0.00045900277
2.8263565e-05 0.0023703447 4.3495595e-05 0.00039459197 0.0003224606 0.00011660704 0.0003941976 0.0010409338
0.00039204862 0.0005897189 0.00037298363 0.0015973256 0.0006702842 0.00025953428 0.0009430273 3.9523577e-05
0.00036778173 0.00012419253 0.000453479 0.00018022823 0.00097294565 0.00051216787 0.0002749373 7.772178e-05
0.004134159 0.0010891835 0.00037955883 0.0007086416 0.0014803363 0.0023430253 0.00026106072 0.00020260054

exp_avg f4 [64, 64]
00000000: 7372 00b8 2d8c 73b9 f7dc d939 36af 26ba
00000010: 067e e6b7 0b45 8fb7 c904 5eba 9b95 5d39
00000020: 897b 30ba de4c 2e3a 9a27 aab9 e49c cdb9
00000030: c6d3 ebb7 3678 a5b9 089c 85b9 281f b3b9
00000040: 930c 1b3a 4917 0c39 b0d7 57b9 6dbc f839
00000050: 4dd5 603a 949c 053a f19b 8ab9 c3cf 3e37
00000060: fe6c 33b9 cae1 433a caaa a0b9 3bc2 0dba
00000070: 55ff 85b9 2b24 eeb7 7c98 ce39 208e 46ba
00000080: f4ff a9b8 4a5d 8c39 d1c8 2aba 56f1 a8b9
00000090: a5e3 8eb7 04cb 4f39 54c2 13b7 b207 25ba
000000a0: 9388 243a 9ab8 42ba 088f 95b9 aea0 f339
000000b0: 824a 8e39 c3b9 a739 5dd7 bab9 6f57 f839
000000c0: 19bc 203a 70d0 11b9 5566 d939 215b 42b9
000000d0: 895e 7fb9 b6c0 3d39 2ba2 6039 70d3 0f3a
000000e0: cf83 87b9 6c64 213a 5756 d1b9 636a 40b9
000000f0: 86a4 bab9 10e6 033a cb76 f339 a455 9d39
00000100: ef06 6738 f2fc 013b 18ca 633b 60b0 e8bb
00000110: 02bb 6a38 9b24 8238 3708 a5ba c3d8 f63a
00000120: d9d1 92ba 5242 0e3c 53ad 72bb d83c 51bb
00000130: 879b 8ab9 b7af 68bb 4521 23bb fc13 d8b8
00000140: 8bbd e33b 405b 763b 6a5c 1dbb 394d 993b
00000150: b7db 943b cbfe 0b3b 7da4 52bb edb7 cfba
00000160: de33 3e3a 63ff 5d3b 81f2 2abb bbc8 c8bb
00000170: aa3e 43bb 99c4 b238 9ca6 103b af61 d2bb
00000180: 8bb6 3aba cb33 083a 9058 05bc 2661 78bb
00000190: fc95 8038 bfb4 f23b 66f0 07b9 8f41 02bc
000001a0: 7eac 383b f9d9 73bb 8b08 55bb e039 123b
000001b0: dcf7 963a 14df 0e3b 4f22 93bb 9864 5d3b
000001c0: ddef 3d3b 499d cdba ebba cf3b e5ce e7ba
000001d0: 7a01 d3ba cb31 fe39 fac1 563b 27b3 4c3b
000001e0: d808 4dbb c39e 123c 55d8 9bbb f2d0 04bb
000001f0: 8f2a 80bb 4d21 b83b 77cd 2a3b 70c3 843a
00000200: 85a8 8fba 11a4 80ba 1709 dbba 6d0f 573b
00000210: d807 92ba 0ccb 88ba 584a 443b 51ef 95ba
00000220: 1b77 9c3a 3399 37bb d4e9 003b d98d 173b
00000230: 2e2f 1eba eccc 893a 292e 853a 5441 cd38
00000240: fb28 0cbb abd2 05bb 8ffa c73a 1667 eaba
00000250: 1929 93ba e01c 98ba 7f70 9e3a 2c26 f5b9
00000260: 96ba 10ba 6c26 95ba 7f67 853a c32c 573b
00000270: 296a 913a 1150 90ba c42d 92ba 7e8c 8c3b
00000280: 62a4 37ba 5d8b 96ba daef 6a3b 0529 1e3b
00000290: 8e68 88ba 61ea 29bb 3359 0fba 2559 7a3b
000002a0: fbfc 8fba 0908 5b3b 8440 5d3a 10d9 84ba
000002b0: 9401 4bba a6e2 8aba 1add 6d3a 863a b5ba
000002c0: 3f05 93ba 7aac 7b3a ae69 2abb 4815 dd39
000002d0: 9b5e 453a eeab 8bba 2dcb ffba 03e9 8eba
000002e0: 0ea1 913a db28 26bb fe3e 1f3b 7238 503a
000002f0: 00a0 563a a8e9 e3ba 5b9a 8bba 0020 8eba
00000300: e345 1139 a97d 8b38 80fb ae38 6d87 beb9
00000310: 549c 1339 2b0e 0a39 f00c 87b9 3b16 1739
00000320: c3d7 81b9 0354 0e39 cb88 a4b8 6375 6bb8
00000330: 6e51 fb38 df90 f1b8 4ded eeb7 a439 1ab8
00000340: 1465 fb38 3121 e537 06f4 63b7 fce2 0b39
00000350: 40d6 fc38 fa5a 8538 50e8 e2b8 e683 4bb7
00000360: ef25 8638 f102 c938 aab1 8ab8 61c1 7eb9
00000370: bfca aeb8 81bb 1139 db56 dd38 3a3e b6b9
00000380: d96a c138 1cff dd38 18cd d3b9 0b58 bbb8
00000390: c6ae 0939 8fdb 0339 51cf 0539 93c0 c4b9
000003a0: cf1e 0439 268c 94b9 676b 9eb8 d1f3 46b6
000003b0: 87af 8536 6d1d 0839 0c4d 76b9 d5b1 0939
000003c0: 7873 cc38 8bf3 2938 1026 0c39 6c7a 88b6
000003d0: 7396 6135 0f14 0639 fcf8 0a39 4c8c 0539
000003e0: 21ce 73b8 c03d 0039 b20d 28b9 59e6 d137
000003f0: f803 5fb9 5099 0a39 491d b138 3a0c 0739
-3.0624167e-05 -0.00023226505 0.00041554097 -0.0006358506 -2.747682e-05 -1.7079079e-05 -0.0008469341 0.00021131935
-0.00067322754 0.00066490273 -0.00032454432 -0.0003921754 -2.8112798e-05 -0.00031560817 -0.0002548399 -0.00034164754
0.00059146545 0.00013360115 -0.00020584348 0.00047442634 0.0008576706 0.00050968793 -0.00026437597 1.1373256e-05
-0.00017111373 0.0007472305 -0.00030644826 -0.0005407666 -0.00025557974 -2.8388653e-05 0.00039404992 -0.0007574279
-8.106223e-05 0.00026772387 -0.00065149093 -0.00032223266 -1.7033724e-05 0.00019816688 -8.807128e-06 -0.0006295397
0.00062764547 -0.00074280205 -0.0002852606 0.00046468287 0.00027139863 0.00031991125 -0.00035637143 0.0004736739
0.00061315444 -0.00013905927 0.0004146571 -0.0001853523 -0.00024353912 0.00018096235 0.00021422717 0.0005486524
-0.00025847412 0.00061566266 -0.00039927915 -0.00018350179 -0.00035599264 0.00050315354 0.0004643708 0.0003000918
5.508115e-05 0.0019834605 0.0034757908 -0.0071011037 5.5964112e-05 6.205701e-05 -0.0012590949 0.001883291
-0.0011201455 0.008682804 -0.0037029579 -0.0031927135 -0.00026437288 -0.0035505125 -0.0024891656 -0.00010303405
0.0069500855 0.003759101 -0.0024011382 0.004678395 0.0045427936 0.0021361585 -0.00321415 -0.0015847661
0.00072556536 0.0033874146 -0.0026084485 -0.0061274446 -0.002979199 8.5243206e-05 0.0022071963 -0.006420336
-0.0007122538 0.0005195706 -0.008138791 -0.0037899702 6.1314524e-05 0.0074068005 -0.00012964159 -0.007950201
0.0028178985 -0.003720878 -0.0032506313 0.0022312328 0.001151796 0.0021800445 -0.004490174 0.0033781882
0.002898208 -0.0015687133 0.006339421 -0.0017685561 -0.0016098463 0.00048483754 0.0032769428 0.0031234713
-0.003128579 0.008948985 -0.0047560134 -0.0020266143 -0.0039113234 0.005619204 0.0026062408 0.0010129046
-0.0010960257 -0.0009814521 -0.0016711083 0.003281559 -0.0011141254 -0.0010436489 0.002995154 -0.001143912
0.0011937352 -0.0028014898 0.0019670622 0.002312532 -0.0006034252 0.0010513342 0.0010160852 9.78733e-05
-0.002138673 -0.0020419757 0.0015257167 -0.0017883505 -0.0011227458 -0.0011605285 0.001208797 -0.00046758482
-0.00055209675 -0.0011379248 0.0010177939 0.0032833077 0.001109426 -0.001101019 -0.0011152555 0.004289209
-0.0007005391 -0.0011485625 0.003584853 0.0024133336 -0.0010407136 -0.0025927054 -0.0005468309 0.0038200107
-0.0010985428 0.0033421537 0.00084400945 -0.001013549 -0.00077440706 -0.0010596111 0.0009073779 -0.0013826645
-0.0011216773 0.0009600591 -0.0026002931 0.0004216826 0.0007529051 -0.0010656097 -0.0019515507 -0.0010903183
0.001111062 -0.0025353942 0.002429902 0.00079429813 0.0008187294 -0.001738836 -0.001065086 -0.0010843277
0.00013854312 6.6514425e-05 8.343812e-05 -0.00036340524 0.00014077249 0.00013165984 -0.00025758846 0.00014408764
-0.00024765552 0.00013573472 -7.845609e-05 -5.613769e-05 0.0001198378 -0.0001151876 -2.8482313e-05 -3.6770143e-05
0.0001198744 2.7314383e-05 -1.35870705e-05 0.00013340631 0.000120562036 6.35888e-05 -0.00010819791 -1.2130453e-05
6.3966836e-05 9.584975e-05 -6.613445e-05 -0.00024295367 -8.334731e-05 0.00013898128 0.00010554279 -0.00034760108
9.222859e-05 0.00010585619 -0.00040397863 -8.933254e-05 0.00013130446 0.00012574925 0.000127611 -0.00037527512
0.00012599978 -0.00028333178 -7.554032e-05 -2.964622e-06 3.984143e-06 0.00012980933 -0.0002348909 0.00013131586
9.748986e-05 4.0519557e-05 0.0001336562 -4.0673676e-06 8.4037964e-07 0.00012786708 0.0001325346 0.00012736133
-5.8127687e-05 0.00012230035 -0.0001602683 2.5022006e-05 -0.00021268416 0.00013217819 8.4454725e-05 0.00012879158
