weights/2024-06-28_10-19-08/best_policy.pt (torch, 167108 bytes, 63 tensors)

weight f4 [64, 3]
000000 cd b0 81 3e 5f 8d 7d 3e 40 34 3e 3d 46 df a5 3e
       0.253302 0.2476096 0.04643655 0.32396907
000010 57 bd c0 3e 96 80 ff 3e f1 fd 31 bf 3e 6c 08 3f
       0.37644455 0.4990279 -0.6952811 0.53290164
000020 4a 8a 55 be 5f 9b a7 3d 5d 75 f1 be fb b6 41 3e
       -0.20853534 0.081839316 -0.47159854 0.18917458
000030 62 08 d7 be b6 44 af be fc 09 fd 3e b3 23 3f 3e
       -0.41998583 -0.3423211 0.4942168 0.18665962
000040 00 da d6 be 26 6e ce be 95 f7 63 3e 02 fa 27 3e
       -0.41963196 -0.40318412 0.22262414 0.16403964
000050 b0 6d d6 3e 37 52 9f 3e f2 01 cd be a5 9f 28 3e
       0.4188056 0.31117412 -0.40040547 0.1646715
000060 7e b2 f1 3e 1e 7e 0d bf 1d d4 b1 3e 13 57 9d be
       0.4720649 -0.55270565 0.34732142 -0.30730495
000070 83 13 06 3f de 67 58 3c 83 3e be 3e 81 95 0d bf
       0.5237352 0.013208358 0.37157068 -0.5530625
000080 23 ad f5 3e aa 2c d2 be 1d e5 1c 3f 74 c7 da 3d
       0.47983655 -0.410497 0.612871 0.10682574
000090 6c a5 b4 3d 23 82 9c be f2 9a 68 3e 3e e6 0a bf
       0.08820614 -0.30568036 0.22715357 -0.5425757
0000a0 62 71 2d 3e c7 48 dc 3e 1c 2b 13 3f c4 7c 64 bc
       0.16937783 0.43024275 0.57487655 -0.013945762
0000b0 5f 31 00 bf 48 d7 df 3e 06 e9 1c 3e a9 2e 28 be
       -0.50075334 0.43718934 0.15323266 -0.1642405
0000c0 44 c3 24 be 49 60 13 3f c6 fc 06 3e 1a 9c 87 bd
       -0.16090113 0.57568794 0.13182363 -0.06621571
0000d0 ec 31 01 bf 8d 45 b6 be bb 01 07 bd ff 08 7d be
       -0.504668 -0.35599938 -0.032960635 -0.24710463
0000e0 90 5b 42 be 58 72 1f bf aa 52 98 3e 1d 80 e0 3d
       -0.18980241 -0.6228385 0.29750568 0.10961936
0000f0 ee a4 a2 3e 54 2b bb 3d ef 7d cc 3e 50 2b b3 3e
       0.31766456 0.091391236 0.3993983 0.34993982
000100 cf 50 c9 3e ef c0 0e bd b8 23 aa 3d b8 3a d3 3e
       0.39319465 -0.034851965 0.08307594 0.41255736
000110 c3 23 6f be bb 6c ec be c4 51 db 3d fc 50 4b 3e
       -0.23353486 -0.46176705 0.10708955 0.19855112
000120 55 bf 5d 3e b0 cd ca bd b1 19 47 3d f2 d4 1f 3e
       0.21655019 -0.09902513 0.048608486 0.15608576
000130 c0 5b 3e be ff 75 11 bc ec 4a 06 3e f5 b1 12 3f
       -0.18589687 -0.00887823 0.13114518 0.5730279
000140 41 0a 1a bd 97 9b 9c 3e 1b 9c a4 3d 9a e0 fd be
       -0.037607435 0.30587456 0.08037587 -0.4958542
000150 e6 3b 78 be fc d7 ec 3e b8 af 0e bd ee af 1b 3f
       -0.242416 0.46258533 -0.034835547 0.6081532
000160 cd 2b 9f be e8 da 82 be 42 51 ef 3e 66 09 ec be
       -0.31088105 -0.25557637 0.46741682 -0.4610092
000170 46 64 69 be 0d bb 93 3b 84 4c be 3e e9 cc b0 3d
       -0.22792158 0.004508382 0.37167752 0.086328335
000180 71 de 16 3d 27 60 1e be bd 7f 80 3e 95 39 ed 3d
       0.03683323 -0.15466367 0.25097457 0.115832485
000190 ef 3f e7 be c9 38 96 3c 66 67 0f 3f 0e 58 07 3f
       -0.45165965 0.018337624 0.5601715 0.52868736
0001a0 d8 c1 f1 3d ce 39 f4 be 42 ad aa 3b 3a ed 89 3c
       0.11804551 -0.4770035 0.005208642 0.016836751
0001b0 9f 3e 87 be 1e a6 b4 be 21 6e a5 3e 6b 95 88 3e
       -0.26414964 -0.35282987 0.32310584 0.26676497
0001c0 77 6d a1 be 40 eb f5 be 20 ba 90 be a0 ba b1 3d
       -0.31528828 -0.48031044 -0.28267002 0.08678174
0001d0 51 7c 87 be 09 3f 11 bf 9c 99 08 3f b5 ae a1 3e
       -0.26462033 -0.5673681 0.5335939 0.31578603
0001e0 7e f1 8b 3e d0 d9 bf 3e 8b d3 05 3e f9 f9 e1 3e
       0.2733268 0.37470865 0.13068978 0.44136027
0001f0 e1 86 39 3e cc 45 8a 3e 68 30 ab 3e 63 25 ec be
       0.18117858 0.27006376 0.3343537 -0.46122274
000200 fd 87 a6 3e f0 41 c5 3e 4e 5b 5d be 71 e4 e2 3e
       0.32525626 0.3852687 -0.21616861 0.44314912
000210 6b e7 35 3d 27 a0 24 3f 1e 87 56 3e 6b aa 1f bf
       0.04441015 0.64306873 0.2094998 -0.6236941
000220 01 30 44 bc 36 52 b3 3e 33 3b 84 3e a7 4b cd be
       -0.011974336 0.3502366 0.25826415 -0.4009678
000230 24 09 77 be 2b 4c 09 be 91 95 22 bf 79 7b 6e be
       -0.2412458 -0.13407962 -0.6350947 -0.23289289
000240 8e 41 a6 be d9 f3 09 bf f0 66 39 be 8b d1 60 3c
       -0.3247189 -0.53887707 -0.18105674 0.013721834
000250 d2 07 f1 3e 4f 8b 05 3f 03 0b 1e bf c1 69 b4 3e
       0.4707628 0.52165693 -0.6173555 0.35236934
000260 a1 f5 8a 3e 56 f1 0f 3f 04 86 e6 3e 54 df ae 3e
       0.27140525 0.56227624 0.4502412 0.3415476
000270 fb af ec 3e 2a e5 02 3f 11 ed fa be b2 44 63 3e
       0.46228012 0.51130927 -0.49008992 0.22194174
000280 e0 00 20 3f 1f 0a 4c 3e a9 0a 55 3e 19 eb 01 bf
       0.62501335 0.19925736 0.20804848 -0.50749356
000290 5b a2 9c 3e e6 7a 56 3e 35 8a 75 3d 9f b7 02 bf
       0.30592617 0.2094532 0.059946258 -0.51061434
0002a0 7c ed e1 3e 70 e1 07 3f 2b 34 f8 3e f5 52 a6 3e
       0.441265 0.53078365 0.484773 0.32485166
0002b0 02 2f 00 3f fb eb b1 3e 52 0d 55 bf 94 77 32 bf
       0.5007173 0.3475035 -0.8322345 -0.6971371
0002c0 81 43 7b be a9 25 90 3e 83 58 3d be a7 14 93 3e
       -0.2453747 0.28153732 -0.18490796 0.28726694
0002d0 3d 0b 23 bf 1b 25 8c be 53 93 5f 3e bd 88 0b be
       -0.63689023 -0.2737206 0.21833543 -0.1362638
0002e0 9e 6b 0f bf f5 c9 8d 3d 7d 12 0d bf 38 db 1c 3f
       -0.56023586 0.06923286 -0.55106336 0.61272
0002f0 90 74 6c 3e 6f 7b c8 3e 50 e5 55 be a8 16 cc be
       0.2309134 0.39156672 -0.20888257 -0.39861035

bias f4 [64]
000000 09 54 11 bf 6c 8b 14 bf a8 fd f2 3e 1f ea 1d bf
       -0.5676885 -0.5802524 0.4745915 -0.61685365
000010 f8 6e 14 be 3a 0d 0f bf d4 42 b0 be d6 b7 27 be
       -0.14495456 -0.5587956 -0.34425986 -0.16378722
000020 b9 e2 aa 3e ca 2f fb 3e 6a 6b c6 3e a2 b4 fa bb
       0.333761 0.49059898 0.38753825 -0.0076509276
000030 4c b2 78 bd a4 b7 31 be b6 d1 f3 be 1c 6c 06 3e
       -0.060716912 -0.1735521 -0.47620934 0.13127178
000040 e5 db e3 3e cd 9b 1f 3e b5 2b b5 3e de de a9 3c
       0.44503704 0.15586777 0.35384908 0.020736154
000050 d9 df 8e be 65 cd f5 3e 12 dc c8 3e 54 91 aa be
       -0.27905157 0.48008266 0.392304 -0.33314002
000060 a3 e9 e4 3e 08 c9 5f be aa 78 12 3d d5 9c f9 3e
       0.447095 -0.21854031 0.035759605 0.48752466
000070 26 a4 ca 3e a0 8b d3 3c 92 92 0e 3c a1 fa 19 bf
       0.3957836 0.025823414 0.008701937 -0.60148054
000080 18 63 b6 bc 75 c4 e0 3e 90 1f 23 3e 5c df 0b 3f
       -0.022264048 0.43899885 0.15930009 0.54637694
000090 5c 80 9f 3e 36 dc 26 3e 77 77 fa 3c 1a 33 f2 3e
       0.31152618 0.16294941 0.030574543 0.47304612
0000a0 d4 bd 82 be 45 5a a6 be fb 98 63 be 49 ca b3 3e
       -0.25535452 -0.32490745 -0.22226326 0.3511527
0000b0 86 ea ff 3e 4f 85 08 bf 67 48 56 be 3a c5 55 3e
       0.49983615 -0.5332841 -0.20926057 0.20876017
0000c0 14 38 0a be 58 c5 34 bd 8a 4e a8 be 27 93 aa bd
       -0.13497955 -0.044133514 -0.3287242 -0.08328848
0000d0 5f 68 8d be c2 8b 8b 3e f6 9e a5 3d fb b0 ad bd
       -0.2761869 0.27255064 0.0808696 -0.08481022
0000e0 83 dc a8 be c0 5d a3 3d d4 86 a6 3d b4 eb c3 be
       -0.32980737 0.07976866 0.08131185 -0.38265765
0000f0 c9 bd fe bb 97 50 00 3f 31 02 ad be 84 8c 90 3e
       -0.007774089 0.5012297 -0.33790734 0.28232205

weight f4 [64]
000000 02 7c 78 3f 9d 62 85 3f 69 68 87 3f 36 53 84 3f
       0.9706422 1.0420719 1.0578738 1.0337894
000010 21 78 81 3f ed 84 76 3f 2b 0e 62 3f 07 b3 7f 3f
       1.0114785 0.9629658 0.8830287 0.9988255
000020 0a 85 67 3f c2 bb 94 3f 00 8e 75 3f 96 cf 77 3f
       0.90437376 1.1619799 0.959198 0.96801126
000030 41 4b 7c 3f 59 91 80 3f ff b4 7d 3f 93 7f 6f 3f
       0.9855233 1.0044357 0.99104303 0.9355404
000040 10 5b 8f 3f 11 97 72 3f 2d 6d 76 3f 15 2f 83 3f
       1.1199665 0.9476176 0.9626034 1.0248743
000050 de 52 7c 3f b7 11 70 3f f0 2d 6e 3f 23 c4 5e 3f
       0.98563945 0.9377703 0.93038845 0.8701803
000060 b2 fb 7d 3f 98 c2 81 3f 06 ab 87 3f 19 b8 75 3f
       0.9921218 1.013751 1.0599067 0.95984036
000070 3d 9a 84 3f b3 b0 7f 3f 1c d0 7c 3f 9e 08 7b 3f
       1.035957 0.99878997 0.9875505 0.98060024
000080 0d 01 69 3f 48 26 88 3f 9a a1 85 3f 1f 03 93 3f
       0.9101723 1.0636683 1.0439942 1.1485327
000090 5d d1 7a 3f 1c 65 6e 3f be 02 7f 3f 91 ea 77 3f
       0.97975713 0.9312303 0.9961356 0.96842295
0000a0 ce 43 82 3f 4d d4 89 3f a3 13 79 3f 92 8f 66 3f
       1.0176942 1.0767914 0.9729559 0.9006282
0000b0 a2 36 82 3f b6 d6 7c 3f d3 ab 86 3f f8 cc 74 3f
       1.0172923 0.9876512 1.0521187 0.9562526
0000c0 78 7b 84 3f 75 3e 7b 3f 6d 7b 82 3f d6 68 87 3f
       1.035018 0.98142177 1.0193917 1.0578868
0000d0 07 fa 72 3f 81 e1 87 3f 5f 6b 6c 3f 1a da 7a 3f
       0.9491276 1.0615693 0.92351335 0.97989047
0000e0 e5 9d 7e 3f 7c 4e 77 3f 42 a5 8a 3f 13 71 77 3f
       0.9945968 0.9660413 1.0831683 0.9665691
0000f0 54 f3 89 3f 3d 09 8e 3f 69 1f 70 3f 8c 87 79 3f
       1.0777383 1.1096569 0.9379793 0.97472453

bias f4 [64]
000000 10 09 f0 3c 56 e7 b9 3c ec cc 45 3b 80 52 bc bb
       0.029301196 0.022693317 0.0030181957 -0.0057471395
000010 28 05 76 3c bc 42 97 3a 06 79 71 bc cd 74 a7 bb
       0.015015878 0.0011540274 -0.014738327 -0.0051103593
000020 8f 6d b5 bd c9 60 b7 3b d6 95 48 bd 5d 20 3e 3d
       -0.08858787 0.0055962545 -0.04897102 0.046417583
000030 9d bd 59 3c 20 48 12 3d 13 83 11 bd 1c bf aa bd
       0.013289836 0.035713315 -0.035525393 -0.083372325
000040 78 1d ef 3b a5 e7 2e 3d ca 1b d4 bc 7d 66 75 3d
       0.007297214 0.042701382 -0.025892157 0.059912194
000050 66 55 34 3b 72 e6 ad bc 96 e6 e0 bc d0 1a 04 3e
       0.0027516722 -0.021228049 -0.027453702 0.12900853
000060 69 36 7f 3b 04 af a3 bc ee ab 70 bc 27 02 f1 bc
       0.0038942343 -0.019980915 -0.014689429 -0.029419972
000070 b7 7f bb 3c 6e 58 a3 bc 7f 39 45 3c d4 07 bd 3b
       0.022888048 -0.019939627 0.012037634 0.0057687555
000080 9e bb 89 3d 33 a3 41 3c 2a 40 b1 3b 84 2c e9 3b
       0.06725238 0.011818695 0.0054092603 0.0071159024
000090 21 c6 79 bc fd cb 42 3c 55 7d 7c bb 18 88 1b 3b
       -0.0152449915 0.011889455 -0.0038526852 0.0023732241
0000a0 3f 27 a5 bb 33 bd d9 3a 9e 6d fa 3c 46 ba bb bc
       -0.005040079 0.0016612172 0.030569848 -0.02291597
0000b0 e9 e0 83 3c ad 34 74 bc 67 58 4d ba cc 3b b0 3a
       0.016098456 -0.014905137 -0.00078333024 0.0013445555
0000c0 63 00 1a bc 12 d3 81 ba 3c 78 24 bc 8a d1 d2 ba
       -0.009399506 -0.0009904823 -0.010038432 -0.0016084176
0000d0 3e 43 6f ba 3d a1 a7 3c d2 b9 b2 bc de bc 3b 3b
       -0.00091271463 0.020462627 -0.021817122 0.002864651
0000e0 96 8c 29 3d 1d 89 eb bb 64 56 b8 3c c5 53 80 3c
       0.04139384 -0.007187976 0.022502132 0.015664944
0000f0 a3 92 8b 3c 56 2f 7a 3c 55 3e f3 3d 54 b5 04 bc
       0.017037695 0.015270075 0.11877123 -0.008099873

weight f4 [64, 64]
000000 6a 53 5c bd 65 b0 f1 3d 0e f1 aa 3d 8d 61 8c 3d
       -0.053790487 0.11801223 0.08346759 0.06854544
000010 f1 f1 0e be e8 87 c4 3d 1b a6 c4 3d 7f c6 a9 3d
       -0.13959481 0.095962346 0.096019946 0.08289813
000020 b1 b2 02 be ad e0 b1 bc b8 1a 42 3d 3a 4f bf 3d
       -0.12763478 -0.02171358 0.047388762 0.09341283
000030 60 ce ab 3d 98 7f 7c 3d 6b 48 b5 bd cd dd 05 be
       0.08388972 0.06164512 -0.08851703 -0.13072892
000040 af 92 94 bd 27 e3 36 3c fe 1c ec 3d 8d e2 33 bd
       -0.0725454 0.011162556 0.11528967 -0.043917228
000050 fb 59 bc bd 85 ea be 38 41 ef 4e 3d 5b 3c fa 3d
       -0.0919685 9.103589e-05 0.05052114 0.12218543
000060 79 38 80 bc 98 51 71 3d 8f 5c a6 bd c4 af f6 3c
       -0.015651928 0.058915704 -0.08123123 0.030113108
000070 ea 20 b2 3d ea 5b a6 bd c9 71 fc 3b 0d 0a 95 bd
       0.08697684 -0.08123 0.007703994 -0.07277308
000080 30 a7 8f 3c 61 a2 e2 bc d5 c1 1d bc dc a3 1a 3e
       0.017535776 -0.027665319 -0.009628733 0.1510157
000090 b7 47 49 bc 52 11 90 3d 07 12 ef 3d 8c 79 ab bd
       -0.012285165 0.070345536 0.1167336 -0.083727926
0000a0 05 9c 93 bd 6f 12 bb bd ba 4e 78 3d 08 66 b9 bb
       -0.07207493 -0.09134375 0.060621955 -0.005657915
0000b0 ff f0 3a bd 9f c4 92 bd 0a 3e ab bc 17 d2 fc 3d
       -0.045639988 -0.07166409 -0.020903606 0.12344759
0000c0 53 68 01 3e f1 1e ab 3d 3f dc db 3d 8f ab ad bd
       0.12637453 0.08355511 0.10735368 -0.08479988
0000d0 df bf 08 be 3a 9d 62 3d 71 26 e0 bc 9d 93 51 bd
       -0.13354443 0.055325724 -0.02736208 -0.051166166
0000e0 44 67 46 3c 5c 06 91 bd 52 b1 fc 3d 99 10 a1 3c
       0.012109581 -0.07081291 0.12338509 0.019661235
0000f0 11 fd e5 bc e8 df 79 bb c0 44 34 3d 93 12 ae bd
       -0.028074773 -0.0038127843 0.044010878 -0.084996365
000100 77 e3 cd bc 23 43 08 3e e2 e4 ff 3c ca c5 cc 3c
       -0.025132878 0.1330686 0.03123707 0.024996657
000110 1a 08 bb bc 82 60 a0 3b 4e 1c 39 3d d9 25 e1 3d
       -0.022831012 0.004894317 0.04519301 0.10993547
000120 5f 2d ef ba 2d 8b f4 bc f8 52 c6 bd 74 e4 0d 3e
       -0.0018247775 -0.02985152 -0.09683794 0.13856679
000130 7b ec 6d bd a1 73 98 3d a5 dc bf bd 49 0b 3d bd
       -0.058086853 0.074439295 -0.093682565 -0.04615334
000140 f5 85 44 bb 0e 33 c1 bc 23 74 65 bd 6b fd 8f bd
       -0.0029987071 -0.023583915 -0.05601896 -0.070307575
000150 df 44 26 bd d9 74 51 3d cc d0 80 3d 43 68 68 bd
       -0.040593024 0.051136825 0.06289825 -0.056740057
000160 dc 8a cc bd ab c0 ae bd 4e 73 24 3e 3b 81 8a 3d
       -0.09987423 -0.08532842 0.1605961 0.0676293
000170 28 45 01 bd a5 16 86 3d 70 25 39 3d f9 31 36 bd
       -0.031560093 0.06547288 0.04520172 -0.04448125
000180 39 1c 03 3e d7 46 ad bd d3 36 22 3e 63 35 ec bd
       0.12803735 -0.08460777 0.15841226 -0.1153362
000190 58 c9 b2 3c 4b bb 94 bd 16 d8 44 3d d5 95 e5 bd
       0.021824524 -0.07262286 0.048057638 -0.11210219
0001a0 1d 4c 26 3d ba 43 4b 3e 79 fc 05 3d 54 cf b2 3d
       0.04059993 0.19850054 0.03271148 0.08730951
0001b0 3c 61 ea 3c af 44 ae 3d e1 57 a2 bc 5b bf 66 3d
       0.028610818 0.08509194 -0.019817295 0.056334835
0001c0 5c 19 b2 3c bc 27 9d 3d 6a 2b a9 bd 12 e6 de 3d
       0.021740608 0.07673594 -0.08260234 0.10883726
0001d0 2e a3 b5 3d 5d 8c d2 3c f1 2a 00 bd 63 6d db bc
       0.08869015 0.025701696 -0.031290952 -0.026785558
0001e0 39 bb 94 bd a6 6f dc bd 29 ef 53 bc cf f7 69 bd
       -0.072622724 -0.10763483 -0.012935438 -0.057121094
0001f0 f8 7d bd 3d fb 6e c0 bd 26 0d a8 3d 84 16 f0 bd
       0.09252542 -0.09396168 0.08205633 -0.117230445
000200 89 2d 11 3e b3 61 82 bb b1 38 65 3d ce ae 50 bd
       0.14177527 -0.003978932 0.05596227 -0.050947957
000210 8f 91 22 bd fb 01 bb 3d 22 ea a4 bc 58 f4 a2 bc
       -0.039689597 0.09131237 -0.020131174 -0.019891903
000220 ed a9 0a 3d 9b 04 d2 3c 1a af 64 3d e7 90 fd 3d
       0.03385346 0.025636962 0.055831052 0.123811536
000230 2e c5 f1 bd 72 c8 70 bd f0 d7 b9 bd fa 03 08 3e
       -0.11805187 -0.05878491 -0.0907439 0.13282767
000240 52 48 9c 3d cb de 02 be a3 d1 ba bd e8 09 cd bd
       0.076309815 -0.12780301 -0.09122016 -0.10011655
000250 6f 06 e9 3d 28 ce e2 ba 1e ba c3 bc f7 01 37 3d
       0.1137818 -0.0017303871 -0.023892459 0.04467961
000260 58 97 fc 3d e3 a3 d0 bb c5 2d be bb 9f 2f cc bd
       0.12333554 -0.006367193 -0.005803796 -0.099700205
000270 b1 3a 9d 3d 22 70 fe bd 72 3f 99 bd ea 7e 74 bd
       0.0767721 -0.124237314 -0.07482804 -0.059691347
000280 dc 30 3e 3c a1 9c d3 bd 26 e4 a0 3d 6e 48 26 3d
       0.011608329 -0.10332609 0.07856016 0.040596418
000290 47 5d 42 bc 48 19 8e 3b fe ed d4 3d 0e f6 c3 bd
       -0.011863059 0.00433651 0.10396956 -0.095684156
0002a0 91 d1 0d 3e 28 2f 08 3e 85 53 ed bd 04 bf 57 bd
       0.13849474 0.13299239 -0.11588196 -0.0526724
0002b0 4f 50 dc 3d a9 64 6f 3d 96 f1 95 3d fb 4e 8c 3d
       0.10757505 0.058445606 0.073214695 0.06851002
0002c0 ea 2c ab bd 8e a5 93 bd 4e a7 f0 bd 73 73 e0 bb
       -0.08358176 -0.072093114 -0.11750661 -0.0068497
0002d0 60 31 b3 3d 4a 0f 8d 3d 02 85 83 bd 84 9f 9d 3d
       0.08749652 0.06887682 -0.064218536 0.07696441
0002e0 0a 74 54 3c 32 fc a7 3d d1 57 e1 bd d8 9d 81 3d
       0.012967119 0.08202399 -0.11003078 0.063289344
0002f0 1b f3 00 bd 88 2b 13 be 49 73 6c 3d 8e 9d 18 bd
       -0.031481843 -0.14372075 0.057727132 -0.03725963
000300 eb c1 aa bd a4 09 0d be 93 5b d1 3d 82 e3 8e bb
       -0.08337768 -0.13773209 0.102225445 -0.004360617
000310 de d5 d8 bc 2c ae 9f 3b 8d ed 34 3d 2f 19 bf bd
       -0.026469167 0.004873058 0.04417186 -0.09330975
000320 7d cc 52 bc f9 f4 fc 3c 02 24 76 3c f2 ed ae 3c
       -0.012866137 0.03087853 0.015023233 0.021353696
000330 07 2a c0 bb bd 4b a4 3d 68 42 68 bd 2a 2d 82 bd
       -0.005864385 0.080222584 -0.056703955 -0.063562706
000340 7f 09 69 bd 27 2a eb bd 1c 76 dd bc c4 0c 3b 3d
       -0.05689382 -0.11482649 -0.027033858 0.04566647
000350 d8 94 ac 3c eb 94 92 3a ea d8 01 3d e4 7d fa 3c
       0.021067068 0.0011183297 0.031701006 0.030577607
000360 d7 9a 35 bd 77 be 08 3d 97 7f 85 3d 9d 25 95 bd
       -0.04433712 0.033384766 0.065184765 -0.07282565
000370 26 93 52 3d 32 54 14 3e f1 ee b3 3d 53 e0 81 bd
       0.051409863 0.14485243 0.08785809 -0.063416146
000380 93 6e 25 3d 53 9f 47 3e 76 0d 23 bd 44 c9 07 3e
       0.040388655 0.19494371 -0.03980776 0.1326037
000390 3d 87 a2 3d 87 6b f1 bd e9 fc d1 3d 39 fd fe 3d
       0.07935951 -0.11788087 0.10253317 0.12450642
0003a0 89 e3 a0 bd 99 6b 52 be 87 c3 d3 bd dd 82 d7 bd
       -0.07855899 -0.20548858 -0.10340028 -0.10523007
0003b0 bf 9a 07 3e a0 cf 3f bc e6 7a fb 3d 58 2a c3 3d
       0.13242625 -0.0117072165 0.122793004 0.09529561
0003c0 e0 4f 2f bd 3f c9 d8 bb b9 57 95 3d 0e e2 cd bc
       -0.042800784 -0.0066157873 0.072921224 -0.025132205
0003d0 5e 4e 4a bd 4c b3 e3 bb c8 b2 e8 3d ab 6b 5b bd
       -0.049391143 -0.006948864 0.11362225 -0.053569477
0003e0 78 ea 34 bd 4a 58 cc 3d 0e b2 89 bb e7 08 16 3d
       -0.04416892 0.09977777 -0.004202134 0.036629584
0003f0 1c a1 0d bb cf 94 d9 3d ad 49 b8 3b 0d 1d 9c bd
       -0.0021610921 0.10624086 0.005624017 -0.076227285

bias f4 [64]
000000 42 03 6b 3d 6e 42 32 3d b1 a7 35 bd 4e 50 c6 3c
       0.057376154 0.043520384 -0.044349376 0.024208214
000010 d4 c7 0c bd 91 5d 26 be 29 8f a0 bd 98 30 02 be
       -0.03437026 -0.1624663 -0.07839806 -0.1271385
000020 91 62 5d 3d aa bb 39 bc da 64 e2 bb 7f 16 6a 3d
       0.05404908 -0.0113362465 -0.006908995 0.05715036
000030 ae d2 b1 3d 95 16 26 bc 31 eb f3 bb 81 55 48 bd
       0.08682762 -0.01013722 -0.0074438085 -0.048909668
000040 b9 cf da bc a1 0c 34 bd da fc b3 3d 8b 2b dd 3d
       -0.026710378 -0.043957356 0.08788462 0.10799321
000050 4e d4 9e 3d fe 4c b2 3d fb fc 53 3d a8 8e 5d 3d
       0.07755338 0.08706091 0.051754933 0.054091126
000060 f5 80 9b 3d 18 bd 35 bd 3b 4d 5f 3d b9 e2 52 bd
       0.07592956 -0.044369787 0.054517012 -0.05148575
000070 7b 3b 01 bc 23 ff 67 bd e4 ed c1 bd 35 4d 38 bd
       -0.007887716 -0.0566398 -0.09469202 -0.044995505
000080 8b 20 13 be 85 4e d3 bd 26 9e 15 be a1 d0 07 be
       -0.14367883 -0.10317711 -0.1461111 -0.1326318
000090 01 44 13 be 48 c3 45 bd 87 17 a9 bd 11 21 63 bd
       -0.1438141 -0.048281938 -0.082564406 -0.055451456
0000a0 30 14 96 3d 23 32 de bd 38 0f 5e bd 9c a7 ab bd
       0.07328069 -0.108494066 -0.054213732 -0.08381578
0000b0 0e 7e 6b bd e6 39 31 bd a8 09 54 3c 4d 7d 13 3d
       -0.057493262 -0.043268107 0.012941755 0.036008168
0000c0 b6 48 14 be 0a cf 4d 3d c7 5c 05 be 89 d7 ae bd
       -0.14480862 0.050246276 -0.13023673 -0.08537204
0000d0 e8 09 47 3d 92 82 33 bc 38 fa 45 3a 36 b2 bb bd
       0.04859343 -0.010956423 0.0007552239 -0.091648504
0000e0 3b 76 56 3d f3 0f 20 bb f3 dc 87 3d 45 6f 89 3d
       0.052358847 -0.002442357 0.066339396 0.06710676
0000f0 14 6e ae 3c f0 33 cc bd 78 66 06 3d 7f 90 c5 bd
       0.021292724 -0.09970844 0.032812566 -0.09646701

weight f4 [64]
000000 0f ef 96 3f 36 a6 80 3f 5b 25 82 3f 62 55 84 3f
       1.1791705 1.0050724 1.016765 1.0338557
000010 5d bd 7e 3f 58 af 82 3f 1b 10 84 3f f4 4d 8f 3f
       0.99507695 1.0209761 1.0317415 1.1195664
000020 13 0a 8b 3f 68 7e 7e 3f 20 a1 7a 3f 2b 16 81 3f
       1.086245 0.9941163 0.9790211 1.008489
000030 d8 de 90 3f 29 a1 8a 3f 46 8d 7d 3f 01 ba 89 3f
       1.1318007 1.0830432 0.9904369 1.0759889
000040 6e 29 8e 3f f7 fa 81 3f 30 65 85 3f 59 5e 8c 3f
       1.1106393 1.0154713 1.0421505 1.0966293
000050 6b 6f 8b 3f 0c ac 85 3f 3e a4 8d 3f 82 d3 86 3f
       1.0893377 1.044313 1.1065748 1.0533297
000060 2e 97 76 3f 47 56 90 3f 86 95 86 3f 14 0a 80 3f
       0.9632443 1.127633 1.0514381 1.0003076
000070 a2 2a 83 3f 50 21 86 3f 8b e2 84 3f de 4d 80 3f
       1.0247386 1.0478916 1.0381635 1.0023763
000080 b3 5a 82 3f da 2e 7f 3f 7e 87 7f 3f 7e e6 8b 3f
       1.0183929 0.99680865 0.9981612 1.0929716
000090 4b 3b 83 3f af c6 91 3f e6 0d 6e 3f 23 73 84 3f
       1.025247 1.1388758 0.9298996 1.0347637
0000a0 52 c2 8b 3f 91 b9 7d 3f c0 90 85 3f 24 d7 8c 3f
       1.0918677 0.99111277 1.0434799 1.1003156
0000b0 cc fd 80 3f fa 78 84 3f 21 0e 83 3f f3 d1 88 3f
       1.0077453 1.0349419 1.0238687 1.0689071
0000c0 67 ce 89 3f 0b fd 95 3f 17 30 81 3f 03 cc 8e 3f
       1.0766114 1.1717848 1.0092801 1.115601
0000d0 71 d8 79 3f 48 61 81 3f e6 74 82 3f 24 55 78 3f
       0.9759589 1.0107813 1.0191925 0.97004914
0000e0 17 1b 8a 3f f0 2c 77 3f 2d b4 8d 3f 5b fd 83 3f
       1.0789517 0.96552944 1.107061 1.0311693
0000f0 cf 5e 80 3f d8 11 8f 3f 65 9a 87 3f 7b 3d 82 3f
       1.0028933 1.117732 1.0593992 1.0175012

bias f4 [64]
000000 9d 85 92 3c b9 76 28 bb e0 2b 02 3d d5 25 1c bb
       0.017885977 -0.002570553 0.031780124 -0.002382626
000010 de e9 00 3b 90 2d 0f 3a 86 08 c3 ba 68 83 ef ba
       0.0019670646 0.00054618064 -0.001487986 -0.0018273415
000020 9f 56 f1 b9 37 19 d0 3a 10 da 4b bb 74 ae 57 bb
       -0.0004603164 0.0015876655 -0.0031105317 -0.0032910379
000030 09 7b 09 bb b2 10 4d bc 0a 54 80 bb 22 22 50 bc
       -0.0020977876 -0.0125161875 -0.0039162682 -0.01270345
000040 e7 0d 8f b9 c4 72 3d bb 1f 3d 98 bb c0 cc 1e 3b
       -0.00027285444 -0.0028907517 -0.004645958 0.0024230927
000050 4a 14 5a 3b d4 31 d3 3a 74 d7 1a bb b8 a2 43 bb
       0.0033276253 0.0016112872 -0.0023626955 -0.0029851627
000060 3c 43 7a 3a 5a f2 1e 39 3c 0b a4 3a 81 73 0d bb
       0.0009546762 0.00015158337 0.0012515555 -0.0021583738
000070 b7 a3 3b 39 b5 5a a6 3b 39 94 1b 3b e1 cf ca ba
       0.00017894698 0.005076731 0.002373947 -0.001547333
000080 d0 8f 9b 3a 9a 87 06 bb 2d d8 78 3b f5 7e 09 3c
       0.0011868421 -0.0020527602 0.0037970648 0.008392085
000090 6c 3a 8a bb 36 df cc bb 1d 7f 94 3d da c5 9c 3a
       -0.00421839 -0.0062521948 0.072508074 0.001196082
0000a0 54 fe 32 3b 5e 7a d7 ba c0 97 1e 3b 0c ad 49 3b
       0.0027312236 -0.0016439667 0.0024199337 0.003077331
0000b0 15 32 72 3c 05 6f ac 3a 92 4a cd b9 dd 4e 3e 3b
       0.014782448 0.0013155645 -0.00039156206 0.0029038705
0000c0 e5 3d 7f 3b fa a3 4f 3c 66 7c eb b9 c0 7f 89 38
       0.0038946804 0.012673372 -0.00044915377 6.556464e-05
0000d0 f7 ba 96 bb 98 7e 12 bc c3 5e 53 3b 96 f1 13 3b
       -0.0045999247 -0.008941315 0.0032252527 0.0022574416
0000e0 e1 33 be 3b 6a 88 3d 3b ba f6 d4 3b 52 df 8c bb
       0.0058045243 0.002892042 0.0064991387 -0.004299083
0000f0 64 9a c6 39 4f df 99 3b 5b cb 09 bb b7 25 0f bb
       0.00037880533 0.00469581 -0.002102575 -0.0021842548

weight f4 [1, 64]
000000 b8 bf e5 bd ab 09 d0 bc 20 99 16 bd bc 8e e4 3d
       -0.11218208 -0.025395235 -0.036767125 0.11160037
000010 05 a9 d9 bd 96 dd 79 bd 8c f6 ae 3d f8 71 33 3e
       -0.10627941 -0.061002336 0.08543119 0.17523944
000020 66 85 cd 3d 3d 05 c6 bd e7 1a 81 3c 20 22 7a 3d
       0.10035209 -0.09668968 0.015759898 0.0610677
000030 e4 27 28 3e 27 28 83 3d 67 a4 58 3d 5d b4 8b 3d
       0.16421467 0.06404143 0.05289116 0.06821511
000040 67 86 c1 3d 8e 8f b8 3d db da 94 3d b9 d7 55 be
       0.09449463 0.09011756 0.07268306 -0.20883073
000050 8d b6 a0 3d c5 78 f3 bd 42 89 1b 3e b6 30 c5 3d
       0.07847319 -0.11888269 0.15189078 0.096284315
000060 b4 d2 c7 bc 54 b7 1d 3e 38 b8 df bd a7 45 d8 3d
       -0.024392463 0.15401965 -0.10923809 0.1056016
000070 15 c9 60 bd a1 ee de bd 72 de 15 be 2d f2 ba 3d
       -0.054879267 -0.108853586 -0.14635637 0.091282226
000080 69 93 10 be f1 98 85 3d 26 61 b3 bd ef 47 d4 bd
       -0.14118733 0.06523312 -0.08758764 -0.10365283
000090 11 38 64 3d 3b ba a4 3d 66 29 3c 3b 2e 26 01 be
       0.05571753 0.08043333 0.0028711199 -0.1261222
0000a0 67 ea f2 bd 63 62 f6 3c 37 ee b9 bd ee eb 50 be
       -0.11861115 0.030076211 -0.09078639 -0.204025
0000b0 73 be 06 bd 96 24 6d bd 62 70 bd 3d 3f 60 0e be
       -0.03289647 -0.05789622 0.09249951 -0.13903902
0000c0 21 99 3f be 65 1d c7 bd 82 2c e9 3d 5d ab fc 3d
       -0.18710758 -0.097224034 0.11385442 0.123373725
0000d0 69 10 79 bb dc 31 00 3d d9 47 c8 bd d9 fd 62 bc
       -0.0038004166 0.03129755 -0.09779329 -0.013854467
0000e0 eb 03 a4 bd 12 2a 8d bd 4b 87 7f 3d 35 3c 7f 3d
       -0.0800856 -0.0689279 0.062384885 0.062313277
0000f0 1e d6 4e bd 17 5a 15 be dd cc 0e 3e 44 42 cf 3d
       -0.050497167 -0.14585148 0.13945337 0.10120061

exp_avg f4 [64, 3]
000000 04 00 00 00 04 00 00 00 04 00 00 00 fc 51 83 b8
       6e-45 6e-45 6e-45 -6.2618376e-05
000010 00 41 ac 3a 4a 5b 8d bb 92 5d 90 3a f5 d9 e9 3a
       0.001314193 -0.004313861 0.0011014214 0.0017841446
000020 0f 70 83 bb 04 d8 57 b8 88 6d 11 3a 71 17 5a bb
       -0.004011161 -5.1461175e-05 0.00055476325 -0.0033278132
000030 dd 4a 39 39 df 61 2a ba 10 cd 2b bb f9 17 fa b9
       0.00017670864 -0.0006499569 -0.0026214756 -0.00047701577
000040 b1 c2 d3 b9 08 e3 d2 3a 1a 43 97 37 ac 32 69 b8
       -0.00040390113 0.0016089389 1.803185e-05 -5.559872e-05
000050 e8 6b 0f ba d3 c5 e7 38 63 38 03 39 f4 6d f4 ba
       -0.00054710964 0.00011051786 0.00012514139 -0.0018648491
000060 dc 78 1e ba c8 fa 03 3a 7b 0f 07 3a 82 d1 f6 3b
       -0.0006045231 0.0005034623 0.0005152148 0.0075322995
000070 54 d1 4c 3b 42 31 23 bc 0c 32 ce b9 f5 c7 8c b9
       0.00312527 -0.009960474 -0.0003932867 -0.0002685186
000080 52 ce 55 3a e6 b5 af b8 f7 53 bb b9 0d b7 81 ba
       0.00081560493 -8.3785315e-05 -0.00035729978 -0.0009896472
000090 88 8e 36 ba 8d b6 87 b9 f0 c9 2c 3a f0 f7 de b9
       -0.0006963988 -0.00025885217 0.00065913703 -0.00042527867
0000a0 63 16 40 ba 9f a6 13 bb 3d 49 f0 ba 75 f7 8d ba
       -0.00073275546 -0.0022529734 -0.0018332374 -0.0010831194
0000b0 cf 24 28 3b ef 1e 84 ba 27 5f 46 ba 6f 3d df 3a
       0.0025656705 -0.001008002 -0.00075672794 0.0017031858
0000c0 02 ce bd 3b a7 21 1c 3b e3 ae 22 bc 24 34 c4 ba
       0.0057923803 0.002382377 -0.009929392 -0.0014969152
0000d0 00 4a 21 ba 2d 5e 00 3b e4 7a fd b9 e7 a6 e4 b9
       -0.00061526895 0.0019587383 -0.0004834748 -0.000436119
0000e0 7d e9 67 3a a6 2c a6 b9 20 d4 99 ba 59 0f b9 b9
       0.0008846743 -0.00031695253 -0.0011736192 -0.00035297385
0000f0 fc b6 01 39 77 60 19 3a 47 5f 8f 3a ce 6a f6 b8
       0.00012370566 0.0005850861 0.0010938429 -0.00011750088
000100 8f 7a 4b 37 96 be b9 3a 83 fb e1 3a ea 93 82 3a
       1.2128278e-05 0.0014171179 0.0017241094 0.0009962295
000110 8b 52 55 ba 94 91 2c b8 a5 53 23 b9 8e 05 25 ba
       -0.0008137605 -4.1143576e-05 -0.00015576051 -0.0006295078
000120 80 90 a3 ba fa 44 84 ba 07 f6 84 3b 09 27 e9 b6
       -0.0012478977 -0.0010091357 0.004057649 -6.9484854e-06
000130 b0 c4 03 b7 cd 8f 3f b8 bf 51 3d 3b f5 4f 08 3b
       -7.854003e-06 -4.5671874e-05 0.0028887836 0.0020799611
000140 76 b0 95 3a 97 5a 2e ba 74 cb 7f ba da 5e 3b 3b
       0.0011420387 -0.0006651072 -0.0009757795 0.0028590471
000150 06 2b b0 3b 59 1c 32 3b 72 b6 e5 bb 12 62 a1 bb
       0.0053762225 0.002717754 -0.0070102746 -0.004925021
000160 08 d3 cf ba fe d2 85 3b be c9 3f bb 99 73 6c ba
       -0.0015855739 0.00408399 -0.0029264535 -0.0009019911
000170 73 ac dc 3a 9f 63 0d b6 11 70 bb b7 c2 d2 9e 38
       0.0016836062 -2.1068624e-06 -2.2344322e-05 7.573284e-05
000180 b0 80 77 b9 09 e1 83 b9 9c 7e d7 39 4c 3c a0 bb
       -0.00023603695 -0.0002515393 0.00041102327 -0.0048900004
000190 21 db 4d bb 74 0c 9b 3b af 60 45 3b cf ee 1a 3b
       -0.0031411129 0.004731709 0.0030117442 0.0023640876
0001a0 0c dc 8d bb 22 b1 4d 39 da 7d 18 ba 31 72 6f ba
       -0.00432921 0.0001961631 -0.0005817093 -0.00091341423
0001b0 41 d8 cf b9 03 25 96 b9 16 0d 9b 3a 49 0a b2 ba
       -0.00039643238 -0.00028637805 0.0011829461 -0.0013583387
0001c0 e3 e2 d9 b9 2a 18 a6 3a 7f 3d a1 39 8e 9a d6 39
       -0.0004155851 0.0012671996 0.0003075413 0.00040932413
0001d0 e7 d3 aa ba d6 a2 a4 b9 45 f9 d4 b9 13 53 7a ba
       -0.0013033123 -0.0003140184 -0.0004062151 -0.0009549122
0001e0 14 1d 82 3a 0f d3 29 3a 49 d0 07 ba c9 24 9f 3a
       0.0009926879 0.00064782886 -0.0005180878 0.00121417
0001f0 7b dd 3c 3b d7 88 e1 ba 96 84 ef 37 b7 9b 0b 3a
       0.0028818536 -0.0017206919 2.855276e-05 0.00053256325
000200 71 0b b2 ba e6 b7 9a 3a 88 94 76 b3 71 dc f3 39
       -0.0013583732 0.0011804074 -5.7411427e-08 0.00046512813
000210 24 be 50 3b e4 6c 46 3a aa c3 26 bb d5 79 92 38
       0.0031851614 0.00075693266 -0.0025446215 6.9845155e-05
000220 9b 42 7d b9 97 9a 90 ba ca 1c e5 ba 56 99 93 ba
       -0.00024152773 -0.00110324 -0.0017479893 -0.0011260908
000230 fb 32 59 3b 12 e7 59 ba 82 49 1a b9 8b e9 a3 b8
       0.003314196 -0.0008312325 -0.00014713968 -7.8159464e-05
000240 c0 24 94 b8 91 35 b4 39 a7 48 d9 ba b7 57 b9 b9
       -7.064035e-05 0.00034372185 -0.0016577438 -0.00035351302
000250 c3 d3 b5 39 37 b2 ce ba a8 6a e5 b9 e4 aa 55 ba
       0.00034680785 -0.0015769665 -0.0004375775 -0.000815077
000260 92 f9 72 b9 c6 67 90 3b fc 78 1c 3b 36 18 14 bb
       -0.0002317189 0.004406902 0.0023875823 -0.0022597439
000270 2a 54 9e 3a 2f a7 fc 39 e7 5b 4a ba 2d 70 5c 3b
       0.0012079526 0.00048189747 -0.0007719383 0.0033636198
000280 b2 06 f7 3a fb 34 a2 bb 02 66 e5 ba c8 59 fb b8
       0.00188466 -0.0049501634 -0.0017501714 -0.00011985336
000290 85 f8 08 39 14 1f 2f bb 96 49 83 ba 50 2b 39 3b
       0.00013062551 -0.0026721405 -0.0010016437 0.0028254576
0002a0 a5 72 fc 3a 35 b7 c0 3a 28 bf c7 ba 3a cb b7 3a
       0.0019260241 0.0014703037 -0.0015239464 0.0014022358
0002b0 6c 4a 28 3a 16 0a d3 ba e7 3e b1 38 d9 63 8f 3a
       0.0006419781 -0.0016101028 8.451734e-05 0.0010939791
0002c0 c4 3a 3f bb 88 88 83 b9 25 f1 83 3a b5 11 8b b9
       -0.0029179314 -0.0002508799 0.0010066374 -0.0002652534
0002d0 3f 64 d0 b9 1f 24 42 ba e0 5d d6 ba 9b 21 7e bb
       -0.0003974754 -0.0007405895 -0.0016354881 -0.0038777355
0002e0 7b 6d 6a bb bd da a4 3b b6 9e d9 b9 c7 97 76 ba
       -0.0035770822 0.0050309584 -0.00041507714 -0.0009406772
0002f0 59 ef 9f ba ba eb 20 bb e1 b3 8b ba 1c 1f 4d 3b
       -0.0012202068 -0.0024554566 -0.0010658466 0.003129906

exp_avg_sq f4 [64, 3]
000000 73 59 af 30 e4 dd bd 31 39 b5 14 34 93 25 63 3a
       1.2758349e-09 5.52585e-09 1.3849503e-07 0.0008664962
000010 bd 3e 87 3a a3 7e bd 3c 50 68 59 3a 56 08 60 3a
       0.001031838 0.023131674 0.0008293437 0.0008546164
000020 f7 dc fa 3c 9a 26 20 38 fa ec aa 38 95 c5 00 3b
       0.030622942 3.8182923e-05 8.150372e-05 0.0019649018
000030 b6 ee b0 38 dc c2 9a 38 41 f8 2c 3b c9 da 5d 38
       8.436797e-05 7.3795876e-05 0.0026393088 5.2894266e-05
000040 f9 09 dc 38 9c 45 3e 3b 12 73 32 37 8f c2 9b 36
       0.00010492275 0.002903319 1.0636419e-05 4.6420096e-06
000050 0b 1f da 38 56 f1 9a 39 fc 67 0a 38 96 24 8e 3a
       0.00010400832 0.00029552978 3.2998607e-05 0.0010844644
000060 dd 42 54 39 e8 4e 2c 38 63 d7 60 3a 90 94 4b 3d
       0.00020242804 4.1081483e-05 0.0008577017 0.049702227
000070 ee b2 22 3b 7b f6 97 3d d1 41 3a 3b e7 82 08 39
       0.0024825889 0.07420059 0.0028420577 0.00013018736
000080 49 99 2e 3b c6 d3 99 35 bd 97 2f 36 85 82 cd 38
       0.0026641658 1.1461022e-06 2.6165355e-06 9.799473e-05
000090 ee e6 58 3c 00 a1 5e 39 78 41 9b 3b 72 e4 62 37
       0.013238652 0.00021231547 0.004738029 1.3523839e-05
0000a0 42 49 88 37 d2 8d 7d 3a 09 2a 4c 3a 92 2f de 38
       1.6246577e-05 0.0009672317 0.0007788246 0.000105946456
0000b0 fa 2c 6c 3b dc f7 80 39 87 8b 3a 38 b5 73 e1 3a
       0.003603755 0.00024598732 4.44758e-05 0.0017200621
0000c0 77 cd 1b 3d 63 8e c8 3a e8 7b 0b 3d 58 73 05 3b
       0.038037743 0.0015301224 0.034053713 0.002036294
0000d0 8b a2 42 38 d5 ba 6c 3a cc fc 51 3a b7 b8 48 37
       4.6404584e-05 0.00090305257 0.0008010387 1.1963936e-05
0000e0 71 2d bc 39 80 f4 81 37 24 29 82 38 23 8e 3f 3b
       0.0003589201 1.5491853e-05 6.206546e-05 0.0029229007
0000f0 43 3f a0 3a dc c5 1c 38 3f f4 9a 3a a3 37 2a 3a
       0.0012225885 3.737757e-05 0.0011822059 0.0006493276
000100 1f a4 d1 38 e8 d3 31 3b f0 dc 86 3b 0b 47 f8 37
       9.9964665e-05 0.0027134363 0.0041156933 2.9596986e-05
000110 b2 ff 3d 3a 49 97 80 34 ea 6a 63 35 fd 49 e7 37
       0.00072478794 2.3951932e-07 8.471967e-07 2.75718e-05
000120 8d 65 b7 3b aa 39 f3 39 0b b6 3b 3c 24 0d d6 36
       0.0055968226 0.00046391535 0.011456977 6.3792268e-06
000130 3a 29 ee 34 54 fd b0 37 2f b1 bb 3c 55 be 9a 39
       4.436095e-07 2.10988e-05 0.022911636 0.00029514977
000140 2e da d8 3b dc 8d 20 3b 52 82 ae 38 fa 77 17 3b
       0.006617806 0.0024498617 8.3212406e-05 0.0023112283
000150 f5 94 02 3d 23 7c 5d 3a d0 f4 cd 3c ff 24 a5 3c
       0.031880338 0.0008448979 0.02514115 0.020159243
000160 ba 4c ff 39 91 ca 5f 3c 6b a8 5a 3c e2 24 44 39
       0.00048694556 0.013659135 0.013345818 0.00018705757
000170 c8 27 8e 3b c7 b3 b7 34 41 bd 17 34 d2 13 ac 37
       0.0043382384 3.4217211e-07 1.4131821e-07 2.0513227e-05
000180 e2 81 e3 3a 19 1d d4 37 d2 f3 1b 3a 21 92 25 3d
       0.0017357434 2.5285919e-05 0.0005949113 0.040422563
000190 0e f7 ce 3a 3b 03 1c 3d 3f 19 a8 3c 1b 6b 94 3a
       0.0015790181 0.03808902 0.02051985 0.0011323424
0001a0 60 9a de 3c 2b fa 25 3a 1c 10 60 3a 34 11 d3 3c
       0.027173221 0.00063315284 0.00085473224 0.025765039
0001b0 6a 6f 11 3b 7f 09 6d 39 17 9e a6 3b fe 30 81 3a
       0.0022191652 0.00022605619 0.0050847637 0.000985652
0001c0 9f 8e 7d 37 8f 07 c2 39 70 c8 5f 38 76 04 8c 38
       1.5113182e-05 0.00037008195 5.3354015e-05 6.676551e-05
0001d0 9f 2c 3f 3b 0e 84 78 37 bb a7 6d 37 98 7e 15 3a
       0.0029170883 1.4812698e-05 1.4165354e-05 0.0005702763
0001e0 97 d2 f5 3a 21 69 94 38 0e 54 0b 3b a5 1b 89 3c
       0.0018754777 7.076772e-05 0.0021259817 0.016736815
0001f0 72 1d 80 3a 5e a2 c6 3c ad bb 70 3a 32 b7 bb 37
       0.00097744 0.024247345 0.00091832393 2.2377444e-05
000200 a0 59 23 3a 1b 79 58 38 7b 96 d1 36 65 8e 10 39
       0.00062313117 5.16112e-05 6.2462036e-06 0.00013785956
000210 71 55 88 3c b1 e2 ea 39 a2 a4 0e 3c 28 e7 7f 37
       0.016642304 0.00044800856 0.008706244 1.5253005e-05
000220 ec 03 af 37 62 e0 5d 3a 49 9a ee 3b e6 fc a6 39
       2.0863452e-05 0.00084639166 0.007281576 0.0003185041
000230 ec 69 15 3c e7 c4 e5 3a 6c 81 04 37 76 22 90 39
       0.009119492 0.0017529995 7.8979465e-06 0.00027491496
000240 54 8e 28 37 b6 09 e0 37 4a 91 82 3a 2f d2 a5 39
       1.0046719e-05 2.6707403e-05 0.0009961512 0.0003162785
000250 7f b7 90 39 35 a3 bc 3b 50 04 91 37 ed a2 27 38
       0.00027602536 0.0057567605 1.7287355e-05 3.996764e-05
000260 ce 9d e5 3a 07 e5 10 3d 60 cb a6 3a a9 8f f2 3c
       0.0017518343 0.035374667 0.0012725405 0.029609518
000270 ee dd 3d 3b 0e 4d b8 37 ad cd 5d 3a c8 7f 9c 3c
       0.0028971392 2.197039e-05 0.0008461129 0.0191039
000280 96 83 ab 3a e4 52 f3 3c c4 b5 a5 3b 65 68 1a 38
       0.001308548 0.029702611 0.0050570685 3.6813686e-05
000290 a8 d2 4f 3a 04 e7 88 3b 20 70 28 39 74 6d 98 3b
       0.00079278136 0.00417793 0.00016063498 0.0046517197
0002a0 60 c7 8c 3c 6e 04 18 3a 77 0a 4f 3c 95 0c e4 3b
       0.017184913 0.0005799 0.012636772 0.0069595077
0002b0 25 29 e0 38 67 43 0b 3b de 15 62 38 db 9d 7c 39
       0.00010688816 0.0021249892 5.3902964e-05 0.00024091399
0002c0 b1 04 14 3c 40 07 91 38 f6 79 b1 38 ac dc 09 3b
       0.009034322 6.915489e-05 8.462735e-05 0.0021036072
0002d0 56 4e 5b 39 21 ac a9 39 f0 c9 2c 3c 00 c1 4f 3d
       0.0002091465 0.00032362438 0.0105461925 0.05072117
0002e0 29 f7 26 3b c3 24 7e 3d 60 e4 02 36 54 5b e4 36
       0.0025476909 0.062046777 1.9504441e-06 6.8055615e-06
0002f0 1e fd bc 39 b0 b5 bd 3b f3 4d 0a 39 c5 f7 6d 3b
       0.0003604674 0.005789481 0.00013189744 0.0036311012

exp_avg f4 [64]
000000 04 00 00 00 6e 83 e1 b9 d4 34 cc 3a 2f 43 18 ba
       6e-45 -0.00043013267 0.0015579709 -0.0005808351
000010 8a f0 9f ba aa cf 04 ba 12 26 f5 b8 79 e1 64 37
       -0.0012202424 -0.0005066345 -0.000116896015 1.3642356e-05
000020 e7 59 36 ba a4 92 16 3c 50 71 83 ba 5c 13 8f b7
       -0.00069561455 0.009190235 -0.0010028277 -1.7055943e-05
000030 69 65 de ba 87 df 01 ba 14 6a e0 ba e4 74 38 ba
       -0.0016967478 -0.00049542676 -0.0017121457 -0.0007036461
000040 99 26 ea 3b 19 19 e2 ba f7 fe 2a ba f5 e2 7a 39
       0.0071457145 -0.0017249911 -0.0006522978 0.00023926406
000050 48 54 30 3a e1 eb a8 b9 88 c3 f2 3a f0 f4 db b8
       0.0006726426 -0.000322192 0.0018521408 -0.00010488357
000060 44 0f 67 ba df 3d af 36 4e 50 80 3b ae a9 b6 ba
       -0.00088142254 5.222609e-06 0.003915823 -0.0013936067
000070 50 cb c8 3b 63 72 aa bb f3 a0 3e bb fd 95 80 b7
       0.0061277524 -0.0052016242 -0.0029087632 -1.5328633e-05
000080 2d 0c 91 b5 66 7b a1 bb 2e d6 66 3b 4b e7 dc 39
       -1.0806885e-06 -0.0049280403 0.0035222876 0.00042133997
000090 a2 8e 2a ba 52 40 c2 ba 78 cf ca 38 02 8d c2 b8
       -0.00065062393 -0.0014820194 9.670755e-05 -9.2769056e-05
0000a0 eb da 98 3a d4 34 17 3b 49 2c 84 b7 43 90 95 3a
       0.0011661922 0.002307226 -1.5756248e-05 0.0011410791
0000b0 44 e6 65 3b 2c 87 18 ba b2 e8 e9 ba f1 00 65 ba
       0.0035079876 -0.0005818482 -0.0017845838 -0.0008735797
0000c0 71 71 fe 39 47 e4 20 ba 0d 61 da 39 fb 27 a5 3b
       0.00048531176 -0.00061375316 0.0004165251 0.0050401664
0000d0 54 cb a2 3a bb 4a 4e 3b 90 68 20 bb 20 36 2e bb
       0.0012420216 0.0031477648 -0.0024476387 -0.0026582554
0000e0 48 b4 10 3b b3 f9 af 3a c6 9c cf 39 4b b9 7e 39
       0.0022080112 0.0013425857 0.00039598922 0.00024292355
0000f0 b1 bb 64 ba 5e 57 61 bb 43 8f 0f 39 14 0b 2b bb
       -0.0008725478 -0.003438435 0.00013690912 -0.0026099132

exp_avg_sq f4 [64]
000000 cf f8 06 32 f4 c3 08 3b 1f 23 15 3b 8e 93 09 39
       7.856399e-09 0.002086875 0.002275653 0.00013120307
000010 93 d4 66 39 16 56 47 39 71 93 78 37 8f 34 ba 39
       0.000220137 0.00019010188 1.4816281e-05 0.00035515844
000020 99 17 84 39 df ce 5c 3d 17 86 46 3b 5f f0 a8 36
       0.00025194584 0.053908225 0.0030292326 5.034773e-06
000030 f2 d8 5f 3c 2e 7b 6a 38 58 55 79 3a a2 f7 a5 39
       0.013662564 5.5904668e-05 0.00095113134 0.00031655753
000040 6e b6 24 3d 32 04 0a 3b ad 03 57 3a 1f 40 00 39
       0.04021304 0.002105963 0.0008202147 0.00012230918
000050 1c 64 aa 3a 60 a6 5c 3a 82 d2 88 3b 27 f6 b5 35
       0.0012999806 0.0008417126 0.004175485 1.3557191e-06
000060 53 d1 cc 3b 68 68 00 37 c5 13 c0 3c ed bb 29 3b
       0.0062505393 7.6537035e-06 0.023446927 0.0025899366
000070 04 f0 08 3d 87 a0 ac 3c 5f a2 60 3c 3c ff 2f 35
       0.03343202 0.02107264 0.013710587 6.5563995e-07
000080 6c a6 ea 3a 07 9c 2f 3d 99 df b6 3c 73 1a 03 3b
       0.0017902381 0.04287341 0.022323417 0.0020004779
000090 06 cc 26 3b 8a d0 84 3a f4 a0 3d 39 92 61 17 38
       0.0025451197 0.001013295 0.00018084404 3.6092075e-05
0000a0 b3 08 03 3b e1 bc 96 3c 7b 7a 76 3a d3 02 78 38
       0.0019994199 0.018400611 0.0009402406 5.9130438e-05
0000b0 04 13 8e 3c 07 c0 50 38 20 15 00 3c a6 1c e7 3a
       0.017343052 4.9769904e-05 0.007817537 0.0017632439
0000c0 99 5e 34 38 4b 46 25 3a 3e 2c b5 38 86 c5 19 3d
       4.3003445e-05 0.0006304725 8.638993e-05 0.03754189
0000d0 ec 3d 41 3b 85 33 ac 3c da 1f a8 3b 53 0b 92 3b
       0.0029486371 0.02102066 0.00513075 0.0044569164
0000e0 7d d7 94 3c 56 f2 ea 3b a3 9d c8 39 c5 f8 3b 39
       0.01816916 0.007170002 0.0003826442 0.00017926384
0000f0 ee 71 3c 3a 3d db 60 3d 83 27 81 37 6c b0 c5 3b
       0.00071886077 0.054896582 1.5396397e-05 0.006032994

exp_avg f4 [64]
000000 a8 2d 7e 39 19 55 82 ba 36 5a be 39 93 1f df b9
       0.00024240336 -0.0009943574 0.00036306836 -0.000425574
000010 ab 3a ad 39 92 7a 9c 38 d4 43 8d b9 f0 b9 2b ba
       0.00033040842 7.46149e-05 -0.00026944152 -0.0006550839
000020 9e ba 19 ba 7d 22 28 3a 23 98 49 39 e6 d0 0c b6
       -0.0005864295 0.00064138306 0.00019225529 -2.098322e-06
000030 c0 ba a5 3a b0 41 d3 39 a4 1b 80 ba 57 67 19 ba
       0.0012644157 0.00040293997 -0.0009773863 -0.00058518857
000040 47 25 d0 39 6d 68 7a 38 cf 56 ed b8 ee 58 cd 39
       0.00039700625 5.97019e-05 -0.0001131721 0.00039166905
000050 b7 de b3 38 c7 89 ee 38 fb b2 7f 3a d7 19 cf 38
       8.576869e-05 0.000113743874 0.0009754148 9.875342e-05
000060 95 e8 a8 b9 78 48 43 ba 84 4f a2 39 ce 4e ec ba
       -0.00032216744 -0.00074494584 0.00030958292 -0.0018028857
000070 99 93 80 3a a5 06 13 bb c7 da 08 ba 42 0c c5 b7
       0.0009809613 -0.002243438 -0.00052205886 -2.3489938e-05
000080 48 b6 be 39 b8 dc d6 b8 c3 3a 16 3b 1d 16 07 ba
       0.00036375434 -0.00010245427 0.0022923208 -0.00051531364
000090 c8 12 23 3a d5 29 0a ba 41 82 98 38 42 ae 02 b9
       0.0006220755 -0.00052705157 7.2721865e-05 -0.00012462682
0000a0 93 f4 5e b9 b6 ee 0b ba 34 5b b1 b9 2a 1d 48 3a
       -0.00021262681 -0.0005338 -0.00033828022 0.00076337403
0000b0 74 7b 70 3a af 8c 55 3a 3b a1 3d 38 21 59 dc b8
       0.00091736694 0.00081462687 4.521127e-05 -0.00010507019
0000c0 4d 8e 48 39 f4 5e 47 ba 6a 55 ab 39 f2 94 63 3a
       0.00019126498 -0.00076053967 0.000326793 0.00086815574
0000d0 11 d5 46 3a 46 0f 98 3a 74 00 b5 39 27 bf 7e ba
       0.000758485 0.0011601232 0.00034523348 -0.0009717815
0000e0 2a 0b 20 ba 46 57 8a b6 9d 9c b9 ba c4 06 0f ba
       -0.0006105179 -4.1228805e-06 -0.0014161054 -0.0005456025
0000f0 83 29 7c 3a 07 dc d2 3a 10 d0 7f b9 cc 9b 0b bb
       0.0009619223 0.0016087302 -0.00024396204 -0.002130258

exp_avg_sq f4 [64]
000000 18 76 b2 39 ce 84 53 3a b7 cd 11 3b c4 de 5e 38
       0.00034038792 0.00080688007 0.002224786 5.313639e-05
000010 d0 6e 52 3a 97 eb aa 38 dd 93 b3 37 15 50 b4 37
       0.00080273766 8.150114e-05 2.1407317e-05 2.1494963e-05
000020 c8 5e 99 39 b0 87 86 39 1b f1 f8 3a 67 45 9e 39
       0.00029253052 0.00025659567 0.0018992753 0.00030187817
000030 29 69 31 3a d1 1f e0 39 b3 b1 b4 39 12 73 66 38
       0.0006767684 0.00042748314 0.00034464672 5.494344e-05
000040 61 9c 46 39 5a 03 86 38 ff 37 e4 37 27 ad f4 39
       0.00018941007 6.390242e-05 2.7205793e-05 0.00046668315
000050 83 a5 f6 38 96 11 ce 39 90 fa 11 3a bb 65 ea 36
       0.00011761023 0.00039304484 0.0005568648 6.9855864e-06
000060 66 d2 67 3a 17 46 3d 39 85 de 39 39 9e 85 b0 3a
       0.00088433025 0.00018050555 0.0001772587 0.0013467555
000070 e6 c8 cd 39 0c 2c 61 3b 14 99 60 3a 59 b0 e8 37
       0.00039250328 0.003435853 0.00085677323 2.7738673e-05
000080 46 f3 92 38 ae 7b 78 3b 54 a9 9f 3b 83 80 cc 38
       7.007136e-05 0.0037915516 0.0048724804 9.751415e-05
000090 0f 35 f7 39 dd 2c cd 38 19 2e 07 39 ed 18 5f 38
       0.00047151043 9.783518e-05 0.00012891776 5.3190557e-05
0000a0 5f 61 33 39 46 d7 84 39 2c 8b d8 38 f4 ba a7 38
       0.00017107044 0.00025337393 0.000103256054 7.998003e-05
0000b0 5b ce f6 3a e5 0c 91 39 63 bf 77 39 f7 0e 65 39
       0.0018829809 0.00027666162 0.00023627053 0.00021844717
0000c0 15 72 74 38 22 c8 18 3a 3b ee 4f 39 34 b8 54 3b
       5.828038e-05 0.0005828162 0.00019829806 0.0032458426
0000d0 d9 c1 b4 39 2f 10 b2 3a 7a ab 2c 39 80 06 3d 3a
       0.00034476703 0.0013585145 0.00016467078 0.00072107464
0000e0 fa df 5c 3a 67 4b e1 39 8b f4 0b 3a 5b 6b 82 38
       0.0008425709 0.00042971523 0.0005338869 6.2188796e-05
0000f0 1f c0 f4 39 8b 4b 02 3b 20 ef 61 38 d8 78 ce 3a
       0.00046682448 0.0019881453 5.3866883e-05 0.0015752567

exp_avg f4 [64]
000000 6a 49 bf b9 58 a9 9d b9 04 99 e4 3a f9 c1 5b b9
       -0.00036485057 -0.00030071544 0.0017440622 -0.00020957728
000010 e0 ef b9 ba 58 19 fc b9 37 6f 50 39 78 3d 94 39
       -0.0014185868 -0.00048084068 0.00019877857 0.00028274558
000020 9a 22 3a b8 d7 73 61 3b 0c b7 8d b8 c1 45 9c b9
       -4.437808e-05 0.0034401321 -6.757499e-05 -0.0002980661
000030 d4 9d ab ba 9c 49 ac ba da 4c 1a ba c6 92 c0 b9
       -0.0013093301 -0.0013144496 -0.00058860856 -0.00036730448
000040 06 87 1c 3b a0 9c 40 ba f5 74 14 b9 27 b1 1b ba
       0.0023884191 -0.00073475577 -0.0001415795 -0.00059391785
000050 ba ef 96 39 0c b0 90 b9 78 4f 76 3a 2e f1 44 b9
       0.0002878884 -0.00027596985 0.0009395997 -0.00018781863
000060 cd 8b f0 b6 06 44 6e 3a 27 ea c7 3a 68 4d 1a ba
       -7.1688323e-06 0.0009089116 0.0015252278 -0.0005886168
000070 68 f2 11 3b 2b 02 da ba 0b 1b 68 ba 9b c5 f5 37
       0.002226973 -0.0016632726 -0.00088541274 2.9298293e-05
000080 0b a8 72 b9 64 7a aa ba d5 d9 67 3a 46 f9 66 3a
       -0.0002314152 -0.0013006446 0.000884441 0.00088109483
000090 28 ca 71 b9 fd 80 0f ba 07 6e b1 39 1a 3b df b8
       -0.0002305886 -0.0005474238 0.00033842048 -0.00010644477
0000a0 44 47 f5 39 00 2f d1 39 a1 d5 00 ba 7a 43 44 3a
       0.00046783139 0.00039898604 -0.00049146457 0.00074868614
0000b0 43 a0 ba 3a b9 9e 94 ba 34 17 0d ba ef 06 5e 39
       0.0014238436 -0.0011338807 -0.00053821807 0.00021174153
0000c0 90 6b 09 b9 21 f9 c3 39 bc 1b 0c ba 16 cb f5 3a
       -0.00013105408 0.00037378914 -0.0005344709 0.0018752541
0000d0 f8 94 d3 39 b1 03 76 3a 7a 97 8d ba 40 b9 80 ba
       0.00040356047 0.00093847053 -0.001080259 -0.0009820834
0000e0 37 2d 94 3a 86 87 2a 3a 30 cc e2 3a 90 48 45 38
       0.0011304979 0.000650518 0.0017303284 4.703604e-05
0000f0 77 7c 76 ba a7 3e 36 ba 42 4a d0 b9 82 65 22 ba
       -0.0009402702 -0.0006952085 -0.00039728178 -0.00061949354

exp_avg_sq f4 [64]
000000 1e d8 12 3a e4 c6 c7 3a 74 55 12 3b e2 f3 33 39
       0.0005601662 0.0015241769 0.0022328766 0.00017161624
000010 25 44 99 3a 4a d2 26 39 22 fd 10 38 6b f1 f4 38
       0.0011693282 0.00015909332 3.4568024e-05 0.00011679794
000020 fd 1b 4c 38 11 04 a3 3b 3f f9 9b 39 c6 80 f5 39
       4.8663456e-05 0.00497485 0.00029749607 0.00046825985
000030 ea a6 cf 3a 1c f7 39 3a d1 01 1d 39 8a 33 96 38
       0.0015842591 0.0007094012 0.00014973363 7.162157e-05
000040 45 5d 6b 3b 3b a1 3d 39 b7 28 72 38 2c 02 56 3a
       0.0035913747 0.00018084508 5.7735215e-05 0.0008163776
000050 e6 b0 6c 39 37 81 76 39 56 6d 08 3a c6 d7 57 37
       0.00022572614 0.00023508524 0.00052042806 1.2865237e-05
000060 b2 f6 46 3a c6 bb a4 39 d8 7a 0d 3b 0c d3 88 39
       0.0007589861 0.0003142042 0.0021588113 0.00026097184
000070 31 36 65 3b 0a 63 0a 3b 49 98 9f 3a 86 51 3c 38
       0.0034974928 0.002111616 0.0012176122 4.4898617e-05
000080 7d 4f 32 39 34 d3 7f 3b 1e f6 2a 3b c9 1d 51 3a
       0.00017005015 0.00390358 0.0026086639 0.00079771556
000090 ad 75 d4 39 bc d5 d1 38 ef 2d 42 39 8d a9 c4 38
       0.00040523466 0.00010005708 0.00018518393 9.3775896e-05
0000a0 d4 28 a7 39 47 eb 11 3b cf d4 54 39 12 3e 0c 38
       0.00031883141 0.002226548 0.00020297173 3.343641e-05
0000b0 fb 5d f5 3a 82 5e f2 39 22 62 43 3a 31 a0 bb 39
       0.0018720025 0.0004622825 0.00074532826 0.0003578677
0000c0 9b d3 01 39 e8 61 3c 3a 6f 25 cf 39 4b d5 8c 3b
       0.00012381228 0.000718622 0.00039510007 0.0042978874
0000d0 17 14 02 3a c5 e5 29 3b 82 66 0b 3a 5f 27 d6 39
       0.00049621 0.0025924307 0.0005317704 0.00040846594
0000e0 3b b9 19 3b 9d 97 6b 3a 2f ad 87 3a ca 0a 34 39
       0.0023456353 0.0008987131 0.0010351295 0.00017170157
0000f0 0c ea 8e 3a 39 9c b0 3b b8 25 d9 38 f6 12 1b 3a
       0.0010903492 0.005389717 0.00010354392 0.0005915606
