experiments/training_curves/SHAC/seed_200/best_policy.pt (torch, 167108 bytes, 63 tensors)

weight f4 [64, 3]
00000000: b14d e93d c285 8d3d 5277 0e3f 73a6 23bf
00000010: 46fc bdbe 9a0c 003f 13dc 4d3e f2a3 133f
00000020: 3109 093e e375 5bbe f607 b03e c425 6d3e
00000030: 00ee cebc 5ad2 a13c e904 dc3e 2c01 c7be
00000040: cbee b23e 19fc 063f 8026 3abe cc56 2a3e
00000050: a8b8 04bf 26de d33e ab85 87bd 8687 c9bd
00000060: bb56 37be 0f85 e43e 9fae 893e 15d2 bf3e
00000070: 139f 603d 1089 653d 95a8 03bf 9a0b f23e
00000080: 4528 dcbe c0bb 833e c39e b2be 8cd7 a43e
00000090: d4a0 9d3d e738 4d3c f28a 093d 8066 e23e
000000a0: 2539 2c3b 0181 d43d b9c0 813e 4d9e 12bf
000000b0: 81d3 253e d94c eb3d 3bf7 0bbf 86ba 97bd
000000c0: 2d54 bdbe fc16 08be fe66 e0be 3fa8 be3e
000000d0: 448a 5dbe 9704 85be d090 093f e2c8 bf3e
000000e0: a5f3 b53e b314 dc3b b8da 133f f0ba 7abe
000000f0: fe6d 85be d570 c9be 73c7 a5be dc4d 0e3e
00000100: eea7 163f 8002 093f 696c fdbd 2088 003f
00000110: 3bc8 a43e e1d3 9cbd 1910 993e 80be 8dbe
00000120: c127 10bf beaa d93e d9a4 10be bfdd 49bc
00000130: 9658 e6be 9792 f43e 0e1c 103f 3919 c93d
00000140: 011b 00bf 6f8c 38be 44b5 7dbe b25e 913b
00000150: 3c94 233a e8a4 84be 4fe6 83bd c8f4 03be
00000160: 87d7 8e3e 1e6b d83d 6664 9b3e d7d2 e9bd
00000170: b5d8 d8bd 5ded d83d 35f9 dbbe 542b bfbd
00000180: b7c9 713c aaba e7be 28c4 3a3e 764f ad3e
00000190: 51b1 2bbe 5776 d33e 8ab6 903e 723f bc3b
000001a0: 51a8 dfbe 148b b1be b82f 51be a68c 8a3e
000001b0: aa86 c1be da62 663e 2668 873e f6ec 293e
000001c0: 9384 f53e 3dc5 b4bc 4fb8 e0be 9020 793e
000001d0: 727e 423c 1949 ee3e 7022 d0be 669e 0e3f
000001e0: e67b 69be 0db0 fbbe b3c6 263d 2334 bb3e
000001f0: 1dde f73b e38c 80be 667b a63e 165f b2be
00000200: 73a6 95be 198c b8bb 38b3 0a3f abca 11bf
00000210: 2f31 823e 6427 a7be dfc4 debe 6ce8 833e
00000220: 3e12 e83e ca7a d83e 5f85 b0bd ddad 59be
00000230: 10f8 ecbe 2c88 4abe 1a27 283d c292 f2bd
00000240: ae5f 893c 8ffa 1cbf 06ac 00be f05d 4e3e
00000250: a928 a9be 3a02 e33e 56cf 01be 0e99 39bd
00000260: b39b ecbe 6753 673e ada0 793e b3b0 62be
00000270: 2925 f2be a8d6 c73e 1f25 433e af8d cbbe
00000280: 16b9 e6be 36fc b8be 2d3b 2f3e 2155 c7be
00000290: b917 95be 2ef5 dcbd 29d2 cc3e 3744 e0be
000002a0: 1f7d 5e3e 18fb f3be c7f4 d8be 7ddd acbd
000002b0: 3848 52be a2b3 6f3e 31f8 00bf 7d04 28be
000002c0: 4036 f93e 60b0 13bf ce32 34be f1a3 89be
000002d0: 48ca 97be 87bf 88be 3c7f 3f3d 9a43 00bf
000002e0: cb04 71bd 70c5 a7be 4303 1a3e 741b 933e
000002f0: 3606 bdbe c066 8ebe b6ca cdbe b80d b73e
0.113917716 0.06910278 0.5565082 -0.63925856 -0.37106532 0.5001923 0.20103483 0.57672036
0.13382412 -0.21431689 0.34381074 0.23158938 -0.025259972 0.019753624 0.42972496 -0.38868082
0.3494781 0.5272842 -0.18178749 0.16634673 -0.51844263 0.41380423 -0.06617292 -0.09840302
-0.17904179 0.44632766 0.26891038 0.37464967 0.054839205 0.056038916 -0.5142911 0.47274476
-0.42999473 0.2572918 -0.3488675 0.321957 0.07696691 0.012525774 0.033579774 0.44218826
0.0026279178 0.10376168 0.25342348 -0.572728 0.16193964 0.11489267 -0.5467412 -0.074086234
-0.36978284 -0.13290018 -0.43828577 0.37237737 -0.21634775 -0.25980064 0.5373659 0.3745795
0.3553745 0.0067163347 0.57755613 -0.24485373 -0.2606048 -0.39343897 -0.3237873 0.13896888
0.5884999 0.5351944 -0.12374193 0.5020771 0.32184014 -0.076576 0.29895094 -0.27684402
-0.5631066 0.42513078 -0.14125384 -0.012320935 -0.4498946 0.4776809 0.5629281 0.09819264
-0.50041205 -0.18022321 -0.24776179 0.0044363374 0.0006240045 -0.25907063 -0.06440412 -0.12886345
0.2789881 0.10567306 0.30350035 -0.11417168 -0.105882086 0.105921485 -0.42963567 -0.09334436
0.014757565 -0.452596 0.1823889 0.33849686 -0.1676686 0.41301224 0.28264266 0.005744868
-0.43683103 -0.3467642 -0.2042836 0.2706043 -0.37798053 0.22498646 0.26446646 0.165943
0.4795271 -0.022066707 -0.43890616 0.24328828 0.011870967 0.46540144 -0.40651274 0.55710447
-0.2280117 -0.49157754 0.040716838 0.36563215 0.0075643198 -0.25107488 0.3251602 -0.3483817
-0.29228553 -0.0056319353 0.54179716 -0.5694987 0.2542815 -0.3264724 -0.43509576 0.2576326
0.45326418 0.4228118 -0.086191885 -0.2125773 -0.46283007 -0.19778508 0.041052915 -0.11844398
0.016769256 -0.6131982 -0.12565622 0.20153022 -0.33038834 0.44337636 -0.12676749 -0.04531198
-0.4621254 0.22590409 0.24377699 -0.22137718 -0.47293976 0.39030957 0.1905713 -0.39756534
-0.45063084 -0.36129922 0.17112418 -0.38932136 -0.2911966 -0.10788952 0.4000409 -0.43802044
0.21727417 -0.47652507 -0.4237425 -0.08440683 -0.20535362 0.23408368 -0.5037871 -0.16407962
0.48674202 -0.57691 -0.17597505 -0.2688289 -0.29646516 -0.26708624 0.0467522 -0.5010315
-0.05884246 -0.3276782 0.15040307 0.28731883 -0.369188 -0.27812767 -0.4019372 0.35752654

bias f4 [64]
00000000: 283b 7c3e 7f53 a6be 759d 4c3d 214c a83e
00000010: 231f b5bd 0c61 ac3e 4ba9 143d 2e00 29be
00000020: 9e3f 44be 44b4 ad3b 84e9 17bf 6ca5 c83e
00000030: 8a35 903e d0fe 5abe ae3e f0be 4bbf 963e
00000040: 79ea 963e 83e3 fa3e 4ef5 a83e b2ff a1be
00000050: 46ff d73e 14fd 02bf 8ce7 f5be e110 87be
00000060: 645f 1bbd d469 bc3e 5f96 00bf 1156 463e
00000070: 7e94 b23e ad93 0cbf b728 3f3e 419e c9be
00000080: 4000 983e ed9f e93e f18e 2bbe 96ad aebe
00000090: a3a3 f8be aa7f e93e 3984 12be e738 50bd
000000a0: 7d93 f2be a924 af3e 1a57 053f f19b b63e
000000b0: 7195 f3be dd73 443d 11b3 343e 55e4 e4be
000000c0: 3abf 263e 9cba cbbe 261c babe 57ac a4be
000000d0: 1d32 a13e 3026 c9be 6809 153f 6b21 4e3e
000000e0: e1a9 08be 0d36 943e df60 e93d a184 abbe
000000f0: 0981 e7be f4d3 183e 205c 4dbe eeef f2bd
0.24631941 -0.32485577 0.04995485 0.32870582 -0.088438295 0.3366779 0.036294263 -0.16503975
-0.19164893 0.0053010304 -0.5934069 0.39188707 0.28165847 -0.21386266 -0.4692282 0.2944282
0.29475763 0.49001703 0.32999653 -0.31640393 0.42186946 -0.51167417 -0.4802822 -0.26380065
-0.03793277 0.3679949 -0.5022945 0.19368769 0.34878916 -0.54912835 0.18667875 -0.3937855
0.2968769 0.45629826 -0.16753747 -0.3411681 -0.48562345 0.45605212 -0.14308251 -0.050835516
-0.4737815 0.34207657 0.5208603 0.3566585 -0.47574952 0.04796206 0.17646433 -0.44705454
0.16283885 -0.3979081 -0.363496 -0.32162735 0.31483546 -0.39286947 0.5821748 0.20129935
-0.13346054 0.28947487 0.1139543 -0.33499625 -0.45215634 0.14924604 -0.20054674 -0.11862169

weight f4 [64]
00000000: 2e3a 7e3f e8e2 803f 470f 893f 878d 803f
00000010: 3f8f 763f 83ed 7c3f 5cda 7c3f 16e5 7d3f
00000020: f3da 7d3f ecc2 7d3f d51d 783f 9560 7d3f
00000030: 824f 803f e43e 7f3f 163d 7c3f 58e4 823f
00000040: e0b3 803f 26db 7f3f 0e0c 823f eb72 7a3f
00000050: 7995 7f3f 3e81 803f 3e5c 803f aa58 7d3f
00000060: a0f5 853f a321 7f3f 38ee 7c3f cc38 813f
00000070: 03bf 793f 9686 803f 4f7f 793f ab54 7e3f
00000080: f8d2 7a3f cb68 7c3f 5ff5 7b3f 3d54 803f
00000090: 5fcd 803f 9313 843f 35a1 793f 152a 7e3f
000000a0: a32b 7e3f 184d 7a3f 3f3d 793f 0a75 823f
000000b0: d537 803f d8bb 823f 2cf5 7e3f 97c0 7f3f
000000c0: 336e 873f fc7f 7f3f 27f9 803f b415 7b3f
000000d0: 3346 803f f406 7f3f ad46 803f 1a2c 813f
000000e0: 13f7 803f 621d 803f 41a1 803f 2538 833f
000000f0: ea2d 7c3f aeda 803f 8abe 7d3f 5d08 7e3f
0.99307525 1.0069246 1.0707787 1.0043191 0.96312326 0.98799914 0.9877069 0.9917768
0.99162215 0.9912555 0.9692052 0.989755 1.0024264 0.9970534 0.9853071 1.0225935
1.0054893 0.9994377 1.0159929 0.978316 0.9983745 1.0039442 1.002815 0.98963416
1.0465584 0.996607 0.9880099 1.0095458 0.97557086 1.0041072 0.9745988 0.99347943
0.9797816 0.985974 0.9842128 1.0025707 1.0062674 1.0318474 0.9751161 0.9928296
0.99285334 0.97773886 0.9735908 1.0191967 1.0017039 1.0213575 0.9959285 0.99903244
1.0580505 0.99804664 1.0076035 0.9807999 1.0021423 0.99619985 1.0021569 1.0091584
1.0075401 1.0008967 1.0049211 1.0251509 0.9850756 1.0066736 0.99118865 0.9923151

bias f4 [64]
00000000: e011 993a 570e 8abc f33d f7bb edb5 13bc
00000010: 52a5 a73c b73c 75b9 36fb 6fbb 90a6 3bbb
00000020: 4261 6e3a 8ce6 533a b64f d03c bf12 1abb
00000030: cf05 c03b f41c 8d3c caa3 9e3c 3e1b 6dbc
00000040: 0229 983b 4cef 74b9 4574 a03a d045 0c3c
00000050: 5bfc 98b9 e1af e13b c85d d1bb c84f 443b
00000060: f09d 673c 0b91 1ebc 26dd 13bc e4fa 853a
00000070: eb10 3fbb 0efd 8dbb 8046 2d3a c670 ca3b
00000080: 3e45 803c 250a 69bc 1b5c 833a 146f 003c
00000090: f269 9fb9 1126 8c3a d62c 943c 2aab aabb
000000a0: 0c08 e33b 6fe4 acbc 2439 2dbd c684 e73b
000000b0: b228 9abc 9e34 df3b c599 903b 0260 a7ba
000000c0: 5fc3 603b 7c19 423b aeca 6e3b ea0a 963c
000000d0: 5d2e 263c c733 be3a f9cd b23c fa05 86bc
000000e0: 474f 7238 5f88 a2bb c4e4 1a39 92c3 053c
000000f0: c7fe 703c ced4 043c 4d4a 6aba 83d2 d83b
0.0011678301 -0.01685254 -0.0075452267 -0.009015542 0.020464573 -0.00023387639 -0.003661824 -0.0028633215
0.0009093472 0.00080833654 0.025428634 -0.0023509709 0.0058600674 0.01722572 0.01936521 -0.014471827
0.0046435604 -0.00023358798 0.0012241682 0.0085615665 -0.0002917972 0.0068874215 -0.0063893534 0.002995478
0.014136776 -0.009678136 -0.009024894 0.0010221866 -0.002915437 -0.004333145 0.00066099316 0.0061779944
0.015658017 -0.01422361 0.0010021956 0.007838983 -0.0003040578 0.0010692497 0.018087786 -0.0052083926
0.0069284495 -0.02110502 -0.04229082 0.0070653884 -0.018818233 0.0068116924 0.004412862 -0.0012769701
0.0034296138 0.002961724 0.0036436724 0.018315751 0.01014289 0.001451128 0.021826731 -0.016360272
5.777113e-05 -0.0049601044 0.00014771806 0.008164303 0.014709181 0.008107377 -0.0008937463 0.006616892

weight f4 [64, 64]
00000000: 465d a13d 5e02 8c3d f0af c73c 93ab 5c3d
00000010: fbb4 ddbd 52eb d53d 199c 9a3c 2105 32bd
00000020: f8c1 be3d 81f8 ec3d e36a 293d 464f b53d
00000030: e82b 0b3d dd29 e53d 0370 333d 9088 943d
00000040: 76b2 f4bc c54a 233d 5545 a4bd e89f e9bd
00000050: 0938 16be 9a30 083e 36a8 fc3d d930 103d
00000060: ac9a 8dbd 3444 263d 2603 e43d a561 d5bd
00000070: f594 bc3d f67e ec3d d359 f8bd 6466 da3d
00000080: 1027 0c3d 9f12 9fbb c9d7 e23c 6c91 b9bd
00000090: dc86 23bd 6c04 e93d 5c15 c8bc 340e a4bd
000000a0: e4b4 c5bc 5c67 9e3d f6a7 703d 3d34 9abb
000000b0: ef78 d23d a6e1 a23d 2fa1 26bd e3a6 ab3d
000000c0: 48d3 b9bd 0823 38bd e0ca b2bc 2523 bb3d
000000d0: 33e1 9abd 4bd5 10bd f373 82bd 2e97 f6bc
000000e0: 1fde 4d3c 239d 0ebd 5820 70bd 2350 b7bd
000000f0: 9452 aabd 470d 2d3d 4cd4 a2bd 1529 853b
00000100: 70de cf3d 0333 f63d 765f 0abe 74ce f93d
00000110: 05c8 173d c438 ab3d 6387 27ba 0f7e 02bd
00000120: fdd1 ed3d 9f25 153d 0757 02ba 7577 edbd
00000130: 44ce 513d 9f94 113d 1cdc f6bd cfaa d7bd
00000140: 1f4d a23c efac e53c 4985 b8bd 4d2e b83d
00000150: 567a feb9 5e05 d13d 259e c7bc 611b 373d
00000160: b690 4c3c a7f9 aa3c 25ed 99bd e67a b33b
00000170: 9c19 afbd 0a79 f0bb 0b26 fcbc 1a4d 4abc
00000180: 1067 fb3d 0672 e4bd 1f08 d23d c532 843d
00000190: 319e 3b3d f96d f13c 5c9c 053e a210 c3bd
000001a0: c4a6 843c 83d2 f1bd 401d ed3d 00a1 01bd
000001b0: a464 11bb ca6e c63d c8cd ec3d 67b6 d33d
000001c0: 91f0 3abc fdb1 85bc 87a7 e73d f695 04bd
000001d0: b7c7 113e 05bc 3e3d cb48 f6bd dd73 08bd
000001e0: dbe3 3ebd dabb bebd 9336 263d 0975 fe3d
000001f0: 2b60 393d a866 38bc 9aaf b5bd 61f0 fb3d
00000200: e154 6abd e467 02be 50e1 f63d 0d57 ad3c
00000210: f28e 8fbd 84d5 e7bd 5dcb 283c 83aa 803d
00000220: 2b1e b7bd 3d93 03bd d883 3c3b c34b 833d
00000230: 094f d6bd 8722 c3bd f02e 2ebd 38de 223d
00000240: b7b7 e9bd 5261 a0bd dc9b 263d 87e3 f83d
00000250: 14da 0d3d 6fbe d6bd d823 e2bc 987c 903d
00000260: 45db ac3d 0617 8c3d 851e adbd 8ae9 4bbd
00000270: 456c 7ebd de45 fbbd 6120 8abd dac2 dcbc
00000280: 7849 06be 0a58 a2bd cebd 08bd 75b2 a13d
00000290: 0107 463d 1e7f 0c3e 465a f5bd 1210 313c
000002a0: 3c8e 89bb 0a38 aa3d bf04 49bd 2c25 cd3c
000002b0: bf37 d13d 09e1 a6bd 10a9 533b 02bd 92bd
000002c0: b0b1 49bd 3d38 483d 17ae 073c a17c b0bd
000002d0: 1877 fd3b cc0e 103d f40e 9dbd bf39 793c
000002e0: 7f47 febd 4cd0 bf3d b87e 02be 1d9c eb3b
000002f0: 7376 9d3d aa47 5d3d b5df 4f3c 245e b13d
00000300: b4da a6bd 7d70 3b3d c300 62bd 1d71 91bd
00000310: 599c a63b e067 92bb 236b e9bc 7879 bcbc
00000320: aab1 663d c1bc 58bb c7b1 8e3d c76c 213d
00000330: d707 19bd ea9b e03c f9e6 85bd 67a9 fd3d
00000340: f3fb b0bd 9edd b23c fd5b 6e3d 73f1 ee3d
00000350: 054e dbbc 1491 d03d 87f2 6d3c 1589 a4bc
00000360: 38ec e83c 8cd8 bebd da06 933d 1038 c7bd
00000370: 20c7 36bd ce1a f5bd b067 923d 05ef cd3d
00000380: 9ca3 813d 0502 afbd 8639 823d 3dfe 40bd
00000390: 2686 823d 23cc dcbd acc8 ba3b 949f 5ebd
000003a0: 4aad dabd cc91 983d dacb e9bd 67a2 763d
000003b0: 28e2 c0bd 375d a0bd 698a 04bd 977c 48bc
000003c0: 2b45 813a 6c53 afbb 3c6c 933d 4345 cebd
000003d0: 46a1 ce3c d793 2ebd 436d 903d 955e 83bd
000003e0: 05f0 6bbd 27c2 edbd f7b6 253d 9b27 f1bd
000003f0: 559d 0fbc 289c 8b3d bcc6 a03c 4c0d 6abd
0.078791186 0.06836389 0.024375886 0.053874563 -0.10825535 0.104452744 0.018873261 -0.043461923
0.0931434 0.11570836 0.0413617 0.08853011 0.03397742 0.111896254 0.043807995 0.0725261
-0.029870253 0.039866228 -0.080210365 -0.11407453 -0.14669813 0.1329979 0.12336771 0.035202835
-0.06914267 0.040592387 0.11133413 -0.10419015 0.09208099 0.115476534 -0.121265076 0.10664061
0.03421694 -0.0048545147 0.027690785 -0.0906094 -0.039923534 0.113777965 -0.024424247 -0.080105215
-0.024134107 0.07734558 0.05875393 -0.0047059343 0.102769725 0.07953195 -0.04068106 0.083814405
-0.09073502 -0.044955283 -0.021825254 0.09137563 -0.075624846 -0.035359662 -0.06369772 -0.030101385
0.012565165 -0.034817826 -0.058624595 -0.08950832 -0.08316532 0.04224899 -0.07950649 0.0040637353
0.101498485 0.120214485 -0.13512978 0.12197581 0.037055988 0.083604366 -0.00063907186 -0.0318585
0.11612318 0.03641283 -0.00049720745 -0.1159505 0.0512221 0.035542127 -0.12053701 -0.10530626
0.019812165 0.028036563 -0.09009797 0.08993206 -0.00048537803 0.10206102 -0.024367401 0.044703845
0.012485674 0.020870997 -0.07515935 0.005477297 -0.085498065 -0.0073386477 -0.030779859 -0.012347484
0.12275517 -0.11154561 0.10255455 0.06454996 0.04580516 0.029471384 0.13047928 -0.09524657
0.016192801 -0.1180773 0.115778446 -0.031647682 -0.002218523 0.096891 0.11562687 0.10337525
-0.011409895 -0.016320223 0.1131125 -0.032369576 0.14236341 0.04656603 -0.12025603 -0.03331362
-0.04660402 -0.093131736 0.04057939 0.124246664 0.04525773 -0.011254944 -0.08871384 0.12301708
-0.057209853 -0.12734944 0.12054694 0.021159673 -0.070096865 -0.11320022 0.010302392 0.062825225
-0.08941301 -0.03212284 0.0028765108 0.06410935 -0.104642935 -0.0952807 -0.04252523 0.039762706
-0.11411994 -0.078310624 0.040675983 0.121527724 0.034631804 -0.10485541 -0.027604982 0.07055014
0.0844026 0.06840329 -0.08453087 -0.049783267 -0.062114973 -0.122691855 -0.06744457 -0.026948381
-0.13113964 -0.07926948 -0.033384137 0.07895366 0.048346523 0.13720366 -0.11980109 0.010807054
-0.004197864 0.0831147 -0.04907679 0.025042139 0.10215711 -0.08148391 0.0032296814 -0.07164957
-0.04924172 0.048881758 0.008281252 -0.08617521 0.0077351443 0.03517036 -0.07668868 0.015211522
-0.124159805 0.09365901 -0.12743652 0.007190241 0.07688608 0.054023422 0.012687613 0.08660534
-0.08147183 0.045761574 -0.055176508 -0.07101653 0.005084556 -0.0044679493 -0.02849347 -0.02300714
0.056321777 -0.003307149 0.06967502 0.03941038 -0.037360992 0.027418096 -0.06538195 0.123858266
-0.086418055 0.021834191 0.058193196 0.116671465 -0.026770601 0.101839215 0.014523155 -0.020084897
0.02843295 -0.09318647 0.07179041 -0.0972749 -0.044623494 -0.11968003 0.07148683 0.10055355
0.06330034 -0.08545307 0.06358628 -0.04711746 0.06373243 -0.107811235 0.0057001915 -0.054351404
-0.106775835 0.074496835 -0.11415835 0.060213473 -0.09418136 -0.07830279 -0.03235856 -0.012236736
0.0009862533 -0.005350521 0.071983784 -0.100718044 0.025223386 -0.04262146 0.0705209 -0.064145245
-0.057601947 -0.11609297 0.040457692 -0.11775132 -0.008765538 0.06816894 0.019626014 -0.057141587

bias f4 [64]
00000000: b8b3 44bd 6b6b b8bc 84ee ab3d 60ce 5c3d
00000010: 07d7 ebbd 1717 f93c bf92 813d 3c84 5abd
00000020: a740 583d 04fb aebd ce3d d2bd 8aad 06be
00000030: 8a79 083c cf3e 85bd 5469 04be d8b5 ce3d
00000040: 804d c7bc 8c37 3e3d dcac c8bc 21ba 8d3c
00000050: 6c4a d93d ac96 c2bc f0cd 99bd 571c e0bd
00000060: 1f11 02be c3cf 46b8 742e 21bd 4e74 b1bd
00000070: f860 f93d 19a1 973d 553a 453d 09d9 e1bd
00000080: cc79 ec3d a0f0 fabd cc7d 2dbd 0eac a13d
00000090: 76e4 e9bd 5ed4 4fbc afb6 c5bd 1859 38bc
000000a0: b8b3 a9bb e550 0b3d d957 68bb 8523 11bd
000000b0: 7873 2d3d 192c b13d a102 643d 2e5e 783c
000000c0: b910 d7bc 2e88 8fbd a195 eebd e4d4 cbbd
000000d0: a88c b9bd fd36 d4bd c044 66bd 5e67 813c
000000e0: a951 3dba da85 103c 5601 2bbd dbfb cf3d
000000f0: 78e6 573d 7a44 b2bd 6ba1 343c f58d aabd
-0.048022956 -0.022512158 0.083951026 0.053907752 -0.115156226 0.030406518 0.06326818 -0.053348765
0.052796032 -0.08543971 -0.102656946 -0.13152137 0.008329758 -0.065061204 -0.12930804 0.10093278
-0.024328947 0.046439692 -0.024496488 0.017300667 0.10609898 -0.023753487 -0.075099826 -0.109429054
-0.12701844 -4.7400372e-05 -0.03935094 -0.086647615 0.121766984 0.07403774 0.048151333 -0.11027724
0.115466684 -0.12252927 -0.042356297 0.07894145 -0.114205286 -0.01268491 -0.09653985 -0.01125171
-0.005178895 0.034012694 -0.0035452752 -0.035434265 0.042346448 0.08650989 0.05566657 0.015159173
-0.026253091 -0.07008396 -0.11649633 -0.09952715 -0.09060031 -0.10362051 -0.05621791 0.01579636
-0.0007221946 0.008820975 -0.04174932 0.101554595 0.052710027 -0.08704467 0.011024813 -0.083278574

weight f4 [64]
00000000: 58ff 7f3f 1c08 823f 2663 813f 1000 7e3f
00000010: cfe1 793f 4a9e 7b3f b1f6 803f 273d 7c3f
00000020: 3212 7e3f e15e 803f 824a 813f 5c61 7f3f
00000030: d80a 7b3f 3f53 823f ed61 813f 3074 803f
00000040: fe01 843f d6b0 813f ece6 7d3f f25d 853f
00000050: 9ab3 833f a49f 823f 7ef5 813f 7fb7 823f
00000060: dfab 7f3f 56f3 823f 3f22 7f3f fc27 833f
00000070: b93e 803f bb15 803f 9dda 803f 88b6 833f
00000080: 3da6 833f 4d8d 7a3f 28e6 833f ba8a 7e3f
00000090: e5d9 7d3f bc20 7c3f a2e3 7f3f 6ab5 813f
000000a0: 140c 813f 22a7 813f b061 7a3f a006 7e3f
000000b0: e2ce 7b3f d29e 813f 2e72 7c3f bbe0 833f
000000c0: 616b 813f f617 843f 13d6 843f b4f5 7f3f
000000d0: 150f 7f3f 2a3f 853f d3ae 833f 2a3f 7e3f
000000e0: 10e1 783f dc40 7d3f 36c7 7e3f 5f2f 863f
000000f0: 962e 813f 47fd 7e3f 420b 813f d135 813f
0.99999 1.0158725 1.0108383 0.99218845 0.9761018 0.98288405 1.0075284 0.9853081
0.99246514 1.0028955 1.0100863 0.99757934 0.9806342 1.0181655 1.010801 1.0035458
1.0313108 1.0132091 0.99180484 1.0419295 1.0289185 1.0204968 1.0153043 1.0212249
0.9987163 1.023051 0.9966163 1.0246577 1.0019141 1.0006632 1.0066715 1.0290079
1.0285107 0.9787186 1.0304613 0.9943043 0.99160606 0.9848745 0.99956715 1.0133488
1.0081811 1.012913 0.9780531 0.9922886 0.98362553 1.0126593 0.98611724 1.0302957
1.0110894 1.0319812 1.037783 0.9998429 0.9963239 1.0409901 1.0287727 0.9931513
0.9721842 0.9892709 0.9952272 1.0483207 1.0092342 0.9960522 1.0081561 1.0094548

bias f4 [64]
00000000: e561 32ba 8eb4 433a 08c4 8dba 4609 873a
00000010: 0427 a93a ea4b a8ba 1cad 583a 082d 93ba
00000020: f1c0 8d3a 0986 7639 e962 bcb9 e07d 6eb9
00000030: 1dfb 8cbb 66c2 86ba b9cc a1b8 232d eaba
00000040: a8c7 2cba 33e7 e239 5506 b63a 7692 41ba
00000050: c3b6 f339 6dae a6ba 47ec 18ba 18d2 573c
00000060: 5fe0 0cbb de7a 48ba a441 08ba d8c9 6e3a
00000070: 6d98 2d3a d544 d03a 5a47 023a 7538 243b
00000080: 56e6 0b3a 336b e4ba 0a6e d7b8 d981 97ba
00000090: 7578 84ba 088b ea3a 0213 1dba 6b88 9cba
000000a0: b5c0 1e3a 8e1a 60bc 662e bfba 3d53 8839
000000b0: a6e7 26bb 7575 50ba 8223 7bba 926e 383a
000000c0: c53f 4bba 0461 193a 0698 0e3b 123a 49ba
000000d0: f158 4a3a 4e8c 1237 e473 d9b9 e238 b6ba
000000e0: 09ff 3a3b b53e 09b6 6cf6 113c 1e44 783a
000000f0: 6821 9d3a fa25 a83a 52f3 8a39 67b3 91ba
-0.00068047486 0.00074655644 -0.0010815868 0.0010302446 0.0012905304 -0.0012840007 0.00082655414 -0.001122863
0.0010814947 0.0002351032 -0.00035931848 -0.00022744341 -0.004302396 -0.0010281324 -7.715211e-05 -0.0017866235
-0.00065910304 0.00043278336 0.0013887385 -0.000738419 0.0004648474 -0.0012716778 -0.0005833548 0.013172649
-0.002149604 -0.0007647703 -0.00051977695 0.00091090566 0.00066221395 0.0015889654 0.00049697387 0.0025058065
0.0005336752 -0.0017426967 -0.00010272495 -0.0011559083 -0.00101067 0.0017894218 -0.0005991907 -0.0011942511
0.0006055937 -0.013678206 -0.0014585971 0.0002600196 -0.0025467663 -0.0007952073 -0.0009580181 0.0007035519
-0.0007753338 0.0005850943 0.0021758093 -0.00076761947 0.0007718942 8.734945e-06 -0.0004147581 -0.001390245
0.002853336 -2.045109e-06 0.008908849 0.00094705995 0.0011988105 0.0012828701 0.000265027 -0.0011116088

weight f4 [1, 64]
00000000: 2415 febd 1a6c ee3d 5b2b d6bd 12c1 643d
00000010: 0725 c93d a01c a4bd 5243 ce3d 438e b0bd
00000020: 9af1 493d fef3 553d 6b88 fcbd 2cd5 83bd
00000030: b254 aebb e728 81bd 1461 3bbd 3840 e9bc
00000040: 3070 aabd c09f 9b3d 3274 e43d 4f03 07be
00000050: c592 053e 4916 c8bd 7c8d 71bd a2ae e2bc
00000060: fd26 09bd 8bd8 16be 71e6 debd 3e1d 063e
00000070: 7768 b63d 44cb ad3d 92f1 763c a301 19bd
00000080: 8812 023e 64c8 abbd 8464 e6bd 9b03 e4bd
00000090: f3d1 54bc 88a9 5c3d 82a2 6dbd d571 c2bd
000000a0: 472d af3d d66c a93c 4465 7bbd 8dd5 38bc
000000b0: 5a01 e9bc 0087 dabd 714c b2ba 2d32 ed3d
000000c0: 3382 28bd f039 1f3e c936 47bd a9f7 d9bd
000000d0: b03a 8f3d 739e d73d b4ad 10be 57b1 a3bd
000000e0: 724f 393d c61f c5bc 9dde 283c fade b4bd
000000f0: a476 fb3d ef00 e53d 9970 92bd f954 febd
-0.12406376 0.116417125 -0.10457488 0.05584819 0.098215155 -0.08013272 0.10071434 -0.08620884
0.049302675 0.052234642 -0.12330707 -0.06437144 -0.005320155 -0.0630663 -0.045746878 -0.028473005
-0.08322179 0.07598829 0.11154975 -0.13184856 0.1304427 -0.097698756 -0.05897282 -0.027671162
-0.033484448 -0.14731042 -0.10883797 0.13097093 0.08906644 0.084860355 0.015072243 -0.037355077
0.12702382 -0.08387831 -0.112496406 -0.111335 -0.012989509 0.053872615 -0.058016308 -0.09494368
0.08553558 0.02068178 -0.06137587 -0.011281383 -0.028443027 -0.106702805 -0.0013603104 0.11581836
-0.041139793 0.15549445 -0.04863623 -0.106429406 0.069936156 0.10528269 -0.14128762 -0.07992809
0.04524178 -0.024063002 0.010306981 -0.08831592 0.12278488 0.11181819 -0.071503825 -0.12418551

exp_avg f4 [64, 3]
00000000: be58 f9b9 fe6a 713a ee00 853c 741c dd3b
00000010: 1721 a0bb 10ee acbc a7c8 f9bb 19f9 03bc
00000020: 4e2b a33d 77ea 633b 1c48 68ba 4eb3 fdbb
00000030: 62ed 643a 6db8 08ba 2b13 ccbb 7d73 abba
00000040: c1bf 813a 86e1 963b 3bd5 363b cd5c 743b
00000050: 17da 6ebc f8c0 aa3a 447f 5c3b c242 ccbc
00000060: 09eb eaba a3ef f83a cdd2 933a f03f bf3a
00000070: 459a 9c3b 2706 72bb 1fec 913a e56b c03a
00000080: 74d2 0bb9 faf8 27b8 c635 32bb 22a0 5d3c
00000090: f2ff 8b3b bd01 e7bb cacf 093d 1610 beb9
000000a0: 7733 c7ba 993d 9ebb 4d8a 26ba 7c62 4739
000000b0: d53c 34bb fef4 5abc 422f f23b d180 3dbd
000000c0: 5d76 543a 3316 89bb 2323 2a3d 9879 32bc
000000d0: c973 d43b e485 1fbd 5919 02bc bc55 78ba
000000e0: 68b9 173d b99a 873b a3ec d9b9 23bf 5e3c
000000f0: 9287 593b 9a4d c5ba db06 173c 3300 d2bb
00000100: 7f45 c63a 6bdd b63c e8ec 35bc 34fb c93b
00000110: 0241 ea3c 8fe7 ff3a 0ad4 61b9 be6e 813c
00000120: 37e6 d73b 2bf3 1cbb d9a4 aa3d 23db a23a
00000130: 858d 20bb 49c4 5bbc 973e bdba 54aa 37ba
00000140: 3e11 f7ba 4c8c ac3b 55f1 1fbb d391 a9bb
00000150: 47ca a1bb f757 ca3a c9e6 a4bc 9af2 a6bb
00000160: 2911 3b3b 39c2 ee3c 476a a6bb c4e4 acb8
00000170: 0b22 6bbb 454f 8bb9 9f0c c2b9 73c3 cbba
00000180: d5e4 19bb 72a3 8dba 18d3 91bc fa64 aeba
00000190: 6e38 afb9 cfa9 d03c bafa 80bb 8cdd 443a
000001a0: 2fce 8bbc 7057 3c3c d579 c1bb f87c 26bd
000001b0: 5dca ca3b 8e9a 8abb 8e0f b2bc d407 443c
000001c0: 75dc ccbb fcc9 c03d f1bb 63ba d0dd e639
000001d0: 04f0 65bb d9f7 cd3a 9ff5 78ba 890a ce3c
000001e0: 15c0 6539 1b99 d937 5a00 3cba e174 02ba
000001f0: cdd0 be3b 4353 11bd 16e3 dcb9 9cd7 8d3a
00000200: 297f 66bc 3d33 e73b 2998 703a ef50 dd3b
00000210: 5363 01bb 2495 b13b 1afa 28bd ae05 57bb
00000220: 8246 6d3a 6dbe 2a3d bf2e 26ba 360f db3b
00000230: 2d8f 03bd 8195 9bbb 13f0 ecb9 5275 e1bc
00000240: 0382 efbc 2083 263c 1501 b9bd dbfc 8bba
00000250: 7f6b 3f39 480b ab3b 9089 963a b3df 203b
00000260: c9cb 06bb c1df 0d39 183b d23b 58b0 34bd
00000270: 402d 433c 05d8 ffbb af2f 3abd ac57 973b
00000280: e403 c83a 17a9 e63b c860 15bc 8b77 533b
00000290: 66bf acbc fc4d 083c 24a9 2bb9 ab01 5f3c
000002a0: e79a c7bb d8b4 e13b 5504 69bd b2e2 e437
000002b0: a7c7 44ba b4da 20bc 86ff 083c ee5d babb
000002c0: 8070 08bd 8770 7d3c e226 da3a e8f9 803d
000002d0: d2d3 983a 9d0a 3639 2c16 e1bb e818 a73b
000002e0: b7f3 2fba d372 dc3c 7144 603b aefb 7fba
000002f0: 6630 6d3c 709f 963b 6f5e 24bb 0f35 eebc
-0.000475591 0.00092093635 0.016235795 0.0067477766 -0.004886757 -0.02110961 -0.0076227966 -0.008054995
0.07967244 0.0034777203 -0.0008860843 -0.007742322 0.00087328826 -0.000521547 -0.006227871 -0.0013080683
0.0009899066 0.004604521 0.0027898091 0.003728676 -0.014578364 0.001302748 0.0033645192 -0.024934176
-0.0017922829 0.0018992316 0.0011278033 0.0014591198 0.0047791325 -0.0036929937 0.0011132992 0.0014680593
-0.00013334473 -4.004778e-05 -0.0027192696 0.013526948 0.0042724544 -0.0070497678 0.03364543 -0.0003625161
-0.0015197833 -0.0048291204 -0.0006353006 0.00019014807 -0.002750208 -0.013364075 0.0073908875 -0.046265427
0.00081047957 -0.0041835546 0.041537415 -0.010893248 0.006483529 -0.038946047 -0.007940614 -0.00094732246
0.03704205 0.0041383174 -0.00041565773 0.013595375 0.0033192378 -0.0015053034 0.009217943 -0.006408715
0.0015126913 0.022322377 -0.011103846 0.006163979 0.028595451 0.0019523966 -0.00021536663 0.015799876
0.006588723 -0.002394865 0.083322234 0.0012424927 -0.0024498415 -0.013413497 -0.0014438209 -0.0007006277
-0.0018849743 0.005265748 -0.002440532 -0.0051748543 -0.0049374434 0.0015437593 -0.020129578 -0.0050948383
0.0028544164 0.029145347 -0.005078587 -8.24421e-05 -0.0035878445 -0.00026571206 -0.00037011967 -0.0015545919
-0.0023482342 -0.0010806157 -0.017800853 -0.001330524 -0.00033420644 0.025471596 -0.003936139 0.00075098197
-0.01706609 0.011495456 -0.005904416 -0.040646523 0.0061886744 -0.00422985 -0.021735933 0.011964757
-0.0062518665 0.094135255 -0.0008687368 0.00044034282 -0.0035085687 0.0015714123 -0.00094970496 0.025151508
0.00021910698 2.5939711e-05 -0.0007171683 -0.0004976523 0.005823231 -0.035479795 -0.00042130862 0.0010821703
-0.014068403 0.0070556686 0.0009177947 0.006754033 -0.001974304 0.0054193903 -0.04125414 -0.0032809782
0.0009051339 0.04168551 -0.0006339363 0.006685163 -0.032118965 -0.004748047 -0.00045192297 -0.027521763
-0.0292368 0.010163099 -0.090334095 -0.0010680215 0.00018255225 0.0052198507 0.0011485089 0.0024547398
-0.0020568243 0.00013530163 0.006415736 -0.044113487 0.011912644 -0.007807734 -0.04545563 0.0046186056
0.0015259949 0.0070392 -0.009117313 0.0032267298 -0.02108736 0.008319374 -0.0001637084 0.0136112375
-0.006091464 0.0068880133 -0.056888897 2.7285281e-05 -0.0007506557 -0.009817768 0.008361703 -0.005687467
-0.033310413 0.015468723 0.0016643668 0.06297666 0.0011659807 0.00017360826 -0.006869098 0.0050994046
-0.00067120366 0.026910221 0.0034220482 -0.0009764981 0.014476871 0.004596643 -0.00250807 -0.029078035

exp_avg_sq f4 [64, 3]
00000000: 5604 a93a 9c76 1539 8f99 d73b 6a3e 3f39
00000010: 5150 d938 daf3 903c 98bf 8c3c 7274 223b
00000020: bba1 863d 7865 d13a caee 5738 29db a53a
00000030: 2d76 c039 fefa 9738 c7e7 783b 85b6 6239
00000040: 14af cd37 96aa e73a 4557 0938 adb1 3438
00000050: 6169 d73a d773 f939 c008 9b38 e6b8 913b
00000060: 2366 d336 6af8 1f37 9e95 4c39 31e2 7a3a
00000070: b664 6639 725e a73b 03bb b837 2323 5737
00000080: 3790 5f3a 38b3 7b3a 92c9 c738 8828 8d3a
00000090: e812 893a f661 a239 00b8 e13b 733b 023a
000000a0: 589c 8f38 e0a0 3a3b da8e ec37 2901 0c37
000000b0: 94ed 5739 5dcd 093c 1026 af3a 9c37 eb3c
000000c0: 60b7 753a 6dc8 f639 9c3c a63c 7514 f23a
000000d0: cd34 0b3a c40c 643c 453b 533b 9ce5 e639
000000e0: 840e 9d3c 2e8b e738 7afd 8138 7256 7e3b
000000f0: e5a6 b539 63ad 1839 5aed a03b 8d4b 8f39
00000100: b0eb 2f39 bd25 293c ecac 5639 5773 ef38
00000110: 2bdc 8d3c bcf5 1a38 6947 db37 a5ac 1d3b
00000120: d95f e839 f8ba 353a 09d2 0e3d 655e b03a
00000130: d95e 0939 1c68 193c fd3a fc38 bc03 aa37
00000140: ad3d ac3a bc8c 5e3a 85ef 5539 5c63 633c
00000150: 4c25 5d3a fe97 a339 8241 143c 2f32 7138
00000160: d95d 7937 f0ca 603b 89b4 8d3a 1534 2239
00000170: b354 b63b 428d 3a35 3d9e 1735 db5a ed37
00000180: 2afd a93a 7e30 b238 8317 343b cd5d 5839
00000190: 8524 9f38 1b60 ac3b c942 4b39 e55d 0038
000001a0: 13da ec3a 465d bf39 7950 8539 eda0 153d
000001b0: 5ae5 4e38 96d4 e037 0483 bd3b ee2f 5b3c
000001c0: 9277 f33a c28d 393d 8392 6137 202a f336
000001d0: 8647 253a 2d0f a63a b56d 5d39 1695 503c
000001e0: 43da 4635 70c3 4536 83ff a038 3782 253b
000001f0: 1825 f139 7e90 053c 9387 af3a 5790 5238
00000200: 8712 443a 04fe 553a db3d b138 b0cb 813b
00000210: fe6f 113a 2d35 b639 eb52 743c c404 363c
00000220: a21c a23a 7bbe 503d 6c4a e839 9184 9f39
00000230: c757 263c b87e e537 9250 1b38 8bff 963b
00000240: 3ff6 943c 927f 473b 6f94 9d3d 738f 0238
00000250: 593a f036 eac6 8139 7fc6 2d37 2250 9737
00000260: 5983 763a 4a4a 4a3a 6658 e339 1178 883c
00000270: 587f 343a e061 a339 2cf3 073d 9876 8c38
00000280: 5aec 3838 8558 9f3b 2fc9 403b f87e 3a39
00000290: ad5c 173b 37d7 6d3a c55c fe38 e395 ad3b
000002a0: 5128 353a b158 e539 772f 9a3c 9ad1 f43a
000002b0: fac5 2839 9a04 b53b 6c03 293a 855b 8e39
000002c0: 0478 d23c 6aeb a139 6ca5 9c39 b791 0e3d
000002d0: 14e6 ea36 1d59 7e36 0d24 0d3a 9c3c 8d39
000002e0: 259e 2039 b882 183c d803 ed39 a1bc 0839
000002f0: 725c b93b 393c 6b39 70ee ba38 95b1 f73b
0.0012894969 0.00014253933 0.006579585 0.0001823843 0.000103623264 0.017694402 0.017181203 0.0024788645
0.065738164 0.0015975675 5.1482384e-05 0.0012653816 0.00036709142 7.246992e-05 0.0037979947 0.00021621033
2.4519431e-05 0.001767474 3.274462e-05 4.3080818e-05 0.0016434604 0.00047579288 7.392606e-05 0.0044470904
6.3001803e-06 9.534977e-06 0.00019510693 0.00095704483 0.00021972027 0.0051076943 2.2021593e-05 1.28231795e-05
0.00085282646 0.0009601596 9.526605e-05 0.0010769526 0.0010457905 0.00030972034 0.0068883896 0.0004967965
6.847893e-05 0.0028477237 2.8199913e-05 8.34492e-06 0.00020592503 0.008410779 0.0013362784 0.02871304
0.00093733333 0.00047070105 0.020292573 0.0018469231 0.0005310297 0.013919059 0.0032231372 0.0004404009
0.01917196 0.000110408626 6.198413e-05 0.003880885 0.00034647356 0.00014560441 0.004911107 0.00027331375
0.00016777101 0.010323939 0.00020473049 0.00011417892 0.017316898 3.694532e-05 2.6140087e-05 0.0024059203
0.000443219 0.00069324626 0.034868274 0.0013455866 0.00013100672 0.0093632005 0.00012027284 2.0267318e-05
0.0013140939 0.0008489599 0.00020402491 0.01387867 0.00084360386 0.00031203026 0.009048821 5.7505615e-05
1.4863407e-05 0.0034300648 0.001081125 0.00015468926 0.005564296 6.9495957e-07 5.648215e-07 2.829491e-05
0.0012969126 8.496734e-05 0.0027479834 0.00020634309 7.588513e-05 0.00526048 0.00019384468 3.0605024e-05
0.0018070362 0.00036499853 0.00025427694 0.036530424 4.9327828e-05 2.6801874e-05 0.0057834405 0.013378127
0.0018575063 0.045301206 1.34451575e-05 7.2468683e-06 0.00063049083 0.0012669318 0.00021117071 0.012730857
7.407836e-07 2.9469047e-06 7.676987e-05 0.0025254616 0.0004599474 0.008152125 0.0013391845 5.020233e-05
0.00074795674 0.00081631565 8.451539e-05 0.003961049 0.0005547999 0.00034753364 0.014912347 0.011109535
0.0012368152 0.050962906 0.00044305937 0.00030425613 0.010152764 2.7357935e-05 3.7029917e-05 0.0046081
0.018183826 0.0030441028 0.07694327 3.1128013e-05 7.15935e-06 0.00024753 1.03578195e-05 1.8037917e-05
0.00094037276 0.00077167584 0.00043362676 0.016658815 0.0006885431 0.00031162705 0.03319089 6.69781e-05
4.4089138e-05 0.0048628473 0.002941679 0.00017785642 0.002309601 0.0009072902 0.000121289435 0.005297409
0.00069106097 0.00043744364 0.018821461 0.0018678189 0.0001609548 0.00552423 0.0006447348 0.00027152538
0.025691994 0.0003088371 0.00029877888 0.034806933 7.000528e-06 3.790082e-06 0.0005384095 0.00026938773
0.00015317702 0.0093085095 0.00045207026 0.0001304024 0.0056567723 0.00022433781 8.9135836e-05 0.007559011

exp_avg f4 [64]
00000000: 9020 fc3b a9f6 c7bb 9f76 ab3c bc66 94ba
00000010: cf64 75bb 2ee1 0b3b d3fd b23b 7809 1d3c
00000020: e374 7ab9 632a 7c3b f63a e8b9 8e68 a03a
00000030: 625c 12bc 4b24 41ba 11f8 bfba c7cf 4a3c
00000040: 272f 8cbc 712b 923b 93a0 cd3b 256e 72bb
00000050: a6c1 07bb 89f8 bc3b 9253 ba3b 9a65 bbbb
00000060: ddfb a8bc ac12 e4bb d1e8 db3a b925 6dbc
00000070: 96ac 8d3b 1bd3 cb3b f17a 773a 5c02 f539
00000080: 544b d7bb 897a 093c 879a 603b 5109 38bc
00000090: 553f a7bb 2193 06bc fcbd 903a 21d3 3c3c
000000a0: eda4 24b9 c4ae 5a3c 3d8c cb3b 981a a9b9
000000b0: 58db 813c f544 a23c f8ca 413c 5ae3 c93b
000000c0: 15b3 9b3c 5615 793a e042 1139 0f6b 8e3c
000000d0: b73d eabb 5ed5 1bbb ce7d 56bb 66db e8ba
000000e0: 6b77 913c e522 93bb fabb f6bb 7669 87bc
000000f0: de7c a3ba a6c4 1dbc 3ab2 b0bb 5e6b 0bbc
0.0076943114 -0.006102402 0.020930586 -0.0011322121 -0.003744412 0.0021343934 0.005462387 0.009584777
-0.00023885402 0.0038477413 -0.00044294418 0.0012238191 -0.008933159 -0.0007367774 -0.0014646073 0.01237864
-0.017112328 0.004460745 0.0062752455 -0.003699192 -0.0020714789 0.0057669324 0.005686232 -0.005718899
-0.02062791 -0.0069602337 0.0016777759 -0.014474326 0.0043235524 0.006220234 0.0009440622 0.000467318
-0.006570259 0.008391031 0.0034271793 -0.01123269 -0.0051039853 -0.008213789 0.0011042948 0.011524946
-0.00015701698 0.013347331 0.006211786 -0.00032254006 0.015851662 0.019808272 0.011828177 0.0061611356
0.019006291 0.00095017755 0.0001385319 0.017385034 -0.0071484703 -0.00237783 -0.0032728794 -0.0017765581
0.017757138 -0.0044902437 -0.007529733 -0.01652978 -0.0012473126 -0.009629404 -0.00539234 -0.008509485

exp_avg_sq f4 [64]
00000000: 8389 c23a 9f53 493a 6556 993c 52ad d33a
00000010: 80a1 0a3a a791 8739 0993 ee38 52e1 3f3a
00000020: 73ff 5e37 4284 aa3a 9516 6b38 4e83 803a
00000030: 7000 c53a b66a 163a e289 2838 af4e 1f3c
00000040: 2ddf 093b fc91 243b 869e 693b cf35 8d39
00000050: 128b 1e3a cc20 383a 5ca0 323a 19ef 1639
00000060: 82c0 073b 1876 e83a 87e5 4a39 5f1f d53a
00000070: 3024 9e3a 56f0 cf38 4be4 a93a 6c7b cd35
00000080: 3493 c03a 7154 dc39 27b2 8739 07aa cf3a
00000090: 8493 5e39 a614 783c 50c5 ec37 9c9e f33a
000000a0: 0d07 9436 36b6 523b e94a ba3a 6021 803a
000000b0: fa8b b43a 26d9 5e3c d9b4 7e3a ed96 1139
000000c0: 81e4 ae3c ad6a 2038 1d0b 4638 89ac ec3a
000000d0: 1991 ee3a 6e34 6b39 3f9f 453b 5790 913a
000000e0: b445 db3a cf31 0b3b 3eef d63a 52ca bb3a
000000f0: 2c07 6737 2006 3a3a c59c 4c3a 2fa2 0c3a
0.0014842007 0.0007680002 0.018717954 0.0016149676 0.00052883476 0.00025857726 0.00011376112 0.0007319647
1.3291708e-05 0.0013009387 5.6049397e-05 0.0009804757 0.0015030038 0.0005737947 4.0182735e-05 0.0097233495
0.0021037564 0.0025111428 0.0035647466 0.00026933706 0.0006047945 0.000702393 0.00068140565 0.00014394186
0.0020714109 0.001773539 0.00019349727 0.001625996 0.0012065228 9.915295e-05 0.0012961713 1.5309611e-06
0.0014692307 0.00042024584 0.0002588194 0.0015843519 0.00021226524 0.015141642 2.8225273e-05 0.0018586698
4.4115645e-06 0.0032152063 0.0014212999 0.0009775572 0.0013774626 0.013601577 0.00097162795 0.00013884502
0.021349194 3.8246322e-05 4.721723e-05 0.001805679 0.0018201201 0.00022430878 0.0030154733 0.0011105639
0.0016729147 0.0021239405 0.0016398204 0.0014327264 1.3770343e-05 0.00070962496 0.0007805343 0.00053647434

exp_avg f4 [64]
00000000: 834c 483c abce d9bb 04c6 c23b 1864 263b
00000010: 18a0 0d3b 7579 f73b 9709 2b3b b4ff 8cbb
00000020: 9ccd 96bb c190 67bb 39f2 c039 df7e 553c
00000030: 702c 8b3b 44f1 073a 8a5e 313a ff18 97ba
00000040: 7ca2 bcbc bf71 7d3b b1af 543c 91ca d1b9
00000050: ba68 06bc 1305 cd3b 09ec 3e3c ed60 71bb
00000060: de16 16bc a624 a4bb c9b1 bfbb bfbb a93b
00000070: ab63 b43a bd03 70bb eb77 87b9 ffa7 f8b9
00000080: 7b4a 96bb c68f 593c c217 af3b e690 b5bb
00000090: 101a 203b 5fdb fbba 19ac b53a 046f 823c
000000a0: 0f05 4fbb a306 063c d1f0 073b 863f 0fbc
000000b0: 8728 8b3b cda9 853c e877 363c 25ba 0ebb
000000c0: 81c5 beb8 5f0e 133c e710 c6ba 3bfb d13a
000000d0: 00bd 64bc 184c a1bb e28b cb39 2e83 4bbc
000000e0: 301d f63b e906 1dba f8d0 88bc d639 fdbb
000000f0: 2b80 0f3b 603a 3ebc d3ce e9bb 292a 9cbb
0.012225273 -0.006646951 0.0059440155 0.002538925 0.0021610316 0.0075523206 0.0026098245 -0.004302943
-0.0046021473 -0.0035334083 0.00036801564 0.013030737 0.0042472407 0.00051857927 0.00067661016 -0.0011527835
-0.023026697 0.0038672534 0.012981341 -0.0004001451 -0.00820368 0.0062567084 0.011652955 -0.0036831454
-0.009160725 -0.0050092516 -0.005850051 0.005179852 0.0013762614 -0.0036623322 -0.00025838552 -0.00047427413
-0.0045865155 0.013278907 0.0053434083 -0.005540955 0.0024429597 -0.0019215158 0.0013860493 0.015922077
-0.0031588709 0.008180293 0.0020742903 -0.0087431725 0.0042467746 0.016316319 0.011136986 -0.0021778431
-9.096694e-05 0.008975594 -0.0015111238 0.0016020307 -0.013961077 -0.004922401 0.00038823398 -0.012421412
0.0075108036 -0.00059901044 -0.016701207 -0.007727842 0.0021896462 -0.011610597 -0.007135251 -0.004765768

exp_avg_sq f4 [64]
00000000: c667 143b 7f1d ca3a 90a7 803a c227 fe38
00000010: ec04 6e39 a91b 4f3a c4a0 fa38 d669 2639
00000020: d4a0 e639 9217 6539 5787 bd38 97f4 9f3a
00000030: 2234 4f39 36ea 8839 71c8 5d39 f1b4 0d3a
00000040: b3b0 343b f1d0 9d3a 5a89 583b ea8a d338
00000050: 3ee1 f239 e122 513a 9f5e 703a d1e3 c139
00000060: 7cc7 ce39 a5bb c13a f09d 0c3a 6853 8f39
00000070: 19ac 0f38 0c47 5c39 98ba c838 c2cd f938
00000080: 169b ce38 4d4d b03a e6fd 8639 ba8b 0e3a
00000090: bf09 ac39 f8fb 533b 595d 9638 5e0b 853b
000000a0: f5c1 2138 6be4 833a 7d65 cd39 0e92 f73a
000000b0: b9a5 cc39 643f 903b f57b 683a d0ba 8039
000000c0: 2920 4c3a 2e27 353a 3e15 8f39 f044 2739
000000d0: f64a 2b3a c29a 5a39 6d85 323a eddc b73a
000000e0: e0aa 2a3a 6f32 2d39 cc8f 613b 8fb0 aa39
000000f0: f980 ca38 ba78 083a 41ff 963a 581d e239
0.0022644862 0.0015420167 0.0009815563 0.00012119069 0.00022699282 0.0007900545 0.00011950874 0.0001587042
0.00043988845 0.00021847922 9.037431e-05 0.0012203631 0.0001976048 0.00026114442 0.00021150873 0.00054056855
0.0027571141 0.0012040419 0.0033040852 0.00010087139 0.00046325655 0.00079779146 0.0009169373 0.00036981565
0.0003944001 0.0014780654 0.00053641107 0.00027337228 3.4254135e-05 0.00021007302 9.571499e-05 0.000119115706
9.8517325e-05 0.0013450772 0.0002574764 0.0005437691 0.00032813658 0.003234623 7.169945e-05 0.004060193
3.8566028e-05 0.0010062581 0.00039176262 0.0018888132 0.00039033385 0.004402088 0.00088685687 0.0002455325
0.00077867747 0.000691044 0.00027290912 0.00015952042 0.00065343024 0.00020847752 0.0006810043 0.0014027633
0.0006510448 0.00016517354 0.0034417985 0.00032556473 9.6561336e-05 0.0005205978 0.0011520163 0.00043127942

exp_avg f4 [64]
00000000: 253e 043b 80f3 51bb b159 81b9 2fed babb
00000010: a121 83bb e761 12ba 2864 483b 6266 ed3b
00000020: c2d5 193c 0e86 b43b a213 19bb 920d e9bb
00000030: 6802 e1bb d3cb 98ba 1fd1 59ba 958e 3e3b
00000040: 15aa 75bb 4a25 f13a 1e26 b5ba c3c2 81bb
00000050: 6baf 0d3b e5c9 bc3b 254a 3e3a d2cd 1dba
00000060: c754 12bc 5588 44ba fca8 9f3b bf28 38bc
00000070: 515e 043a ecb9 da3b b5fd d6ba 2fed 413a
00000080: 8ad7 623a fcd7 8b3b 8aeb 03bb fb0e a6bb
00000090: 4020 30bc 15f6 d6bb dfd8 a8ba 0771 863a
000000a0: 1af6 873b 13fb ac3b 5ba3 8f3b 893a 173b
000000b0: b313 5f3b 41fa 903b fa70 0d3b 95b0 913b
000000c0: 05a6 0f3c 6d92 07bc 4b37 c839 bb83 993b
000000d0: be2a bebb 7e56 8eba 9ece b0ba 4e7f 593b
000000e0: 8892 273c 62a2 08bb c409 ddba eff4 94bc
000000f0: 9145 53bb 41f3 91bb c936 073b 98c1 a3bb
0.0020178643 -0.0032036006 -0.00024671623 -0.005704544 -0.0040018116 -0.00055840466 0.0030577276 0.007244871
0.009389343 0.0055091446 -0.002335765 -0.0071122134 -0.006866742 -0.0011657424 -0.00083090545 0.0029076685
-0.003748541 0.0018397954 -0.0013820564 -0.003959985 0.002161945 0.0057613724 0.0007258973 -0.00060197443
-0.008931345 -0.00074971217 0.0048724394 -0.011240183 0.00050494546 0.0066749956 -0.0016402515 0.0007397709
0.00086533336 0.0042676907 -0.0020129406 -0.005067704 -0.0107498765 -0.006560097 -0.0012882015 0.0010257073
0.0041492106 0.005278954 0.004383487 0.002307566 0.0034038841 0.004424364 0.0021582232 0.004446099
0.0087676095 -0.008274657 0.0003818817 0.004684893 -0.005803435 -0.0010859517 -0.0013489311 0.0033187452
0.010227807 -0.002084874 -0.0016863872 -0.0181832 -0.003223751 -0.004454047 0.002063202 -0.0049974434

exp_avg_sq f4 [64]
00000000: c696 073a ebf3 4f3a 2060 853b 90b5 be39
00000010: 5faa 5e39 6b7b 8039 f81e 8c38 fff1 fe39
00000020: 19fd 433a 89db 1b3a bbbc 1d39 f78a 873a
00000030: c0c7 303a 171e 1e3a 891c ce39 e11b ad3a
00000040: 4e6f 9e3a cc83 e339 b796 b23a 2b8b d639
00000050: cc7a c439 da67 743a c7b4 003b 8988 373a
00000060: 9c21 153b 345c d039 b8cb 3d3a eb45 7a3a
00000070: 3057 8b39 0a15 193a 5a3f 8f39 5e66 6f39
00000080: 1fff 3339 6b18 af39 da15 b839 e229 ca3a
00000090: 30e3 6c3a c45a 303b 7bf0 2539 d561 713a
000000a0: d968 8f38 721f c339 5a81 e238 c09b a339
000000b0: 6297 193a a6ae 503b ce33 cd39 e5c0 153a
000000c0: a13c 663b 4158 9c3a d915 043a 6d38 253a
000000d0: 70e4 c83a 491e 083a e1c9 5839 926d 1d3a
000000e0: d519 4d3a 2200 b239 9d80 ca3a 8110 313b
000000f0: dc9d 4d39 610b 303a 71fe a93a 8ed5 0c3a
0.00051723083 0.000793277 0.004070297 0.000363749 0.00021235038 0.00024506016 6.6814886e-05 0.00048626956
0.0007476374 0.0005945494 0.00015042994 0.0010341097 0.0006743632 0.00060317054 0.00039312642 0.0013207161
0.0012087615 0.0004339501 0.0013625239 0.0004092095 0.00037475524 0.00093233364 0.0019639002 0.00070012413
0.0022755628 0.00039741548 0.00072401343 0.0009547162 0.00026577106 0.0005839622 0.00027322286 0.00022830951
0.0001716581 0.00033396794 0.00035111496 0.0015423859 0.0009036539 0.002690957 0.00015825212 0.00092079985
6.838301e-05 0.00037216727 0.000108006134 0.00031205826 0.00058590446 0.003184238 0.00039139244 0.00057126425
0.0035131352 0.0011928157 0.0005038656 0.00063026586 0.0015326869 0.0005192501 0.00020674571 0.0006005402
0.00078239787 0.00033950905 0.0015449707 0.0027017894 0.0001960913 0.0006715563 0.0012969506 0.00053723983

exp_avg f4 [64, 64]
00000000: 8363 c43c 61a6 843c 39c2 e3ba 4c30 2d3c
00000010: 0a8b 353c 3356 d33c fbb1 1fbc 4fe3 dcbb
00000020: 4fb5 c23b b082 cfbb ee4b fabb a791 6d3c
00000030: 494e c9ba fefe ebbb 81ac fbbb 6895 2fbb
00000040: f643 17bc 100c ecba 8172 633c 866d 0cbc
00000050: 34ce edbb faa6 353c 20e5 ac3b 897c 06bc
00000060: f192 f4bb 31fc b53c bb04 1ebc 9675 80bb
00000070: f933 86bb 5096 d1bb 37b6 8ebb 65ea 03bc
00000080: 791c dc3b 4014 a13c 4da1 15bc 4ad3 4e3b
00000090: 03ad 913b 3d6d f0ba d415 5ebb 00a7 853c
000000a0: b6f1 fdbb 1212 a0bb 170d deba 60bf 34bc
000000b0: 5110 09bc 1f4f 5d3c 90dd 11bc e906 06bc
000000c0: ac97 71bb 4e07 963b 7337 06bc d4b4 0cbc
000000d0: dffa 363c 3a26 05bc 948c b3ba 4986 30bc
000000e0: b5e8 01bc 41b1 183c a16b a93c f8cd 07bc
000000f0: aa66 f6bb a164 04bc a3ae 1fbc e5c0 093c
00000100: 1b16 81bc b12d 41bc 2497 f1ba e088 0dbc
00000110: 8dd5 14bc 56cc a1bc d0d7 b53b 69fb 983b
00000120: 1914 c9bb ad84 993b 689a 983b 94a2 c4bb
00000130: eccb eb3a 1599 a03b 0c3d 923b bda1 a93b
00000140: c31b c53b d7f3 a93b 352b 0bbc df3e 963b
00000150: 4828 c13b 8193 34bc 6a95 aebb 69a4 993b
00000160: 1e39 9c3b 822e 48bc 63be 993b 93dd 603b
00000170: 21a8 a23b 364f 623b 4aca 953b eb58 973b
00000180: f71a c4ba c8e4 21bc 3adc 973b cdfa 39bb
00000190: 35c0 73bb ebef 1f3a 31a5 cf3a cd6e 09bc
000001a0: 94ce 943b a702 a33b 810f b33b 8b71 c13b
000001b0: 06e5 9d3b e126 30bc 33e5 b53b 44c5 993b
000001c0: f65f ab3b 624c 7fbb 2c26 9e3b 09de 923b
000001d0: d125 11bc f487 a53b e7f9 b23b 7c7f bc3b
000001e0: e566 9c3b 1640 a2bb 75a4 76bc 9dbe b03b
000001f0: 1fe5 913b f831 be3b 1e02 9a3b 15f7 cabb
00000200: a73d 053c cb0d cd3b 3586 423b c867 b83b
00000210: 6faf b93b 11c6 b03b 413d 9bbc 9be4 ef3b
00000220: 7f9e c43b c521 d53b a91e 10bc 8cd5 1e3c
00000230: f152 a53b d032 e43b 458b c13b 063a 6f3b
00000240: e35d a4bc 59f8 c5bb db69 ce3b 58c3 ecba
00000250: 90a3 67bc 9c44 c43b 8254 ca3b 59b6 4fbb
00000260: b208 a7bb bb78 0f3c 8bd8 a9bb a81e 263b
00000270: 3ecf 023a 3265 ca3b 1d2f 433b 6ce0 a73b
00000280: 5ebc 013c 6657 1f3c 3142 09bc cbe0 c63b
00000290: 4cc6 c93b b51f 8aba 047d 8d3b f381 143c
000002a0: ce29 c53b b30c a0bb 738b e9bb af02 ddbc
000002b0: 6845 29bb 372f e93b 6eb6 87bc b4a6 843b
000002c0: cc4c fc3a 5550 c93b 4e01 12bc 0dcf ac3a
000002d0: 95bc 9e3b e109 fdbb 4015 24bc 640a 9abc
000002e0: b9b1 ddbb da1a f23b 2f79 bd3b 1f3b e5bb
000002f0: d99d c13b d8c3 60bc 640e edbb fcb9 c43b
00000300: 8bd6 11bc d10f 03bc 8395 7bbb d7d4 fabb
00000310: 4d6e eebb f310 fbbb f31f ae3c 4b75 cebb
00000320: 5e29 fcbb e6b1 d2bb c7eb 053c dc98 19bc
00000330: 6fdc 9dbb 78db 02bc ac7e f4bb 0569 82bb
00000340: e0b6 a33c 1b4a 3e3c 0a21 b7bb 496c 693b
00000350: 70e5 5f3c 5e60 fdbb 79ca 00bc 9565 7b3b
00000360: 4362 373b fddb 16bc 9085 1e3c 2219 a9bb
00000370: 0a09 32ba a398 00bc 5e0b 20ba 6e3a e4bb
00000380: 41dc 0bbc a334 16bc 50b1 403c c5b4 fcbb
00000390: 8437 00bc 64d1 a33b a285 cebb c995 18bc
000003a0: a186 fabb b8e9 253c b8a9 453c dc0c 0a3d
000003b0: ad92 503b e5af 08bc 51cc 933c 3863 c3bb
000003c0: 0eae 6cbb 5f3d fdbb a8be 163c 245c f537
000003d0: b2ee efbb 796a 883b 8840 663c 08d7 b73c
000003e0: 5d0d 023c 7ebb 0cbc 01e0 ffbb 0679 4e3b
000003f0: 04f9 f5bb a027 413c 06bd 263c 7684 fabb
0.023973232 0.016192617 -0.0017376608 0.010570597 0.011080513 0.025797939 -0.009747024 -0.0067409645
0.005942024 -0.006332718 -0.007638446 0.014500058 -0.0015358414 -0.0072020283 -0.007680476 -0.0026791934
-0.009232512 -0.0018008966 0.01388228 -0.008571034 -0.0072572473 0.011087174 0.0052763373 -0.008208402
-0.007463806 0.02221498 -0.0096446825 -0.0039202673 -0.004095551 -0.0063960925 -0.004355218 -0.0080514895
0.0067172614 0.019662976 -0.009132695 0.0031559044 0.0044456734 -0.0018343102 -0.0033887522 0.016314983
-0.0077497615 -0.0048849666 -0.0016941157 -0.0110319555 -0.008365707 0.0135076335 -0.008902922 -0.008180358
-0.0036864085 0.0045785075 -0.008191931 -0.008588035 0.011168211 -0.00812679 -0.0013698512 -0.010774204
-0.007929017 0.009319604 0.020681204 -0.008288853 -0.0075195627 -0.008080632 -0.0097462265 0.008407806
-0.015757611 -0.011790679 -0.0018431884 -0.008638591 -0.009084118 -0.019750755 0.0055494085 0.0046686423
-0.006136429 0.0046850056 0.0046570785 -0.006000826 0.0017989851 0.0049010613 0.0044628438 0.0051767514
0.0060152723 0.0051865387 -0.008494188 0.0045851315 0.0058946945 -0.011021496 -0.00532787 0.0046887887
0.004767551 -0.01221812 0.0046918853 0.0034311756 0.00496389 0.0034532077 0.004571234 0.004618754
-0.001496165 -0.009881206 0.0046344073 -0.0028378249 -0.0037193422 0.0006101119 0.0015842078 -0.008388233
0.0045412276 0.0049746814 0.0054644947 0.005903428 0.0048185615 -0.010751457 0.0055510043 0.0046927053
0.0052299453 -0.003895544 0.004826328 0.004482035 -0.008859114 0.0050516073 0.0054619196 0.005752502
0.004773008 -0.0049514873 -0.015053858 0.0053938166 0.004452362 0.0058042966 0.0046999594 -0.0061940053
0.008132375 0.0062577478 0.0029682044 0.005627606 0.0056666653 0.005394705 -0.018950107 0.007320953
0.0060003395 0.00650427 -0.008796372 0.009694468 0.005045288 0.006964065 0.005906495 0.003650309
-0.0200643 -0.0060415682 0.00629924 -0.0018063588 -0.014138117 0.005989624 0.006174625 -0.003169438
-0.005097472 0.008756812 -0.0051832846 0.0025347862 0.0004989988 0.006176614 0.002978272 0.0051231887
0.007918445 0.009725427 -0.008377598 0.006069278 0.006157672 -0.0010538014 0.0043178815 0.009064185
0.0060169464 -0.0048843264 -0.0071272193 -0.026978819 -0.0025828723 0.007116224 -0.016566481 0.004048193
0.0019248961 0.0061436095 -0.008911444 0.0013184265 0.004844258 -0.007722125 -0.010014832 -0.018803783
-0.006765571 0.007388455 0.0057822685 -0.006995573 0.0059087095 -0.013718568 -0.0072343815 0.0060036164
-0.008901249 -0.007999376 -0.0038388676 -0.007654767 -0.0072763325 -0.0076619326 0.021255469 -0.0063006035
-0.007695361 -0.0064298986 0.0081738895 -0.009374823 -0.0048175375 -0.007986896 -0.0074613895 -0.0039798045
0.019984663 0.011614348 -0.0055886554 0.0035617521 0.013665542 -0.007732435 -0.007860773 0.0038360108
0.0027982153 -0.009207723 0.0096753985 -0.005160467 -0.0006791508 -0.007848891 -0.00061052095 -0.006964973
-0.008536399 -0.009167823 0.011761025 -0.007711979 -0.007825736 0.0049993265 -0.0063025514 -0.009313055
-0.0076454435 0.010126524 0.01206439 0.03370367 0.0031825707 -0.008342718 0.018041762 -0.0059627555
-0.0036114487 -0.0077282633 0.009200729 2.9249182e-05 -0.007322156 0.004163083 0.014053471 0.022441402
0.007937756 -0.0085896235 -0.007808686 0.003150524 -0.0075064916 0.0117892325 0.010176903 -0.007645185
