experiments/training_curves/SHAC/seed_200/best_policy.pt (torch, 167108 bytes, 63 tensors)

weight f4 [64, 3]
0	0x3df456b1	0.119305976
1	0x3d74ef26	0.059798382
2	0x3f0cacdf	0.5495128
3	0xbf2928bb	-0.66077775
4	0xbeb07048	-0.34460664
5	0x3efd0536	0.49418038
6	0x3e58d15c	0.21173614
7	0x3f15ff5e	0.58592784
8	0x3e09a323	0.13441138
9	0xbe6a0307	-0.22852717
10	0x3ebc46d1	0.3677278
11	0x3e69b9f0	0.22824836
12	0xbd028c07	-0.03187182
13	0x3cbda829	0.023151474
14	0x3ed9fa0f	0.42573592
15	0xbec47c41	-0.38376048
16	0x3ea9062e	0.33012527
17	0x3f031f68	0.512198
18	0xbe4905c8	-0.19631112
19	0x3e19d332	0.15021971
20	0xbf01d2d7	-0.5071234
21	0x3ed06e38	0.4070909
22	0xbd541616	-0.051778875
23	0xbdded664	-0.108807355
24	0xbe0f3f9b	-0.13989107
25	0x3ed58f9c	0.41711128
26	0x3e92b4d3	0.28653583
27	0x3ebaa84b	0.36456522
28	0x3d182427	0.037143853
29	0x3d8007c0	0.06251478
30	0xbf04a8ec	-0.51820254
31	0x3ee6ce1b	0.4507912
32	0xbed889dd	-0.4229268
33	0x3e837bff	0.2568054
34	0xbead563f	-0.33854863
35	0x3ea0aa56	0.31379956
36	0x3d6ab0f6	0.05729767
37	0x3ced7689	0.028987186
38	0x3cdd00fc	0.026978008
39	0x3ee9f0e3	0.45691594
40	0xbb0312da	-0.002000025
41	0x3df5d6fd	0.120038964
42	0x3e8354bc	0.25650585
43	0xbf145e93	-0.5795681
44	0x3e385129	0.1799971
45	0x3de875e7	0.11350613
46	0xbf0f3199	-0.55935055
47	0xbda94110	-0.08264363
48	0xbec694e5	-0.38785473
49	0xbe07bf58	-0.13256586
50	0xbee0558d	-0.4381527
51	0x3ec62608	0.3870089
52	0xbe6c10b5	-0.23053248
53	0xbe834d82	-0.2564507
54	0x3f0d490e	0.551896
55	0x3ec61f97	0.38695976
56	0x3eb24aec	0.34822786
57	0xbcc2ef4d	-0.023795748
58	0x3f133845	0.57507735
59	0xbe71739c	-0.23579258
60	0xbe9c3b37	-0.30513927
61	0xbec926bc	-0.39287364
62	0xbea0b175	-0.3138539
63	0x3e1b69dc	0.15177101
64	0x3f147111	0.57985026
65	0x3f08dc55	0.534612
66	0xbdb8b498	-0.090188205
67	0x3ef2ca7e	0.47420114
68	0x3ea9390e	0.33051342
69	0xbddc840f	-0.10767376
70	0x3e9003da	0.28127939
71	0xbe8d5e70	-0.27611113
72	0xbf1a34f3	-0.60237044
73	0x3ed084e9	0.40726402
74	0xbe126b3b	-0.14298718
75	0xbcc4fdca	-0.024046797
76	0xbee3c28a	-0.4448436
77	0x3ef2ba2c	0.47407663
78	0x3f115220	0.5676594
79	0x3dd6567b	0.104657136
80	0xbf0157e9	-0.50524765
81	0xbe3af665	-0.18258055
82	0xbe7e7c48	-0.24852097
83	0x3b1cd025	0.0023927775
84	0xbc1b5f42	-0.00948316
85	0xbe8b7963	-0.27241048
86	0xbd9d2d84	-0.07674697
87	0xbdd99aa4	-0.106251985
88	0x3e8331c4	0.25623906
89	0x3daff4f3	0.08591642
90	0x3e9c93ba	0.30581456
91	0xbe09f2eb	-0.13471572
92	0xbddfb4ab	-0.109231316
93	0x3e01dc92	0.12681797
94	0xbedf3067	-0.43591616
95	0xbdd320d8	-0.10308999
96	0x3c0f7a76	0.008757224
97	0xbee7654a	-0.45194465
98	0x3e365cfd	0.1780891
99	0x3ead8be3	0.33895788
100	0xbe31192e	-0.17294762
101	0x3ece6d89	0.40317944
102	0x3e8d5c06	0.2760927
103	0xbc943511	-0.01809171
104	0xbedd269c	-0.4319352
105	0xbebfe355	-0.37478128
106	0xbe38082b	-0.17971866
107	0x3e89d6f3	0.26921806
108	0xbedc68e8	-0.43048787
109	0x3e8b11f0	0.27162123
110	0x3e852532	0.2600494
111	0x3e2670e6	0.16254005
112	0x3ef8adae	0.48570007
113	0xbcbd08a1	-0.023075404
114	0xbedfd963	-0.4372054
115	0x3e7c824e	0.24659082
116	0x3bb7488f	0.0055933665
117	0x3ef1f3f3	0.4725643
118	0xbed0070e	-0.40630382
119	0x3f0d607b	0.5522534
120	0xbe8460c5	-0.2585508
121	0xbefd401a	-0.49462968
122	0x3d30caa6	0.04316201
123	0x3ebb5a20	0.36592197
124	0xbc059ca4	-0.008155022
125	0xbe7be4c2	-0.24598983
126	0x3ea497d6	0.32147092
127	0xbeb893cd	-0.36050263
128	0xbe9047a6	-0.28179663
129	0xbc430432	-0.011902856
130	0x3f0b6fff	0.5446777
131	0xbf0db2b0	-0.5535078
132	0x3e8ceea1	0.2752581
133	0xbea92311	-0.33034566
134	0xbede6784	-0.4343835
135	0x3e88275c	0.2659253
136	0x3ee5e6fd	0.44902793
137	0x3ed96780	0.42461777
138	0xbd8db078	-0.06918424
139	0xbe696be2	-0.2279506
140	0xbee9faa2	-0.4569903
141	0xbe210d2a	-0.15727678
142	0x3d705aca	0.058680333
143	0xbdf4dda3	-0.11956336
144	0x3ceb21d0	0.028702646
145	0xbf1ed255	-0.6203969
146	0xbe0d00ba	-0.13769808
147	0x3e51bd36	0.20482334
148	0xbeab2f16	-0.3343436
149	0x3ed937d1	0.42425397
150	0xbe159361	-0.14607002
151	0xbd4aa2bc	-0.0494716
152	0xbeebf8b2	-0.46088177
153	0x3e784867	0.2424637
154	0x3e6bf84a	0.23043934
155	0xbe650173	-0.22363834
156	0xbeff067a	-0.4980963
157	0x3ed2a2e9	0.41139916
158	0x3e428947	0.1899768
159	0xbee7e263	-0.45289907
160	0xbef85491	-0.4850202
161	0xbeb2d7d5	-0.34930292
162	0x3e3b434c	0.1828739
163	0xbec9bde1	-0.3940268
164	0xbe911f1e	-0.28344053
165	0xbe028d07	-0.1274911
166	0x3ed491a9	0.4151738
167	0xbed7c922	-0.4214564
168	0x3e82d297	0.25551292
169	0xbefe186c	-0.49628007
170	0xbed693c3	-0.41909608
171	0xbdb9c132	-0.09070052
172	0xbe4e670a	-0.20156494
173	0x3e6aa6a8	0.22915137
174	0xbf01cdd4	-0.50704694
175	0xbe1a8f87	-0.15093814
176	0x3ef8f303	0.48622903
177	0xbf2387c7	-0.63879055
178	0xbe53681f	-0.20645188
179	0xbe86168f	-0.26189086
180	0xbea765da	-0.32694894
181	0xbe8e5cc7	-0.27805158
182	0x3d8605ad	0.06544051
183	0xbf06e9ed	-0.5270069
184	0xbd7b8090	-0.061401904
185	0xbea62e02	-0.32456976
186	0x3dcefb67	0.10106545
187	0x3e8b8c3a	0.27255422
188	0xbebac308	-0.36476922
189	0xbe8a995c	-0.2707013
190	0xbec92cd9	-0.3929203
191	0x3eb9a3ba	0.36257726

bias f4 [64]
0	0x3e70907f	0.23492621
1	0xbea58fb5	-0.32336202
2	0x3d56d63e	0.05245041
3	0x3ea9b37e	0.33144754
4	0xbdb18e3b	-0.086697064
5	0x3ea9a209	0.33131436
6	0x3cac7058	0.021049663
7	0xbe396fc4	-0.18109041
8	0xbe2d42b4	-0.16919976
9	0xbc0be217	-0.008537791
10	0xbf1a222c	-0.6020839
11	0x3ec3d91a	0.38251573
12	0x3e8fee51	0.28111508
13	0xbe50f3e9	-0.20405544
14	0xbeedcf5c	-0.46447265
15	0x3e9894d0	0.29801035
16	0x3e9be68e	0.30449337
17	0x3efb28b9	0.49054506
18	0x3ea84b9f	0.32870194
19	0xbea349a6	-0.31892127
20	0x3ecf3796	0.40472096
21	0xbf029f7b	-0.510246
22	0xbeef3f21	-0.4672785
23	0xbe846dbc	-0.2586497
24	0xbd018363	-0.03161944
25	0x3ebabb5e	0.36471075
26	0xbf03dcf1	-0.51509005
27	0x3e4b8e04	0.19878393
28	0x3eadbd04	0.3393327
29	0xbf12c2ed	-0.57328683
30	0x3e39e85e	0.18155047
31	0xbec5d54b	-0.38639292
32	0x3e94e120	0.29078007
33	0x3ee2e32d	0.44313946
34	0xbe30e519	-0.17274894
35	0xbeadb477	-0.33926746
36	0xbef9c8a2	-0.48785883
37	0x3ee8f3ea	0.45498592
38	0xbe103642	-0.14083198
39	0xbd80f570	-0.062968135
40	0xbeefdc02	-0.4684754
41	0x3ea4a3fd	0.32156363
42	0x3f025e25	0.50924903
43	0x3eb2eb8a	0.34945327
44	0xbefad0ab	-0.48987326
45	0x3d3b914c	0.045792863
46	0x3e2c737c	0.16840929
47	0xbee5f2d5	-0.4491183
48	0x3e24e991	0.16104724
49	0xbecbf176	-0.39832658
50	0xbeb4bb60	-0.35299206
51	0xbeaa2d70	-0.3323779
52	0x3e9e574a	0.3092597
53	0xbece346c	-0.4027437
54	0x3f15b857	0.58484405
55	0x3e4a4311	0.19752146
56	0xbe09dc4f	-0.13462947
57	0x3e963177	0.29334614
58	0x3df74975	0.12074558
59	0xbead25d9	-0.33817938
60	0xbedc37a2	-0.43011194
61	0x3e2105ef	0.1572492
62	0xbe55e99f	-0.208899
63	0xbdd5fd8e	-0.10448752

weight f4 [64]
0	0x3f7d1463	0.9885923
1	0x3f7ff51c	0.9998338
2	0x3f8bf433	1.0933899
3	0x3f816efb	1.0111994
4	0x3f732197	0.9497313
5	0x3f793dc7	0.9735989
6	0x3f79b89c	0.97547317
7	0x3f7eb06c	0.9948795
8	0x3f7c6fb5	0.9860795
9	0x3f7d38a8	0.98914576
10	0x3f750d6d	0.9572361
11	0x3f7b150d	0.98078996
12	0x3f7f651b	0.9976365
13	0x3f8135af	1.0094508
14	0x3f79759f	0.974451
15	0x3f843631	1.0329038
16	0x3f8174c0	1.0113754
17	0x3f7ffba5	0.99993354
18	0x3f82a7c6	1.020745
19	0x3f78c873	0.9718086
20	0x3f809bf4	1.0047593
21	0x3f80679e	1.0031621
22	0x3f7f600c	0.9975593
23	0x3f7ca6f0	0.98692226
24	0x3f878220	1.0586586
25	0x3f7e2a6b	0.99283475
26	0x3f7e9882	0.9945146
27	0x3f815526	1.010411
28	0x3f7841f0	0.9697561
29	0x3f80ebb2	1.0071929
30	0x3f7b7c40	0.98236465
31	0x3f7a4992	0.9776851
32	0x3f7aaa05	0.9791568
33	0x3f7a9e71	0.9789801
34	0x3f7b082d	0.9805935
35	0x3f7f2d6c	0.99678683
36	0x3f81b26f	1.0132579
37	0x3f85afad	1.0444237
38	0x3f768df3	0.9631035
39	0x3f7d2c07	0.98895305
40	0x3f7d49a8	0.98940516
41	0x3f765c33	0.96234435
42	0x3f77218e	0.96535575
43	0x3f816fcb	1.0112242
44	0x3f80c2f0	1.005949
45	0x3f836949	1.0266505
46	0x3f7ce984	0.98793817
47	0x3f7eb272	0.99491036
48	0x3f8a8509	1.0821849
49	0x3f7d6310	0.9897928
50	0x3f7fec6c	0.99970126
51	0x3f7cf682	0.9881364
52	0x3f822242	1.0166705
53	0x3f8014b0	1.0006313
54	0x3f80195b	1.0007738
55	0x3f8108c8	1.0080805
56	0x3f819f3e	1.0126722
57	0x3f7f3116	0.99684274
58	0x3f80be5f	1.0058097
59	0x3f86571d	1.0495335
60	0x3f7a03c7	0.97662014
61	0x3f8170ad	1.0112511
62	0x3f7be03e	0.9838904
63	0x3f7ca46a	0.98688376

bias f4 [64]
0	0xbb5cf855	-0.0033717353
1	0xbc6cb504	-0.014447454
2	0xbbd88b38	-0.006608393
3	0xbc0395a9	-0.008031287
4	0x3ce57486	0.028009664
5	0xbb48c02d	-0.0030632124
6	0xbc5d3af4	-0.013502825
7	0xb9e09094	-0.00042832328
8	0x3bb5beff	0.00554645
9	0x3b0c9df5	0.0021456454
10	0x3d0306b8	0.03198883
11	0xbb593985	-0.0033145857
12	0x3b7ac103	0.0038262017
13	0x3c9af4ba	0.018915523
14	0x3d0387cc	0.032111928
15	0xbc365804	-0.011129383
16	0x3b56be74	0.0032767328
17	0x3b87e09e	0.0041466495
18	0x3a694ac8	0.0008899388
19	0x3bc17725	0.0059040957
20	0xbc832ff6	-0.01601408
21	0x3c3a4141	0.011368097
22	0xbba4b8a0	-0.005026892
23	0x3b94d6ef	0.0045422236
24	0x3c5c28aa	0.013437429
25	0xbc486b97	-0.012232683
26	0xbc0eae26	-0.008708512
27	0x3ba2c6c8	0.004967544
28	0xbbe6cc34	-0.007043386
29	0xbc15400c	-0.009109508
30	0xbb8b0e15	-0.004243622
31	0x3cb46cdc	0.022024564
32	0x3c4bc468	0.012436964
33	0xbcbed303	-0.023293978
34	0x3b11d9f2	0.002225515
35	0x3c70252b	0.014657299
36	0x3a6dd586	0.000907265
37	0xbb1710b2	-0.0023050723
38	0x3cedf706	0.029048454
39	0xbc283d88	-0.010268576
40	0x3c18e431	0.009331749
41	0xbd023be1	-0.031795386
42	0xbd67790f	-0.056511935
43	0xbb4a3e26	-0.0030859797
44	0xbca15b64	-0.019696899
45	0x3bff3619	0.0077884314
46	0x3b112431	0.0022146816
47	0x3a9f9756	0.0012175839
48	0x3bc4fc81	0.006011546
49	0x3bd949ca	0.006631111
50	0x3bdff7b8	0.0068349503
51	0x3cb1762d	0.021662796
52	0x3c377c92	0.0111991335
53	0x3aee5c59	0.0018185481
54	0x3c8e2548	0.017351761
55	0xbce38bd7	-0.027776642
56	0xbaef8d43	-0.0018276352
57	0xbbc18e26	-0.005906838
58	0x3a446344	0.00074915984
59	0x3c2dae92	0.010600703
60	0x3cc0d8ac	0.023540817
61	0x3c1a336a	0.009411672
62	0x3b48dd9b	0.0030649665
63	0x3c7bdeec	0.015372973

weight f4 [64, 64]
0	0x3d9dd2cb	0.07706221
1	0x3d8856b7	0.066571645
2	0x3d005014	0.03132637
3	0x3d4e56dc	0.050375804
4	0xbdde6e8b	-0.10860928
5	0x3dcd48cb	0.1002365
6	0x3cb8160a	0.022471447
7	0xbd2152d3	-0.039385628
8	0x3dbba7a5	0.09162835
9	0x3e01728f	0.12641357
10	0x3d38d702	0.045126922
11	0x3dafdf03	0.08587458
12	0x3d04f609	0.0324612
13	0x3e008023	0.1254888
14	0x3d610ed3	0.054945778
15	0x3d753328	0.05986324
16	0xbcd81033	-0.026374912
17	0x3d10866b	0.03528444
18	0xbd9f6240	-0.077824116
19	0xbde07780	-0.10960293
20	0xbe16b1a1	-0.14716198
21	0x3e0ceba9	0.13761772
22	0x3df73e6d	0.12072454
23	0x3d2007d2	0.039069958
24	0xbd87f03a	-0.066376165
25	0x3d17c867	0.037056353
26	0x3deb6729	0.114942856
27	0xbde00480	-0.10938358
28	0x3daada05	0.08342365
29	0x3df08c1c	0.11745474
30	0xbdfdb515	-0.12388054
31	0x3de11688	0.109906256
32	0x3cf95928	0.03043802
33	0xbbded403	-0.006800176
34	0x3cfcad66	0.030844402
35	0xbdb7ce1b	-0.089748584
36	0xbd3d6daf	-0.04624718
37	0x3df686b7	0.120374136
38	0xbcc732db	-0.024316242
39	0xbda631bf	-0.08114957
40	0xbcac782d	-0.021053398
41	0x3d9d8c8c	0.07692823
42	0x3d59253a	0.053014018
43	0x3b098df0	0.0020989142
44	0x3dd9aaa8	0.10628253
45	0x3da90203	0.08252337
46	0xbd2070d0	-0.039170086
47	0x3db2a719	0.087232776
48	0xbddb4415	-0.10706345
49	0xbd30f390	-0.04320103
50	0xbc964e1a	-0.018347789
51	0x3dc41c92	0.09575762
52	0xbda95eb0	-0.08270013
53	0xbd02559e	-0.031819932
54	0xbd8fd6b2	-0.07023372
55	0xbcc37ce0	-0.023863256
56	0x3c356164	0.011070583
57	0xbd21135f	-0.039325114
58	0xbd7fe2cb	-0.062472146
59	0xbdb05d35	-0.08611528
60	0xbda530b2	-0.080659285
61	0x3d3bb85f	0.045830127
62	0xbd9bc20a	-0.076053694
63	0x3b858565	0.0040747398
64	0x3dce9d09	0.10088546
65	0x3dfd12a2	0.123570696
66	0xbde6e037	-0.11273234
67	0x3e08610a	0.13318267
68	0x3d17825e	0.036989562
69	0x3db607e4	0.08888224
70	0xbb0e0f5f	-0.0021676642
71	0xbcff9c3c	-0.031202428
72	0x3e082fe8	0.13299525
73	0x3cc5f286	0.024163496
74	0xba6c9a6e	-0.00090256974
75	0xbdfcee13	-0.123500966
76	0x3d4af050	0.049545586
77	0x3cb2bc7e	0.021818396
78	0xbe0ca345	-0.13734157
79	0xbde71388	-0.11283022
80	0x3c93c58d	0.018038535
81	0x3ce21007	0.027595533
82	0xbdbd643c	-0.09247634
83	0x3db8ff6e	0.09033094
84	0xbb223285	-0.002474935
85	0x3dd82ed7	0.10555809
86	0xbbc5fb24	-0.006041901
87	0x3d3896ff	0.045065876
88	0x3c7f3b99	0.015578174
89	0x3c91f7ae	0.017818298
90	0xbd98a063	-0.07452466
91	0x3b75192a	0.0037399032
92	0xbdb8e016	-0.09027116
93	0xbbbab0f4	-0.005697364
94	0xbcfc9a9a	-0.030835439
95	0xbc3ee822	-0.011652024
96	0x3de36104	0.11102489
97	0xbdee24f6	-0.116281435
98	0x3dd2901b	0.10281392
99	0x3d92529b	0.07144662
100	0x3d936805	0.071975745
101	0x3d230e40	0.03980851
102	0x3e0f6013	0.14001493
103	0xbdd388f8	-0.10328859
104	0x3c8a652d	0.016893947
105	0xbdf1dca5	-0.11809663
106	0x3deb6f30	0.11495817
107	0xbd0a7ece	-0.033812337
108	0xbae15fd7	-0.00171947
109	0x3dc90f77	0.09817403
110	0x3de9ea5e	0.11421655
111	0x3dd4d36c	0.10391888
112	0xbc597654	-0.0132728405
113	0xbccdfa6d	-0.025143826
114	0x3de7c874	0.1131753
115	0xbd02514e	-0.03181582
116	0x3e260974	0.16214544
117	0x3d3d7ab9	0.046259616
118	0xbdf8fc71	-0.121575244
119	0xbd0e73d3	-0.034778427
120	0xbd3d7597	-0.04625472
121	0xbdc0d12b	-0.094148956
122	0x3d33fbf0	0.04394144
123	0x3dfd0b49	0.12355668
124	0x3d40de98	0.047087282
125	0xbc4b7c2f	-0.012419744
126	0xbdb5080b	-0.08839425
127	0x3df97dae	0.121821746
128	0xbd6a5e32	-0.057218738
129	0xbe00b7d5	-0.12570126
130	0x3e0a2b08	0.13492978
131	0x3cccc783	0.024997478
132	0xbd8fdf06	-0.0702496
133	0xbde6751e	-0.11252807
134	0x3c215297	0.009846351
135	0x3d51abd9	0.051189277
136	0xbdb3fea3	-0.087888025
137	0xbcf03fda	-0.029327322
138	0x3af40edb	0.001862015
139	0x3d7e33dd	0.06206118
140	0xbdd27194	-0.102755696
141	0xbdc0d7ab	-0.094161354
142	0xbd29d3bf	-0.041461702
143	0x3d1c927e	0.038225643
144	0xbde469bd	-0.111529805
145	0xbda164ef	-0.0788058
146	0x3d308620	0.04309666
147	0x3df00430	0.11719549
148	0x3d166cf2	0.036724992
149	0xbdd3b75e	-0.10337709
150	0xbcd70e68	-0.026251987
151	0x3d8ae20e	0.06781398
152	0x3dbc7a87	0.09203058
153	0x3d8721ea	0.065982655
154	0xbdbc7c60	-0.0920341
155	0xbd431816	-0.047630392
156	0xbd723c5c	-0.059139594
157	0xbdf84ae6	-0.12123661
158	0xbda54adf	-0.08070921
159	0xbccb2557	-0.024798078
160	0xbe090ea9	-0.13384499
161	0xbda4276a	-0.0801533
162	0xbd1c13cf	-0.03810483
163	0x3da4f820	0.080551386
164	0x3d4bd237	0.049761023
165	0x3e169eb2	0.14708975
166	0xbdefd06a	-0.11709674
167	0x3c0cafe5	0.008586858
168	0xbb267c05	-0.0025403511
169	0x3da93a53	0.082630776
170	0xbd4b3fe7	-0.04962149
171	0x3ccc7503	0.02495814
172	0x3dc5ef85	0.09664825
173	0xbd9e475f	-0.07728457
174	0x3b153516	0.0022767237
175	0xbd8d6c8a	-0.06905468
176	0xbd7d9972	-0.061913915
177	0x3d4293bc	0.04750417
178	0x3bbc7970	0.005751781
179	0xbdbec5cb	-0.0931507
180	0x3c1c4c38	0.009539656
181	0x3d285edc	0.04110609
182	0xbd9d5cf6	-0.076837465
183	0x3c826813	0.015918767
184	0xbe068fdf	-0.1314082
185	0x3dbf6530	0.09345472
186	0xbe01ebfc	-0.12687677
187	0x3cccd172	0.025002215
188	0x3da0981b	0.07841512
189	0x3d717a19	0.058954332
190	0x3c0bdb5d	0.008536187
191	0x3db34256	0.08752887
192	0xbd9f911e	-0.07791351
193	0x3d41c65c	0.04730831
194	0xbd83aa9c	-0.064290255
195	0xbd8f91ac	-0.070102066
196	0x3bd65e67	0.0065420154
197	0xbb177a34	-0.002311361
198	0xbd026b72	-0.03184075
199	0xbc41fa8d	-0.011839521
200	0x3d6d5cd6	0.057949863
201	0xbb24bb05	-0.0025135886
202	0x3d905076	0.07046597
203	0x3d34da4d	0.0441535
204	0xbd1b3c11	-0.03789908
205	0x3d01162b	0.03151528
206	0xbd82edbe	-0.06393002
207	0x3e066734	0.13125306
208	0xbdbc8b31	-0.09206236
209	0x3ca8127f	0.020516632
210	0x3d683c28	0.056697994
211	0x3df08c5c	0.117455214
212	0xbd020cdf	-0.031750556
213	0x3dd3f324	0.1034911
214	0x3c856ef3	0.016288256
215	0xbc9f6088	-0.01945521
216	0x3ca4ff4e	0.02014127
217	0xbdb37b38	-0.087637365
218	0x3d965e9c	0.07342264
219	0xbdc60aa4	-0.09669998
220	0xbd3ac63b	-0.045599204
221	0xbdf1a644	-0.11799291
222	0x3db57772	0.08860673
223	0x3dcfce84	0.101468116
224	0x3d8de175	0.06927768
225	0xbda80181	-0.08203412
226	0x3d80744d	0.062721826
227	0xbd3af2a2	-0.04564155
228	0x3d860832	0.06544532
229	0xbdfc13fc	-0.12308499
230	0x3bca6176	0.006176169
231	0xbd49021e	-0.049074285
232	0xbdd7ba20	-0.105335474
233	0x3d951c14	0.07280746
234	0xbdec5416	-0.115394756
235	0x3d622a59	0.055216167
236	0xbdb8fd46	-0.09032683
237	0xbd9d7537	-0.076883726
238	0xbd122e88	-0.035688907
239	0xbc363da0	-0.011123091
240	0x3c948e65	0.018134305
241	0xbb70ce5e	-0.0036744098
242	0x3d94d19d	0.07266543
243	0xbdc5cd43	-0.09658291
244	0x3cdc71ce	0.026909735
245	0xbd385103	-0.044999134
246	0x3d8c6558	0.06855267
247	0xbd8efbe4	-0.06981638
248	0xbd61595f	-0.05501687
249	0xbde4ede4	-0.111781865
250	0x3d2c38ce	0.04204636
251	0xbe0d2224	-0.13782555
252	0xbbee3752	-0.0072697783
253	0x3d7faa6b	0.062418383
254	0x3c9b8c5a	0.018987823
255	0xbd63f3ff	-0.055652615

bias f4 [64]
0	0xbd50c429	-0.050968323
1	0xbcbeb2b8	-0.02327858
2	0x3da99556	0.08280437
3	0x3d54f169	0.05198804
4	0xbdf15c9f	-0.11785244
5	0x3cead804	0.028667457
6	0x3d704640	0.058660746
7	0xbd4a3b00	-0.049372673
8	0x3d5785c9	0.05261782
9	0xbdbbfc17	-0.09178942
10	0xbdd734da	-0.105081275
11	0xbe06f13f	-0.13177966
12	0x3c0bb2e0	0.008526534
13	0xbd9018f0	-0.070360065
14	0xbe06d115	-0.13165696
15	0x3dc8e8ce	0.09810029
16	0xbcdd8498	-0.027040765
17	0x3d09c014	0.033630446
18	0xbcd9b4d9	-0.026575493
19	0x3c8023e3	0.015642112
20	0x3dd41bf7	0.10356896
21	0xbcdf785c	-0.027279072
22	0xbda3485b	-0.07972785
23	0xbdf6b3a9	-0.12045986
24	0xbe0629f3	-0.1310194
25	0xbb3a8cfa	-0.0028465376
26	0xbd336c0f	-0.043804225
27	0xbdb70af9	-0.0893764
28	0x3de2cc3f	0.11074113
29	0x3d96be9c	0.073605746
30	0x3d4df7a0	0.05028498
31	0xbdf216f7	-0.118207864
32	0x3de7a1b6	0.11310141
33	0xbdff932e	-0.12479244
34	0xbd3d9743	-0.046286833
35	0x3d9c95cc	0.07645759
36	0xbdf46dad	-0.119349815
37	0xbc74094f	-0.0148947975
38	0xbdcbbeff	-0.09948539
39	0xbc589b13	-0.013220566
40	0xbc50283f	-0.012704908
41	0x3cd75c0e	0.026289012
42	0xbbf46f7a	-0.007459578
43	0xbd07454b	-0.033025067
44	0x3d2b9f82	0.041900165
45	0x3db1d58d	0.0868331
46	0x3d643022	0.055709966
47	0x3c3ed884	0.011648301
48	0xbd159857	-0.036522236
49	0xbd9673a1	-0.07346273
50	0xbe01109a	-0.12603989
51	0xbdcd4115	-0.10022179
52	0xbdc33126	-0.09530859
53	0xbdd77e0e	-0.1052209
54	0xbd695474	-0.056965306
55	0x3b7448c0	0.0037274808
56	0xbb374ba8	-0.0027968679
57	0x3c51128b	0.012760769
58	0xbd42f17e	-0.047593586
59	0x3dcd1a59	0.10014791
60	0x3d55dcd7	0.052212562
61	0xbdb33114	-0.08749595
62	0x3c20e2f2	0.009819733
63	0xbdb6b6c4	-0.089215785

weight f4 [64]
0	0x3f8014ac	1.0006309
1	0x3f84b824	1.0368695
2	0x3f81b861	1.0134393
3	0x3f7eda97	0.9955229
4	0x3f789660	0.97104454
5	0x3f7b1d2a	0.98091376
6	0x3f8197e4	1.0124478
7	0x3f7e5d42	0.9936105
8	0x3f7db907	0.99110454
9	0x3f80607a	1.0029442
10	0x3f8149ed	1.0100685
11	0x3f7ed4a2	0.995432
12	0x3f7a1c8e	0.9769982
13	0x3f83a0b9	1.0283424
14	0x3f8288a9	1.0197955
15	0x3f82989e	1.0202825
16	0x3f877c29	1.0584766
17	0x3f822a64	1.0169187
18	0x3f7e373d	0.99303037
19	0x3f8713b5	1.0552889
20	0x3f84db1b	1.0379366
21	0x3f8691ed	1.0513283
22	0x3f82d6b5	1.0221773
23	0x3f822a39	1.0169135
24	0x3f801907	1.0007638
25	0x3f84344a	1.0328457
26	0x3f7eb01d	0.9948748
27	0x3f83db40	1.0301285
28	0x3f80c916	1.0061367
29	0x3f802672	1.0011733
30	0x3f83c3b3	1.0294098
31	0x3f860950	1.0471592
32	0x3f84f087	1.0385903
33	0x3f7aba00	0.97940063
34	0x3f857a99	1.0428039
35	0x3f802868	1.0012331
36	0x3f7dee7e	0.99192035
37	0x3f78cedd	0.9719065
38	0x3f802c4f	1.0013522
39	0x3f8285ee	1.0197122
40	0x3f81bc00	1.0135498
41	0x3f80eee4	1.0072904
42	0x3f793156	0.97340906
43	0x3f7ce162	0.98781407
44	0x3f799da1	0.9750615
45	0x3f823361	1.017193
46	0x3f7c03cb	0.9844329
47	0x3f864c95	1.0492121
48	0x3f8196be	1.0124128
49	0x3f84f9c0	1.0388718
50	0x3f848178	1.0352011
51	0x3f803b98	1.0018187
52	0x3f7f4b18	0.9972396
53	0x3f885fa0	1.0654182
54	0x3f8426bd	1.0324322
55	0x3f7dc9b2	0.9913589
56	0x3f77009d	0.9648531
57	0x3f7ce979	0.9879375
58	0x3f7d4c7b	0.98944825
59	0x3f8912ad	1.0708824
60	0x3f81db45	1.0145041
61	0x3f80aeab	1.0053304
62	0x3f810955	1.0080973
63	0x3f81a2f4	1.0127854

bias f4 [64]
0	0xba8ed968	-0.0010898532
1	0x3b0b9292	0.002129708
2	0xbb08dcd4	-0.0020883577
3	0x3a9f0e82	0.0012135061
4	0x3ad1dc89	0.0016011159
5	0xbaee9216	-0.0018201496
6	0x3a94e2bd	0.0011359077
7	0xbaba3e43	-0.0014209229
8	0x3a6d0fb2	0.00090431713
9	0x3942567b	0.00018533498
10	0xba51b1b3	-0.00079991965
11	0xb8a82d9f	-8.019362e-05
12	0xb9a57e9b	-0.0003156558
13	0xbb2ac616	-0.002605801
14	0xbaff3f1a	-0.0019473762
15	0xbb561848	-0.0032668281
16	0xbab2f110	-0.0013652164
17	0x3ae29134	0.0017285706
18	0x3b032c0f	0.0020015275
19	0xbaf0c874	-0.0018370287
20	0x3ac85554	0.0015284219
21	0xbb089d05	-0.0020845544
22	0xbb203dd7	-0.0024450922
23	0x3c426783	0.011865499
24	0xbb8a5e8a	-0.0042226957
25	0xbb06d55d	-0.0020573952
26	0xba3d8ddd	-0.0007230917
27	0x3b0624ea	0.002046878
28	0x3abf83ee	0.0014611462
29	0x3b532f80	0.0032224357
30	0x3beee400	0.0072903633
31	0x3b1e8fd2	0.002419461
32	0x3ad26962	0.0016053135
33	0xbb2b2de9	-0.0026119894
34	0xba3c6b68	-0.00071876356
35	0xbb12406c	-0.002231623
36	0x3ab62f25	0.0013899548
37	0x3b405b97	0.0029351467
38	0xba65c237	-0.0008764597
39	0xbb21e8e6	-0.0024705469
40	0x3b0a8e9a	0.0021142126
41	0xbbaaf5cd	-0.00521729
42	0xbace84f8	-0.001575618
43	0x3b5d76c0	0.0033792704
44	0xbb4df71f	-0.0031427813
45	0xbaff1466	-0.0019461035
46	0x3ad849e6	0.0016501516
47	0x3aa59508	0.0012632916
48	0xbb7a30c9	-0.003817605
49	0x3ae12c91	0.001717942
50	0x3b539bfc	0.003228902
51	0xbaa33b22	-0.0012453536
52	0x3a7bf07a	0.0009610724
53	0x3b069846	0.002053754
54	0xbaad82bb	-0.0013237813
55	0xbb12f4b5	-0.0022423689
56	0x3b639c74	0.0034730705
57	0x3a43db49	0.00074713357
58	0x3c8947a7	0.0167578
59	0x3a131b01	0.0005611629
60	0x3b25fc89	0.0025327525
61	0x3b2eb1b7	0.002665622
62	0x39228e09	0.00015502436
63	0xbb15adb0	-0.0022839122

weight f4 [1, 64]
0	0xbdff655c	-0.12470505
1	0x3e0ae43c	0.13563627
2	0xbddaeba9	-0.1068948
3	0x3d7351ca	0.059404172
4	0x3dbec6ab	0.09315237
5	0xbd9f8b88	-0.07790285
6	0x3dd86dcd	0.10567818
7	0xbdc1d7b6	-0.09464972
8	0x3d45e560	0.048314452
9	0x3d57d0fe	0.052689545
10	0xbdfcd6b2	-0.123456374
11	0xbd80ef85	-0.06295685
12	0x3a9188bf	0.0011103376
13	0xbd910dc7	-0.07082706
14	0xbd5d089c	-0.05396329
15	0xbd2a301c	-0.041549787
16	0xbdd621f0	-0.10455692
17	0x3da2cc46	0.07949118
18	0x3de6e851	0.112747796
19	0xbe13ef19	-0.14446677
20	0x3e0e2b19	0.13883628
21	0xbdfd300d	-0.123626806
22	0xbd85c16f	-0.06531035
23	0xbce6279c	-0.02809506
24	0xbd126e02	-0.035749443
25	0xbe1feaaf	-0.15616868
26	0xbddc3200	-0.10751724
27	0x3e0b9041	0.13629247
28	0x3dbeceb9	0.09316773
29	0x3db018e6	0.08598499
30	0x3cc97710	0.024592906
31	0xbd4a93b4	-0.049457267
32	0x3e0b85bc	0.13625234
33	0xbdad69ee	-0.0846747
34	0xbdff4476	-0.1246423
35	0xbdf1bbaf	-0.11803376
36	0xbc859dfe	-0.016310688
37	0x3d252869	0.04032174
38	0xbd751750	-0.059836686
39	0xbdcea68b	-0.10090359
40	0x3db9bd19	0.09069271
41	0x3ca6b3a3	0.02034933
42	0xbd671e57	-0.05642542
43	0xbc17b45d	-0.009259311
44	0xbca70061	-0.020385923
45	0xbde343ad	-0.110968925
46	0xbb5fcc57	-0.0034148896
47	0x3e066135	0.13123019
48	0xbd313a99	-0.043268774
49	0x3e25f969	0.16208424
50	0xbd44854f	-0.047978695
51	0xbdde40c9	-0.108522005
52	0x3d919d85	0.071101226
53	0x3e01b166	0.12665328
54	0xbe13f108	-0.14447415
55	0xbda019b6	-0.07817404
56	0x3d14f851	0.036369625
57	0xbcc184c9	-0.023622887
58	0x3c34465e	0.011003105
59	0xbdd81fa0	-0.10552907
60	0x3e03328d	0.12812252
61	0x3df81925	0.12114171
62	0xbd933c73	-0.07189264
63	0xbe027190	-0.12738633

exp_avg f4 [64, 3]
0	0xbaa92ed8	-0.0012907637
1	0x3a86c4b9	0.0010282017
2	0x3aabc829	0.0013105917
3	0x3b01a594	0.001978253
4	0xbb460323	-0.0030214272
5	0xbafcb22b	-0.0019279172
6	0xbb5dd7ce	-0.0033850553
7	0x3be37f3c	0.0069426578
8	0xbd06d844	-0.03292109
9	0xba0a3477	-0.00052721
10	0xb9a564a6	-0.0003154624
11	0x3ada667c	0.0016662623
12	0x3a61ca45	0.00086132094
13	0xb8880cd1	-6.4873726e-05
14	0xbaa0bbe5	-0.0012263028
15	0xba7f72c9	-0.00097445823
16	0x3a7d19e1	0.00096550403
17	0x3b3cdbab	0.0028817456
18	0x3ad70603	0.001640499
19	0x3a873452	0.0010315275
20	0xbb933594	-0.004492471
21	0xba842854	-0.001008282
22	0xbb13ff92	-0.0022582752
23	0x3c9ed886	0.019390356
24	0xba4a782c	-0.00077235955
25	0x3a9bad24	0.0011877161
26	0xbb37e6ad	-0.0028061077
27	0xba0da7ff	-0.00054037565
28	0x3a555a80	0.0008138791
29	0xb8e7555b	-0.00011030837
30	0x39a575c1	0.00031558986
31	0x3a8a792e	0.0010564679
32	0xbb993e7f	-0.0046766396
33	0xba3f83ec	-0.00073057297
34	0x398796eb	0.0002586165
35	0xba92e60b	-0.0011207474
36	0x3ab34cce	0.0013679506
37	0x3af4e80d	0.0018684879
38	0xbc23f66d	-0.010007483
39	0xbb2d37a7	-0.0026430876
40	0x3a82d5c9	0.0009981926
41	0xbbba34c4	-0.0056825597
42	0x39931ec8	0.0002806096
43	0xb888264c	-6.492119e-05
44	0xba862f12	-0.0010237417
45	0xbb8d491d	-0.0043116943
46	0xbbb787d3	-0.0056009083
47	0x3cecd380	0.028909445
48	0x3b72de4d	0.003705877
49	0x3bacd6ce	0.00527463
50	0xbcbe20ff	-0.023209093
51	0xbb7f32d0	-0.0038940199
52	0xbb54692d	-0.0032411322
53	0x3c95c3b0	0.018281788
54	0xbbfe5e71	-0.007762723
55	0x3a33286c	0.00068343314
56	0x3c182980	0.009287238
57	0x3afb5dd8	0.0019177748
58	0x3ac4a9ba	0.0015004196
59	0xbc1bc9cd	-0.009508562
60	0x3b49ba65	0.0030781266
61	0x3b5f68ed	0.003408964
62	0xbca197b9	-0.019725667
63	0xba5419d8	-0.0008091009
64	0x3a193f74	0.0005845942
65	0x3ba4618c	0.0050165113
66	0xbaee34ca	-0.0018173691
67	0x3b06c28d	0.0020562739
68	0xba5ca64a	-0.0008417113
69	0x3a634755	0.0008669992
70	0x3a828043	0.0009956438
71	0x3adeced4	0.0016998895
72	0x3bed1fd7	0.0072364616
73	0x3c72fb56	0.014830431
74	0xbd177fde	-0.036987178
75	0x3ad86baf	0.0016511584
76	0xbae77ae9	-0.0017660531
77	0xbb2a91d4	-0.0026026862
78	0xbae45f89	-0.0017423491
79	0xbb267af8	-0.0025402885
80	0x3c80f8ee	0.015743699
81	0x3b49ea31	0.0030809755
82	0xbb096698	-0.0020965692
83	0xba9042ff	-0.0011006295
84	0xbaf3f73a	-0.0018613108
85	0xbb3eedb1	-0.0029133374
86	0x3c81112b	0.015755257
87	0xba427c76	-0.0007419059
88	0x3a1e1368	0.00060301134
89	0x3b44f6a0	0.0030054227
90	0xbb474730	-0.0030407421
91	0xbb75da98	-0.0037514325
92	0x3c97f970	0.018551558
93	0x3678f4e7	3.7097432e-06
94	0xb7b9d484	-2.2152679e-05
95	0x39cf2bc9	0.0003951474
96	0xb9cfc15e	-0.00039626186
97	0xbaea9d59	-0.0017899676
98	0xbb54b772	-0.0032457975
99	0xba2a1cfa	-0.0006489303
100	0x3a6125c2	0.0008588695
101	0x3b8c43e6	0.004280555
102	0xbb187391	-0.0023262242
103	0xbb082b79	-0.0020777865
104	0x3bfce393	0.0077175586
105	0x3b366cb2	0.0027835784
106	0xbb5bdd20	-0.0033548549
107	0xbbcfdca8	-0.006343443
108	0x3b46b526	0.0030320375
109	0xbb8fd3c6	-0.004389259
110	0x3b6b9240	0.0035945326
111	0x3b85bcbb	0.0040813363
112	0x3c1e76dd	0.009671894
113	0xbceaacf4	-0.028646924
114	0xb8177d18	-3.6117708e-05
115	0xb9175f48	-0.00014435977
116	0xba11b96e	-0.0005558942
117	0xb9689253	-0.00022179754
118	0x39cd51ad	0.000391615
119	0x3b04c35b	0.0020258042
120	0xb8dd0a69	-0.0001054004
121	0xb8c12155	-9.209166e-05
122	0xb9b3f7eb	-0.00034326254
123	0xba84c33a	-0.0010128983
124	0xbae72fe8	-0.0017638179
125	0x3c42481f	0.011858015
126	0xba1272c5	-0.000558656
127	0xba1c8a15	-0.00059715036
128	0x3a808acd	0.0009806991
129	0x3b4a1ebe	0.0030841078
130	0x3b8feadf	0.0043920125
131	0xbc7ef943	-0.015562358
132	0xbb69bd7d	-0.0035665922
133	0xbb992c79	-0.004674491
134	0x3cc0c73f	0.023532508
135	0xbb6b56bb	-0.003590985
136	0x3aa7e04f	0.0012807938
137	0x3ba52da5	0.0050408416
138	0xb981e40a	-0.000247747
139	0xba4f59ed	-0.00079098233
140	0x3c1ce867	0.009576893
141	0xbb13ef66	-0.0022573113
142	0xbb3ba114	-0.0028629946
143	0x3c5777de	0.013151137
144	0xbc0b3960	-0.008497566
145	0xbc1984c7	-0.0093700355
146	0x3d42afbf	0.047530886
147	0xba2353b4	-0.0006230429
148	0x3a0ae852	0.00052989007
149	0x3a1ee3c8	0.0006061164
150	0x3a3b43a4	0.0007143563
151	0x3a18ee02	0.0005833806
152	0x3b32c1e2	0.0027276208
153	0xbb469d5e	-0.00303062
154	0xbb74e0f5	-0.003736553
155	0x3d05ccaf	0.032665905
156	0x3b53e9f3	0.003233549
157	0xbbc54116	-0.0060197217
158	0xbba181d1	-0.0049288054
159	0x3b97d376	0.0046333624
160	0x3bb20540	0.0054327548
161	0xbcc35df6	-0.023848515
162	0xbab594b6	-0.0013853523
163	0xbac3aa40	-0.0014928058
164	0x3b0a74f5	0.002112684
165	0x3ba0be49	0.0049054963
166	0x3b8bf504	0.0042711515
167	0xbca2860a	-0.019839305
168	0xbb61efc2	-0.0034475182
169	0xbb767c20	-0.0037610605
170	0x3ca8f826	0.020626139
171	0x38c28b96	9.276641e-05
172	0xba33a67b	-0.00068531156
173	0xbb0f647f	-0.0021879969
174	0x3b426f6b	0.002966846
175	0xbb90f013	-0.0044231503
176	0xbb8a62f6	-0.004223223
177	0x3c55e3ad	0.01305477
178	0x3c7f710d	0.015590918
179	0xbd7a36ad	-0.0610873
180	0x3959810d	0.00020742808
181	0xb9ae3e82	-0.00033234438
182	0x3aca5e5e	0.00154395
183	0x3b4d2160	0.003130041
184	0x3b9f5960	0.0048629493
185	0xbc9fec9f	-0.01952201
186	0x3b1074c8	0.0022042263
187	0x3aead601	0.0017916561
188	0xbb7fa5f1	-0.003900882
189	0x3aa689ce	0.0012705864
190	0xbaca2eca	-0.0015425321
191	0xbb704ebe	-0.0036668028

exp_avg_sq f4 [64, 3]
0	0x3b3bcb8e	0.0028655264
1	0x3910a314	0.00013793661
2	0x3b8d1da2	0.004306511
3	0x39285ffa	0.00016057483
4	0x3905f9e4	0.0001277696
5	0x3c1144c6	0.0088664945
6	0x3ddd46bb	0.108045064
7	0x3b5a2243	0.0033284582
8	0x3da7434d	0.081671335
9	0x3c17a30c	0.009255182
10	0x3846f65a	4.743631e-05
11	0x3a122306	0.0005574677
12	0x3a041179	0.0005038004
13	0x3904c34a	0.00012661252
14	0x3b52d56b	0.0032170664
15	0x3910e7cc	0.00013819261
16	0x38013aa2	3.0810603e-05
17	0x3a2a4daf	0.0006496561
18	0x379a37ae	1.8384158e-05
19	0x37d642c8	2.5541885e-05
20	0x3aa9d3d4	0.0012956806
21	0x3a75676a	0.0009361418
22	0x38dae9ad	0.000104385756
23	0x3b90892e	0.0044108843
24	0x3707c48d	8.09239e-06
25	0x37204a5c	9.554056e-06
26	0x391f350e	0.00015183186
27	0x39a7dc23	0.00032016737
28	0x38c644b8	9.4541756e-05
29	0x3b42c5b9	0.0029719903
30	0x376a9193	1.3981381e-05
31	0x371f3b49	9.490942e-06
32	0x3a14a748	0.0005670679
33	0x3a387091	0.00070358167
34	0x3884eb29	6.3380525e-05
35	0x3a7ae20f	0.00095704285
36	0x3b305c94	0.002691065
37	0x395ef1b8	0.00021261617
38	0x3baf0fa6	0.0053424416
39	0x3b71a44b	0.0036871608
40	0x39253be3	0.00015757936
41	0x3bb4a695	0.005513022
42	0x3827d4fe	4.0014267e-05
43	0x3734438d	1.0744564e-05
44	0x391bf7d2	0.00014874272
45	0x3d5bf816	0.05370339
46	0x3abec068	0.0014553191
47	0x3d06d107	0.032914188
48	0x39e4d563	0.00043646534
49	0x39caada9	0.0003865783
50	0x3c8e6bd8	0.017385408
51	0x3c13dfef	0.009025558
52	0x39e79abc	0.0004417504
53	0x3c3fa62f	0.011697336
54	0x3c863b92	0.016385827
55	0x39ea7355	0.00044717887
56	0x3c6454b1	0.013936208
57	0x3872d845	5.7898713e-05
58	0x38899ded	6.562085e-05
59	0x3b49f54b	0.0030816372
60	0x39ace321	0.0003297562
61	0x38dc07fb	0.00010491904
62	0x3b809cb6	0.0039249314
63	0x39dfd0fe	0.00042689586
64	0x39aa1e07	0.000324473
65	0x3c4eadde	0.012614695
66	0x396e80db	0.00022745451
67	0x3932a86f	0.00017038149
68	0x3c60afc2	0.013713779
69	0x378dd742	1.6908747e-05
70	0x3799f0ee	1.8351213e-05
71	0x3ac8d4be	0.0015322191
72	0x3a12adc5	0.00055953517
73	0x3a82a8c0	0.0009968504
74	0x3d2a412d	0.041566063
75	0x3bbd23ac	0.0057720747
76	0x397508bf	0.00023368279
77	0x3c114622	0.008866819
78	0x3920dabc	0.00015340274
79	0x385177ce	4.994106e-05
80	0x3b0ea504	0.0021765837
81	0x3b96afd4	0.004598597
82	0x39b61c89	0.00034735005
83	0x3c53da44	0.012930457
84	0x3bc052c5	0.005869242
85	0x39c22d0d	0.0003703613
86	0x3c35b561	0.011090607
87	0x3825b989	3.951186e-05
88	0x3753c767	1.2623007e-05
89	0x3b03d113	0.0020113632
90	0x3c185787	0.009298212
91	0x39bd4a89	0.00036104422
92	0x3c3a64c6	0.011376565
93	0x34e3d4a1	4.2436753e-07
94	0x34df4a5d	4.1591093e-07
95	0x37bbf8d3	2.2408005e-05
96	0x3c0f53aa	0.008747974
97	0x393dfc0e	0.00018118342
98	0x3b978c40	0.0046248734
99	0x39cf81c1	0.0003957879
100	0x38b0c334	8.4286934e-05
101	0x3b60c771	0.0034298564
102	0x3afb51fc	0.0019174214
103	0x386cbbae	5.6441575e-05
104	0x3b2cacd4	0.002634813
105	0x39afe075	0.00033545835
106	0x39a38925	0.00031191963
107	0x3cac0960	0.021000564
108	0x3881c06f	6.187043e-05
109	0x38890c7b	6.534994e-05
110	0x3b98e912	0.004666456
111	0x3da2f353	0.07956567
112	0x3b34c980	0.0027585924
113	0x3d98513e	0.07437371
114	0x372ea891	1.0410456e-05
115	0x36c64670	5.90906e-06
116	0x3a094e88	0.00052378373
117	0x3b2baa68	0.00261941
118	0x3972c5b7	0.00023152573
119	0x3c03ed71	0.008052216
120	0x350b0265	5.178502e-07
121	0x3602f03a	1.951134e-06
122	0x38806d4b	6.123873e-05
123	0x3b5e8e0b	0.0033959176
124	0x39ba4eea	0.0003553548
125	0x3c13db5e	0.009024469
126	0x3b86bbfa	0.004111764
127	0x38a786b7	7.988273e-05
128	0x3ad734d2	0.001641894
129	0x3bc11209	0.0058920425
130	0x386ca9c2	5.6424884e-05
131	0x3b118e24	0.0022209967
132	0x399dba93	0.00030084382
133	0x39a83eff	0.00032090393
134	0x3c4f1d3f	0.01264125
135	0x3d2d133d	0.042254675
136	0x3af871a1	0.0018954762
137	0x3d4a44ca	0.04938201
138	0x39db4f16	0.0004182986
139	0x396883a2	0.00022174281
140	0x3bf70bfc	0.0075392704
141	0x37ba5ed1	2.221708e-05
142	0x381ccce1	3.7384107e-05
143	0x3b737778	0.0037150066
144	0x3dfec183	0.12439253
145	0x3b84489d	0.0040369765
146	0x3de4e055	0.111756004
147	0x380b5ed8	3.3228513e-05
148	0x36e79f4d	6.9028815e-06
149	0x39574720	0.00020530494
150	0x36c5a849	5.8906485e-06
151	0x37195970	9.140334e-06
152	0x3a227404	0.0006197097
153	0x3a0dfc0f	0.0005416283
154	0x3a1ad6d0	0.00059066433
155	0x3cbb2cd5	0.022848526
156	0x3a03849a	0.00050170126
157	0x39c0a2f1	0.00036742495
158	0x3cb08e2b	0.021552166
159	0x38ad5e34	8.2668295e-05
160	0x38b5c533	8.667484e-05
161	0x3bd54cee	0.006509415
162	0x3c4733b3	0.012158322
163	0x396db244	0.0002266849
164	0x3b283214	0.0025664615
165	0x3b871240	0.0041220486
166	0x396a6b88	0.00022356038
167	0x3c04b55c	0.00809988
168	0x3b63ea65	0.0034777161
169	0x39e1909e	0.00043023092
170	0x3c839f26	0.016067099
171	0x3bb2ee41	0.005460531
172	0x396b9d17	0.00022469867
173	0x3bb3093e	0.0054637482
174	0x3a3e2d1f	0.00072546484
175	0x39d9a42d	0.00041511786
176	0x3c9800e4	0.018555112
177	0x39d91656	0.00041406107
178	0x3a2ed066	0.0006668627
179	0x3d464c96	0.04841288
180	0x36b93737	5.5198575e-06
181	0x3681d336	3.869088e-06
182	0x39effead	0.0004577538
183	0x395df68d	0.0002116805
184	0x396fdf77	0.00022876063
185	0x3c30fb03	0.010802033
186	0x38aababe	8.141015e-05
187	0x38539c00	5.0451607e-05
188	0x3b4af812	0.0030970615
189	0x398c62bb	0.0002677644
190	0x38fd352f	0.00012073886
191	0x3b9a89cd	0.004716134

exp_avg f4 [64]
0	0x3a598b27	0.00082986284
1	0xbb310371	-0.0027010108
2	0x3c09efd9	0.008419001
3	0xbabe8544	-0.0014535566
4	0xba4ae47d	-0.0007739736
5	0x3a49675b	0.00076829427
6	0x3ad8bcbb	0.0016535738
7	0xba87aa82	-0.0010350498
8	0xba8f4d08	-0.0010932991
9	0x38c81f74	9.542602e-05
10	0x3a7970ce	0.00095154054
11	0xb9d36dfd	-0.00040327004
12	0x3aa63a83	0.0012682233
13	0xbb0bd9e0	-0.002133958
14	0x39466e0b	0.00018923746
15	0x3af40cd9	0.0018619552
16	0x3a05228e	0.00050786964
17	0xbae30bf9	-0.0017322294
18	0xbb509302	-0.0031825905
19	0x3af1f793	0.0018460624
20	0x3b271d54	0.0025499659
21	0x3b3106d4	0.0027012127
22	0x3a6423c6	0.00087028404
23	0xba35fc87	-0.00069422316
24	0x3c18e87d	0.009332773
25	0xbaaa37cd	-0.0012986601
26	0xbaef1341	-0.0018239991
27	0xbb1f91c5	-0.002434836
28	0xb8fa2f55	-0.00011929745
29	0x3a72eb90	0.0009266669
30	0xbabf13b2	-0.0014578013
31	0x37c74fc6	2.3759796e-05
32	0x3a748097	0.00093270227
33	0x3b223e2c	0.0024756296
34	0xb8f187b2	-0.00011517051
35	0xbba83ecb	-0.0051344386
36	0xba5f904d	-0.00085282774
37	0x3b7355d5	0.0037130017
38	0xb92a1d31	-0.00016223338
39	0x3b20e883	0.002455265
40	0x39147370	0.00014157384
41	0x3b072622	0.0020622094
42	0x3aae974d	0.0013320238
43	0x3b20bfe9	0.002452845
44	0xb9abd4e0	-0.00032774266
45	0x3b27656e	0.0025542635
46	0x3a9c8003	0.0011940006
47	0xbb0f92a9	-0.0021907485
48	0x3b4a2de2	0.0030850102
49	0x393ea14b	0.00018179898
50	0xbaae6733	-0.0013305902
51	0xbae22f3d	-0.001725651
52	0xbb328c1b	-0.0027244154
53	0x3b6aeaab	0.003584544
54	0xb9b08d33	-0.00033674538
55	0x3b251d7e	0.002519458
56	0x3a54e308	0.00081209885
57	0xba390c2c	-0.00070590037
58	0xbb315caf	-0.00270633
59	0x3c0e93b3	0.008702206
60	0x395dbc2b	0.000211463
61	0x38ce8a20	9.848573e-05
62	0x3995d081	0.00028574842
63	0xbb0922eb	-0.0020925354

exp_avg_sq f4 [64]
0	0x3b57481a	0.0032849372
1	0x39faa40c	0.0004780594
2	0x3df16f3a	0.11788793
3	0x3c189b6a	0.009314397
4	0x3a3a6fbb	0.0007111986
5	0x3922a140	0.00015509594
6	0x389a8e89	7.3698415e-05
7	0x3aa2e7af	0.0012428666
8	0x37668503	1.37400375e-05
9	0x39e7a54a	0.00044182903
10	0x3816b45e	3.5930767e-05
11	0x3a3f3539	0.00072940026
12	0x3b43fac6	0.0029904111
13	0x3b89872b	0.0041970215
14	0x38588e9c	5.163123e-05
15	0x3d6d6478	0.057957143
16	0x3aa7b2f6	0.0012794423
17	0x3c23e40d	0.010003102
18	0x3c927d27	0.017881943
19	0x393f6183	0.00018251505
20	0x3a05e3c1	0.00051074853
21	0x3a87f0bb	0.0010371426
22	0x3a2da217	0.00066235795
23	0x3899f292	7.340791e-05
24	0x3b1caa02	0.0023905043
25	0x3bd53a43	0.0065071895
26	0x397febe6	0.00024406574
27	0x3bbc8755	0.0057534375
28	0x3be40511	0.006958612
29	0x3884889d	6.319697e-05
30	0x3c2934a1	0.010327489
31	0x358b02d5	1.0357131e-06
32	0x3c19ecbb	0.00939482
33	0x3a2aa9ed	0.0006510306
34	0x3b09a328	0.002100179
35	0x3a8ef709	0.0010907362
36	0x3943eb8b	0.00018684396
37	0x3db29390	0.087195516
38	0x37bd5084	2.2568049e-05
39	0x3b57e986	0.0032945587
40	0x3649b231	3.0055055e-06
41	0x3b8c1153	0.004274526
42	0x3b916992	0.004437634
43	0x3bc851f1	0.006113284
44	0x3a73cd85	0.0009300339
45	0x3d41dfc0	0.047332525
46	0x3a56d2e7	0.0008194879
47	0x38ef94f5	0.000114241535
48	0x3e0bbc57	0.13646065
49	0x3822017f	3.8625203e-05
50	0x37f85112	2.9601655e-05
51	0x3ae20c4f	0.00172461
52	0x3aa5d570	0.001265211
53	0x399be11c	0.00029731623
54	0x3c4d766a	0.012540439
55	0x3b989ba5	0.004657226
56	0x3b9243af	0.004463635
57	0x3bc601b1	0.006042682
58	0x3ad6014b	0.001632729
59	0x3b02b29e	0.001994289
60	0x375d96c1	1.3207727e-05
61	0x3a39e934	0.000709194
62	0x395cdfc6	0.00021064197
63	0x3a14ad13	0.0005671542

exp_avg f4 [64]
0	0x397e7f5b	0.00024270771
1	0x3ad31ca2	0.0016106556
2	0xbc0bb576	-0.00852715
3	0xba89aa3f	-0.0010503008
4	0x3a6fd092	0.0009148206
5	0x3b2511bc	0.0025187572
6	0x3b0dd3ba	0.0021641091
7	0x39336e60	0.00017111888
8	0x3b2fb1a7	0.002680877
9	0x3a52726d	0.0008027915
10	0x3afb96be	0.0019194705
11	0xbaeb92fc	-0.0017972882
12	0xbb0ac5c3	-0.0021175004
13	0xbb84d3b3	-0.004053557
14	0x3b046470	0.0020201467
15	0x3b8b325a	0.0042479457
16	0x3baf0aae	0.0053418493
17	0xbb301348	-0.0026866961
18	0xbb9abde9	-0.004722346
19	0x3a732708	0.00092755305
20	0x3ac70ffb	0.0015187258
21	0x3b149945	0.0022674364
22	0xba5e53f9	-0.0008481141
23	0x39363c82	0.00017379413
24	0xb91dc90a	-0.0001504758
25	0x3ac0fc3d	0.001472361
26	0xbbaa868b	-0.005204027
27	0xb9beb264	-0.00036372535
28	0x3ad1dd29	0.0016011345
29	0xbad65b4a	-0.001635411
30	0x3965e7c1	0.00021925477
31	0x3a589391	0.0008261735
32	0x38fe88d2	0.000121371486
33	0x3a9fda06	0.0012195713
34	0xbae2ad99	-0.0017294168
35	0x3b1ced93	0.0023945316
36	0xbb216811	-0.0024628679
37	0x3a781c2b	0.00094646466
38	0xb8b3d673	-8.5753294e-05
39	0xba3e0ee5	-0.0007250144
40	0x3a5d7d20	0.0008449126
41	0xb9e0f5f6	-0.00042907865
42	0x3a5a67d0	0.00083315093
43	0x3c31b125	0.010845457
44	0xbbaac986	-0.0052120117
45	0x3a3c6b10	0.00071875844
46	0xbb049d33	-0.00202353
47	0x39a5c24b	0.00031616012
48	0x3bbbc363	0.005730079
49	0xbad2a8b6	-0.0016072008
50	0x39884868	0.00025993888
51	0xbb83fa10	-0.0040276125
52	0xbb9bfc0d	-0.0047602714
53	0xba9a7697	-0.001178461
54	0x39e3f756	0.00043481094
55	0x3bf55042	0.007486374
56	0xbb8b3a04	-0.0042488594
57	0x3a2bf7b4	0.0006560043
58	0xb8e42b36	-0.00010879936
59	0xbb96e5af	-0.004605017
60	0x39a12ce2	0.00030741753
61	0x3ab63831	0.0013902244
62	0x3b1b98e7	0.002374226
63	0x399db58a	0.0003008063

exp_avg_sq f4 [64]
0	0x3aeb239f	0.0017939693
1	0x3a5014be	0.0007937661
2	0x3ad06752	0.0015899932
3	0x3975b8d2	0.00023433872
4	0x39407402	0.00018353763
5	0x39cee4d1	0.00039461863
6	0x3901e79c	0.0001238868
7	0x38f56c26	0.000117026546
8	0x39ce60cd	0.00039363504
9	0x39143e35	0.00014137554
10	0x38a6df3f	7.95708e-05
11	0x3a51dc30	0.0008005528
12	0x393f405e	0.00018239158
13	0x395373b0	0.00020165625
14	0x397fa8cc	0.00024381577
15	0x3b0eebf2	0.0021808115
16	0x3b1f66a5	0.0024322656
17	0x3b76f31d	0.0037681528
18	0x3c317b86	0.010832673
19	0x38e69ea1	0.000109968016
20	0x39b4d356	0.00034489733
21	0x3a52377f	0.0008019134
22	0x3aaa05f4	0.0012971745
23	0x3a14135c	0.0005648637
24	0x3a6d0f10	0.0009043077
25	0x3ae6bab6	0.0017603252
26	0x39f803fa	0.0004730521
27	0x39966a6e	0.00028689526
28	0x38bc9d00	8.993782e-05
29	0x39398671	0.00017693058
30	0x3a216bf8	0.0006157751
31	0x38c34653	9.3114235e-05
32	0x3999cbff	0.00029334423
33	0x3ac35e8f	0.00149055
34	0x3998b816	0.00029128854
35	0x3a0b5d68	0.0005316348
36	0x39c8e880	0.000383202
37	0x3c69a93e	0.014261542
38	0x38a86833	8.030273e-05
39	0x3b59451c	0.0033152765
40	0x38ad27b7	8.25668e-05
41	0x3a886892	0.0010407141
42	0x3aa2bd78	0.0012416085
43	0x3abb5980	0.0014293641
44	0x39e0715d	0.00042809072
45	0x3ba5d710	0.005061038
46	0x3a207d33	0.0006122172
47	0x39acf608	0.00032989704
48	0x3a586ce2	0.0008255971
49	0x3a09a19e	0.0005250218
50	0x39ca59ce	0.00038595352
51	0x39984b83	0.0002904796
52	0x3a176f39	0.00057767663
53	0x39aec890	0.00033337297
54	0x3b4c2187	0.0031147914
55	0x3ad70e18	0.0016407399
56	0x39f20f8b	0.00046169417
57	0x3939d722	0.00017723118
58	0x3b18aa93	0.002329503
59	0x3a34cf5a	0.0006897353
60	0x38d76682	0.000102710925
61	0x3a3d3d1f	0.00072188856
62	0x3a50fd97	0.0007972358
63	0x399fea50	0.0003050142

exp_avg f4 [64]
0	0x3af1caeb	0.0018447315
1	0xbae2cafd	-0.0017302927
2	0x3c23ba6b	0.009993176
3	0x3afbf8bd	0.001922391
4	0xba9a8049	-0.00117875
5	0x3ac54529	0.0015050519
6	0x3af6593c	0.0018794904
7	0xbb2690ce	-0.00254159
8	0xbb378ba8	-0.0028006826
9	0xbaa812ea	-0.001282302
10	0x3a940243	0.0011292178
11	0x3ade1403	0.001694322
12	0x3b4ca1ef	0.003122445
13	0x3b54cba6	0.0032470017
14	0xbb357c38	-0.0027692448
15	0xbb88fbb7	-0.0041803974
16	0x3b93d662	0.0045116404
17	0xbb67022d	-0.00352491
18	0x3b833122	0.00400366
19	0x3b4b128a	0.0030986392
20	0x3ba3aea6	0.004995185
21	0xb9a3d1ee	-0.00031246193
22	0x3afdd2f7	0.0019365241
23	0x3a210826	0.0006142877
24	0x3c0a2e56	0.008433899
25	0xbb0ba280	-0.0021306574
26	0xbaf1ed49	-0.0018457557
27	0xb9b2cef9	-0.00034105012
28	0xbb1db942	-0.002406672
29	0x3b0a5b01	0.0021111371
30	0xbb54862e	-0.003242861
31	0xba8ae181	-0.001059577
32	0x3a66aef5	0.00087998743
33	0x3b24cadf	0.0025145335
34	0xbaa27d06	-0.0012396879
35	0xbb59d0eb	-0.0033236097
36	0x3afdab4d	0.001935342
37	0x3c0f7701	0.0087564
38	0x39731294	0.00023181207
39	0x3b182a25	0.002321848
40	0xba8723ad	-0.0010310315
41	0xbadd9b0b	-0.0016907168
42	0x3a2ca722	0.0006586184
43	0x3b6b1d48	0.0035875607
44	0xbb826ea0	-0.0039804727
45	0x3b08dfbe	0.0020885314
46	0xba85ddd3	-0.0010213203
47	0xba290b61	-0.0006448534
48	0xbbee9585	-0.0072810077
49	0x3b031192	0.0019999486
50	0xb94deee7	-0.00019639322
51	0xbb92f7a8	-0.0044850893
52	0xb9c69351	-0.00037875262
53	0x3b935c28	0.00449707
54	0xb96286b0	-0.00021603215
55	0x3b9ba71e	0.0047501465
56	0xbb43ae3c	-0.002985849
57	0xba872054	-0.0010309317
58	0xbb36cc7d	-0.002789288
59	0x3bf3c802	0.0074396143
60	0xb9c5338e	-0.0003761318
61	0x3b8f6319	0.004375827
62	0x3a84bdae	0.001012733
63	0xba86d783	-0.0010287616

exp_avg_sq f4 [64]
0	0x3a449ead	0.0007500451
1	0x3a8bc598	0.0010663746
2	0x3c5486f4	0.012971628
3	0x3a9700d1	0.0011520629
4	0x39b83cca	0.00035140506
5	0x398bb26b	0.00026645078
6	0x38b3112e	8.538585e-05
7	0x39c5594a	0.00037641294
8	0x3a2f3508	0.00066836225
9	0x39bdfd89	0.00036237788
10	0x38e82f1e	0.00011071398
11	0x3a304aa2	0.00067249883
12	0x3a291e46	0.00064513495
13	0x3a901e72	0.0010995402
14	0x39df44cc	0.00042585132
15	0x3babcd42	0.0052429745
16	0x3ab8ac83	0.0014089498
17	0x3a7007bc	0.0009156426
18	0x3b481e0f	0.0030535494
19	0x39d9206e	0.00041413627
20	0x39ac5ab3	0.00032873973
21	0x3aebe9b1	0.0017998723
22	0x3b572ec8	0.003283428
23	0x3a9cb874	0.0011956827
24	0x3b653f88	0.0034980495
25	0x3a60d38e	0.0008576446
26	0x3a1233ae	0.0005577159
27	0x3a86aa61	0.0010274166
28	0x3a653986	0.00087442284
29	0x39e16786	0.00042992475
30	0x3a9452a2	0.001131613
31	0x39397a1c	0.00017688464
32	0x3a579c31	0.00082248735
33	0x39adb6f5	0.00033133445
34	0x3a02e236	0.00049928145
35	0x3ae02a06	0.0017102368
36	0x3a5afd29	0.0008353764
37	0x3c1eade3	0.0096850125
38	0x39307a67	0.00016830266
39	0x3a83c08c	0.001005189
40	0x391b2d83	0.00014798906
41	0x3a0ab82b	0.00052917254
42	0x3998241a	0.00029018597
43	0x3a4dbf93	0.0007848676
44	0x3a7d862f	0.0009671179
45	0x3bd661ac	0.006542405
46	0x3981c7de	0.0002475371
47	0x3a3a87c7	0.00071155693
48	0x3c52f542	0.012875857
49	0x3a6b81c3	0.00089838746
50	0x3a4895f1	0.00076517375
51	0x3aa65f1a	0.0012693137
52	0x3ac09142	0.0014691728
53	0x3a69532b	0.00089006376
54	0x3a613adb	0.0008591839
55	0x3a963a6a	0.00114615
56	0x3a482913	0.0007635515
57	0x3a1f172e	0.00060688227
58	0x3b0eda29	0.0021797514
59	0x3b7444a0	0.003727235
60	0x395d9f91	0.00021135646
61	0x3aa8c50e	0.001287611
62	0x3aa65698	0.0012690602
63	0x3a27f74c	0.00064073945
