weights/2024-06-27_16-02-07/actor.pt (torch, 22551 bytes, 9 tensors)

mu_network.0.weight f4 [64, 3]
000000 0e 49 a9 be 0b 6b 05 bf 73 35 fd be 59 b8 e0 be
       -0.3306355 -0.5211646 -0.4945484 -0.43890646
000010 98 22 b1 3e d3 ec 67 3d 57 15 ac bd c0 aa b3 bd
       0.34596705 0.056622338 -0.08402508 -0.08772802
000020 69 3d 02 bf b2 e1 b0 3d 13 ec d3 bd 9a 66 d4 3c
       -0.50874954 0.08636798 -0.10347762 0.02592783
000030 c3 a3 50 be cc 42 e9 3e 55 12 6b be 70 b5 05 bf
       -0.2037497 0.45558774 -0.22956212 -0.52229977
000040 0d 0a 51 be 88 3c cd 3e 5b 59 da be ea e1 d3 3e
       -0.2041399 0.40085244 -0.42646298 0.41383296
000050 9a 0e 1e be f6 5d c3 3e e1 87 cc be f5 f8 f4 3c
       -0.15435258 0.38157624 -0.39947417 0.029903868
000060 eb 81 1c 3d ad 3f 86 bc 88 ec 0d 3f 88 01 18 3f
       0.038209837 -0.016387785 0.55439043 0.59377337
000070 dd 56 db 3e 1a f2 a7 3e 30 4b 47 3e ec f6 01 3f
       0.4283971 0.32801896 0.19462276 0.507674
000080 a3 2c cd 3d 23 05 5b be 31 c3 1e bf 78 17 81 3e
       0.100182794 -0.21388678 -0.6201659 0.25213218
000090 c3 dd 65 3e 40 64 f8 be 3f b5 a5 3e 0f c8 93 3e
       0.22447877 -0.48513985 0.32364842 0.2886357
0000a0 31 d0 83 be 5f 76 90 be ca d7 4f be e7 bb 22 bf
       -0.25744775 -0.2821531 -0.2029716 -0.63567966
0000b0 67 2e e3 3e 38 42 61 be 3f e8 88 be 7c 79 fc 3e
       0.4437134 -0.21997917 -0.2673969 0.49311435
0000c0 64 e3 19 bf a5 d6 11 be 30 94 0f bf 1e 0a c4 3e
       -0.60112596 -0.14242037 -0.5608549 0.3828897
0000d0 60 dd 2a 3e bd 9c a1 3d db 0c c9 be 7f 07 0e bf
       0.1668601 0.078912236 -0.3926762 -0.5548019
0000e0 b2 14 f9 be 29 e9 b8 be 3f b4 ee 3b 0f 70 03 3f
       -0.48648602 -0.36115387 0.0072846706 0.5134286
0000f0 e0 4b 73 be 44 b6 e5 bd d2 4d 07 3f 43 1d fc be
       -0.23759413 -0.11216405 0.5285312 -0.49241075
000100 6e b5 10 be a1 31 98 3e 3b 89 24 bf d6 6f 0e 3e
       -0.1413171 0.29725364 -0.642719 0.1390985
000110 3f 33 20 be 9b 1c 0b 3f 1d e5 11 bf 9a 24 ed 3e
       -0.15644549 0.54340523 -0.56990224 0.46316987
000120 01 69 73 bd 8a ae 1b bf 51 5d ab be ca 13 29 bf
       -0.05942631 -0.608132 -0.33469632 -0.6604582
000130 9f d0 0d 3f 66 b9 76 be cb d1 13 bf 5c 19 bd be
       0.55396456 -0.24094161 -0.57741994 -0.3693341
000140 20 c8 87 be 5a f2 f6 be f8 9c d7 3e fa 39 b4 be
       -0.2651987 -0.48231775 0.42111945 -0.35200483
000150 4a 25 90 be 94 46 c8 3e df 9b 95 3e 16 51 f5 be
       -0.2815345 0.39116347 0.29220483 -0.47913426
000160 ef ed 24 3f a3 2e 7a be c1 1f 38 3e 33 56 b8 3b
       0.6442556 -0.24431853 0.17980863 0.00562551
000170 a9 ed 1f be 93 e9 84 bd ae a3 c2 be 8b 06 8b be
       -0.15618004 -0.06489863 -0.38015503 -0.2715343
000180 6e cb 09 bf 52 96 13 be d2 e0 a3 3c 5c 28 f8 bd
       -0.53826034 -0.14412811 0.020004664 -0.12117073
000190 41 5b 03 3f 35 12 9a 3e 6d 3d 29 be f2 04 b0 be
       0.5131112 0.30092016 -0.16527338 -0.34378773
0001a0 ec 65 9e 3d a1 69 78 3e f9 48 62 be b6 37 01 3f
       0.07734284 0.24259044 -0.2209815 0.50475633
0001b0 1f 00 d5 bd 17 9d ca be 51 10 c5 be 3a e3 11 3e
       -0.10400414 -0.39572975 -0.3848901 0.14246836
0001c0 b7 a1 8f be e9 b0 8c 3b 80 6a a6 3d 05 da c8 3e
       -0.28053066 0.0042935503 0.08125782 0.39228836
0001d0 ef 86 02 be c4 96 9c be a4 3d e7 bc 9d b9 8f 3e
       -0.12746786 -0.30583775 -0.028227635 0.280713
0001e0 16 ad d3 3d a1 38 cd 3e df 68 4c 3e 2b 6a 0e 3f
       0.10335748 0.40082267 0.1996188 0.5563075
0001f0 70 ec 6f 3d 10 3c b8 be 0d cb 67 bc 83 2d 0f bc
       0.058575094 -0.35983324 -0.014147532 -0.008738878
000200 67 62 29 39 73 e1 84 3d bb 67 ef 3e 05 f2 83 be
       0.00016153754 0.064883135 0.46758828 -0.25770584
000210 07 d9 47 be a7 7d 7f 3d 3f 57 4f be 0e f3 98 3d
       -0.19516383 0.06237569 -0.20248125 0.07468234
000220 05 38 38 be 13 82 c2 be 6a 1e 0c bf 85 30 05 bf
       -0.1799012 -0.37989864 -0.5473391 -0.5202716
000230 a3 e3 f2 3e e7 73 11 3e 5a df cc 3d e0 ee 87 be
       0.47439298 0.1420437 0.100035384 -0.26549435
000240 dd 07 01 bf 87 d1 14 3f d6 3b c5 3d aa 89 af be
       -0.50402623 0.58132213 0.096305534 -0.34284717
000250 41 72 0c bf bc 99 a3 3e 29 0b c5 bd f9 41 e8 3e
       -0.5486184 0.31953228 -0.09621269 0.45362833
000260 98 bc 60 3e cd 19 d4 be f4 64 62 be 4d 55 8b be
       0.21946943 -0.41425934 -0.22108823 -0.27213517
000270 bc d0 aa 3d a9 73 03 bf 02 eb 19 be da 6e 70 3e
       0.08340594 -0.5134836 -0.15031055 0.23479787
000280 f6 2d c8 3e 8b cf 16 3e 2c cd d9 bd 7b 58 df be
       0.39097565 0.14727609 -0.106348366 -0.43622193
000290 c1 0f 05 3f 3f c7 46 be c9 ff a0 3d 36 47 6d be
       0.51977164 -0.19411944 0.07861287 -0.23171696
0002a0 d7 58 ed be 07 b8 c8 3d 95 2f fe bd f6 24 5c 3e
       -0.46356842 0.098007254 -0.12411419 0.21498474
0002b0 e7 9f bf bd 2c 9b b0 be 40 e6 48 be 5e fc 79 be
       -0.09356671 -0.34493387 -0.19619083 -0.24412677
0002c0 c1 48 00 bf c9 bd 01 3f 7e 51 21 3f 08 53 a0 be
       -0.50111014 0.50680214 0.6301497 -0.31313348
0002d0 e7 73 17 bf 08 b7 6f 3d df b8 16 be 8d 75 ec 3d
       -0.5916123 0.05852416 -0.1471896 0.115458585
0002e0 c3 7b a2 3e 2b fd 68 be a8 dd 45 3d 7a 9f b2 be
       0.31735048 -0.22752826 0.04830709 -0.34887296
0002f0 27 ea 4a 3e e4 8d 8e 3e a8 72 bb be 36 cd e0 3e
       0.19815885 0.2784263 -0.36610913 0.43906564

mu_network.0.bias f4 [64]
000000 95 07 e5 be 5e 85 b8 3c 40 19 96 3c 29 31 00 3f
       -0.44732347 0.022524532 0.018322587 0.5007501
000010 12 b0 d6 bd 9a d6 84 bc 02 bb c1 3e 74 09 d3 3e
       -0.104828015 -0.016215611 0.37837988 0.4121815
000020 f7 c7 f8 be cc 22 2a 3e ec 5b 9c 3e f9 e9 5a 3e
       -0.4859006 0.16614836 0.3053888 0.21378316
000030 9d 16 d2 be 6d ba ae bd ff ad 91 3e be 78 ca 3e
       -0.41032878 -0.08531652 0.2845306 0.39545244
000040 a8 b1 b0 be 04 a5 a7 be f5 02 12 3f 42 98 bd bd
       -0.3451054 -0.32743084 0.5703576 -0.092575565
000050 36 d4 94 3e 33 02 3c be 55 e8 5f 3e 5e af 34 3e
       0.29068154 -0.18360214 0.21865971 0.17645022
000060 a8 03 00 bf 97 96 08 bf cf 22 47 be 6a 53 90 bd
       -0.5000558 -0.5335478 -0.19446872 -0.0704716
000070 95 eb 0c 3f 14 f1 04 3f 8b af ba 3e 75 d2 5f be
       0.5504697 0.51930356 0.36462054 -0.21857627
000080 74 2f df be 95 ac 70 3e 08 2a 0b bc 24 6f 1b be
       -0.4359089 0.23503335 -0.008493908 -0.15179116
000090 79 55 e0 be 81 0a 19 bb f9 03 fc be b2 7e 85 be
       -0.4381521 -0.0023352208 -0.4922178 -0.26073223
0000a0 95 d0 de be e7 33 d2 3d 9a da 1e 3e c4 07 06 3f
       -0.4351851 0.10263806 0.15513077 0.523556
0000b0 c6 15 f6 bd 59 08 e7 be b0 c8 52 3d 92 39 fc be
       -0.12015872 -0.45123556 0.05146092 -0.49262673
0000c0 9d 53 52 be b2 4f d6 be 3f bf 0a 3f b6 12 64 be
       -0.20539708 -0.41857678 0.5419807 -0.22272763
0000d0 e0 29 d7 be b1 7d b7 be 56 fb 90 bd 3b d6 86 3e
       -0.42024136 -0.35838082 -0.070791885 0.2633532
0000e0 19 a3 5f 3e 5f 17 0d bf 15 2b 32 bd 49 ba 92 3e
       0.2183956 -0.55113786 -0.043498117 0.2865775
0000f0 80 d7 c9 3d 4a d2 df 3d 04 8b d4 3e f6 e3 e6 be
       0.098555565 0.10928781 0.4151231 -0.45095795

mu_network.2.weight f4 [64]
000000 fc b8 7f 3f 62 1e 86 3f 90 81 7e 3f 2e 2b 7b 3f
       0.9989164 1.0478022 0.99416447 0.9811276
000010 a7 89 7a 3f 34 7f 81 3f 1b 82 7a 3f 1a ec 82 3f
       0.9786629 1.0116944 0.97854775 1.0228302
000020 3d 86 7c 3f 4d c6 84 3f 8c 64 7d 3f ff 43 7f 3f
       0.9864233 1.0373017 0.9898155 0.9971313
000030 61 ba 78 3f 41 dd 7e 3f 74 be 7f 3f c3 da 7f 3f
       0.9715939 0.99556357 0.99899983 0.9994318
000040 09 1a 82 3f 7a 63 85 3f 53 85 81 3f b4 0c 82 3f
       1.0164195 1.0420983 1.0118812 1.0160127
000050 5b 84 80 3f 22 3a 7d 3f 1a 25 89 3f 9f 58 7d 3f
       1.0040392 0.9891683 1.0714447 0.9896335
000060 62 97 82 3f 49 b1 83 3f 76 24 82 3f 86 e8 81 3f
       1.0202448 1.0288478 1.0167377 1.0149086
000070 cc 75 7d 3f 15 8d 84 3f bb 7c 7d 3f a8 30 7b 3f
       0.9900787 1.0355555 0.9901845 0.9812112
000080 05 44 82 3f 44 f2 83 3f 1a 2c 82 3f e4 7f 86 3f
       1.0177008 1.0308309 1.0169709 1.0507779
000090 f1 1c 7d 3f d8 17 85 3f 01 7f 7c 3f 78 5b 7c 3f
       0.98872286 1.0397902 0.9863129 0.9857707
0000a0 bf 58 7b 3f ed d0 80 3f f3 61 7f 3f 3e 7c 79 3f
       0.9818229 1.0063759 0.99758834 0.97455204
0000b0 e9 09 80 3f 6f ad 7c 3f 6a 48 7e 3f 24 67 7e 3f
       1.0003024 0.9870214 0.99329245 0.9937613
0000c0 d6 3d 82 3f bc 10 78 3f f7 ec 81 3f f5 fd 7d 3f
       1.0175121 0.96900535 1.0150441 0.9921563
0000d0 bc a3 7b 3f e7 cc 88 3f d3 92 7e 3f 4c 7a 7e 3f
       0.98296714 1.0687531 0.99442786 0.9940536
0000e0 78 0e 83 3f 93 cf 7d 3f ef 02 80 3f 69 46 80 3f
       1.023879 0.9914486 1.0000895 1.0021487
0000f0 cc a3 81 3f 75 cf 7a 3f 39 17 80 3f 52 f0 84 3f
       1.0128112 0.97972804 1.0007087 1.038584

mu_network.2.bias f4 [64]
000000 b0 7c 5e bc 37 d6 0b 3c 3e 17 40 3c 1f 84 8a bc
       -0.0135795325 0.0085349595 0.011724291 -0.016908703
000010 c7 38 59 3c 2f d7 64 bc ba a2 b8 bb 98 03 88 bc
       0.013258166 -0.013967319 -0.005634633 -0.016603276
000020 dd 8b 7e 3c b6 d8 5f 3c c9 5b 94 bb 37 da 18 bc
       0.015536276 0.013662508 -0.004527543 -0.00932937
000030 ea a0 54 3b 69 9e 9e bc 00 08 bf bc c1 fa c7 3a
       0.0032444545 -0.019362645 -0.023319244 0.0015257226
000040 fc de a3 3c cc a5 bf bb aa be 18 bc 0a e8 8f ba
       0.020003788 -0.005848622 -0.009322802 -0.0010979187
000050 91 1c 6e 3c ad 6e 15 3c ac d5 69 3c 93 93 62 bc
       0.014533178 0.009120625 0.014272135 -0.01382913
000060 99 a5 ab bb 43 39 2b 3c a1 ba 1f 3b 02 53 c1 3c
       -0.0052382466 0.010450664 0.0024372714 0.023599152
000070 a8 65 1a 3c a0 b2 16 3c ce 86 36 bc 87 47 08 3c
       0.009423651 0.009197861 -0.011140538 0.008317835
000080 cd 75 34 bc 13 60 f8 bb 25 ca c8 bc e0 6e c2 3c
       -0.011014414 -0.0075798123 -0.024510453 0.02373451
000090 17 f3 b0 3b 41 2c 31 bc 5a 30 9a 3b e6 07 03 3c
       0.0054000723 -0.010813774 0.004705471 0.007997489
0000a0 d0 cd fa 3b 6e c5 24 bc 74 83 8a bb 35 ea b0 bc
       0.0076539293 -0.0100568365 -0.004227096 -0.021596054
0000b0 89 0e 97 bc 1b 5e f8 ba 53 1c 0c bc 07 af 36 3b
       -0.018439548 -0.0018948944 -0.008551675 0.002787532
0000c0 0b ef 24 3c d7 f4 ee 3b 37 2f 09 3c b3 de f8 bb
       0.010066758 0.007292371 0.008373073 -0.007594907
0000d0 c0 e1 3d 3c d8 7e 60 3c d5 25 b9 3a f6 6d 46 bc
       0.0115894675 0.013702117 0.0014125655 -0.012111178
0000e0 a0 39 b4 ba 47 60 c2 3b b6 b1 e8 bb 45 06 03 3c
       -0.0013750084 0.0059318873 -0.007101263 0.0079971
0000f0 01 1f 77 3b 2b 9d 93 3b 92 a6 18 bc 43 af 09 3c
       0.0037707689 0.00450482 -0.009317057 0.008403602

mu_network.3.weight f4 [64, 64]
000000 ae d4 b5 bd cc 45 cb 3d ac 14 1f bc 7a ce b5 bc
       -0.08878456 0.09925422 -0.009709518 -0.022193182
000010 c1 58 3b bd 01 3c c7 3d ad 3b a0 bd 3a f7 d9 bd
       -0.04573894 0.09728242 -0.07823882 -0.10642858
000020 4f 21 c3 3d 6a 1f 29 3e 36 70 5e 3d 0b 80 da bc
       0.095278375 0.1651589 0.05430623 -0.026672384
000030 8b 35 9f bb 97 08 85 bd 7c bf 8c bd 6d 12 94 3a
       -0.0048586777 -0.06495779 -0.0687246 0.0011296995
000040 c4 87 9f 3d 73 c4 fa 3d fd 0b 79 3d 25 ff 47 bd
       0.07789567 0.12244501 0.06080245 -0.04882731
000050 ea e6 6a bd 6b b4 ea bd a1 0d d9 bd 30 58 6a bd
       -0.057349123 -0.11460193 -0.10598303 -0.05721301
000060 c7 9d 89 bd 38 19 37 bd ea e3 60 bc 35 8a ae 3d
       -0.06719547 -0.044701785 -0.013726214 0.08522455
000070 7b 68 77 bd b0 04 9d bd 5f 08 7a 3d db e1 90 bd
       -0.060402375 -0.0766691 0.06104314 -0.070743285
000080 b5 e9 8c ba 24 99 f8 3d ea e3 e5 bd e6 b6 1a 3c
       -0.0010750802 0.12138584 -0.11225112 0.00944302
000090 d0 16 12 3d fd 26 82 3d a3 e3 9d 3d 39 5e e2 3d
       0.035666287 0.06355093 0.07709434 0.11053128
0000a0 e9 4b f7 bc 0f 77 fa bc 1c 0e e5 bd cb 13 79 3d
       -0.030187564 -0.03057435 -0.11184332 0.06080989
0000b0 ba fe 25 3d d5 41 74 3d 84 7d 53 3d c7 aa dc 3d
       0.04052613 0.059633095 0.051633373 0.10774761
0000c0 f0 71 0a bc fe f2 c1 3d 31 b1 01 bd 22 9e f4 ba
       -0.008450016 0.09470175 -0.031663124 -0.001866285
0000d0 c9 ff ad bc 29 4a 91 3d 76 90 90 3d fb 7d 4e bd
       -0.021240132 0.07094223 0.07058804 -0.050413113
0000e0 13 f4 00 be 41 39 45 bd 63 3e 05 bd c9 05 4d bd
       -0.12593107 -0.048150305 -0.0325302 -0.050054345
0000f0 89 9f 82 bd 0e 3d d9 bd 43 90 3c bc 9f 80 e9 3d
       -0.06378085 -0.106073484 -0.011509004 0.11401486
000100 fe 52 c2 bc e6 44 bc bd 23 01 ff bb 81 b0 85 3d
       -0.023721214 -0.09192829 -0.007782118 0.06527806
000110 0d 5f 4b 3d e7 b7 f3 3d 97 ad a5 3d ad 74 00 bc
       0.049651194 0.11900311 0.0808975 -0.007840318
000120 99 75 27 3c bc 72 e9 bd 18 0b 9d 3d 16 55 b4 3d
       0.010220909 -0.11398837 0.076681316 0.08805291
000130 8c 35 7c 3d 54 e3 4c bd b4 20 f6 bc 9b 81 b1 bd
       0.061574504 -0.050021484 -0.030044891 -0.086672984
000140 13 52 24 bd c3 eb c9 3d ce ea 1c 3d 12 1e 1f bd
       -0.040117335 0.09859421 0.038309865 -0.038847037
000150 37 bc f6 3c 7c 23 11 bd ac 5b 1d be c3 cf 5c bd
       0.030119045 -0.03543423 -0.15367001 -0.053909075
000160 8e 59 06 3e 8c 5c 0e be db 26 ba 3d d9 2c c9 bc
       0.131201 -0.13902491 0.09089442 -0.024557518
000170 51 24 01 be c5 09 a9 bd 91 d5 c5 ba 67 ed 78 bd
       -0.1261151 -0.082538165 -0.0015093555 -0.06077328
000180 a0 1f f2 bd 93 ca 1c 3d b4 3c d7 ba 0c ba 19 bd
       -0.11822438 0.038279127 -0.0016421289 -0.037530944
000190 f1 9d c1 3d 06 15 58 3d 92 c1 15 bd 34 3c fa bd
       0.09453953 0.052754425 -0.036561556 -0.12218514
0001a0 3f 99 b3 bc 89 d4 0b bd d5 dd d9 3d 45 b2 c8 3d
       -0.02192366 -0.034138236 0.10638014 0.09799627
0001b0 63 45 0f 3d 9f b0 17 3e d2 ea 35 bd d3 91 a2 3d
       0.03497828 0.1481347 -0.044413395 0.0793797
0001c0 5c 75 db 3c 8b 8b 48 bd 46 82 03 be db d9 e0 3d
       0.02678936 -0.048961204 -0.12842664 0.10979053
0001d0 82 b7 5e 3d fd d8 70 3c 0f 33 05 3c ba 1f a5 3b
       0.054374225 0.014700172 0.008129849 0.0050391825
0001e0 b0 0b 77 bd 61 69 80 3c cf 55 fc bd 6c d6 87 3d
       -0.06031388 0.015675249 -0.12321054 0.066326946
0001f0 a8 20 8e 3d f0 7b 87 bd e7 32 e7 bd d1 46 0b bc
       0.069398224 -0.06615436 -0.11289006 -0.008500771
000200 cc ef 07 be 8a 87 ae 3b 0f fe 96 3b 10 eb 51 bd
       -0.13275069 0.005326216 0.004607923 -0.051249564
000210 65 49 bd bd 68 72 ec bd e8 a0 ce bd 35 9b 0a bc
       -0.092425145 -0.11545259 -0.10089284 -0.008459856
000220 55 1e 20 bd 61 76 0e 3e 4b f4 2a 3c ca 19 84 3d
       -0.039091427 0.13912345 0.010434221 0.064502314
000230 9e 52 29 bd b6 60 71 3d ed 0b ba 3d ca 08 e1 3d
       -0.041338556 0.05893012 0.09084306 0.109880045
000240 f7 03 f9 3d 8e b6 0e 3e a7 c0 0d be 2e bc ec 3c
       0.12158959 0.13936827 -0.13843022 0.028898325
000250 ea 27 81 bc d0 7f f7 bd 69 d5 57 3d d6 df 21 3d
       -0.015766103 -0.12084925 0.05269376 0.039520107
000260 8f e7 b9 bc aa e5 dd 3c 59 0f c0 3d a9 0a 23 3d
       -0.022693424 0.027087051 0.09377927 0.03980509
000270 aa 63 b2 3d 1d 64 5d 3c 38 e9 d8 bc 89 1c 69 bd
       0.08710416 0.013512638 -0.026478395 -0.05691198
000280 4b 0d c6 3c 49 a3 e9 3d e3 64 ae bd bc cb a7 bc
       0.02417626 0.11408097 -0.08515336 -0.02048289
000290 f1 5d d0 3d 61 3e e0 bd 2f 11 c1 ba 92 7e c5 bd
       0.10174168 -0.10949398 -0.0014729853 -0.09643282
0002a0 39 52 1f bc 6c 09 ff 3c 3f 10 5f bd 82 4e 04 bd
       -0.009724193 0.031132422 -0.054458853 -0.032301433
0002b0 20 87 67 bd ef 4b 96 bd 3d 82 75 bd dc 55 ee bd
       -0.05652535 -0.07338702 -0.059938658 -0.1163747
0002c0 7a cf 32 bd be 1e 49 bd e1 c5 ac bc 76 ac a9 bd
       -0.043654896 -0.049101584 -0.02109045 -0.082848474
0002d0 c9 44 12 be ae 49 63 3d b6 d7 2c bc 85 3a 3e bc
       -0.14284052 0.05549019 -0.010549476 -0.011610632
0002e0 ee cd 11 be e7 be 27 3c 34 d6 c3 3d 0a a1 d0 bd
       -0.14238712 0.010238386 0.095623404 -0.10186966
0002f0 33 f6 8d bd 92 c0 4b 3d 39 24 90 3d 44 68 ef 3d
       -0.069317244 0.049744196 0.07038159 0.11689809
000300 11 8e ad bd 3a e6 ba bd f2 3d 78 3d 8f cf b2 3d
       -0.08474363 -0.091259435 0.06060595 0.08730995
000310 2a 41 97 bd e6 65 aa bd eb da 84 bd ef 77 00 3d
       -0.07385476 -0.08320217 -0.06487068 0.031364378
000320 6b 7d e6 bd 61 d8 d0 bd 1d e2 bd bc 02 fd 43 bd
       -0.1125439 -0.10197521 -0.023179108 -0.04784871
000330 ee 76 59 bd ac 87 02 bd 14 d6 b1 bd 68 1b 0e bd
       -0.053091936 -0.031867668 -0.0868341 -0.034694105
000340 ae 93 34 3a 0f 63 46 bd 37 ac 9c 3d 09 b7 f0 bc
       0.0006888461 -0.048434313 0.07650035 -0.029384153
000350 3b ce cc bd a6 78 3c bd 89 71 01 3e 32 31 89 3d
       -0.10000273 -0.046013497 0.12640966 0.066988364
000360 f2 9a cb 3c a5 ab c5 3c dc e5 8b bc a6 b4 6f 3d
       0.024854157 0.024129698 -0.017077379 0.05852189
000370 d9 4d 56 3d 3d df b4 3d 76 50 bc 3d 00 59 05 3e
       0.052320335 0.08831642 0.09195034 0.13022232
000380 05 a8 f4 3d 46 83 f8 bd 2e f3 91 3d 81 d9 3a bd
       0.1194611 -0.121344134 0.07126461 -0.045617584
000390 89 83 b1 bd 9e bd 8a 3d 72 67 da bc 38 b7 9e bc
       -0.086676665 0.06774448 -0.026660655 -0.019374475
0003a0 0d 40 41 3c e2 ab 46 bd ea 4c ae 3d 18 dd bd bd
       0.011795056 -0.048503764 0.08510764 -0.09270686
0003b0 43 de 66 bb 94 cc 41 3d b9 d4 51 3c 83 fc 1b bd
       -0.0035227693 0.04731424 0.012807065 -0.03808261
0003c0 09 50 f3 3d c8 57 01 be a8 7b ff bd 14 cc 89 bd
       0.118805 -0.12631142 -0.124747574 -0.06728378
0003d0 de 93 69 bc 18 f8 f7 3c 8b 61 c9 3d 39 4a c6 bc
       -0.014256446 0.030269668 0.09833058 -0.024205314
0003e0 65 ae fa 3d 25 1b 83 3d 4f f6 09 3e b6 11 a0 3d
       0.12240294 0.06401662 0.13472866 0.07815878
0003f0 aa c5 8d bd 4c 38 e3 bd d9 66 b7 3c 73 9d 66 bd
       -0.06922467 -0.11094722 0.022387909 -0.0563025

mu_network.3.bias f4 [64]
000000 76 76 e2 bd 18 25 d8 bc 04 80 7d 3d 23 08 c1 bd
       -0.11057751 -0.026384875 0.061889663 -0.0942538
000010 84 88 a1 3d 42 e2 78 bc ca 9e 0a bd be 7f cd 3d
       0.078873664 -0.015190663 -0.03384284 0.100341305
000020 67 b1 4c 3d 8d ab ae 3d 70 2c db 3c f7 63 81 bd
       0.04997387 0.085288145 0.026754588 -0.06317895
000030 19 73 c8 3d 42 1e d0 bd f0 bb 20 3d cc e6 f6 bc
       0.09787578 -0.10162021 0.03924173 -0.03013935
000040 30 4b 09 bb c9 14 cc bd 9a 5c 95 bd c1 b7 96 3d
       -0.0020949356 -0.09964902 -0.07293053 0.07359267
000050 83 9f d2 bd 37 0d e5 3c 2b e0 e1 bd b4 95 60 3d
       -0.10284331 0.027960403 -0.11029085 0.054830268
000060 05 a1 71 3d 57 9f 83 bd fe 26 d4 bc 18 14 e0 3c
       0.05899145 -0.06426876 -0.0258975 0.027353331
000070 53 92 22 bd 01 22 46 bd 72 ba e4 bd 00 b6 b7 3b
       -0.039690327 -0.048372272 -0.11168374 0.005606413
000080 6f ef 81 3d b1 8a c7 3d f2 0b 3e 3d 9a 0d 64 bd
       0.063444965 0.0974325 0.04639811 -0.055677034
000090 4c 4e 4b 3d fe 74 5b 3d 00 f0 ab bc a4 fa 1b bc
       0.049635217 0.05357837 -0.020988464 -0.009520207
0000a0 22 cf 55 bd a6 f0 4a bd d3 e5 13 3d 8f f9 6a bd
       -0.05219949 -0.049545906 0.03610785 -0.057366904
0000b0 8f cc a1 bd 3c 5e ae 3d 47 98 6f bd 44 cd 64 bd
       -0.079003446 0.085140675 -0.058494832 -0.05585982
0000c0 be cb c3 bd dc e8 93 3d 75 e2 b9 3d e9 c0 9d bd
       -0.09560345 0.07222149 0.090763964 -0.0770281
0000d0 2e 5d 91 3d e5 35 b6 3d 6b f6 00 3d 4c d3 0f bd
       0.07097851 0.08896998 0.031485002 -0.035113618
0000e0 04 de 84 bc f5 fa 21 3d 4e dd 49 3b 8b d1 7e bd
       -0.016219147 0.039545972 0.0030802074 -0.062211554
0000f0 b8 03 a7 bd a7 f4 f7 3d b2 80 04 be 0c 19 09 bd
       -0.08155006 0.121072106 -0.12939718 -0.033471152

mu_network.5.weight f4 [64]
000000 0a cb 7e 3f cd d8 7f 3f ae 50 7e 3f 76 02 79 3f
       0.99528563 0.99940187 0.9934186 0.9726938
000010 f3 25 80 3f 2c 0d 79 3f 45 a3 7e 3f 98 67 7c 3f
       1.0011581 0.97285724 0.9946788 0.9859557
000020 e3 4c 79 3f 0c cf 7f 3f c6 74 80 3f 8a ef 79 3f
       0.97382945 0.99925303 1.0035636 0.9763113
000030 f3 bd 7c 3f 7a 87 80 3f 71 50 81 3f 11 88 7d 3f
       0.9872734 1.0041344 1.0102674 0.99035746
000040 0d b1 7d 3f 77 51 7a 3f 87 5d 78 3f 14 a7 7e 3f
       0.99098283 0.97780555 0.9701771 0.9947369
000050 c4 7a 7e 3f df b2 70 3f ce 3f 79 3f 85 e3 7e 3f
       0.99406075 0.94022936 0.97362983 0.9956592
000060 60 92 7d 3f 3f df 7c 3f 22 31 7f 3f 3d ce 78 3f
       0.99051476 0.98778147 0.99684346 0.97189695
000070 7b 07 6b 3f d0 1d 80 3f df ed 7b 3f 22 ea 7d 3f
       0.9180829 1.0009098 0.9840984 0.99185383
000080 85 6b 7f 3f af bf 7f 3f 49 96 76 3f b2 8c 7e 3f
       0.99773437 0.9990186 0.96323067 0.99433434
000090 be 33 82 3f 0b dd 78 3f d0 8b 7b 3f 8e 46 6d 3f
       1.017204 0.97212285 0.9826021 0.9268578
0000a0 84 5e 73 3f b4 5c 7a 3f b8 9a 7a 3f 72 60 84 3f
       0.95066094 0.97797704 0.9789233 1.0341933
0000b0 c0 fd 81 3f c1 ff 79 3f 0f 02 81 3f 2c d6 81 3f
       1.0155563 0.97655874 1.0078753 1.0143485
0000c0 a4 8d 7f 3f f6 5b 7f 3f 9c 5c 7a 3f a9 d3 80 3f
       0.998255 0.99749696 0.9779756 1.0064594
0000d0 39 e1 76 3f f8 93 7e 3f fa f6 80 3f 81 cb 7c 3f
       0.9643741 0.9944453 1.0075371 0.9874802
0000e0 7c b5 7d 3f a9 1e 7b 3f 39 ee 76 3f 39 7c 79 3f
       0.9910505 0.9809366 0.9645725 0.97455174
0000f0 ef 04 7f 3f ba 2e 78 3f fe 93 7e 3f b2 b5 7c 3f
       0.99616903 0.969463 0.9944457 0.98714745

mu_network.5.bias f4 [64]
000000 8c 5f 40 3c b0 7c 2a bc 20 db 34 3c ab 99 ec 3b
       0.01174153 -0.010405704 0.011038572 0.007220467
000010 98 76 2e 3c e6 ad 80 bc ba ff 2f 3c 53 fb 31 bc
       0.010648392 -0.015707921 0.010742122 -0.010863143
000020 f4 e1 19 bc fd 27 2f bc e1 cf 42 3c 82 ef 41 3c
       -0.00939225 -0.010690686 0.0118903825 0.011836888
000030 d3 91 32 bc 94 8c 33 3c e3 d0 39 3c 17 23 2e 3c
       -0.010899025 0.010958809 0.011341306 0.010628483
000040 3d 93 33 3c ed a2 38 3c 3a f1 27 3c 11 d6 2c 3c
       0.010960397 0.011269313 0.010250384 0.010549084
000050 8a e5 3a 3c ac 66 10 3b c8 6e 24 bc cf b8 33 3c
       0.011407265 0.0022033853 -0.010036178 0.010969355
000060 f9 67 39 3c f0 27 25 bc 76 52 35 bc bd b7 25 bc
       0.011316293 -0.010080323 -0.0110670235 -0.010114607
000070 99 98 03 bb ef b1 2f 3c df c2 20 bc 36 c1 35 bc
       -0.002007997 0.010723575 -0.009812086 -0.011093428
000080 44 f0 3d bc a4 81 42 3c 5c 0e f2 bb ef bd 3c 3c
       -0.011592928 0.011871729 -0.0073869657 0.011519893
000090 e2 16 3e bc 89 dd 1e 3c a2 1c 3e 3c b1 fa 25 3b
       -0.011602135 0.009696373 0.011603506 0.0025326426
0000a0 3f 82 db 3b e7 1d 2c bc f4 b4 0d 3c 83 fc 3f bc
       0.006698876 -0.010505176 0.0086491 -0.011717918
0000b0 96 42 3e 3c 90 b9 3b 3c c9 c1 3d 3c 17 25 33 bc
       0.011612555 0.011457816 0.0115818465 -0.010934136
0000c0 af 9b 32 bc 10 f1 32 3c 60 7e 2e bc 76 a0 36 bc
       -0.010901376 0.010921732 -0.010650247 -0.011146655
0000d0 1c ca 31 3c dc 2d 44 3c 19 5f 34 bc e2 46 23 3c
       0.010851409 0.011973824 -0.011009001 0.00996563
0000e0 9a 9f 20 3c 59 96 10 bc 71 fc 9a bc 05 a1 20 3c
       0.009803677 -0.008824908 -0.018919202 0.009804015
0000f0 30 11 2f 3c 62 1f ca 3b 4e 0d 24 bc 55 32 25 3c
       0.01068525 0.006168292 -0.010012938 0.010082801

mu_network.6.weight f4 [1, 64]
000000 1d 9d ea bd 66 e6 8f 3d 02 80 a3 bc 25 2f 84 bc
       -0.11455748 0.07026367 -0.0199585 -0.016135762
000010 ba b9 53 bd 52 c7 eb 3b 00 b9 3d bd 7d 8b 92 3c
       -0.051690795 0.0071953917 -0.046319008 0.017888779
000020 f5 8c 57 3b 85 a9 d0 3d f3 71 00 bd 16 4f a1 bc
       0.0032890413 0.10188583 -0.03135867 -0.019691031
000030 7c 77 d9 3d 75 ac f4 bd 55 0f 9d bd b5 70 df bd
       0.10618493 -0.11946956 -0.0766894 -0.10910169
000040 8f 03 e1 bd 6c 0a 8a bd f1 f2 3a bd b3 b3 ae bd
       -0.10987007 -0.06740269 -0.045641843 -0.08530369
000050 1b 1f 6c bd c3 ae b7 bb 55 a5 07 3d 1f 62 85 bd
       -0.057646852 -0.00560555 0.033116657 -0.06512856
000060 35 b0 45 bd c4 74 cd 3d bd 97 69 3d c9 ab b4 3d
       -0.048263747 0.10032037 0.057029475 0.08821828
000070 3d a4 84 3a 92 da 9f bd d6 4b 9f 3d d8 90 18 3d
       0.0010119748 -0.07805361 0.077781364 0.03724751
000080 fe ab be 3d b4 b8 aa bd 6e ab 02 3c c2 94 3d bd
       0.09310149 -0.083360106 0.007975442 -0.046284445
000090 bd 24 0e 3e b2 aa 73 bd 6c ff 86 bd 41 39 46 bb
       0.13881202 -0.05948896 -0.065916866 -0.0030246528
0000a0 ac ca 24 3c 4c 29 a2 3c a2 41 13 bc b2 45 21 3e
       0.010058086 0.019795083 -0.008987816 0.15749243
0000b0 9d 94 a6 bd 07 b9 9a bd 3d ec 96 bd d3 c9 0a 3e
       -0.081338145 -0.075548224 -0.073692776 0.13553552
0000c0 f0 84 0d 3d 6e ce 2a bd 6c 92 83 3d 92 41 4b 3d
       0.034550607 -0.041700773 0.06424412 0.04962308
0000d0 5a 94 2a bd 69 55 95 bc 1a 0b 9a 3d 3e 36 71 bc
       -0.041645385 -0.018229203 0.07521649 -0.014722405
0000e0 d7 5d bd bc cb d0 76 3d e8 6f 43 3b 1b 2a 34 bd
       -0.023116035 0.060257714 0.002982134 -0.043985467
0000f0 87 e2 ec bd 7d f8 0d bc 0b e8 f1 3d 53 84 3c bd
       -0.11566644 -0.008665201 0.11811837 -0.04602463
