weights/2024-06-27_16-02-07/critic.pt (torch, 22250 bytes, 9 tensors)

critic.0.weight f4 [64, 3]
0	0x3f20adeb	0.6276538
1	0xbe0bb7ce	-0.13644335
2	0xbe157e11	-0.14598872
3	0xbbb8201c	-0.005619062
4	0x3f084ae2	0.5323926
5	0xbe2bf041	-0.16790868
6	0xbde7b636	-0.11314051
7	0x3f62dee9	0.88621384
8	0x3bfdd39d	0.0077461735
9	0xbe691714	-0.2276271
10	0xbf07b5da	-0.5301186
11	0x3ed27a7e	0.4110908
12	0xbf44ff12	-0.76951706
13	0x3c1bdf46	0.009513682
14	0x3e60ea33	0.2196434
15	0xbdb3a4e6	-0.08771686
16	0xbeb06873	-0.34454688
17	0x3e9050a4	0.28186524
18	0xbe827c39	-0.254854
19	0x3d8a2e3e	0.06747101
20	0xbd8f11dc	-0.06985828
21	0x3f40a825	0.7525657
22	0x3c57aaa2	0.013163241
23	0x3e8c7c77	0.2743871
24	0x3ebf5546	0.37369746
25	0xbeb44d9c	-0.3521546
26	0x3e5cc263	0.21558528
27	0xbdf8a978	-0.121416986
28	0x3eb8ac8e	0.3606915
29	0x3e8635cd	0.26212922
30	0xbcc0b838	-0.023525342
31	0xbe9981ef	-0.29981944
32	0x3cd0ff18	0.025512263
33	0x3eeff4c5	0.46866432
34	0xbf2426ec	-0.6412189
35	0xbe743814	-0.23849517
36	0xbec87a54	-0.3915583
37	0x3f252efd	0.64524823
38	0xbd9b01f8	-0.07568735
39	0x3ef2cdca	0.4742263
40	0x3e5c51be	0.21515557
41	0x3e9cfbc9	0.30660847
42	0xbf0485bc	-0.5176656
43	0xbedb92b9	-0.42885378
44	0xbeaf6d2e	-0.34262985
45	0xbe3b325d	-0.18280931
46	0x3f17bef3	0.5927574
47	0x3ea6226b	0.32448134
48	0x3f269520	0.65071297
49	0xbf04bda2	-0.51851857
50	0x3ee17a02	0.44038397
51	0xbe4d067a	-0.20022002
52	0x3f483379	0.7820354
53	0xbe27d57a	-0.16390029
54	0x3ec09e04	0.37620556
55	0xbe9091b7	-0.28236172
56	0x3d7e36b5	0.06206389
57	0xbe698ff0	-0.22808814
58	0x3ebecdb0	0.37266302
59	0xbcac10dd	-0.021004135
60	0x3ed77b19	0.42086104
61	0x3f1db407	0.61602825
62	0x3e275b68	0.16343462
63	0xbf1703f2	-0.58990395
64	0x3f7773cb	0.9666106
65	0x3ea639cb	0.32465968
66	0xbeeaf0d5	-0.45886865
67	0x3f37cd8a	0.71798
68	0xbd04058b	-0.03223185
69	0xbf3afd25	-0.7304252
70	0xbe6b9f94	-0.23010093
71	0xbe436d72	-0.19084719
72	0xbefa3bf9	-0.4887388
73	0x3eb52df5	0.35386625
74	0xbcc3f7f5	-0.023921946
75	0xbdcd54a3	-0.10025909
76	0xbf296c5c	-0.6618097
77	0x3e2a30ad	0.16620131
78	0x3ecf3fae	0.4047827
79	0x3e5302e3	0.2060657
80	0xbe371e5f	-0.1788268
81	0xbe00ecff	-0.12590407
82	0xbecf3478	-0.40469718
83	0x3e7d206a	0.24719396
84	0x3f19ebf2	0.6012565
85	0x3e894219	0.2680824
86	0xbe70ffa2	-0.23535016
87	0xbe7cb8ac	-0.24679822
88	0xbec9ff63	-0.39452657
89	0x3d421149	0.047379766
90	0x3f0f526d	0.55985147
91	0x3f09916a	0.5373751
92	0x3e768979	0.24075879
93	0xbf040eef	-0.51585287
94	0x3db84868	0.089981854
95	0xbe6c183a	-0.23056117
96	0xbeaeea39	-0.34163073
97	0x3ec5a64c	0.38603437
98	0x3e48ec5f	0.19621418
99	0x3d8e3a34	0.06944695
100	0x3f32627f	0.69681543
101	0x3eae9a5d	0.34102145
102	0xbea782a3	-0.32716855
103	0xbe9634e4	-0.29337227
104	0x3ef02986	0.4690668
105	0xbea5d1ed	-0.32386723
106	0xbe5b46c1	-0.21413709
107	0x3e49b756	0.19698843
108	0x3f40b126	0.7527031
109	0x3f6f3b6f	0.93450063
110	0x3e3eef49	0.18645968
111	0xbe972332	-0.2951904
112	0xbf1452d9	-0.57938915
113	0xbecfdc70	-0.40597868
114	0xbc246296	-0.01003327
115	0x3f6d967a	0.92807734
116	0x3e330366	0.17481765
117	0x3e1fc972	0.15604189
118	0xbe6cf302	-0.23139575
119	0x3d10d7bf	0.035362
120	0xbeb5fd91	-0.35545018
121	0x3f3f0bcd	0.7462738
122	0x3ea6af5b	0.3255566
123	0xbea42a62	-0.32063586
124	0x3e46d5fd	0.19417568
125	0x3d73c4e2	0.059513934
126	0xbeafa430	-0.34304953
127	0xbec910a5	-0.3927051
128	0x3dcc3d0c	0.09972581
129	0x3e58fc8b	0.21190087
130	0xbc76818d	-0.015045536
131	0xbdd84e8b	-0.10561856
132	0xbe07ffdd	-0.13281198
133	0x3f6d9159	0.9279991
134	0x3e9d62de	0.30739492
135	0xbe30d6aa	-0.17269388
136	0xbeee1445	-0.4649984
137	0x3df174ac	0.117898315
138	0xbf2ecc4d	-0.6828049
139	0x3f50e0ac	0.8159282
140	0x3ec2f571	0.38077882
141	0x3f62a084	0.8852618
142	0xbf0b35f3	-0.54379195
143	0xbe1332af	-0.14374803
144	0xbe2aa326	-0.16663799
145	0x3f1d32c8	0.6140561
146	0x3e097110	0.13422036
147	0x3c339666	0.010961151
148	0x3d1d09af	0.038339313
149	0xbd894251	-0.06702102
150	0xbf09eca9	-0.5387674
151	0xbe3571c1	-0.17719175
152	0x3e2b6934	0.1673935
153	0xbdb1f4e5	-0.08689288
154	0xbe9e044e	-0.3086266
155	0xbeff7d08	-0.4990008
156	0xbee9420d	-0.45558205
157	0x3f1a3d6e	0.60249984
158	0x3e82696c	0.25471056
159	0xbe8c44b1	-0.27396157
160	0xbb46f26f	-0.0030356904
161	0x3ddb1e21	0.10699106
162	0x3ed5c286	0.41749972
163	0xbf2a4176	-0.66506135
164	0xbc2ea79f	-0.010660081
165	0x3bfb037c	0.0076603275
166	0xbfa765ce	-1.3077943
167	0xbec5686f	-0.3855624
168	0x3ecda135	0.40162054
169	0x3f848e0e	1.0355852
170	0xbe731142	-0.23737052
171	0x3ee49ff3	0.44653282
172	0x3f28664a	0.6578108
173	0xbe40cab1	-0.1882732
174	0x3e2311cc	0.15924758
175	0xbf835995	-1.0261713
176	0xbc87888b	-0.016544601
177	0x3ed42571	0.41434816
178	0x3eed4d0d	0.46347848
179	0x3e21b7bc	0.15792745
180	0xbead5e10	-0.33860826
181	0xbf3648ec	-0.7120502
182	0x3d0eb56e	0.034840994
183	0xbf63820b	-0.88870305
184	0xbf2cda27	-0.67520374
185	0x3ebf2cfc	0.37339008
186	0x3e3eaa71	0.18619706
187	0x3f7b1367	0.9807648
188	0xbe618afb	-0.22025673
189	0xbeb3d45e	-0.3512296
190	0x3e0a3656	0.1349729
191	0xbd778483	-0.060429107

critic.0.bias f4 [64]
0	0xbef096d7	-0.46990082
1	0xbec1ca16	-0.37849492
2	0x3ee9dda4	0.4567691
3	0xbe635d03	-0.2220345
4	0x3ee84a5b	0.4536923
5	0xbf1c9c8e	-0.61176383
6	0x3ee81dd2	0.4533525
7	0xbd6c8c30	-0.05775088
8	0xbf064c05	-0.52459747
9	0x3e148bc9	0.14506449
10	0xbca5ee7d	-0.020255322
11	0xbec88b69	-0.39168862
12	0xbe0a95d7	-0.13533722
13	0xbe238c57	-0.15971504
14	0x3f11fed8	0.57029486
15	0xbe40bd12	-0.18822125
16	0x3e81280d	0.2522587
17	0xbef91925	-0.48651996
18	0x3e975b73	0.29561958
19	0x3e426a1e	0.18985793
20	0xbebcba63	-0.36860952
21	0x3ea68448	0.32522798
22	0x3c7af8f3	0.015318143
23	0x3e88ac71	0.26694062
24	0x3d178855	0.03699525
25	0xbefb6758	-0.49102283
26	0xbe82d513	-0.25553188
27	0xbe011c35	-0.12608416
28	0xbe256e84	-0.1615544
29	0xbdf37aab	-0.118886314
30	0xbe2820fc	-0.16418833
31	0xbf212ad8	-0.62956
32	0x3f07b6c6	0.53013265
33	0xbec82835	-0.39093176
34	0xbefdad71	-0.49546388
35	0xbcd14351	-0.025544794
36	0xbef8a067	-0.48559877
37	0x3e1ce6f7	0.15322481
38	0x3e3b11ce	0.1826851
39	0x3e15e4be	0.1463804
40	0x3f001088	0.50025225
41	0x3e8670e8	0.26258016
42	0x3ef46d4e	0.47739643
43	0xbef020e2	-0.46900088
44	0xbb29d7f4	-0.0025916072
45	0xbec5d986	-0.3864252
46	0x3f235393	0.637994
47	0xbe5bf7ad	-0.214812
48	0xbe1df1d2	-0.15424278
49	0x3eb85d91	0.36008886
50	0xbccc3e51	-0.024932059
51	0x3e308fe5	0.17242391
52	0x3eaf1e58	0.34202838
53	0x3e9f6f16	0.3113944
54	0x3e1f4b2a	0.15556017
55	0xbe5e3b97	-0.21702419
56	0xbe8efbbc	-0.27926433
57	0xbe554701	-0.20827867
58	0x3e3c8219	0.18409003
59	0xbeb8f64e	-0.36125416
60	0xbdc81f5b	-0.097716056
61	0xbd9c39d0	-0.07628214
62	0xbedb37d7	-0.4281604
63	0x3d9fc733	0.07801666

critic.2.weight f4 [64]
0	0x3f7cfc22	0.98822224
1	0x3f72fa23	0.9491293
2	0x3fa1df98	1.264636
3	0x3f71818c	0.943383
4	0x3f70b596	0.9402708
5	0x3f8d6b6d	1.1048409
6	0x3f704fec	0.9387195
7	0x3f94a78d	1.1613632
8	0x3f8f4a3e	1.1194532
9	0x3f4f3cb3	0.80951995
10	0x3f73c61f	0.95224184
11	0x3f66f6c1	0.90220267
12	0x3f830ff9	1.023925
13	0x3f7e193a	0.9925724
14	0x3f7d27f7	0.98889107
15	0x3f777e89	0.9667745
16	0x3f87a876	1.0598285
17	0x3f89ab9a	1.0755494
18	0x3f9154e7	1.1354035
19	0x3f660d83	0.8986437
20	0x3f5ecd0f	0.87031645
21	0x3f8f240b	1.1182874
22	0x3f8b5ae8	1.0887117
23	0x3f86e4c4	1.0538564
24	0x3f6cb3d5	0.924619
25	0x3fa03068	1.2514772
26	0x3f80b1ce	1.0054262
27	0x3f731fbc	0.949703
28	0x3f5df037	0.86694664
29	0x3f820da4	1.0160413
30	0x3f6f0c73	0.9337837
31	0x3f735801	0.9505616
32	0x3f6f33ea	0.9343859
33	0x3f6ec4b8	0.9326892
34	0x3f73313c	0.94997
35	0x3f3eb890	0.7450037
36	0x3f98ca07	1.1936654
37	0x3f763c2d	0.9618557
38	0x3f8f1c72	1.1180556
39	0x3f8d2737	1.1027592
40	0x3f6fd6c2	0.9368707
41	0x3f59d671	0.85092837
42	0x3f725f58	0.94676733
43	0x3f357579	0.70882374
44	0x3f721e3e	0.94577396
45	0x3f8cdd5a	1.1005051
46	0x3f908e59	1.1293441
47	0x3f8612c2	1.0474474
48	0x3f4ab879	0.7918773
49	0x3f6356f9	0.88804585
50	0x3f871192	1.0552237
51	0x3f797c44	0.9745524
52	0x3f8b941a	1.0904572
53	0x3f45c93b	0.7726018
54	0x3f99d684	1.201859
55	0x3f92a863	1.1457638
56	0x3f9907e4	1.1955533
57	0x3f7ca959	0.98695904
58	0x3fb960b2	1.4482634
59	0x3f5a184e	0.85193336
60	0x3f88f134	1.0698609
61	0x3f863d8f	1.0487536
62	0x3f94ed7a	1.1634972
63	0x3f78d9b3	0.9720718

critic.2.bias f4 [64]
0	0xbaae474f	-0.0013296398
1	0xbd21d883	-0.039513122
2	0xbc917683	-0.017756706
3	0x3d51d870	0.0512318
4	0x3d55f532	0.05223579
5	0xbd0a621e	-0.033784978
6	0x3d251438	0.040302485
7	0xbd9880a1	-0.07446409
8	0xbd0fa6b2	-0.035071082
9	0x3dcbf596	0.09958951
10	0x3ba332a6	0.004980403
11	0x3d3ab09f	0.045578595
12	0x3ced1bb9	0.028943883
13	0xbde43522	-0.11142947
14	0x3c921b5b	0.01783531
15	0xbbc7bf84	-0.0060958285
16	0xbd46a97c	-0.048501477
17	0xbca5da44	-0.020245679
18	0xbd58528a	-0.05281309
19	0x3d19544a	0.0374339
20	0xbba6c098	-0.005088877
21	0xbc1ccc1a	-0.009570146
22	0x3d65a4d3	0.05606539
23	0x3d827deb	0.06371673
24	0x3cd0b210	0.025475532
25	0xbd4bd3ad	-0.049762417
26	0xbdd34607	-0.10316091
27	0x3d942753	0.07234063
28	0xbc00f12c	-0.00787
29	0xbc18a41c	-0.0093164705
30	0xbd464544	-0.0484059
31	0xbc8d93c1	-0.017282369
32	0x3d2dae30	0.042402446
33	0x3c877832	0.016536806
34	0x3dab7999	0.08372802
35	0xbd78035b	-0.060550075
36	0xbd509a1b	-0.050928216
37	0xbd39306f	-0.045212205
38	0x3d49fd46	0.049313806
39	0xbc010e16	-0.0078768935
40	0x3d0b275f	0.033973094
41	0xbc0a07bd	-0.0084246965
42	0x3d5010c1	0.050797228
43	0x3d30814e	0.043092065
44	0x3c7c28f0	0.01539062
45	0xbc80f7fe	-0.015743252
46	0x3d9f2824	0.07771328
47	0xbcc86df3	-0.02446649
48	0x3e20d77b	0.157072
49	0x3cc25cbf	0.023725865
50	0x3ce72f0b	0.028220674
51	0x3dc00eab	0.09377798
52	0x3d6ce9c0	0.05784011
53	0xbcc4fbf7	-0.024045927
54	0xbcff2524	-0.03114564
55	0xbcfecbfc	-0.031103127
56	0xbd8e3d9f	-0.06945347
57	0xbc445756	-0.011983713
58	0x3d2d6752	0.042334862
59	0x3d16a7e1	0.036781196
60	0x3cd9384f	0.026516108
61	0x3d21afb1	0.039474193
62	0xbd4eb796	-0.05046805
63	0x3d1a6095	0.037689764

critic.3.weight f4 [64, 64]
0	0x3e0426a9	0.12905373
1	0x3d7d1812	0.061790533
2	0xbdef4c37	-0.11684459
3	0xbbe78b57	-0.007066171
4	0xbdf364f5	-0.118844904
5	0x3e40cb31	0.18827511
6	0xbdbcfbf4	-0.09227744
7	0x3e437986	0.19089326
8	0x3c37bfce	0.011215163
9	0xbddb8e01	-0.107204445
10	0xbc3209a9	-0.010866561
11	0xbdde7889	-0.10862834
12	0x3e460217	0.19336735
13	0xbd0d4c4c	-0.03449659
14	0xbe28bd13	-0.16478376
15	0xbb87880b	-0.0041360906
16	0x3cfb68db	0.030689647
17	0x3e884cab	0.26620993
18	0xbe045ac0	-0.12925243
19	0x3d8227ed	0.063552715
20	0xbdb015cf	-0.0859791
21	0xbe396805	-0.18106087
22	0x3e4aa2ac	0.19788617
23	0xbcc3e770	-0.023914069
24	0x3dfaa950	0.12239325
25	0x3dfb80f5	0.12280456
26	0x3d7f75de	0.062368266
27	0xbcacce92	-0.021094594
28	0x3dad7341	0.084692486
29	0xbd011e0a	-0.031522788
30	0xbd1e3a2a	-0.03862969
31	0x3e4f5a8c	0.20249385
32	0xbd939eb6	-0.07208006
33	0xbdb93367	-0.09043007
34	0x3e208701	0.156765
35	0xbd11a2ae	-0.035555534
36	0x3e198e6e	0.14995739
37	0x3d232a23	0.039835107
38	0xbd21efe6	-0.039535426
39	0xbda9cc3f	-0.0829091
40	0xbe1a1cdb	-0.1505007
41	0xbbb9daea	-0.0056718485
42	0xbc36454e	-0.011124922
43	0xbc4ca626	-0.012490785
44	0xbe321483	-0.17390637
45	0x3ca718b9	0.02039753
46	0xbeb70c73	-0.35751686
47	0xb9a08bda	-0.00030621776
48	0xbdb47d69	-0.088129826
49	0x3cb7e77a	0.022449244
50	0x3c3c21e4	0.0114826895
51	0xbd149060	-0.0362705
52	0xbdf085a0	-0.11744237
53	0x3c3fa4cd	0.011697006
54	0xbce93239	-0.02846633
55	0xbd9dca4f	-0.07704603
56	0x3dc82f14	0.097746044
57	0x3cf612e4	0.030038305
58	0xbe658659	-0.22414531
59	0x3e0a9bf9	0.13536061
60	0x3d3fa0da	0.04678426
61	0x3c9cc1f8	0.01913546
62	0x3e02a46a	0.12758031
63	0xbdb8ede2	-0.090297475
64	0xbe021f10	-0.12707162
65	0xbc980ae0	-0.018559873
66	0x3e2350b2	0.15948752
67	0xbd3a3add	-0.045466293
68	0x3dfbc307	0.12293058
69	0xbd6e3600	-0.058156967
70	0xbd3227a1	-0.043494824
71	0xbd31d8a5	-0.0434195
72	0xbe3b7d7e	-0.1830959
73	0x3d75fd30	0.06005591
74	0x3e13b67d	0.14425083
75	0xbd5ba6a8	-0.053625733
76	0x3d2405aa	0.040044464
77	0xbd33702e	-0.043808155
78	0x3d3a881d	0.045539964
79	0xbe15cc37	-0.14628683
80	0x3c0d5591	0.008626358
81	0x3d9225f1	0.07136143
82	0x3ca46f66	0.02007265
83	0x3ddae371	0.10687912
84	0x3dca5222	0.09878947
85	0x3dfd7453	0.12375703
86	0x3dd8245f	0.10553812
87	0x3d34259a	0.043981172
88	0x3e6b2768	0.22964251
89	0xbdc1126c	-0.09427342
90	0xbda9051a	-0.08252926
91	0xbda29620	-0.0793879
92	0xbe5e988e	-0.21737882
93	0x3d160a88	0.036631137
94	0xbe0ebff4	-0.13940412
95	0xbcadece4	-0.021231122
96	0x3d97cb54	0.07411829
97	0xbcfb7736	-0.030696493
98	0xbcba07e3	-0.022708839
99	0x3d5d44d0	0.054020703
100	0x3e0e3391	0.13886859
101	0x3db8b8e4	0.0901964
102	0xbc359761	-0.011083455
103	0x3d83a592	0.064280644
104	0x3de5ac67	0.11214524
105	0x3d92b628	0.0716365
106	0x3dab7ded	0.08373628
107	0x3d9bccc3	0.076074146
108	0x3cb22df0	0.02175042
109	0xbdae18c3	-0.08500817
110	0x3dfa2a06	0.122150466
111	0xbe2101bb	-0.15723316
112	0x3c570430	0.013123557
113	0x3dd0735c	0.10178253
114	0x3e1054ec	0.14094895
115	0x3d825234	0.06363335
116	0x3df8ad97	0.12142485
117	0xbc9ed400	-0.019388199
118	0xbe061b9b	-0.13096468
119	0xbc989945	-0.018627772
120	0xbc84345e	-0.016138252
121	0x3ccce9d2	0.025013838
122	0x3bdc7747	0.006728086
123	0xbd4aecc9	-0.049542222
124	0x3c85c357	0.016328497
125	0xbe151d24	-0.14561898
126	0xbda5ab08	-0.08089262
127	0x3df2a87d	0.11848543
128	0x3daff069	0.085907765
129	0x3bd4f5b0	0.006499015
130	0xbe52997b	-0.2056636
131	0x3dd8fc08	0.10594946
132	0xbdf0834d	-0.11743794
133	0x3e841dd1	0.25803998
134	0x3c030627	0.007997072
135	0x3d8b533b	0.06802984
136	0x3d1cebe0	0.038310885
137	0xbdcafb54	-0.09911218
138	0xbd36970f	-0.044577654
139	0x3dc8c323	0.098028444
140	0x3aa42288	0.0012522498
141	0x3d66d0dc	0.056351528
142	0xbdaf6707	-0.08564573
143	0x3dc4e17d	0.09613321
144	0xbdee98bb	-0.11650225
145	0x3e0b8cc2	0.13627914
146	0xbdbe7d1f	-0.09301209
147	0xbd64dcda	-0.055874683
148	0x3db5ed2f	0.0888313
149	0xbdff96b8	-0.12479919
150	0xbd7e1406	-0.062030815
151	0xbc035913	-0.008016842
152	0x3d914af6	0.07094376
153	0x3e0d6e35	0.13811572
154	0x3dbe7699	0.092999645
155	0xbc7cde68	-0.015433885
156	0x3d854d12	0.065088406
157	0x3d65706e	0.056015424
158	0x3d72598d	0.059167434
159	0x3e32ca8b	0.17460077
160	0xbe53c122	-0.20679143
161	0x3d509cf6	0.05093094
162	0x3de14f7f	0.11001491
163	0x3e16f6d2	0.14742592
164	0xbdb86125	-0.09002904
165	0x3cadac00	0.02120018
166	0x3cb28ba0	0.021795094
167	0xbc884f7e	-0.016639467
168	0xbb69a49b	-0.003565109
169	0xbe0e4dcc	-0.13896865
170	0x3c877463	0.01653499
171	0xbd56f750	-0.05248195
172	0x3cb58fd2	0.022163305
173	0x3d305a22	0.043054707
174	0xbd876a50	-0.066120744
175	0xbc560654	-0.013063032
176	0xbdcff71f	-0.101545565
177	0xbdbc5e80	-0.09197712
178	0x3c802ace	0.01564541
179	0xbe1e2aec	-0.15446061
180	0xbdea0769	-0.114271946
181	0xbdb8f2c2	-0.090306774
182	0xbdb0e21e	-0.086368784
183	0xbde22fcb	-0.11044272
184	0x3e268bdc	0.1626429
185	0x3dd94df4	0.106105715
186	0xbc855707	-0.01627685
187	0x3db48233	0.08813896
188	0xbd0749f6	-0.03302952
189	0x3c86d7bb	0.01646029
190	0x3d826371	0.06366623
191	0xbd5b06ea	-0.05347339
192	0xbd4bedf2	-0.04978747
193	0xbdade444	-0.08490804
194	0xbe7c80d2	-0.24658516
195	0x3c5534ed	0.013013107
196	0x3e230458	0.15919626
197	0x3df53429	0.119728394
198	0xbd8c201e	-0.06842063
199	0xbe282d44	-0.16423517
200	0xbe272fc2	-0.16326812
201	0xbd82cdfc	-0.06386945
202	0x3c353ebe	0.011062322
203	0x3ca92e46	0.020651948
204	0xbe10d9ac	-0.14145535
205	0xbe22b484	-0.15889174
206	0xbd54574a	-0.051841058
207	0x3e0ea467	0.13929902
208	0xbe03d80e	-0.12875387
209	0xbcb5c302	-0.022187714
210	0x3b981ebe	0.0046423366
211	0xbdb4e8fc	-0.08833501
212	0xbdb18c79	-0.08669371
213	0x3d9b0df1	0.075710185
214	0xbc522ffb	-0.012828822
215	0xbcf6babc	-0.030118339
216	0xbdd3d284	-0.10342887
217	0xbda94b00	-0.08266258
218	0xbe0e3fcd	-0.13891526
219	0xbc0c051e	-0.008546142
220	0xbdf1c756	-0.118055984
221	0x3dcd4858	0.10023564
222	0xbd2498df	-0.04018485
223	0x3d40144f	0.046894368
224	0x3d56bceb	0.05242626
225	0xbd4956dd	-0.049155105
226	0xbca98a84	-0.020695932
227	0xbc037ddc	-0.008025613
228	0xbda89559	-0.08231611
229	0xbd212311	-0.039340083
230	0xbd945d06	-0.07244305
231	0xbd092cb1	-0.033489887
232	0x3dba7c9f	0.09105801
233	0x3d81dad3	0.063405655
234	0xbc857f7e	-0.016296145
235	0x3d8769e6	0.066119954
236	0xbd9c2283	-0.0762377
237	0x3cd1af2f	0.02559623
238	0x3e1945d5	0.14968045
239	0xbc96de8d	-0.018416667
240	0xbc8d8104	-0.017273434
241	0xbc83eab8	-0.016103134
242	0x3e1c9941	0.15292837
243	0x3e0fce72	0.14043596
244	0x3e398ae2	0.18119386
245	0x3a079c21	0.00051731063
246	0xbd343bc1	-0.0440023
247	0x3d874f4b	0.06606921
248	0xbe0f4f1d	-0.13995023
249	0xbccf3eed	-0.02529856
250	0xbc86a945	-0.016438136
251	0xbe1043ed	-0.14088412
252	0x3d422518	0.047398657
253	0x3e1004c7	0.14064322
254	0xbdd3409c	-0.10315058
255	0xbcba9522	-0.02277619

critic.3.bias f4 [64]
0	0xbcd64658	-0.02615659
1	0x3ca7f387	0.020501865
2	0xbe530469	-0.20607151
3	0x3e0432f6	0.12910065
4	0xbdaab799	-0.083358
5	0xbd0515be	-0.032491438
6	0x3dd6f1c1	0.1049533
7	0xbc8ee321	-0.017442288
8	0x3c8be1b9	0.017075406
9	0x3e0bfe7f	0.13671301
10	0xbe16a455	-0.14711125
11	0x3db49121	0.08816744
12	0x3e79cc02	0.24394229
13	0xbe1ba522	-0.15199712
14	0x3cac13ae	0.021005478
15	0x3e164711	0.14675547
16	0xbc957e69	-0.018248754
17	0xbd361620	-0.044454694
18	0xbbe00f84	-0.006837787
19	0xbe58be3d	-0.2116632
20	0xbdaae269	-0.083439656
21	0xbdb005a8	-0.08594829
22	0xbdcfceee	-0.101468906
23	0x3e10e6fe	0.14150617
24	0xbd8d4f44	-0.06899884
25	0x3d901722	0.07035662
26	0xbe2c5526	-0.16829357
27	0xbe54ea96	-0.20792612
28	0xbe27df05	-0.16393669
29	0x3df06057	0.11737125
30	0x3db385d8	0.08765763
31	0x3da40fac	0.08010802
32	0x3e071d28	0.13194716
33	0x3dd63764	0.10459784
34	0xbe144892	-0.14480808
35	0xbe41660b	-0.18886583
36	0xbdb6a358	-0.08917874
37	0x3d3fd3b5	0.04683276
38	0x3db28135	0.087160505
39	0xbe2a7e19	-0.16649665
40	0xbe36901c	-0.17828411
41	0x3d3add4d	0.045621205
42	0xbe085a48	-0.1331569
43	0x3e06f818	0.13180578
44	0x3dd605be	0.10450314
45	0x3c40abd1	0.011759714
46	0x3d837283	0.06418326
47	0xbd476b34	-0.04868622
48	0xbd976eea	-0.07394202
49	0xbde948da	-0.113908485
50	0xbcff629d	-0.031174952
51	0xbdca923d	-0.09891174
52	0xbca8dc89	-0.020612972
53	0xbc52a186	-0.012855893
54	0x3e5279ee	0.20554325
55	0xbb34ff5d	-0.0027618029
56	0xbe465553	-0.19368486
57	0xbe14b090	-0.14520478
58	0x3cde88a2	0.027164761
59	0x3dddb112	0.10824789
60	0x3c3135e5	0.010816072
61	0xbd5c1a1f	-0.05373585
62	0xbe49b415	-0.19697602
63	0xbe6c9028	-0.23101866

critic.5.weight f4 [64]
0	0x3fe8dc3f	1.8192214
1	0x3fe49c36	1.7860172
2	0x3fda0a72	1.7034438
3	0x3fe3713f	1.7768935
4	0x40050034	2.0781374
5	0x400094cb	2.0090816
6	0x3fe2de39	1.7724067
7	0x40027b1e	2.0387645
8	0x3fe6ecd7	1.8041028
9	0x3fd4e623	1.6632732
10	0x3fffa3e7	1.9971894
11	0x400b46cd	2.1761963
12	0x40050f12	2.0790448
13	0x3fe1ce59	1.7641097
14	0x4009229b	2.1427372
15	0x3fda64e8	1.7062044
16	0x3fde9416	1.7388942
17	0x3ff573fe	1.9176023
18	0x3fef3906	1.8689277
19	0x3fe99267	1.8247803
20	0x40026806	2.037599
21	0x40003a71	2.003567
22	0x3fcf9aef	1.6219157
23	0x3feb50c4	1.8384023
24	0x400cd8cb	2.200732
25	0x4013f94f	2.3120916
26	0x3fdf441f	1.7442664
27	0x4004334d	2.0656312
28	0x3fcd79ab	1.6052755
29	0x3fe0ef81	1.7573091
30	0x4006c741	2.1059115
31	0x40048755	2.07076
32	0x3fde0d38	1.7347784
33	0x3ff563a7	1.9171036
34	0x400551f1	2.0831263
35	0x4005584d	2.0835145
36	0x3fd7095c	1.6799731
37	0x3fd0ce6e	1.6312997
38	0x3fe7c319	1.8106414
39	0x3fddaa45	1.7317587
40	0x3fdc1ee8	1.7196932
41	0x3fd17408	1.6363535
42	0x3fdc3976	1.7205036
43	0x3fe2830c	1.7696242
44	0x3ff81afd	1.9383236
45	0x400a4cb9	2.1609328
46	0x3fe4db8a	1.7879498
47	0x400347f1	2.051266
48	0x3fd58d70	1.6683788
49	0x4001f81b	2.0307682
50	0x3fe498ea	1.7859166
51	0x3ff8853f	1.9415663
52	0x3fd5846b	1.6681036
53	0x3fd91559	1.695964
54	0x4004d638	2.0755749
55	0x400aafec	2.1669874
56	0x3fede03a	1.8584054
57	0x3ff7e9c4	1.9368215
58	0x3fe3381d	1.77515
59	0x3fd313e3	1.6490444
60	0x4003c379	2.0588057
61	0x3fdcc38b	1.7247175
62	0x4005c514	2.0901537
63	0x3ff0634a	1.8780301

critic.5.bias f4 [64]
0	0xbf52260e	-0.82089317
1	0x3f4be907	0.79652447
2	0xbf42e7ce	-0.76134956
3	0x3f4c144f	0.7971849
4	0xbf750885	-0.95716125
5	0xbf62a6d7	-0.8853583
6	0x3f4602eb	0.773482
7	0xbf7234e5	-0.9461196
8	0xbf44686a	-0.76721823
9	0x3f3bb19a	0.73317873
10	0x3f615d82	0.88033307
11	0x3f8637ef	1.048582
12	0x3f7f8be0	0.9982281
13	0xbf439851	-0.7640429
14	0xbf7e540e	-0.9934701
15	0x3f4866cf	0.78281873
16	0x3f486132	0.7827331
17	0x3f5c1ba3	0.8597967
18	0x3f63fc7f	0.89057153
19	0xbf544701	-0.82920843
20	0xbf73325e	-0.9499873
21	0xbf628c6d	-0.8849552
22	0xbf3a1364	-0.7268584
23	0x3f53abaf	0.82683843
24	0x3f7c4265	0.9853881
25	0x3f9310f3	1.1489547
26	0xbf46f552	-0.7771808
27	0xbf71a72a	-0.943957
28	0xbf3a4101	-0.7275544
29	0x3f4d2b03	0.80143756
30	0x3f8170b8	1.0112524
31	0xbf6c030e	-0.9219216
32	0x3f43b2e2	0.7644483
33	0x3f552e3a	0.8327366
34	0xbf80ee15	-1.0072657
35	0xbf7b70fc	-0.98219275
36	0xbf3c08bd	-0.73450834
37	0x3f3a5fdd	0.72802526
38	0x3f4ebf3e	0.8076056
39	0xbf483800	-0.7821045
40	0xbf480fa8	-0.7814889
41	0x3f42651e	0.7593554
42	0xbf453801	-0.7703858
43	0x3f4cecbb	0.8004872
44	0x3f537d8f	0.8261346
45	0x3f82169e	1.0163152
46	0x3f45f6c2	0.7732965
47	0xbf6f6f16	-0.9352888
48	0x3f48ebd4	0.78484845
49	0xbf66ef21	-0.9020863
50	0x3f50731d	0.8142565
51	0x3f5882e3	0.8457472
52	0x3f45ac97	0.77216476
53	0xbf3da960	-0.7408657
54	0x3f706945	0.9391063
55	0xbf786b51	-0.9703875
56	0xbf5bcf60	-0.85863304
57	0x3f5f627e	0.8725966
58	0x3f4f4bd7	0.809751
59	0x3f4278f9	0.7596584
60	0xbf753ff7	-0.9580073
61	0xbf3b99e3	-0.7328169
62	0xbf78c092	-0.9716884
63	0xbf54d68b	-0.83139867

critic.6.weight f4 [1, 64]
0	0x3f350d09	0.70723015
1	0xbf388245	-0.72073776
2	0x3f3248dd	0.6964243
3	0xbf399841	-0.72497946
4	0x3f5284c8	0.8223386
5	0x3f426177	0.7592997
6	0xbf310881	-0.691536
7	0x3f4d469f	0.80185884
8	0x3f418081	0.75586706
9	0xbf28a40c	-0.65875316
10	0xbf459792	-0.771844
11	0xbf6cf07a	-0.9255444
12	0xbf5b6d8d	-0.85714036
13	0x3f326fd3	0.6970188
14	0x3f61f1b1	0.88259417
15	0xbf25a453	-0.64703864
16	0xbf1fbb0b	-0.6239478
17	0xbf42a901	-0.7603913
18	0xbf3a71db	-0.7282998
19	0x3f395344	0.7239268
20	0x3f46952a	0.77571356
21	0x3f3d4361	0.7393094
22	0x3f26b73e	0.65123355
23	0xbf3bbe0a	-0.7333685
24	0xbf5f3c79	-0.8720165
25	0xbf785826	-0.97009504
26	0x3f2e1ee6	0.680159
27	0x3f508b64	0.81462693
28	0x3f1f0483	0.6211626
29	0xbf3ba586	-0.73299444
30	0xbf5be3a8	-0.8589425
31	0x3f5088c0	0.81458664
32	0xbf2c380c	-0.6727302
33	0xbf477828	-0.7791772
34	0x3f5498c5	0.8304561
35	0x3f4e08ef	0.8048238
36	0x3f308d96	0.68966043
37	0xbf270560	-0.65242577
38	0xbf3d4c10	-0.7394419
39	0x3f321dfd	0.6957701
40	0x3f287a5e	0.6581172
41	0xbf2ae7fd	-0.66760236
42	0x3f2ee3bc	0.68316245
43	0xbf28aee4	-0.6589186
44	0xbf4b37f2	-0.7938224
45	0xbf5f3c7b	-0.8720166
46	0xbf32f528	-0.6990533
47	0x3f502510	0.8130655
48	0xbf1b61fc	-0.6069639
49	0x3f45b3a1	0.77227217
50	0xbf39839e	-0.72466457
51	0xbf4c0ac7	-0.79703945
52	0xbf2c17bd	-0.6722372
53	0x3f358995	0.7091306
54	0xbf59ccc2	-0.8507806
55	0x3f637ab0	0.8885908
56	0x3f31ec8f	0.69501585
57	0xbf4946f1	-0.78623873
58	0xbf2785f9	-0.654388
59	0xbf210145	-0.6289256
60	0x3f47ad5d	0.77998906
61	0x3f35da4e	0.7103623
62	0x3f56b792	0.83873856
63	0x3f3d1d06	0.7387241
