weights/2024-06-27_16-02-07/target_critic.pt (torch, 22924 bytes, 9 tensors)

critic.0.weight f4 [64, 3]
000000 9c d5 24 3f ee 62 e0 bd 1a 63 0b be 48 7c 48 bc
       0.6438844 -0.10956369 -0.13612023 -0.012236662
000010 60 32 06 3f a2 0c 23 be c8 61 04 be 3f c2 5f 3f
       0.52420616 -0.15922788 -0.12927926 0.8740577
000020 3e d9 e2 3b 62 7d 6a be 72 68 09 bf e0 98 d2 3e
       0.00692287 -0.22899392 -0.53674996 0.4113226
000030 02 22 45 bf 22 2a de 3b b2 dd 5d 3e 69 e7 a9 bd
       -0.77005017 0.006779925 0.21666601 -0.08296091
000040 92 34 b5 be 76 36 90 3e 41 28 91 be f8 c0 9f 3d
       -0.3539167 0.2816655 -0.28351024 0.07800478
000050 ff bb c0 bd 56 af 40 3f 1b d9 83 3c a1 88 8c 3e
       -0.094108574 0.7526754 0.016094735 0.2744799
000060 ed 76 bf 3e 7a f2 b1 be ca 29 5f 3e 5c d5 00 be
       0.3739542 -0.34755307 0.21793285 -0.1258139
000070 a4 6a a9 3e bb e0 92 3e ea 02 85 bb 06 1f 81 be
       0.33089173 0.2868708 -0.0040591853 -0.25218982
000080 0d 47 08 3d d2 f1 fe 3e 9b 8a 17 bf ac 00 88 be
       0.033270884 0.4979387 -0.5919587 -0.26563013
000090 bb 52 d5 be b7 bf 20 3f 84 77 99 bd 74 93 f5 3e
       -0.4166468 0.62792534 -0.07493499 0.4796406
0000a0 26 f5 49 3e 27 73 9b 3e 79 87 04 bf 5f fa d8 be
       0.19722423 0.30361292 -0.51769215 -0.42378518
0000b0 66 53 b9 be 54 f9 30 be 92 3f 0e 3f fa 19 ad 3e
       -0.3619644 -0.17282611 0.5556575 0.3380888
0000c0 a0 44 27 3f 97 b3 01 bf 4c 8b de 3e 47 30 58 be
       0.6533909 -0.5066466 0.4346565 -0.21112166
0000d0 f1 59 45 3f 9a 73 1f be a5 e0 d1 3e bf d8 66 be
       0.77090365 -0.15571442 0.40991703 -0.2254362
0000e0 26 5d 86 3d 07 a2 84 be 4c 6d b1 3e 50 71 49 bd
       0.065607354 -0.25904867 0.346537 -0.04918033
0000f0 65 b4 d5 3e bc 39 17 3f 9f b1 33 3e cf 4d 18 bf
       0.41739193 0.5907247 0.17548226 -0.59493726
000100 43 d8 75 3f 53 ae a8 3e 87 66 fa be 82 d6 2f 3f
       0.96033114 0.329455 -0.48906347 0.6868669
000110 66 d2 1d bd f9 1f 3c bf bf 4e 63 be 05 47 55 be
       -0.03853073 -0.73486286 -0.22198008 -0.20827873
000120 2f 18 07 bf 21 59 a5 3e a0 fc 23 bd 8c b6 d1 bd
       -0.52771276 0.32294562 -0.040035844 -0.10239896
000130 08 fa 28 bf 1a df 2c 3e be 27 d2 3e 4d ca 59 3e
       -0.6600652 0.16881981 0.41045946 0.21268578
000140 84 c4 2c be d6 f6 ec bd 51 b3 ca be 0f 6d 82 3e
       -0.1687184 -0.11570518 -0.39589933 0.2547383
000150 2c ad 18 3f aa c8 8d 3e 86 67 6d be 64 6c 67 be
       0.5963924 0.27692157 -0.23184022 -0.22599941
000160 31 1d b6 be a6 a7 50 3d 38 48 0e 3f ca ea 04 3f
       -0.35569146 0.050941132 0.5557895 0.5192076
000170 7a fb 7d 3e 33 b3 0a bf 5c 85 a2 3d 51 10 68 be
       0.24802962 -0.54179686 0.079355925 -0.22662474
000180 bb ae b7 be 29 79 c1 3e 9e b5 43 3e cc 29 88 3d
       -0.35875496 0.3778775 0.1911225 0.06648597
000190 8f 58 2d 3f 9a 50 b4 3e bf 7f a2 be 7c e8 9c be
       0.67713255 0.35217744 -0.31738088 -0.30646122
0001a0 e0 6b f0 3e 2a 5f 93 be 73 8b 8a be f2 17 5b 3e
       0.46957302 -0.28783542 -0.27059516 0.21395853
0001b0 05 b7 3d 3f b6 7c 6b 3f e0 69 4a 3e 90 4d 97 be
       0.7410739 0.9198717 0.1976695 -0.29551363
0001c0 10 b8 13 bf 2f 9c da be b6 d3 ac bc a4 ee 65 3f
       -0.5770273 -0.42697284 -0.021097045 0.8981726
0001d0 05 04 3a 3e fa 98 3c 3e f7 38 2d be 36 1a 08 3d
       0.18165596 0.18417731 -0.16916262 0.03322812
0001e0 cd f1 b8 be 24 ff 3a 3f fb 2f a9 3e af e8 ab be
       -0.3612198 0.73045564 0.3304442 -0.3357596
0001f0 f8 57 44 3e 63 5e 31 3d a2 91 b9 be b0 b2 bf be
       0.19174182 0.043302905 -0.36243922 -0.37441015
000200 42 b1 ab 3d db 93 65 3e d5 eb 8e bc 7d 53 c5 bd
       0.083834186 0.22419684 -0.017446438 -0.09635065
000210 f3 c6 0c be 17 b4 66 3f 1e 3e a4 3e 38 86 30 be
       -0.13747768 0.90118545 0.32078642 -0.172387
000220 46 b4 eb be 81 18 f8 3d a6 6d 30 bf 53 55 4e 3f
       -0.46035975 0.12114049 -0.6891731 0.80598944
000230 e1 c5 c5 3e d0 34 6c 3f 66 3d fc be 4a 75 1d be
       0.38627532 0.92268085 -0.49265593 -0.15376773
000240 e2 81 34 be 46 28 17 3f 6a 6e 08 3e 6e 1b 4c 3b
       -0.17627671 0.5904583 0.1332337 0.003114428
000250 ee cf 6f 3d f8 6e bc bd 2d 61 05 bf 4f 51 26 be
       0.058547907 -0.09200853 -0.52101403 -0.16241954
000260 3c 22 35 3e cf 02 ad bd de 4d 9c be b8 aa 04 bf
       0.1768884 -0.08447801 -0.30528158 -0.51822996
000270 a1 94 ec be a4 4e 18 3f e6 ae 83 3e 92 f9 92 be
       -0.46207145 0.59494996 0.25719374 -0.28706032
000280 fa 70 8a bc be 0e ea 3d 3e 21 e7 3e 87 ee 1d bf
       -0.016899575 0.11428593 0.4514255 -0.6169209
000290 bb 4b 81 bc 89 a7 98 3c 2b 20 a6 bf f2 17 d1 be
       -0.015783181 0.018634574 -1.2978567 -0.4083858
0002a0 60 65 c9 3e 77 e6 82 3f c0 b8 6c be db 2f e2 3e
       0.39335155 1.0226582 -0.23117352 0.44177136
0002b0 f9 76 25 3f 9b 1d 39 be 86 d6 3a 3e 2d 77 7a bf
       0.6463466 -0.180777 0.18245897 -0.978381
0002c0 e9 63 90 bc d7 7a d4 3e c6 76 e3 3e a4 c1 2d 3e
       -0.017625766 0.4149997 0.44426554 0.169684
0002d0 74 9f ab be d1 b7 2d bf b6 cf 04 3d ce fa 5c bf
       -0.3352009 -0.67858607 0.03242465 -0.863202
0002e0 94 8f 2b bf 42 f0 c8 3e 02 28 39 3e 22 3b 78 3f
       -0.6701596 0.39245802 0.18081668 0.9696523
0002f0 3f cb 58 be ba 5e bd be 06 47 01 3e 8c 94 8a bd
       -0.21171282 -0.36986333 0.1262475 -0.06766614

critic.0.bias f4 [64]
000000 43 de f1 be 7d 96 c1 be d6 49 ea 3e ed 43 63 be
       -0.47239885 -0.37810126 0.45759457 -0.2219388
000010 0e d8 e7 3e c1 f5 1b bf 1b aa f8 3e f1 61 89 bd
       0.45282024 -0.60921866 0.4856728 -0.06708134
000020 f1 ba 05 bf ae af 05 3e 72 cc a5 bc aa 5a b5 be
       -0.52238375 0.13055298 -0.020239089 -0.35420734
000030 2b 6a fd bd 36 29 3a be e8 bf 14 3f 25 9a 62 be
       -0.123737656 -0.18179783 0.58105326 -0.22129114
000040 fc bb 80 3e 55 14 f8 be b7 54 8e 3e 8d 08 50 3e
       0.2514342 -0.48453012 0.27799007 0.20315762
000050 87 80 ca be 9b 84 9c 3e 3d 2f a2 3c 54 90 95 3e
       -0.39551184 0.3056992 0.019797916 0.29211676
000060 2c 76 5f 3d 44 b0 f9 be 82 93 84 be da ff 07 be
       0.054556057 -0.48767292 -0.2589379 -0.13281193
000070 3b 22 24 be c3 8e e3 bd 7a 3a 3a be 73 1b 1d bf
       -0.16028683 -0.11111214 -0.1818637 -0.6137001
000080 04 eb 07 3f f9 d3 d0 be 22 6a fa be 2c 04 78 bd
       0.5309298 -0.40786722 -0.48909098 -0.060550854
000090 77 5d 01 bf 99 0f 2d 3e 38 b1 1d 3e 84 3d 16 3e
       -0.5053324 0.16900481 0.15399635 0.14671904
0000a0 19 14 f6 3e 4c 37 8c 3e cf bf 00 3f 32 b8 f3 be
       0.48062208 0.27385938 0.50292677 -0.47601467
0000b0 09 ae 0f bd 44 4f c4 be f5 b1 1e 3f c5 58 56 be
       -0.035078082 -0.38341725 0.6199029 -0.209323
0000c0 9e 26 2c be ed 3e c0 3e 30 1a c6 bc 63 41 44 3e
       -0.16811606 0.3754801 -0.024182409 0.19165568
0000d0 83 df a7 3e 98 1c 9f 3e 3f 96 1a 3e a2 38 52 be
       0.32787713 0.31076503 0.15096377 -0.20529416
0000e0 a1 0f 92 be e8 6b 60 be f7 4b 45 3e a7 c0 c1 be
       -0.2852755 -0.21916163 0.1926726 -0.37842295
0000f0 48 92 a0 bd 0b e4 ab bd 3c c1 dd be b6 26 d0 3d
       -0.07840401 -0.08393105 -0.4331149 0.101636335

critic.2.weight f4 [64]
000000 8a 15 80 3f 33 75 70 3f e0 fc a0 3f ee 4b 73 3f
       1.0006573 0.9392883 1.2577171 0.95037735
000010 b7 ed 6e 3f f5 95 8e 3f ae 78 7c 3f cd c2 95 3f
       0.93331474 1.1139513 0.9862164 1.1700073
000020 e0 02 90 3f 5d f3 4f 3f b7 66 65 3f 78 cb 61 3f
       1.1250877 0.8123072 0.89609855 0.88201094
000030 1d ee 82 3f 5e 0f 81 3f 0e 9a 80 3f 68 c5 77 3f
       1.0228916 1.0082815 1.0047014 0.96785593
000040 43 93 87 3f 9b 14 88 3f 66 f4 8f 3f ac d0 69 3f
       1.0591816 1.0631288 1.124646 0.91334033
000050 a2 84 66 3f 47 66 8d 3f f7 88 8b 3f f2 93 89 3f
       0.9004613 1.1046838 1.0901173 1.0748274
000060 b4 43 73 3f c7 66 a0 3f b0 d6 80 3f d0 ac 75 3f
       0.9502518 1.2531365 1.0065517 0.95966816
000070 43 dd 5d 3f 89 3c 76 3f 88 de 72 3f e4 78 72 3f
       0.86665744 0.9618612 0.94870806 0.94715714
000080 71 0e 6e 3f 11 9c 70 3f 36 62 75 3f 91 d2 43 3f
       0.92990786 0.9398814 0.95852983 0.76493174
000090 d2 f5 9a 3f e0 02 7a 3f 2a e5 8a 3f 55 6d 88 3f
       1.2106268 0.97660637 1.0851185 1.0658365
0000a0 0c b6 69 3f 35 7b 5f 3f 0d a3 75 3f 47 bb 38 3f
       0.91293406 0.87297374 0.9595192 0.7216076
0000b0 61 91 6e 3f 3d ac 8c 3f c0 c6 8e 3f a9 36 87 3f
       0.9319058 1.0990063 1.1154404 1.0563556
0000c0 fc 0c 46 3f 18 32 67 3f dd 29 85 3f f4 43 7d 3f
       0.7736356 0.9031081 1.0403401 0.98931813
0000d0 85 df 89 3f 66 d6 47 3f 85 f5 95 3f b8 f0 93 3f
       1.0771338 0.7806152 1.1715552 1.1557837
0000e0 fb f8 97 3f 13 c3 7b 3f ff e6 b2 3f c5 55 62 3f
       1.1872858 0.98344535 1.3976744 0.88412124
0000f0 79 37 84 3f 98 bf 85 3f 89 d8 93 3f f4 ba 7a 3f
       1.0329429 1.0449095 1.1550456 0.9794152

critic.2.bias f4 [64]
000000 b6 25 8b bc 1e 8b 4c bd c9 4e 7a bc 28 d5 23 3d
       -0.016985755 -0.04993736 -0.015277573 0.039998204
000010 26 06 84 3d ea b5 31 bd bc 9c 89 3d d6 06 be bd
       0.06446485 -0.043386377 0.06719348 -0.092786476
000020 00 e0 33 bd e2 5c c6 3d ae d0 8a 3c 44 6f 97 3d
       -0.043914795 0.09685685 0.01694521 0.07394269
000030 4a f3 ee 3c 2c cd 11 be 47 73 19 3d 45 88 9f bc
       0.029168744 -0.14238423 0.037463453 -0.019474158
000040 7b d7 80 bd 68 2c f0 bc c6 be 7e bd f2 98 3c 3d
       -0.062911 -0.02931805 -0.062193654 0.046044298
000050 f6 69 0b bd e6 1b fe ba 42 fc 6e 3d 4b f3 b2 3d
       -0.0340366 -0.0019386976 0.05834604 0.08737811
000060 2b 39 27 3d 0d 75 61 bd 64 6d ee bd a5 c8 71 3d
       0.040826004 -0.05504327 -0.11641958 0.05902924
000070 0d 08 97 bc bb 4d 43 3c ab 44 98 bd f7 56 94 bc
       -0.018436456 0.011920388 -0.074349724 -0.018107874
000080 1f ed 5c 3d 7b be 22 3c f8 d7 8e 3d 63 08 b4 bd
       0.053937074 0.009933109 0.069747865 -0.08790662
000090 b3 7f 94 bd 91 13 cb bc a6 f1 16 3d f2 71 57 ba
       -0.07250919 -0.024789603 0.036851548 -0.00082185783
0000a0 8d 47 10 3d 04 eb 22 3c 35 43 a1 3d 74 bb df 3c
       0.035224486 0.009943727 0.07874147 0.027311064
0000b0 6a 31 0b 3c e6 2d a2 bc 47 ef ae 3d 45 d8 fe bc
       0.008495668 -0.019797277 0.08541732 -0.031108985
0000c0 54 22 25 3e 86 e2 11 3d cd cc 3b 3d 64 9c ee 3d
       0.16126376 0.03561642 0.04584961 0.11650923
0000d0 48 64 87 3d 0d a9 4a bc d8 ed b9 bc 25 17 42 bc
       0.06610924 -0.012369406 -0.02269642 -0.011846338
0000e0 d2 10 ac bd d8 ac fa bc 75 cf 89 3d 70 81 21 3c
       -0.08401646 -0.030599996 0.067290224 0.00985752
0000f0 43 41 6d 3d 53 78 43 3d b2 d8 85 bd 35 41 59 3d
       0.057923567 0.047722172 -0.06535472 0.053040702

critic.3.weight f4 [64, 64]
000000 21 a8 f9 3d bd 15 45 3d 05 1c f8 bd fd 46 0b 3a
       0.12190271 0.048116434 -0.12114719 0.0005313007
000010 ca 0c e2 bd 14 1e 49 3e 07 52 d5 bd 15 5b 56 3e
       -0.110375956 0.1964038 -0.10416036 0.20933183
000020 f5 e3 ae 3c 2c 69 ba bd c5 2c 3a bb bd 74 03 be
       0.021348933 -0.09102091 -0.0028408032 -0.12837501
000030 2a cf 38 3e f8 5d 91 bc 0a 39 39 be 05 f0 06 3c
       0.18047777 -0.017745003 -0.18088165 0.008235936
000040 58 15 3a 3d 61 02 81 3e b9 6a f2 bd 26 24 5a 3d
       0.04543051 0.25197127 -0.11836762 0.05325713
000050 17 fe 82 bd 1c 29 24 be cf a3 3f 3e 47 05 2d bd
       -0.0639612 -0.16031307 0.18714832 -0.04224136
000060 07 fb db 3d 64 e7 05 3e ee 77 57 3d 1f cd 40 bc
       0.10741239 0.1307655 0.05260461 -0.011767655
000070 93 16 9a 3d 6c 2f ce bc 7d c2 8a bc f8 b9 3d 3e
       0.07523837 -0.025169097 -0.016938442 0.18527973
000080 91 d6 59 bd 79 2e 9f bd e2 72 27 3e 43 e7 da bc
       -0.053183142 -0.07772536 0.16352418 -0.026721602
000090 94 65 31 3e f5 4e a6 3c 4e ed b3 bc 3c 49 8f bd
       0.17323905 0.020301322 -0.021963742 -0.0699639
0000a0 9a c3 ff bd f3 ed dc bb c3 60 9a bb 5f a1 a3 bc
       -0.1248848 -0.006742233 -0.004711242 -0.019974409
0000b0 75 63 1c be 8f c4 e7 3c 58 b8 ab be 6c 45 a2 bb
       -0.15272315 0.028291969 -0.3353908 -0.0049521234
0000c0 54 48 93 bd c9 65 70 3c 53 0f a2 3c 61 21 57 bd
       -0.0719153 0.014672705 0.019782698 -0.052522067
0000d0 b5 65 c7 bd 8b 4d bf 3c 7b 01 c2 bc db 42 d2 bd
       -0.09736196 0.023352405 -0.023682347 -0.10266658
0000e0 ba e6 b5 3d 4e 69 b1 3c 8f d2 61 be d0 c0 1f 3e
       0.08881898 0.021656659 -0.22052978 0.15600896
0000f0 c1 9a 52 3d 0e 63 d1 3c 35 90 ef 3d f8 0c d6 bd
       0.051417116 0.025559928 0.11697427 -0.10451692
000100 1d 87 03 be 18 82 af bc da 72 17 3e 39 b5 1c bd
       -0.1284451 -0.021424338 0.14789906 -0.038258765
000110 73 56 fd 3d f0 f0 5d bd 7f 6b 34 bd 24 b3 44 bd
       0.123700045 -0.054184854 -0.04404783 -0.048022404
000120 49 f8 38 be 8f 88 6e 3d 75 ec 13 3e 5f c0 1e bd
       -0.18063463 0.0582357 0.1444567 -0.038757678
000130 ee 19 0f 3d 57 17 44 bd 88 50 59 3d 28 ee 13 be
       0.034936838 -0.04787382 0.053055316 -0.14446318
000140 62 b9 5a 3c ae 9d 8d 3d 40 32 85 3c 2b b7 cd 3d
       0.013349863 0.06914841 0.016259313 0.10044702
000150 51 9e ab 3d 60 d2 eb 3d cf 7f c8 3d f1 a8 4f 3d
       0.08379806 0.11514735 0.097900026 0.050698224
000160 21 3c 67 3e 79 e2 b8 bd 22 94 b0 bd f9 43 96 bd
       0.22581531 -0.09027571 -0.08622004 -0.073371835
000170 3b 6c 60 be 59 94 1d 3d c9 95 1b be b8 1f 8d bc
       -0.21916287 0.038471553 -0.15193857 -0.017227039
000180 f7 00 86 3d 8a b2 ea bc 42 53 79 bc a2 a3 62 3d
       0.06543153 -0.028649587 -0.015217604 0.055331834
000190 db 6e f8 3d ea 39 d2 3d 20 a1 ec bc a4 72 73 3d
       0.12130519 0.102649525 -0.028885424 0.0594355
0001a0 f3 b3 d2 3d b2 68 66 3d b2 40 b3 3d 9f 9f 9a 3d
       0.10288229 0.05625219 0.08752574 0.075499766
0001b0 84 2a 67 3c 1a 59 a9 bd b6 c9 ed 3d e9 d9 1e be
       0.014109258 -0.08268948 0.11610739 -0.15512814
0001c0 9b 68 43 3b 21 5a cc 3d e1 c3 11 3e 65 3f 96 3d
       0.0029816988 0.09978128 0.14234878 0.0733631
0001d0 8d 0b e7 3d b6 38 bf bc 9a 67 01 be f9 ee 29 3b
       0.112815 -0.023342472 -0.12637177 0.0025929792
0001e0 3d f6 af bc a5 1a a0 3c 21 7c 97 3c 9d a7 7e bd
       -0.02147972 0.019543955 0.018491806 -0.062171567
0001f0 03 d2 b4 3c cb e1 0f be bc cd ae bd f4 db ef 3d
       0.022072798 -0.14050977 -0.085353345 0.117118746
000200 83 db b6 3d 75 37 8a 3b 98 50 56 be 8c 9d dc 3d
       0.08928587 0.004218037 -0.20929182 0.10772237
000210 23 db f4 bd c7 bc 85 3e 80 0f 8e 3b ed 57 9b 3d
       -0.119558595 0.26120588 0.004335344 0.0758513
000220 d2 7b 36 3d 5f be ca bd 83 8c 14 bd 98 63 c6 3d
       0.044551678 -0.09899592 -0.036266815 0.09686965
000230 84 54 47 bb ba 78 7c 3d c4 75 b7 bd b5 f5 c2 3d
       -0.0030415365 0.06163857 -0.08958009 0.09519521
000240 cd 49 e3 bd 17 7d 08 3e cf e8 a9 bd aa 8e 77 bd
       -0.11098061 0.13328968 -0.08296358 -0.06043879
000250 fc 12 c1 3d c4 da 04 be 81 98 89 bd ac cf 4e bc
       0.09427449 -0.12974077 -0.06718541 -0.012622755
000260 90 cc 84 3d 2c b0 12 3e d9 6c bd 3d 69 38 43 bc
       0.0648433 0.14325017 0.09249277 -0.011915305
000270 31 43 81 3d fe ff 79 3d 7f 9e 84 3d d8 f4 2f 3e
       0.06311644 0.06103515 0.06475543 0.17183244
000280 af bb 55 be a1 c8 4d 3d 1d 58 e1 3d 5f b1 19 3e
       -0.20872377 0.050240163 0.110031344 0.15009068
000290 89 53 ad bd 5e a3 86 3c 77 af 9d 3c 02 a4 62 bb
       -0.08463199 0.016435321 0.019248707 -0.003458262
0002a0 f1 eb b2 bb 5e f0 15 be 83 47 9f 3c ba 8e 47 bd
       -0.0054602553 -0.14642474 0.01944328 -0.0487201
0002b0 0d 4c a5 3c bc c9 43 3d e7 db 8f bd de c9 fc bb
       0.020177865 0.04779981 -0.07024365 -0.007714494
0002c0 3c f9 d7 bd c7 7a be bd 6e b6 89 3c b7 01 23 be
       -0.105455846 -0.09300762 0.016810622 -0.15918623
0002d0 c7 46 f0 bd e1 34 b5 bd 87 59 96 bd 61 d8 e9 bd
       -0.1173225 -0.088479765 -0.07341295 -0.11418224
0002e0 7a da 23 3e 52 09 d5 3d 6e b0 75 bb b2 8f c0 3d
       0.16001311 0.10402168 -0.0037489193 0.09402408
0002f0 e7 7e e5 bc 6b 69 87 3c b6 88 79 3d f7 1d 6a bd
       -0.028014613 0.01652976 0.060921393 -0.057157483
000300 5c 72 25 bd 98 93 b0 bd ad 87 7e be 0b 42 8f 3c
       -0.040392265 -0.08621901 -0.24856444 0.017487546
000310 cc c2 10 3e 39 b6 fd 3d a9 ee a8 bd a1 72 17 be
       0.14136809 0.12388272 -0.08248646 -0.14789821
000320 8a 87 1f be b3 be 6b bd b1 0a 39 3b ab b5 ed 3c
       -0.15579048 -0.05755491 0.0028235132 0.02901729
000330 5a a2 1d be 5a 6a 13 be 3d c4 83 bd ab f5 1c 3e
       -0.15393963 -0.14396039 -0.06433914 0.1532809
000340 c7 01 ee bd a4 fc cf bc 36 4f 8a 3c bc 7b d0 bd
       -0.11621433 -0.025389023 0.016883474 -0.101798505
000350 b9 42 8c bd 75 8b 9f 3d 55 6a e1 bc d8 5d 4c bd
       -0.06848664 0.07790271 -0.027516523 -0.049894184
000360 49 85 01 be ea fa a9 bd 80 b1 07 be be f9 ae bb
       -0.126485 -0.08299811 -0.13251305 -0.00533983
000370 b2 fc dd bd 98 f9 ac 3d 28 e9 ad bc 19 46 0b 3d
       -0.108392134 0.08446044 -0.021229342 0.034002397
000380 80 55 3d 3d 5a d7 f2 bc dc 9a 6a bc 23 b5 3d bc
       0.046224117 -0.029643703 -0.014319148 -0.011578831
000390 24 b6 7c bd 3a be 42 bd e8 89 70 bd 83 4b ee bc
       -0.06169714 -0.047544695 -0.058725268 -0.029088741
0003a0 27 4b bf 3d fc 36 08 3d e9 16 13 bd 70 d1 8b 3d
       0.09340506 0.033255562 -0.03591052 0.068270564
0003b0 2a 71 72 bd c3 f5 af 3c 78 bd 16 3e 91 42 9c bb
       -0.059189953 0.021479493 0.14720714 -0.0047686775
0003c0 69 33 d2 bb d5 d2 b4 bc 83 61 08 3e 06 60 0b 3e
       -0.00641482 -0.022073189 0.13318448 0.13610849
0003d0 44 cb 36 3e e6 68 47 bc c1 82 17 bd ca 21 85 3d
       0.17850977 -0.012171006 -0.03698993 0.065005854
0003e0 1f af 06 be f8 89 84 bc 2f 2a a3 bc 81 08 fc bd
       -0.13152741 -0.01617907 -0.019917576 -0.123063095
0003f0 be e9 e1 3c 54 13 08 3e 12 5d c8 bd e7 ad 2b bd
       0.027577277 0.13288623 -0.09783377 -0.041913893

critic.3.bias f4 [64]
000000 b9 84 1d bd 34 5c fd 3c 2d 63 59 be 6b 71 07 3e
       -0.038456652 0.030927755 -0.21229239 0.1322686
000010 3d 3a ae bd 6b 6b 20 bd b8 83 0d 3e 3a 1a 94 bc
       -0.08507202 -0.03916494 0.13819778 -0.018078912
000020 8a ca df 3c bc 65 34 3e b4 14 39 be aa ec d8 3d
       0.027318258 0.17616934 -0.18074304 0.10592015
000030 1e 3e 64 3e 34 76 22 be a6 dd 40 3c 5a ab 2f 3e
       0.22289321 -0.15865403 0.011771595 0.17155209
000040 eb b1 91 3c 2d 8e 27 bd 5d 1b 24 bc 6c 99 62 be
       0.017785033 -0.040907074 -0.01001629 -0.22128838
000050 25 f7 b6 bd 60 df bc bd 5e 7c db bd f9 7f 1f 3e
       -0.08933858 -0.09222293 -0.107170805 0.15576161
000060 45 39 83 bd b8 09 af 3d 84 8a 38 be 23 80 5a be
       -0.06407408 0.085467756 -0.1802159 -0.21337943
000070 88 3f 30 be bb 22 09 3e 17 57 d8 3d fb d5 9c 3d
       -0.17211735 0.13392155 0.10563486 0.07658001
000080 e1 56 0d 3e e6 f0 e7 3d 7f 0e 23 be d7 e1 46 be
       0.13802673 0.113252446 -0.15923499 -0.19422089
000090 a5 08 cc bd 33 5c 73 3d ee 16 bd 3d f7 8a 35 be
       -0.09962586 0.0594141 0.09232889 -0.17728792
0000a0 8d d4 40 be 58 f1 6e 3d a2 e9 13 be 20 b4 22 3e
       -0.18831082 0.058335632 -0.14444593 0.15889025
0000b0 10 4e d8 3d 5a f8 53 3d 38 fb 21 3d d8 62 4c bd
       0.10561764 0.05175052 0.03954622 -0.049898952
0000c0 3e d1 7f bd c2 97 f5 bd 0d 75 a2 bc ea f1 96 bd
       -0.06245541 -0.11991836 -0.019831205 -0.0737036
0000d0 f9 25 88 bc 16 e5 c1 bc 88 98 54 3e 24 b3 6d bc
       -0.01661967 -0.023668807 0.20761311 -0.0145080425
0000e0 02 67 4c be 34 f0 38 be 1a 17 49 bc f8 55 01 3e
       -0.1996117 -0.1806038 -0.012273574 0.1263045
0000f0 4c 5f 6a bb 35 13 18 bd 8c 2b 49 be 3e bd 72 be
       -0.0035762368 -0.037127692 -0.19645518 -0.23705003

critic.5.weight f4 [64]
000000 fd cf e8 3f 35 3e e4 3f 58 8c da 3f 3f 3c e4 3f
       1.8188473 1.7831484 1.707408 1.7830886
000010 19 0b 05 40 f5 57 00 40 75 28 e0 3f 53 d6 02 40
       2.0788023 2.0053685 1.7512347 2.0443313
000020 cf fb e7 3f 80 35 d2 3f 38 38 01 40 a1 4d 0b 40
       1.8123721 1.6422577 2.0190563 2.176613
000030 a4 a7 05 40 e0 34 e0 3f 9c 3f 09 40 5f 25 d9 3f
       2.088357 1.7516136 2.1445074 1.696453
000040 84 d0 db 3f ad 2a f6 3f bb 03 f0 3f 59 e2 e9 3f
       1.7173009 1.9231774 1.8751138 1.8272201
000050 9b 3d 03 40 56 b8 ff 3f 29 1e d0 3f 49 be eb 3f
       2.050635 1.997813 1.6259204 1.8417445
000060 9e 73 0e 40 48 27 14 40 9d 58 df 3f d9 c9 03 40
       2.2258067 2.3148975 1.7448918 2.0591948
000070 38 36 cd 3f 27 6c e1 3f 1a e7 06 40 46 14 05 40
       1.6032171 1.761113 2.1078553 2.0793624
000080 0a 9b de 3f 19 87 f3 3f 86 40 05 40 ab 38 06 40
       1.7391064 1.9025604 2.0820632 2.0972087
000090 c0 4c d7 3f 8c 97 d0 3f c8 6e e8 3f bd f8 dd 3f
       1.6820297 1.6296248 1.8158808 1.7341534
0000a0 78 60 dc 3f bb 36 d1 3f ee 77 dc 3f f2 89 e1 3f
       1.721694 1.6344827 1.72241 1.7620223
0000b0 96 32 f7 3f b3 58 09 40 9a 9e e7 3f bd 94 03 40
       1.9312313 2.1460388 1.8095276 2.0559533
0000c0 ca 57 d6 3f 81 13 02 40 c5 77 e5 3f d2 06 f6 3f
       1.6745541 2.0324404 1.7927176 1.9220831
0000d0 3e aa d6 3f 1e 51 d9 3f c9 8e 05 40 16 9c 0a 40
       1.6770704 1.697788 2.08684 2.1657767
0000e0 b5 62 ee 3f f3 82 fa 3f 6e 15 e5 3f 8d 5d d2 3f
       1.8623873 1.9571213 1.7897165 1.64348
0000f0 3c c2 03 40 77 13 de 3f 4e 18 06 40 5a 4c ef 3f
       2.0587301 1.734969 2.0952334 1.8695176

critic.5.bias f4 [64]
000000 11 fc 53 bf 60 c3 4d 3f ea bc 44 bf d0 f0 4d 3f
       -0.828065 0.80376244 -0.7685076 0.80445576
000010 da e7 76 bf 8d 83 64 bf 52 db 47 3f 94 13 74 bf
       -0.9644753 -0.8926323 0.7806903 -0.95342374
000020 4b 5a 46 bf 4c 87 3d 3f 12 46 63 3f 87 26 87 3f
       -0.77481526 0.7403457 0.88778794 1.0558633
000030 d5 b0 80 3f 88 6e 45 bf 69 1b 80 bf 74 3a 4a 3f
       1.0053965 -0.7712178 -1.0008365 0.7899544
000040 62 34 4a 3f 4e fb 5d 3f e2 cc 65 3f 39 1d 56 bf
       0.7898618 0.86711586 0.8976575 -0.8363834
000050 c8 0a 75 bf a4 67 64 bf a9 e6 3b bf a1 86 55 3f
       -0.95719576 -0.89220643 -0.73398834 0.8340855
000060 26 29 7e 3f 32 01 94 3f 42 ca 48 bf be 7f 73 bf
       0.9928154 1.1562865 -0.7843362 -0.95116794
000070 f0 12 3c bf f8 ff 4e 3f 79 5c 82 3f 8e e7 6d bf
       -0.73466396 0.8085933 1.018447 -0.9293145
000080 0e 8f 45 3f 5c 0d 57 3f 1c d9 81 bf 98 4a 7d bf
       0.7717141 0.8400476 -1.0144382 -0.98941946
000090 5d dd 3d bf bd 37 3c 3f e9 9c 50 3f 58 0c 4a bf
       -0.741659 0.7352255 0.81489426 -0.78925085
0000a0 1e e5 49 bf 5d 38 44 3f ae 0c 47 bf 6c bf 4e 3f
       -0.7886523 0.76648504 -0.7775372 0.80760837
0000b0 af 5d 55 3f 16 03 83 3f 90 dc 47 3f 3f 4f 71 bf
       0.83346075 1.0235317 0.78070927 -0.94261545
0000c0 07 c2 4a 3f 68 cc 68 bf d6 4b 52 3f f8 5f 5a 3f
       0.7920231 -0.909369 0.82146966 0.85302687
0000d0 89 80 47 3f fd 7d 3f bf e7 47 72 3f 3c 51 7a bf
       0.77930504 -0.7480162 0.94640964 -0.97780204
0000e0 b8 a5 5d bf 98 46 61 3f 2d 24 51 3f 86 4c 44 3f
       -0.8658099 0.8799834 0.81695825 0.76679265
0000f0 f7 15 77 bf db 83 3d bf 33 9e 7a bf c0 ae 56 bf
       -0.9651789 -0.7402932 -0.9789764 -0.838604

critic.6.weight f4 [1, 64]
000000 6b b4 35 3f bc 9d 38 bf 1c 98 33 3f b8 92 3b bf
       0.7097842 -0.72115684 0.70153975 -0.7327075
000010 31 59 53 3f b8 3e 42 3f a5 4f 2d bf c9 08 4f 3f
       0.8255797 0.7587695 -0.6769965 0.8087278
000020 83 06 44 3f ec 08 25 bf 18 d9 4a bf b0 e8 6d bf
       0.76572436 -0.6446674 -0.7923751 -0.9293318
000030 fc da 5d bf 21 dc 30 3f ae e0 62 3f ca b4 24 bf
       -0.8666227 0.6908589 0.88624084 -0.6433836
000040 85 34 1c bf b6 7f 44 bf 79 80 3c bf e8 6b 3a 3f
       -0.6101764 -0.7675737 -0.73633534 0.728209
000050 2a ef 49 3f 34 c6 3c 3f 8a 0a 28 3f cc 1a 3d bf
       0.7888056 0.73739934 0.6564108 -0.73869014
000060 e5 90 65 bf 8b a7 79 bf 75 ee 2e 3f 5c 18 50 3f
       -0.89674217 -0.97521275 0.68332607 0.8128717
000070 d9 5f 1f 3f 08 1c 3d bf 4f 06 5d bf 1a 49 53 3f
       0.62255627 -0.738709 -0.8633775 0.8253342
000080 91 e1 2d bf 30 ef 44 bf e9 2d 55 3f 58 87 51 3f
       -0.6792231 -0.7692747 0.8327318 0.81847143
000090 b7 93 31 3f 85 74 27 bf a0 19 3f bf ac 31 33 3f
       0.6936602 -0.6541217 -0.74648476 0.6999767
0000a0 16 79 29 3f 8e 96 2b bf 72 e5 2f 3f c7 25 28 bf
       0.6620039 -0.67026603 0.6870948 -0.65682644
0000b0 a3 4c 4a bf 9a 8d 5c bf 5e 2f 38 bf 95 c2 51 3f
       -0.7902319 -0.86153567 -0.71947277 0.81937534
0000c0 29 45 1d bf 90 bb 46 3f 38 7b 3b bf 73 7b 48 bf
       -0.61433655 0.7762995 -0.7323489 -0.7831337
0000d0 ce 71 2e bf 74 86 36 3f e6 a2 5c bf 34 8d 63 3f
       -0.681424 0.7129891 -0.86186063 0.88887334
0000e0 99 44 33 3f 60 34 4e bf a7 1d 2b bf 68 20 21 bf
       0.70026547 -0.8054867 -0.6684212 -0.62940073
0000f0 40 62 48 3f 6d b7 38 3f 04 53 58 3f 32 47 3c 3f
       0.7827492 0.72154886 0.8450167 0.73546135
