weights/2024-06-27_16-11-31/best_policy.pt (torch, 167108 bytes, 63 tensors)

weight f4 [64, 3]
0.6714096 0.21456514 0.4481298 -0.3357522 0.2657104 0.233129 -0.35229868 -0.5524584
0.47253206 -0.3452301 0.28025362 -0.4950564 -0.3005856 -0.23132001 0.35698107 -0.04753093
-0.44239885 0.14236112 0.53176737 0.26581445 0.13525812 0.42578378 -0.5173264 -0.06955467
-0.5949258 0.2105601 -0.03595726 -0.23270482 -0.39105463 0.010045794 -0.5774765 0.017048772
0.28983206 0.3532722 -0.65226763 -0.47964442 0.06642791 -0.19369999 -0.032942384 0.26794127
-0.061060477 -0.19285712 0.13869376 0.0876798 -0.05353916 -0.16160104 0.56825274 0.30223933
-0.60991406 0.23447487 -0.3403063 -0.24244694 -0.31747785 0.010711316 0.5980371 0.15517277
0.51036686 0.57378966 0.5127658 0.26452067 0.30249977 -0.41495723 -0.34603375 0.19498368
-0.5394597 0.20325802 0.3272808 -0.64554626 -0.35668963 0.0036616658 -0.41018626 0.03810231
0.10318483 -0.2540116 0.43789688 -0.51849943 -0.5692968 -0.062027596 0.4780661 -0.4721
-0.13450894 -0.687848 -0.5001888 -0.1560373 -0.10931689 0.21596257 0.09785805 -0.46510857
0.2129492 -0.1899729 0.0031052455 0.6024723 0.1688003 0.5980247 -0.031478453 0.52528363
-0.13550882 -0.0021333306 0.06693715 -0.09159939 0.23006855 0.24707352 -0.93353367 -0.3567508
-0.37887186 -0.3638969 -0.54734945 0.30759576 0.117001794 0.21434598 0.27033842 -0.5138155
0.11651601 0.1747288 -0.4380971 0.068839505 -0.36896768 -0.43690798 0.57118905 0.13966991
-0.034960847 0.09012038 0.17041703 0.16351749 -0.10464895 0.4549642 -0.27600893 -0.54058975
0.24812381 -0.12899843 0.08057668 0.12880726 0.26196057 0.5365097 0.054890096 -0.08836906
0.40507331 -0.21565259 -0.039090686 -0.49114832 -0.09004669 0.39415154 -0.058697555 0.16738614
-0.37366122 0.58726346 -0.018556068 -0.07993425 -0.18528503 -0.120485604 0.077530496 -0.47694367
0.3687365 0.35918337 -0.39956182 -0.3853062 -0.4305932 -0.25513157 -0.078305766 -0.44367576
-0.013465063 -0.195064 -0.027393496 -0.22251864 0.37789965 0.31677556 -0.02622416 0.37909728
-0.12773313 0.7309785 0.42576498 -0.87579566 0.45232865 -0.53322726 -0.46216214 0.19212595
-0.21616542 -0.5847958 -0.18909359 0.2800379 0.09651883 -0.41550913 0.34841722 -0.7480687
0.47151926 0.3570791 -0.32423922 -0.00038034545 0.40186074 -0.8128429 0.4970402 0.3969378
00000000: 80e1 2b3f f7b6 5b3e 4571 e53e b6e7 abbe
00000010: 320b 883e 5eb9 6e3e 7e60 b4be ea6d 0dbf
00000020: b9ef f13e 00c2 b0be 677d 8f3e 0878 fdbe
00000030: 5be6 99be 27df 6cbe 39c6 b63e cbaf 42bd
00000040: 1a82 e2be 1dc7 113e e821 083f d518 883e
00000050: 1b81 0a3e 5500 da3e 816f 04bf ae72 8ebd
00000060: 0f4d 18bf 119d 573e eb47 13bd 2c4a 6ebe
00000070: 5038 c8be 1d97 243c 80d5 13bf dea9 8b3c
00000080: de64 943e 18e0 b43e 03fb 26bf f493 f5be
00000090: 5b0b 883d 4a59 46be 98ee 06bd 992f 893e
000000a0: 8d1a 7abd 567c 45be bd05 0e3e 7891 b33d
000000b0: e14b 5bbd be7a 25be 0379 113f 1dbf 9a3e
000000c0: 5423 1cbf 2e1a 703e a13c aebe 0344 78be
000000d0: 758c a2be 847e 2f3c f618 193f 9ce5 1e3e
000000e0: 67a7 023f e1e3 123f 9f44 033f 416f 873e
000000f0: 40e1 9a3e 4675 d4be 562b b1be cda9 473e
00000100: 081a 0abf df22 503e 5991 a73e 8542 25bf
00000110: 06a0 b6be 8ff8 6f3b ef03 d2be 2b11 1c3d
00000120: 9152 d33d cf0d 82be 0534 e03e 61bc 04bf
00000130: 6fbd 11bf a610 7ebd 14c5 f43e 17b7 f1be
00000140: b6bc 09be ce16 30bf 600c 00bf 3ec8 1fbe
00000150: 89e1 dfbd 4b25 5d3e cd69 c83d b622 eebe
00000160: 5b0f 5a3e 4288 42be 6081 4b3b a03b 1a3f
00000170: fcd9 2c3e 2618 193f 8def 00bd fd78 063f
00000180: d3c2 0abe 59cf 0bbb 5816 893d 7698 bbbd
00000190: 1797 6b3e d700 7d3e 10fc 6ebf 0aa8 b6be
000001a0: 7efb c1be b250 babe 181f 0cbf 317d 9d3e
000001b0: a39e ef3d 837d 5b3e cc69 8a3e 6a89 03bf
000001c0: f29f ee3d 1bec 323e 434e e0be bafb 8c3d
000001d0: 55e9 bcbe 67b2 dfbe 7239 123f a105 0f3e
000001e0: 1b33 0fbd 0991 b83d cd81 2e3e 2171 273e
000001f0: 3052 d6bd 11f1 e83e 0b51 8dbe 1764 0abf
00000200: 2b14 7e3e 2a18 04be 6305 a53d 0de6 033e
00000210: b21f 863e b358 093f 70d4 603d d6fa b4bd
00000220: c565 cf3e 08d4 5cbe 8e1d 20bd cb77 fbbe
00000230: 666a b8bd 3bce c93e d96c 70bd 4667 2b3e
00000240: 8650 bfbe e656 163f e502 98bc 91b4 a3bd
00000250: 5cbb 3dbe 28c1 f6bd 4fc8 9e3d f631 f4be
00000260: 08cb bc3e e2e6 b73e 5e93 ccbe db46 c5be
00000270: b676 dcbe 9ba0 82be c65e a0bd 7829 e3be
00000280: 919c 5cbc dbbe 47be 5368 e0bc eddb 63be
00000290: 107c c13e 6830 a23e 0dd4 d6bc 0a19 c23e
000002a0: 79cc 02be 6821 3b3f defd d93e 2534 60bf
000002b0: 9f97 e73e 9581 08bf 84a0 ecbe aabc 443e
000002c0: 785a 5dbe 2db5 15bf c0a1 41be 2161 8f3e
000002d0: aaab c53d 9dbd d4be be63 b23e 6e81 3fbf
000002e0: f96a f13e 12d3 b63e af02 a6be 1a69 c7b9
000002f0: b1c0 cd3e 7916 50bf 0e7c fe3e 6e3b cb3e

bias f4 [64]
0.06652936 -0.28140694 -0.053543832 -0.30795318 0.24352378 -0.4179218 -0.4630307 0.17090479
0.4851554 0.1771437 -0.3234443 -0.0059637306 0.3626807 0.5261358 -0.23312406 0.5121771
0.09377075 0.5322412 0.22997835 -0.1071288 -0.22188427 -0.15134446 0.47429335 -0.5091836
0.23577979 0.19208759 0.19231822 0.06736667 -0.12300775 0.0077800737 0.4349833 -0.48523626
-0.46880943 -0.26684096 -0.67679334 0.48430374 0.26418173 -0.35213527 -0.050372947 0.2862645
0.45057857 -0.5138031 -0.006166968 -0.47997335 0.39176297 0.24713826 -0.009395497 -0.37637892
0.28817955 0.16220386 -0.3795745 -0.42821556 -0.2601796 0.06261746 0.1803482 -0.28138056
0.47547093 -0.3948048 -0.57079035 -0.14286165 -0.38112187 -0.23064752 -0.44884893 -0.12094812
00000000: 8c40 883d 9214 90be c750 5bbd 0aac 9dbe
00000010: 4c5e 793e d9f9 d5be 5c12 edbe aa01 2f3e
00000020: 4a66 f83e 2865 353e 7e9a a5be 666b c3bb
00000030: 49b1 b93e d6b0 063f 13b8 6ebe 0a1e 033f
00000040: e10a c03d f640 083f 727f 6b3e 5866 dbbd
00000050: a135 63be 0bfa 1abe 94d6 f23e db59 02bf
00000060: 4270 713e 9cb2 443e 11ef 443e 89f7 893d
00000070: 7deb fbbd fdef fe3b 22b6 de3e e370 f8be
00000080: ca07 f0be 619f 88be 5442 2dbf a9f6 f73e
00000090: d442 873e 134b b4be dd53 4ebd 4391 923e
000000a0: 3cb2 e63e 9a88 03bf 4714 cabb 11bf f5be
000000b0: 2895 c83e d011 7d3e 92ef 19bc bdb4 c0be
000000c0: 458c 933e c518 263e 9757 c2be 123f dbbe
000000d0: 4336 85be 953d 803d 33ad 383e 1d11 90be
000000e0: ed70 f33e db23 cabe 511f 12bf 534a 12be
000000f0: 6822 c3be dd2e 6cbe 87cf e5be a6b3 f7bd

weight f4 [64]
1.0416008 1.048296 1.0076498 0.96442455 0.9140447 1.0469711 1.1104541 1.0819013
1.031345 1.2295363 1.0054094 1.0635616 0.96679145 0.99452096 1.0117991 1.0256969
0.95773405 1.1023774 0.988009 1.1106936 1.0497342 0.94399744 1.048743 0.99024373
0.96245146 1.1293304 1.0324281 1.022879 0.9551875 1.0172067 1.0131202 0.9808327
1.093709 0.8378994 1.0430305 1.0300053 1.0057513 1.0384091 0.9956128 1.1534083
0.9810693 0.98600155 1.0201262 1.0300053 0.99547076 0.96613103 0.9957176 1.1331578
1.0374309 0.88169444 0.93069685 1.0487438 1.0224568 0.96275795 0.9553611 0.9399229
1.0144641 1.0667295 0.9761229 1.03425 0.93991166 1.0361571 0.9882752 1.0769988
00000000: 2d53 853f 902e 863f abfa 803f 87e4 763f
00000010: d5fe 693f 2603 863f 5c23 8e3f be7b 8a3f
00000020: 1d03 843f 7261 9d3f 41b1 803f c922 883f
00000030: a57f 773f ed98 7e3f a282 813f 094a 833f
00000040: 0f2e 753f b41a 8d3f 28ee 7c3f 352b 8e3f
00000050: b15d 863f d1a9 713f 363d 863f 9d80 7d3f
00000060: 3863 763f e68d 903f 9b26 843f b3ed 823f
00000070: 2b87 743f d433 823f ecad 813f da17 7b3f
00000080: a8fe 8b3f 9380 563f 0682 853f 37d7 833f
00000090: 75bc 803f 97ea 843f 7be0 7e3f e2a2 933f
000000a0: 5c27 7b3f 996a 7c3f 7f93 823f 37d7 833f
000000b0: 2cd7 7e3f 5d54 773f 59e7 7e3f 510b 913f
000000c0: 89ca 843f bab6 613f 2642 6e3f 3d3d 863f
000000d0: dddf 823f 4e77 763f 8c92 743f ca9e 703f
000000e0: f6d9 813f 988a 883f 31e3 793f 4e62 843f
000000f0: 0d9e 703f cca0 843f 9aff 7c3f 19db 893f

bias f4 [64]
-0.015168167 -0.12225377 0.026235761 0.03972461 -0.02459907 -0.04613554 0.033527706 -0.011234164
0.018281823 0.01119833 0.028059242 0.008556618 -0.074373044 0.0051959115 -0.010107271 -0.027385319
0.025898773 0.010053268 -0.04368422 -0.014715302 0.010093763 -0.0799367 0.041447166 -0.004212743
-0.022880392 0.011282039 -0.034880698 0.19473219 0.037198085 0.033720005 -0.018842615 0.033185713
-0.12870008 0.0045746877 0.013283242 0.008771094 0.000732251 -0.0077608405 0.028116046 0.012959837
0.022240492 -0.00879942 -0.0044110836 -0.035665166 0.019590778 0.057751086 0.00984477 -0.013938122
0.029799467 -0.04316136 -0.009932276 0.021800635 0.008942623 -0.017375242 -0.021680983 0.00871838
-0.044526353 0.061671723 0.035276875 0.004412752 -0.059947375 -0.0015786752 -0.03784297 -0.020904075
00000000: e783 78bc 2f60 fabd 61ec d63c 46b6 223d
00000010: fd83 c9bc 9ff8 3cbd 5954 093d 800f 38bc
00000020: c3c3 953c 3379 373c 7fdc e53c 0f31 0c3c
00000030: e550 98bd 7742 aa3b f898 25bc 2d57 e0bc
00000040: aa29 d43c 76b6 243c 3aee 32bd 7318 71bc
00000050: 4f60 253c dab5 a3bd 81c4 293d 0d0b 8abb
00000060: a96f bbbc 4dd8 383c 10df 0ebd e067 473e
00000070: 055d 183d fd1d 0a3d d45b 9abc beed 073d
00000080: f4c9 03be 43e7 953b f4a1 593c a2b4 0f3c
00000090: 88f4 3f3a a64e febb 9f53 e63c 7f55 543c
000000a0: b131 b63c 712b 10bc da8a 90bb a315 12bd
000000b0: d77c a03c 678c 6c3d f54b 213c b95c 64bc
000000c0: 031e f43c f7c9 30bd fcba 22bc 3f97 b23c
000000d0: 1484 123c 8656 8ebc 519c b1bc 89d7 0e3c
000000e0: 4461 36bd 7d9b 7c3d 7c7e 103d d998 903b
000000f0: 618b 75bd 8deb ceba 3b01 1bbd 063f abbc

weight f4 [64, 64]
-0.09044897 0.0074653924 0.023238908 -0.071261086 -0.078863144 0.08491858 0.08344976 0.02340499
-0.13416094 -0.12663865 -0.092081696 0.0252421 0.06781284 0.07148475 0.034825787 0.095135
0.041872755 0.058123495 -0.054102715 -0.13730015 -0.06046529 0.04045999 0.034501124 -0.027303282
0.05080522 0.05401371 -0.051802125 0.068789065 0.03878716 -0.112209134 0.006184649 0.08559866
0.10464528 0.03606158 0.112682566 0.12301235 -0.04616719 -0.03676647 -0.050713774 0.016875146
-0.0030613728 0.013197623 -0.04502531 -0.0014437977 -0.048220914 0.080623016 0.04093617 0.008667978
-0.07482714 0.06681466 -0.08518134 0.012666758 0.080120064 0.10626433 -0.06519801 -0.026175208
0.097091325 -0.04500283 0.02278617 -0.07839528 0.037461534 0.069700606 0.053217802 0.055159375
-0.07936524 -0.017516652 0.081003994 -0.015530469 -0.033018187 0.026224267 -0.07968066 -0.14986122
0.01802336 -0.097517915 -0.0524723 0.05398341 -0.15120548 0.04577831 -0.050648462 -0.02678692
-0.026460316 -0.14672612 -0.016630804 0.019262725 -0.05718775 0.09131596 0.031741586 0.058738682
0.025472227 -0.10938789 0.046560273 0.0062730494 -0.06426028 -0.1081269 -0.027789902 0.0011959091
-0.07616462 -0.07576601 -0.08528397 0.010652879 -0.039925016 -0.03233177 -0.058888037 -0.034435194
-0.1073161 0.09546649 -0.1165514 0.042081565 -0.024211839 0.068007074 0.008949439 0.076033354
-0.09512485 -0.064056 -0.08666301 0.113014966 0.06747225 -0.0395795 -0.0030601413 0.03244368
-0.025342928 0.091765694 0.12044252 0.087486796 0.003067742 0.07966999 0.024814103 -0.021038556
0.017314095 -0.06956807 -0.04787869 0.005995315 0.07760583 0.082855344 -0.03441682 -0.011755274
-0.098909296 -0.121496774 0.10490829 0.0061600003 -0.14991567 0.061743703 -0.03330761 -0.03670129
0.05759378 -0.12468846 0.04733296 -0.14480881 0.030457359 -0.004751663 -0.048541714 -0.052243356
-0.06174397 0.08017697 -0.04167218 -0.10424851 0.028577331 -0.027595693 -0.12948267 -0.024197796
-0.07020286 -0.036762297 0.091762505 0.06765643 -0.08607946 -0.0649638 0.06423576 -0.026353018
-0.106932 -0.010659266 -0.0042868718 0.073931724 -0.041992523 0.05288528 0.10889821 0.10716847
-0.0068014734 0.03402028 -0.028685646 -0.08677712 -0.092777774 -0.12865043 -0.0059476392 -0.10847874
0.06568213 0.03233923 -0.071184665 -0.06278325 -0.063344814 -0.06133536 0.1521029 -0.048905674
-0.030633884 0.009319771 -0.035708554 0.044665307 -0.09195657 -0.03879301 -0.07293965 -0.096132934
0.124585554 0.2616934 -0.13100892 -0.14200021 0.09611704 -0.0060481476 -0.012022679 -0.07931649
-0.058623847 0.14069001 0.13295263 0.028649112 -0.14218703 0.0025087115 0.07929543 0.012181099
-0.016889302 0.16601507 -0.09803906 0.13718192 0.030269733 0.009518276 0.10669986 -0.0580153
0.07029442 -0.10037154 0.084492676 -0.068384744 -0.058738377 -0.12855248 -0.086921774 -0.060031116
0.032993693 0.059574492 -0.060341194 0.019201068 -0.037638366 0.016337784 0.050226007 0.05149068
0.10279395 0.017274262 0.05188035 -0.058347955 -0.03675031 0.109834865 -0.06200011 -0.10865168
-0.030884057 0.11822649 -0.037223395 -0.11713523 -0.099667676 0.020085024 0.036611486 0.0010826051
00000000: 4f3d b9bd 40a0 f43b 865f be3c 55f1 91bd
00000010: 0083 a1bd cbe9 ad3d b5e7 aa3d d2bb bf3c
00000020: 7c61 09be 90ad 01be 5495 bcbd 85c8 ce3c
00000030: 75e1 8a3d 9966 923d 7ca5 0e3d 24d6 c23d
00000040: c482 2b3d e712 6e3d cf9a 5dbd 6998 0cbe
00000050: 74aa 77bd 60b9 253d 0d51 0d3d 22ab dfbc
00000060: 2219 503d 7b3d 5d3d 772e 54bd 48e1 8c3d
00000070: 49df 1e3d e7cd e5bd 99a8 ca3b 5a4e af3d
00000080: 4450 d63d 4fb5 133d 1ec6 e63d e6ed fb3d
00000090: cf19 3dbd 7098 16bd 3fb9 4fbd bf3d 8a3c
000000a0: 50a1 48bb d83a 583c 766c 38bd d03d bdba
000000b0: 4b83 45bd ae1d a53d afac 273d 2304 0e3c
000000c0: f93e 99bd 20d6 883d 8e73 aebd 3c88 4f3c
000000d0: fd15 a43d 1da1 d93d 8986 85bd 646d d6bc
000000e0: d1d7 c63d e354 38bd 10aa ba3c b48d a0bd
000000f0: 4471 193d 31bf 8e3d e9fa 593d ccee 613d
00000100: 3e8a a2bd 157f 8fbc 6ce5 a53d 8273 7ebc
00000110: 143e 07bd 46d4 d63c 9d2f a3bd 3875 19be
00000120: baa5 933c 79b7 c7bd 32ed 56bd b51d 5d3d
00000130: 9cd5 1abe 0a82 3b3d c374 4fbd 3e70 dbbc
00000140: 4ec3 d8bc 5f3f 16be 533d 88bc ddcc 9d3c
00000150: b43d 6abd dd03 bb3d 7703 023d f997 703d
00000160: 22ab d03c c206 e0bd fcb5 3e3d 278e cd3b
00000170: e59a 83bd a371 ddbd a6a7 e3bc 0dc0 9c3a
00000180: 32fc 9bbd 362b 9bbd 5da9 aebd 6a89 2e3c
00000190: 6a88 23bd 516e 04bd 9534 71bd eb0b 0dbd
000001a0: 8bc8 dbbd ef83 c33d 80b2 eebd b85d 2c3d
000001b0: e857 c6bc 4b47 8b3d aba0 123c 60b7 9b3d
000001c0: d1d0 c2bd cb2f 83bd 607c b1bd 6474 e73d
000001d0: e42e 8a3d 1d1e 22bd a78c 48bb aae3 043d
000001e0: f99b cfbc a7ef bb3d 91aa f63d 472c b33d
000001f0: 2c0c 493b 052a a33d f246 cb3c 0d59 acbc
00000200: 4ad6 8d3c b479 8ebd 721c 44bd 5974 c43b
00000210: ceef 9e3d 10b0 a93d a7f8 0cbd 3199 40bc
00000220: f590 cabd 4dd3 f8bd 28da d63d d4d9 c93b
00000230: 7e83 19be f7e6 7c3d 8f6d 08bd 1854 16bd
00000240: 75e7 6b3d aa5c ffbd 35e0 413d c348 14be
00000250: b681 f93c d7b3 9bbb add3 46bd 21fd 55bd
00000260: 3fe7 7cbd d333 a43d 73b0 2abd 3e80 d5bd
00000270: 021b ea3c 5d10 e2bc 1b97 04be 753a c6bc
00000280: 84c6 8fbd 1094 16bd fbed bb3d 748f 8a3d
00000290: 6e4a b0bd be0b 85bd 0a8e 833d 49e2 d7bc
000002a0: 2aff dabd 34a4 2ebc e378 8cbb 8469 973d
000002b0: 5a00 2cbd 3c9e 583d 0606 df3d 257b db3d
000002c0: e5de debb d958 0b3d 29fe eabc 34b8 b1bd
000002d0: 4602 bebd f0bc 03be 6ae4 c2bb 1a2a debd
000002e0: 5a84 863d 2476 043d 44c9 91bd 8194 80bd
000002f0: edba 81bd c93a 7bbd ddc0 1b3e 5151 48bd
00000300: e9f3 fabc f4b1 183c 2243 12bd f8f2 363d
00000310: ba53 bcbd 6be5 1ebd 6261 95bd 58e1 c4bd
00000320: b626 ff3d adfc 853e 3427 06be 8168 11be
00000330: 03d9 c43d 8a2f c6bb c5fa 44bc af70 a2bd
00000340: 8f1f 70bd 0b11 103e bc24 083e 8bb1 ea3c
00000350: 7a99 11be 3269 243b a465 a23d 3b93 473c
00000360: 6f5b 8abc dbff 293e b4c8 c8bd 6b79 0c3e
00000370: 3bf8 f73c 8bf2 1b3c 7585 da3d 74a1 6dbd
00000380: 85f6 8f3d 988f cdbd 7f0a ad3d 4d0d 8cbd
00000390: a797 70bd 43a3 03be 0b04 b2bd 30e3 75bd
000003a0: 6524 073d 6204 743d 5428 77bd 8f4b 9d3c
000003b0: b02a 1abd d1d6 853c c9b9 4d3d e4e7 523d
000003c0: a285 d23d c182 8d3c 7d80 543d 44fe 6ebd
000003d0: 7e87 16bd 1af1 e03d d4f3 7dbd c684 debd
000003e0: 9000 fdbc bb20 f23d 8f77 18bd 98e4 efbd
000003f0: 911e ccbd 5989 a43c edf5 153d 33e6 8d3a

bias f4 [64]
0.016562583 0.069673926 0.041115247 -0.13675778 -0.12229603 0.08295622 -0.012258793 0.020147532
-0.09919678 0.09973384 0.03225978 0.06299029 -0.11743446 0.08518022 0.07302781 -0.012630528
-0.14472945 0.008655565 -0.008325515 0.05495316 -0.093036085 0.027481569 -0.13895069 -0.0012502408
-0.06755911 0.05437402 -0.04713087 -0.055606782 0.03702992 -0.067130804 -0.032333262 0.007042796
0.024642186 -0.08644198 0.003420634 -0.051801864 -0.092296414 0.056414064 -0.021898044 -0.104020074
0.016319936 -0.105287306 0.1165281 0.04387724 -0.015711162 -0.082793176 -0.0048711575 -0.11049316
0.021248708 0.09122392 -0.13882706 0.08083514 0.044995364 0.038324945 -0.0056910426 -0.08702396
0.002243305 0.036514137 -0.07749206 0.01666435 -0.04838741 -0.10683392 -0.025538325 -0.07670707
00000000: 41ae 873c 34b1 8e3d 7668 283d 3b0a 0cbe
00000010: 5776 fabd f3e4 a93d 1bd9 48bc 700c a53c
00000020: ae27 cbbd 4141 cc3d d522 043d 0e01 813d
00000030: 7a81 f0bd f872 ae3d 9b8f 953d 46f0 4ebc
00000040: f533 14be 12d0 0d3c be67 08bc 9116 613d
00000050: b489 bebd 0721 e13c 1749 0ebe 1fdf a3ba
00000060: 6e5c 8abd 4bb7 5e3d 4d0c 41bd f0c3 63bd
00000070: afac 173d e07b 89bd e26f 04bd 41c7 e63b
00000080: 69de c93c 7e08 b1bd b72c 603b 312e 54bd
00000090: e705 bdbd 6f12 673d 8763 b3bc 7a08 d5bd
000000a0: 63b1 853c dfa0 d7bd 49a6 ee3d 9fb8 333d
000000b0: b2b4 80bc 788f a9bd 3b9e 9fbb 3d4a e2bd
000000c0: c511 ae3c 9bd3 ba3d ae28 0ebe e58c a53d
000000d0: 0f4d 383d 9efa 1c3d ed7b babb 9e39 b2bd
000000e0: 6a04 133b d98f 153d 28b4 9ebd ad83 883c
000000f0: e031 46bd becb dabd c035 d1bc 9918 9dbd

weight f4 [64]
0.9345035 0.94538945 0.97247505 1.0386051 1.0303582 1.0029109 1.0275574 0.9668021
1.0531676 1.0171257 1.0298672 0.9979772 1.0610589 1.0216031 1.1324364 1.0441974
1.022935 1.2126641 1.0763603 1.0399224 1.0230628 1.0585359 0.95294267 1.00917
0.9703259 1.0323259 1.0534078 1.0291741 1.1472551 1.0443296 1.0451164 1.0742486
1.1213 1.0904067 1.176362 1.0024173 0.99871916 1.1717746 1.026694 0.9689241
1.075927 0.98054755 0.9282749 1.0949817 1.0701872 1.0214467 0.9185102 1.0108169
0.99514866 1.0274106 1.0668446 1.0179279 0.98420906 0.96752787 1.0367718 1.0677744
1.0239627 1.0760782 1.0829967 1.0182515 1.0167688 0.9574443 1.0993861 0.96575713
00000000: 9f3b 6f3f 0b05 723f 20f4 783f 03f1 843f
00000010: c7e2 833f 625f 803f 0087 833f 5880 773f
00000020: 32ce 863f 2d31 823f b0d2 833f 6f7b 7f3f
00000030: c7d0 873f e4c3 823f adf3 903f 43a8 853f
00000040: 89ef 823f 9438 9b3f 2dc6 893f 2d1c 853f
00000050: b9f3 823f 1b7e 873f 0df4 733f 7c2c 813f
00000060: 4767 783f 4123 843f 11d6 863f fabb 833f
00000070: 41d9 923f 98ac 853f 60c6 853f fa80 893f
00000080: c286 8f3f 7292 8b3f 0893 963f 364f 803f
00000090: 0fac 7f3f b6fc 953f b66a 833f 690b 783f
000000a0: fab7 893f 2a05 7b3f 6da3 6d3f 5c28 8c3f
000000b0: e5fb 883f c4be 823f 7c23 6b3f 7362 813f
000000c0: 10c2 7e3f 3182 833f 5d8e 883f 764b 823f
000000d0: 20f5 7b3f e8af 773f f0b4 843f d5ac 883f
000000e0: 3611 833f eebc 893f a39f 8a3f 1156 823f
000000f0: 7b25 823f 121b 753f afb8 8c3f dc3b 773f

bias f4 [64]
0.00089965435 -0.016336268 -0.0053800237 0.0011295902 -0.0037459156 0.00055386487 0.0014378639 -0.0049768984
0.006458326 -0.0017512188 -0.00047329447 0.0004572759 0.00041736316 -0.002795998 -0.0033722494 0.0011009589
-0.0008780358 0.0124425255 0.003459835 0.0010036699 0.0005230408 0.0025094782 -0.00040969375 -0.0017889977
-0.0035846075 0.0013709783 0.002943854 0.0034085773 0.0020739427 0.0026606398 0.0016062658 -0.0062024076
0.00058929506 0.0012910826 -0.0025936908 0.006615132 -0.003585222 -0.0017065388 -0.0024105383 0.002666758
0.0002686209 0.003484607 0.010769624 -0.0017980749 0.0006159582 -0.00054152915 -0.001368316 0.0026745659
0.004009154 -0.0029511014 -0.0013175511 0.0011812411 0.00034825323 0.012008239 0.0022009744 -0.002377116
-0.0015939812 -0.0013176186 0.0013255707 -0.0013307404 -0.002535536 0.006111552 -0.0019172964 0.004776986
00000000: c8d6 6b3a a3d3 85bc e94a b0bb c20e 943a
00000010: 097e 75bb 3e31 113a b576 bc3a 4015 a3bb
00000020: 5da0 d33b 2789 e5ba 8224 f8b9 88be ef39
00000030: 89d1 da39 103d 37bb f500 5dbb 0d4e 903a
00000040: fc2b 66ba bcdb 4b3c 66be 623b 938d 833a
00000050: ad1c 093a 0f76 243b 2acc d6b9 cd7c eaba
00000060: bceb 6abb 66b2 b33a aded 403b 7062 5f3b
00000070: fcea 073b 215e 2e3b 5689 d23a 913d cbbb
00000080: ec7a 1a3a 8b39 a93a e9fa 29bb c0c3 d83b
00000090: 0bf6 6abb f1ad dfba 1ffa 1dbb c6c4 2e3b
000000a0: b0d5 8c39 015e 643b 1473 303c 62ad ebba
000000b0: 4178 213a 68f5 0dba 1159 b3ba c547 2f3b
000000c0: 395f 833b 4467 41bb aeb1 acba e0d3 9a3a
000000d0: c295 b639 34be 443c 393e 103b 63c9 1bbb
000000e0: 22ed d0ba f2b3 acba c6be ad3a 3d6c aeba
000000f0: 3c2b 26bb 6a43 c83b cb4d fbba 4388 9c3b

weight f4 [1, 64]
-0.00450288 0.005244296 -0.0038923947 -0.15486135 0.049995784 -0.043769605 -0.15210609 -0.008453397
0.062241435 0.13230468 0.11672343 -0.04742981 0.08499465 0.101415 0.24066505 -0.1567223
0.09684816 0.14581054 -0.14287555 -0.15286824 -0.05138829 -0.11409888 -0.0063626864 0.056058355
-0.006022364 -0.12548368 -0.15347825 -0.13005787 -0.2544772 -0.15639645 -0.11957686 -0.06562795
0.06737865 -0.14444655 0.18147957 -0.047993075 0.040629137 0.20242798 0.13352655 -0.040581144
-0.19281922 -0.01903322 0.0016709046 0.19036861 -0.08042509 0.121848516 0.0035290401 -0.07468015
-0.102283984 0.09082803 0.16965258 -0.06589539 0.013716508 -0.01624104 -0.15815157 0.18385908
0.09589808 0.19370839 -0.19318254 0.108863786 0.06346343 0.0038405166 0.112314284 -0.022754714
00000000: e58c 93bb 58d8 ab3b 8c17 7fbb f993 1ebe
00000010: 61c8 4c3d c247 33bd b3c1 1bbe 1e80 0abc
00000020: e0f0 7e3d e17a 073e b20c ef3d c345 42bd
00000030: ad11 ae3d abb2 cf3d e670 763e d07b 20be
00000040: 5458 c63d 5c4f 153e f84d 12be 7e89 1cbe
00000050: 877c 52bd acac e9bd 157e d0bb 729d 653d
00000060: 4057 c5bb cb7e 00be 6729 1dbe e42d 05be
00000070: d64a 82be 6426 20be b6e4 f4bd f267 86bd
00000080: d1fd 893d cce9 13be c8d5 393e 6394 44bd
00000090: bd6a 263d 4849 4f3e 2fbb 083e 6a38 26bd
000000a0: 6772 45be 8eeb 9bbc 4102 db3a fdef 423e
000000b0: e9b5 a4bd b78b f93d 7847 673b e8f1 98bd
000000c0: 447a d1bd 0c04 ba3d 68b9 2d3e 2af4 86bd
000000d0: 34bb 603c ee0b 85bc 7cf2 21be 8e45 3c3e
000000e0: 3666 c43d 7e5b 463e a5d1 45be faf3 de3d
000000f0: 1df9 813d 2db1 7b3b 0805 e63d 1868 babc

exp_avg f4 [64, 3]
-0.02336158 -0.018675962 0.085074 0.0034984492 0.0026076857 -0.019830156 0.001235504 0.008502147
-0.04566095 -0.016451787 -0.008006058 0.03380846 0.004603927 0.003968509 -0.018587122 0.0035694293
0.0038887847 -0.013796988 -0.035709754 -0.0243102 0.11552104 0.05023858 0.03819374 -0.15662657
-0.0073034004 -0.0033362831 0.010328819 -0.02789245 -0.015073223 0.0823173 0.00525781 0.0047764704
-0.036564544 0.04092352 0.03179766 -0.12500791 0.0015650282 0.0032590125 -0.010771649 0.019748863
0.015719717 -0.068419255 0.017626243 0.011011987 -0.043343853 -0.026603173 -0.020404032 0.07536439
-0.01586983 -0.007951923 0.035572294 0.015858078 0.014173389 -0.074570164 -0.027113244 -0.021551099
0.09213246 -0.06737087 -0.051184624 0.21967874 0.03469372 0.023177484 -0.09074322 0.0028729346
0.00233056 -0.0101347435 0.029320722 0.029434472 -0.11240244 0.0008911483 0.002321071 -0.011306363
0.0122464 0.007338861 -0.029737553 -0.013226846 -0.009437114 0.049662128 0.030360539 0.023391707
-0.09191622 -0.011768215 -0.006488201 0.038438156 0.001995715 0.0013356056 -0.009797679 -0.024843354
-0.012594697 0.058533892 -0.023698693 -0.01662494 0.060066387 -0.008294129 -0.010769722 0.054533772
0.0053370646 0.004045442 -0.018786645 0.00094055955 0.0003481766 -0.0029857822 -0.011485791 -0.0021595478
0.021479094 0.010180326 0.0073930956 -0.049945258 -0.02687847 -0.02012246 0.08447183 0.00727954
0.0039187963 -0.033762716 -0.019100841 -0.010515554 0.045486983 -0.02004216 -0.015148126 0.04545242
-0.005848462 -0.0038710118 0.014159738 -0.00018340677 -0.0023351626 0.020529682 0.0072077843 0.010448246
-0.060029984 0.0058348076 0.0029895068 -0.01814173 -0.0033767908 -0.0031371939 0.01259098 -0.010003348
-0.0063971253 0.031070419 0.01123432 0.010532142 -0.0450037 -0.026642807 -0.024059959 0.122779705
-0.02579594 -0.015416377 0.062324572 -0.00020226937 0.001497307 -0.005813226 0.0013447431 0.001247266
-0.0022623066 0.050120614 0.031106682 -0.12518929 -0.009884447 -0.0056499466 0.03293584 -0.017968414
-0.010842553 0.047883123 0.008291078 0.0064936047 -0.027100313 0.0005568628 -0.00056644424 0.0072654067
-0.023124253 -0.020813527 0.081768595 -0.026728028 -0.012162555 0.055273402 -0.004933659 -0.002423891
0.0130398 0.0034302468 0.008901401 -0.06255159 0.0037674557 0.0020915123 -0.006557185 0.0072411946
0.006844367 -0.050439693 0.0024499467 0.0022420299 -0.013125095 0.0034735892 0.004435 -0.039567374
00000000: c960 bfbc 55fe 98bc 473b ae3d 3d46 653b
00000010: b5e5 2a3b da72 a2bc a3f0 a13a 974c 0b3c
00000020: fa06 3bbd e6c5 86bc d72b 03bc bd7a 0a3d
00000030: 8adc 963b 440a 823b 0544 98bc 16ed 693b
00000040: fbda 7e3b c30c 62bc 6444 12bd 2f26 c7bc
00000050: 4c96 ec3d f8c6 4d3d 0a71 1c3d b762 20be
00000060: 5d51 efbb 8ba5 5abb 353a 293c b57e e4bc
00000070: aef5 76bc f995 a83d b549 ac3b f083 9c3b
00000080: b4c4 15bd 6c9f 273d 433e 023d 1302 00be
00000090: a221 cd3a 2895 553b 927b 30bc 5ec8 a13c
000000a0: a3c6 803c 651f 8cbd e964 903c 9f6b 343c
000000b0: 5389 31bd e6ee d9bc 5b26 a7bc a558 9a3d
000000c0: 7201 82bc c848 02bc 41b4 113d cde8 813c
000000d0: 8137 683c 3eb8 98bd 981c debc ee8b b0bc
000000e0: f1af bc3d bdf9 89bd f8a6 51bd 77f3 603e
000000f0: 011b 0e3d b5de bd3c 95d7 b9bd d847 3c3b
00000100: 4fbc 183b 320c 26bc 0332 f03c 9020 f13c
00000110: 4033 e6bd f39b 693a 1c1d 183b 533e 39bc
00000120: 20a5 483c d47a f03b 2b9c f3bc 6ab5 58bc
00000130: 209e 1abc 846a 4b3d aab6 f83c f79f bf3c
00000140: 923e bcbd 79cf 40bc fa9a d4bb 5471 1d3d
00000150: 8bca 023b 7d0f af3a 7286 20bc 4a84 cbbc
00000160: fd59 4ebc 3cc1 6f3d c323 c2bc 0731 88bc
00000170: 2c08 763d 19e4 07bc 7d73 30bc ce5e 5f3d
00000180: 8be2 ae3b a18f 843b 73e6 99bc e28f 763a
00000190: 798b b639 1dad 43bb e62e 3cbc 3387 0dbb
000001a0: edf4 af3c 62cb 263c c841 f23b 6693 4cbd
000001b0: 3d30 dcbc dbd7 a4bc 91ff ac3d 3589 ee3b
000001c0: 3f69 803b c64a 0abd 5e79 9cbc 6e49 2cbc
000001d0: 8f50 3a3d 752f a4bc d82f 78bc 512c 3a3d
000001e0: 75a4 bfbb cdb0 7dbb 3ffe 673c e150 40b9
000001f0: 8709 19bb dd2d a83c 472f ec3b 1f2f 2b3c
00000200: 00e2 75bd ea31 bf3b 9aeb 433b f79d 94bc
00000210: 264d 5dbb 6199 4dbb 664a 4e3c 15e5 23bc
00000220: fa9e d1bb 6487 fe3c 2710 383c 018f 2c3c
00000230: cd55 38bd 0442 dabc 6419 c5bc ed73 fb3d
00000240: 0252 d3bc f994 7cbc 0d48 7f3d 4518 54b9
00000250: 4941 c43a e07c bebb 1742 b03a 4d7b a33a
00000260: 3543 14bb 464b 4d3d 71d3 fe3c 9f31 00be
00000270: 60f2 21bc 3023 b9bb bbe7 063d 7f32 93bc
00000280: f7a4 31bc 1821 443d 4dd7 073c 4ec8 d43b
00000290: 7a01 debc 6efa 113a 6e7d 14ba a612 ee3b
000002a0: 136f bdbc 2181 aabc 4b76 a73d bdf4 dabc
000002b0: 7445 47bc 5d66 623d 88aa a1bb 25da 1ebb
000002c0: e3a4 553c fecd 603b 2fd7 113c 0c1b 80bd
000002d0: 6be7 763b c111 093b a8dd d6bb 8b47 ed3b
000002e0: b646 e03b da99 4ebd 498f 203b 05ef 123b
000002f0: a30a 57bc 28a5 633b 7a53 913b 6611 22bd

exp_avg_sq f4 [64, 3]
0.004244721 0.0015103366 0.031087492 0.00022886936 0.00016912002 0.0041599157 0.0024673785 0.0009159603
0.019535273 0.0008656517 0.00027937643 0.006615707 0.0001935868 6.19911e-05 0.0013053368 0.0002598782
7.100412e-05 0.0014427148 0.009128822 0.0032803384 0.070098884 0.020038804 0.0075910273 0.16458495
0.00019289464 6.829147e-05 0.0017180194 0.0017530897 0.0006411159 0.015002565 0.0010337433 0.0005537582
0.013475099 0.010797884 0.0029041609 0.05757631 0.00010798851 4.7969374e-05 0.00094090845 0.0027946718
0.0010992372 0.022407984 0.00082166214 0.0003330886 0.007112287 0.0030279898 0.0009933383 0.01822941
0.0006448181 0.00023378692 0.0052312645 0.0086666485 0.0027282485 0.06557553 0.0050707604 0.0015342152
0.029896468 0.027293572 0.009921444 0.20445621 0.004915519 0.0014330545 0.028727164 5.678427e-05
1.1071634e-05 0.0002412069 0.00882914 0.0031446558 0.0593778 7.4217416e-05 4.359114e-05 0.0009803396
0.00087695516 0.00013578177 0.0027874361 0.0007475153 0.00038026684 0.008967285 0.0054952414 0.00240157
0.050394673 0.0007744215 0.0004980412 0.012017182 2.6199355e-05 1.9168207e-05 0.00059125724 0.00181648
0.0006049589 0.013904835 0.0043009194 0.0012624318 0.026575645 0.0038880715 0.0011366374 0.024001818
0.00014641983 0.00010068594 0.0022795596 7.3367005e-06 2.818053e-06 7.5197815e-05 0.0011928857 0.00083674927
0.02283546 0.003059267 0.0007894079 0.018744146 0.0048693167 0.0014876869 0.029975932 0.0007829644
0.00054801075 0.013809291 0.0011171293 0.00036057652 0.007899648 0.002103425 0.0007290253 0.015467825
7.567146e-05 1.9483497e-05 0.00040166866 0.0006295253 0.00028309974 0.0067652143 0.00340683 0.0011732775
0.026130766 0.00017093738 7.254583e-05 0.0017155738 0.00084785844 0.00021976423 0.0059491107 0.00072095124
0.00019758719 0.0045868885 0.0024551903 0.0009873337 0.021965014 0.013867891 0.004879856 0.105792455
0.003669866 0.0009901527 0.02301683 1.7861768e-05 1.1945058e-05 0.00021705715 2.5971507e-05 4.5888532e-06
0.0001376315 0.010118479 0.0028674756 0.0598777 0.00064543745 0.0002879419 0.0073324186 0.0011776811
0.00042653352 0.009267018 0.00061291707 0.00012550704 0.002402725 0.00015585143 5.9348175e-05 0.0013709612
0.0037219431 0.0013693629 0.025673779 0.0018126665 0.00079366384 0.018903166 0.00013277566 6.1886385e-05
0.001572463 0.003381405 0.0017339503 0.04136858 6.142011e-05 5.599146e-06 0.00010366142 0.0018446397
0.0012668762 0.030672962 0.00012546289 4.3493037e-05 0.0010133411 0.0013089878 0.000952221 0.023026923
00000000: 4d17 8b3b 7df6 c53a 32ab fe3c a7fc 6f39
00000010: cf55 3139 e74f 883b beb3 213b 0e1d 703a
00000020: 7008 a03c e7ec 623a 4579 9239 93c8 d83b
00000030: 90fd 4a39 3801 8238 d617 ab3a 4340 8839
00000040: 0ce8 9438 7a19 bd3a 0e91 153c f2fa 563b
00000050: 0190 8f3d 6b28 a43c 27be f83b f588 283e
00000060: c343 4a39 b437 8f38 2a2f e13a eec7 e53a
00000070: 8f10 283a 52cd 753c ab7e 873a 152a 113a
00000080: a9c6 5c3c 9ce9 303c bc53 3e3b 23d5 6b3d
00000090: e477 e238 b932 4938 4ca7 763a d026 373b
000000a0: 4814 903a f390 b73c d064 573a 65a2 ae39
000000b0: 300e e93b 3d71 463b e732 823a d855 953c
000000c0: 0309 293a b324 7539 076b ab3b 8ffe 0d3c
000000d0: 6acc 323b 774c 863d 9f28 a63b b817 c93a
000000e0: 70e9 f43c c596 df3c 8d8d 223c f85c 513e
000000f0: 5d12 a13b 54d5 bb3a 3b55 eb3c a52b 6e38
00000100: 4ec0 3937 7cec 7c39 19a8 103c 9216 4e3b
00000110: 2336 733d 2ca5 9b38 a1d5 3638 bd7e 803a
00000120: 77e3 653a a460 0e39 6bad 363b e7f4 433a
00000130: 8d5e c739 85eb 123c 6d11 b43b a963 1d3b
00000140: a56a 4e3d 8c02 4b3a fb8e 023a b7e3 443c
00000150: b0c6 db37 69cb a037 9afe 1a3a f416 ee3a
00000160: 1b96 1e3a 1bd1 633c baee 8c3b 2f78 a53a
00000170: 2bb5 d93c 04cf 7e3b 39fb 943a 769f c43c
00000180: 4688 1939 5a27 d338 aa64 153b c72d f636
00000190: c81d 3d36 85b3 9d38 9a5a 9c3a 4b59 5b3a
000001a0: 6e11 bb3c fc7d 483b 44f0 4e3a 538d 993c
000001b0: ca8e 9f3b 7dfe c23a 1690 f53c da3f 4d3a
000001c0: 61a8 0f3a 5d40 623c a46c 923a c30b bd39
000001d0: 866d 013c 9ed9 093b 0f1c 3f3a c36c 7d3c
000001e0: ceb1 9e38 7e70 a337 0e97 d239 ba06 253a
000001f0: 016d 9439 bbae dd3b 1f45 5f3b a9c8 993a
00000200: 3010 d63c a73d 3339 bf23 9838 1bdd e03a
00000210: d142 5e3a 8370 6639 c2f0 c23b 38fe 3c3a
00000220: 682f 4f39 9c4d 963b 42e7 203b 6c69 813a
00000230: f9ef b33c 2736 633c 33e7 9f3b b7a9 d83d
00000240: 2282 703b 03c8 813a cb8d bc3c dbd5 9537
00000250: a267 4837 d699 6339 63dd d937 f3f9 9936
00000260: 2d51 1039 fac7 253c 42ec 3b3b 5242 753d
00000270: 9332 293a e8f6 9639 c944 f03b 6c5c 9a3a
00000280: 5ca0 df39 b1d4 173c 2bac 203a 8a9a 0339
00000290: 0977 1d3b 0d6c 2339 9eec 7838 d3b1 b33a
000002a0: d8eb 733b 327c b33a d151 d23c ff96 ed3a
000002b0: e10d 503a d0da 9a3c b239 0b39 00c9 8138
000002c0: 1a1b ce3a 909a 5d3b b845 e33a 1a72 293d
000002d0: acce 8038 4ce0 bb36 cd64 d938 d6c7 f13a
000002e0: 500d a63a dd45 fb3c b08e 0339 4b6c 3638
000002f0: 16d2 843a 5892 ab3a 789e 793a f5a2 bc3c

exp_avg f4 [64]
-0.021165013 0.002214683 -0.0017345796 -0.020381695 0.004594798 0.005615881 -0.031785447 0.061497837
-0.0104352925 -0.035025097 0.0032112238 0.051070515 0.0021922349 0.02230648 0.021834124 -0.029668635
-0.018592028 0.0123554515 -0.025745444 -0.06372995 0.042559434 0.0033651695 0.03549669 0.0014911687
0.0132164685 -0.017277943 0.037618075 -0.014450988 0.001492925 -0.029005473 -0.026169019 -0.0039987005
0.006851663 0.0006545734 -0.016495964 0.008769715 -0.02761852 0.005749215 -0.022716621 -0.026406087
-0.007883184 0.0030688937 0.0061530382 0.00594324 -0.0038734712 -0.011406986 0.013169339 -0.020157456
-0.031117959 -0.00042491723 0.0018894457 0.0626347 -0.012673047 -0.020387687 0.00865369 0.001893741
-0.023140084 -0.033446882 -0.005955342 -0.00041398013 0.004614145 0.0029445111 0.0017207453 -0.001055751
00000000: 4062 adbc 3724 113b d55a e3ba 83f7 a6bc
00000010: f68f 963b 6d05 b83b 7531 02bd 28e5 7b3d
00000020: caf8 2abc 7a76 0fbd 6573 523b 512f 513d
00000030: 99ab 0f3b 14bc b63c 7add b23c a30b f3bc
00000040: 4f4e 98bc 856e 4a3c 1ce8 d2bc d984 82bd
00000050: cd52 2e3d 2d8a 5c3b fa64 113d 5273 c33a
00000060: e389 583c 798a 8dbc 6915 1a3d d6c3 6cbc
00000070: 40ae c33a e39c edbc 6960 d6bc 8807 83bb
00000080: ea83 e03b ad97 2b3a 8b22 87bc daae 0f3c
00000090: 3c40 e2bc e963 bc3b 3518 babc 9451 d8bc
000000a0: 7828 01bc 7e1f 493b 6d9f c93b 83bf c23b
000000b0: 10da 7dbb 5ee4 3abc 36c4 573c 4021 a5bc
000000c0: 17eb febc 6dc7 deb9 47a7 f73a 9f46 803d
000000d0: 9da2 4fbc 1404 a7bc 35c8 0d3c 6737 f83a
000000e0: 4690 bdbc 99ff 08bd 0825 c3bb 790b d9b9
000000f0: 4132 973b b3f8 403b a28a e13a 2061 8aba

exp_avg_sq f4 [64]
0.005465078 0.00039680392 0.003462305 0.0012159983 0.00024769027 0.0003106417 0.011749965 0.025624303
0.0003217126 0.0026499743 0.0015709595 0.013342885 0.0001496783 0.0035883267 0.0011905988 0.0036898274
0.00089493516 0.011025218 0.0062154043 0.034574702 0.0062140776 6.585579e-05 0.011045442 0.000108383254
0.0009867031 0.0011737914 0.007279043 0.0011903374 4.740519e-05 0.002400703 0.005185775 0.005012142
0.0002214715 1.0712551e-05 0.0021253473 0.0038641586 0.0059252335 0.0012936997 0.0014790163 0.0026894715
0.000113619935 0.0009795105 0.0045206463 0.00022711461 0.0010244423 0.000880528 0.003133322 0.018265013
0.0045238337 2.66501e-05 3.2758766e-05 0.012976337 0.0008904522 0.0015267377 0.00071368564 0.00022907754
0.0046374598 0.002818784 0.0001956617 0.0052194605 7.159954e-05 0.0031169618 0.00016441183 0.0023481634
00000000: 6614 b33b 1f0a d039 d7e7 623b 2262 9f3a
00000010: 6ddc 8139 a0dd a239 ed82 403c 0fea d13c
00000020: 89ab a839 31ab 2d3b a7e8 cd3a 1e9c 5a3c
00000030: f6f2 1c39 222a 6b3b de0d 9c3a 08d1 713b
00000040: 159a 6a3a 1ea3 343c 97aa cb3b 349e 0d3d
00000050: 769f cb3b 0f1c 8a38 f1f7 343c d14b e338
00000060: 4354 813a e7d9 993a 0a85 ee3b 1805 9c3a
00000070: efd4 4638 1d55 1d3b 6fed a93b e53c a43b
00000080: ce3a 6839 0eba 3337 6949 0b3b d33d 7d3b
00000090: 7628 c23b 5c91 a93a 8ddb c13a d841 303b
000000a0: 3d47 ee38 eb62 803a ee21 943b 9d25 6e39
000000b0: 9446 863a 3cd3 663a 6c58 4d3b 82a0 953c
000000c0: ab3c 943b a78e df37 7566 0938 b49a 543c
000000d0: 3c6d 693a d11c c83a a216 3b3a 8934 7039
000000e0: d5f5 973b 59bb 383b 8a2a 4d39 0208 ab3b
000000f0: b627 9638 f145 4c3b f765 2c39 a5e3 193b

exp_avg f4 [64]
0.008506966 -0.005364439 -0.034548886 -0.017348371 -0.007916275 -0.0067184833 -0.0044198553 0.034354713
-0.0031762153 -2.3316261e-05 -0.021101376 0.05997304 0.0006493245 0.03347402 0.0041517843 -0.0062366794
-0.013426244 0.0030204663 0.012053875 -0.015127438 0.03034103 -0.0027335715 0.054477137 -0.0016794243
-0.009512597 0.0021504986 0.029996466 0.00037813067 -0.0002241795 -0.009625707 -0.017122984 0.026992442
-0.0043812986 -0.00070970686 0.009531011 -0.015530841 0.0005705969 -0.012246856 -0.017468674 -0.0045181154
-0.0028293962 0.009179986 -0.022337904 -0.0054433104 -0.005787733 -0.016070677 0.0029878558 0.008208462
-0.015440189 0.00021733809 -0.0027640627 0.039952956 0.0043439437 -0.0090761725 -0.009416795 0.002359455
0.0033816579 -0.013136722 -0.00070425885 -0.026340608 -0.0059221582 -0.027196119 -0.010544205 -0.019628908
00000000: cd60 0b3c 2dc8 afbb 2283 0dbd 2c1e 8ebc
00000010: 44b3 01bc b926 dcbb 6fd4 90bb 87b7 0c3d
00000020: 0d28 50bb 4a97 c3b7 cbdc acbc 4aa6 753d
00000030: 6e37 2a3a 0e1c 093d b10b 883b 0f5d ccbb
00000040: c0f9 5bbc 04f3 453b 9e7d 453c 13d9 77bc
00000050: c08d f83c b825 33bb 6b23 5f3d 2120 dcba
00000060: b9da 1bbc 61ef 0c3b 26bb f53c d73f c639
00000070: ba11 6bb9 24b5 1dbc 8045 8cbc 411f dd3c
00000080: ff90 8fbb 9f0b 3aba f527 1c3c 1275 7ebc
00000090: 1c94 153a 09a7 48bc 771a 8fbc b30c 94bb
000000a0: 646d 39bb a767 163c fbfd b6bc cc5d b2bb
000000b0: 06a7 bdbb a7a6 83bc e7cf 433b c97c 063c
000000c0: d9f8 7cbc 40e5 6339 4725 35bb b6a5 233d
000000d0: a457 8e3b 3ab4 14bc e748 1abc 16a1 1a3b
000000e0: ce9e 5d3b 683b 57bc 039e 38ba 42c8 d7bc
000000f0: aa0e c2bb 65ca debc 9ac1 2cbc cecc a0bc

exp_avg_sq f4 [64]
0.006749469 0.00011153435 0.0048344387 0.003315985 0.00022332645 0.00018338155 0.00021704115 0.0069728605
5.212762e-05 3.7184152e-05 0.0018755527 0.013946787 2.3114791e-05 0.0034034245 8.159374e-05 0.0006755974
0.0014367674 0.0009986624 0.01083396 0.0062357355 0.00367743 2.4256877e-05 0.010390373 4.2244472e-05
0.00083465985 0.0001099369 0.0032474864 0.00069725804 6.475402e-06 0.001556391 0.0011481642 0.0056335772
0.00012041128 2.6501953e-06 0.008795376 0.0028423949 0.0017481967 0.0010257014 0.0027182377 6.822166e-05
1.840329e-05 0.0006666544 0.0020442838 0.00014182404 0.00043844097 0.0010939847 0.000161898 0.0005699961
0.0010732725 1.387657e-05 2.22204e-05 0.008950274 0.0006514795 0.0012106685 0.00047075568 0.00012025573
0.0019868384 0.007870086 0.00055111415 0.0028825565 7.817974e-05 0.0031164896 0.00037312252 0.0013909527
00000000: a62a dd3b 8ce7 e938 366a 9e3b ff50 593b
00000010: bd2c 6a39 1c4a 4039 8a95 6339 987c e43b
00000020: 9ba3 5a38 2ef6 1b38 1bd5 f53a 1181 643c
00000030: a3e6 c137 fd0b 5f3b 4e1d ab38 931a 313a
00000040: ea51 bc3a 8de5 823a ec80 313c 2455 cc3b
00000050: 0a01 713b 3f7b cb37 623c 2a3c a82f 3138
00000060: 13cd 5a3a ec8d e638 c8d3 543b 32c8 363a
00000070: 4847 d936 d1ff cb3a ff7d 963a df99 b83b
00000080: 5085 fc38 02da 3136 7b1a 103c 7947 3a3b
00000090: bf23 e53a d470 863a 7624 323b 3a12 8f38
000000a0: c460 9a37 6bc2 2e3a 64f9 053b 9ab6 1439
000000b0: 8dde e539 0964 8f3a 2ac3 2939 ca6b 153a
000000c0: 0dad 8c3a 6acf 6837 f265 ba37 2ca4 123c
000000d0: 0dc8 2a3a 4baf 9e3a c2cf f639 ce31 fc38
000000e0: 9e35 023b 88f1 003c a578 103a 46e9 3c3b
000000f0: 6ef4 a338 053e 4c3b a89f c339 a150 b63a

exp_avg f4 [64]
-0.009439061 0.0033302447 0.011529192 -0.0060945894 0.0044051395 0.006548491 -0.012836132 0.021558221
-0.0054233945 -0.015566297 0.0118740015 0.016727699 0.00047438676 0.007895907 0.008930174 -0.01287461
-0.0064917738 0.002435752 -0.012669077 -0.021762442 0.013717018 0.0026553941 0.011450755 0.0017062298
0.009354563 -0.011261108 0.013637789 -0.010293306 0.00044291705 -0.011295303 -0.012483059 -0.010208987
0.0057808626 0.00028196222 -0.016449826 0.0066283555 -0.012138266 0.008316934 -0.0063124015 -0.01197458
-0.0046285447 -0.0015808707 0.011709668 0.005793244 -0.002400354 -0.0045317146 0.005388065 -0.011584084
-0.012860565 -0.0009723675 0.0023866603 0.019492773 -0.009671746 -0.007524253 0.0067113615 0.00018937368
-0.01002729 -0.010128755 -0.0030372427 0.012553788 0.0053673177 0.012322282 0.0058918535 0.0063662394
00000000: 4ba6 1abc 3c40 5a3b f0e4 3c3c 1fb5 c7bb
00000010: fd58 903b b994 d63b a44e 52bc de9a b03c
00000020: bbb6 b1bb c809 7fbc 2c8b 423c 8708 893c
00000030: 1db7 f839 d65d 013c dd4f 123c 07f0 52bc
00000040: f2b8 d4bb 23a1 1f3b f691 4fbc 2647 b2bc
00000050: 58bd 603c 1f06 2e3b f39b 3b3c 92a3 df3a
00000060: e243 193c 8380 38bc 0871 5f3c 41a5 28bc
00000070: 5237 e839 ef0f 39bc bf85 4cbc 9843 27bc
00000080: 646d bd3b 54d4 9339 c9c1 86bc ad32 d93b
00000090: 94df 46bc c043 083c 43d8 cebb 0731 44bc
000000a0: 0cab 97bb 3835 cfba e8d9 3f3c 41d5 bd3b
000000b0: 424f 1dbb c77e 94bb 5d8e b03b 2bcb 3dbc
000000c0: 1fb5 52bc 7ae6 7eba 8469 1c3b 4faf 9f3c
000000d0: 3e76 1ebc 028e f6bb fbea db3b 9c92 4639
000000e0: 8149 24bc 14f3 25bc 7a0c 47bb 67ae 4d3c
000000f0: 53e0 af3b 66e3 493c 7310 c13b e39b d03b

exp_avg_sq f4 [64]
0.0019146784 0.00027985018 0.0019871169 0.00093396264 0.00015302942 0.00025423965 0.0035671687 0.00680317
0.000158978 0.0010411456 0.001705411 0.0041102096 6.1158054e-05 0.001215206 0.00040849726 0.0011510848
0.00057981675 0.0032154152 0.0023434623 0.009800519 0.0020063315 3.3484997e-05 0.0034363712 8.706482e-05
0.00043377068 0.00068273244 0.0021947778 0.0010351707 3.499229e-05 0.0012532528 0.0014691332 0.0022207242
0.00022004772 9.110992e-06 0.004059914 0.0013601216 0.0019696075 0.0013281282 0.0011390033 0.0008266058
5.9807695e-05 0.0005030038 0.0022789752 0.00022383315 0.00031377803 0.000460473 0.0011523422 0.005581899
0.0014423173 2.0776775e-05 1.7752624e-05 0.004700563 0.0009114269 0.0010422161 0.00032689417 0.000106379455
0.001687127 0.0022721118 0.00029875408 0.003525429 9.972247e-05 0.00314074 0.0002469329 0.0017060097
00000000: f2f5 fa3a dbb8 9239 4a3a 023b 2cd5 743a
00000010: 8676 2039 784b 8539 29c7 693b 20ed de3b
00000020: 55b3 2639 0d77 883a 1988 df3a f0ae 863b
00000030: fb41 8038 8c47 9f3a 932b d639 ffdf 963a
00000040: d8fe 173a b7b9 523b c694 193b 5b92 203c
00000050: a87c 033b 3e72 0c38 be34 613b 9296 b638
00000060: b76b e339 66f9 323a 43d6 0f3b 91ae 873a
00000070: afc4 1238 3044 a43a ee8f c03a 9289 113b
00000080: 9cbc 6639 6adb 1837 0709 853b 1c46 b23a
00000090: 8814 013b 9614 ae3a 9c4a 953a 94b0 583a
000000a0: 06da 7a38 03dc 033a dc5a 153b c1b4 6a39
000000b0: 9382 a439 a46b f139 300a 973a 5de8 b63b
000000c0: 230c bd3a c949 ae37 78eb 9437 2e07 9a3b
000000d0: d3ec 6e3a f89a 883a fe62 ab39 0918 df38
000000e0: 9722 dd3a b6e7 143b 18a2 9c39 e20a 673b
000000f0: 1822 d138 e0d4 4d3b c676 8139 309c df3a

exp_avg f4 [64, 64]
0.00022891395 0.00015860709 0.00040204916 -0.00044494236 0.00028643155 0.00018745841 -1.4799057e-05 -0.00016087359
-0.00017836558 3.2204553e-05 0.00019524407 -0.00055497536 -0.00015715309 -0.0004708734 -0.00013236127 2.0445394e-05
-0.0003564548 -7.407472e-05 0.00028852304 -3.09341e-05 -0.00038134705 0.00023321713 -0.00051881414 0.000103681676
0.0003560946 2.3860632e-05 -0.00025403194 -4.418991e-05 6.4876895e-06 -0.00023011849 -0.0001647301 0.000359428
9.42424e-05 0.00011667003 4.9820705e-06 0.00033134272 8.53406e-05 0.00014369593 -0.00036140968 -6.30561e-05
-1.3445209e-05 0.00031568116 0.00027825794 0.00010619913 -0.00031705355 -0.00047523002 -4.289771e-05 0.00012522822
-0.00025485386 -0.0001656199 0.00030760476 -0.0003750194 1.2960891e-05 -0.00019068361 0.00030751852 0.0002579509
0.00012133686 -0.00033189004 -6.0599436e-05 0.00023008612 0.0002982374 0.0001977846 0.00025291182 0.00022510844
-0.0007372702 -0.00019025046 -0.000594064 0.0010558537 -0.0005012912 -0.0003070644 -0.00011040885 5.6762896e-05
0.00039247723 -8.627851e-05 -0.00019160139 0.0009697689 0.000154857 0.00066668866 0.00021122169 -0.00013019831
0.00082908466 4.5208388e-05 -0.0008391634 -0.00018035197 0.00068383646 -0.0005034598 0.0007469417 -0.0001742334
-0.00075318804 7.49633e-06 0.0002357795 0.00016478317 -3.281316e-06 0.0005391262 0.00019515413 -0.00072687445
-0.00012471735 -0.00017843032 0.00011749883 -0.00062521076 -0.00030632236 -0.000139925 0.0008310867 0.00017581621
-0.00010352287 -0.00051484234 -0.00045735048 -0.0001406602 0.00041004916 0.00087529374 3.346118e-05 -0.0003446333
0.00051897526 0.0002636063 -0.00051969284 0.0007220134 4.6874462e-05 0.0004370552 -0.0006137907 -0.0005300221
-0.0003195759 0.0009555649 0.00023033972 -0.00026125155 -0.0005138949 -0.00016301691 -0.00030295947 -0.00018590495
-0.000101865546 0.00018919948 0.0006493604 -0.000113533395 0.0003364318 0.0002453277 -0.00021187533 -0.00037080667
-0.00014612383 3.602991e-05 0.00032687368 -0.0005796598 -0.00029455114 -0.00068213465 -0.00020847465 -0.00015413118
-0.00013171312 -0.00013899809 -2.3507877e-05 -0.0003420146 -0.00038886184 0.00019539159 -0.00068690686 0.00011827574
0.00029712287 0.0001274583 -0.00046825138 8.506228e-05 -3.4825283e-05 -0.00010960628 -0.00036163087 0.00036540037
8.7475164e-05 0.00012333444 0.00017703828 0.0003718119 -0.00010628018 0.00019976203 -0.00013613547 -0.00010567043
-0.00017535126 0.00044211076 0.00038409728 0.000108924585 -0.00057353004 -0.00050064083 -5.9913596e-05 -5.950982e-06
-0.00027774955 -0.00021043055 0.0004267528 -0.00032510885 7.98167e-05 -9.464779e-05 0.00028765167 0.00022786923
-5.7913676e-05 0.00014944829 5.850201e-05 0.0003910612 0.00039144448 0.00030666337 0.00042488333 0.0003643589
-0.0006799667 0.012325636 0.018805988 -0.012365265 0.011237511 0.011474702 -0.0023316077 -0.015252648
-0.0072293994 0.00027620594 0.014627521 -0.026240533 -0.012056227 -0.029181896 -0.004717928 -0.00458295
-0.010348895 -0.0085593015 0.0013772162 -0.008408136 -0.016171705 0.008346278 -0.03186258 0.008029346
0.01002871 0.002761595 -0.019186927 0.0014242395 0.0017717141 -0.00556941 -0.012737725 0.012938371
0.009587073 0.007290094 0.009213814 0.010419329 -0.0022015388 0.012466906 -0.0103583215 -0.0016853627
-0.0068109 0.015699863 0.01282482 0.009478209 -0.021232385 -0.021465179 -0.0023711957 0.0040825866
-0.01023645 -0.008153575 0.014422238 -0.013919994 0.005462035 -0.0046504103 0.010023276 0.009511044
-9.738602e-05 -0.0037245993 0.004666575 0.0150003815 0.014201256 0.015740275 0.016610615 0.017089032
00000000: 9f08 7039 c44f 2639 20ca d239 2747 e9b9
00000010: 312c 9639 7c90 4439 7749 78b7 2db0 28b9
00000020: a507 3bb9 6013 0738 6eba 4c39 c47b 11ba
00000030: 76c9 24b9 8fdf f6b9 75ca 0ab9 2682 ab37
00000040: 8ee2 bab9 9058 9bb8 e844 9739 3dbf 01b8
00000050: 89ef c7b9 bf8b 7439 0701 08ba ad6f d938
00000060: 35b2 ba39 5128 c837 972f 85b9 8e58 39b8
00000070: d4b0 d936 f64b 71b9 66bb 2cb9 9c71 bc39
00000080: 01a4 c538 bfac f438 a92b a736 11b8 ad39
00000090: e3f8 b238 15ad 1639 967b bdb9 fc3c 84b8
000000a0: bc92 61b7 0282 a539 26e3 9139 39b7 de38
000000b0: 353a a6b9 4b28 f9b9 11ed 33b8 b24f 0339
000000c0: e89d 85b9 41aa 2db9 0346 a139 409e c4b9
000000d0: 9a72 5937 3ef2 47b9 703a a139 953d 8739
000000e0: 3b76 fe38 8701 aeb9 262c 7eb8 4643 7139
000000f0: bf5c 9c39 6664 4f39 4099 8439 160b 6c39
00000100: 5e45 41ba f87d 47b9 f6ba 1bba 9264 8a3a
00000110: 1569 03ba 7cfd a0b9 4d8b e7b8 b214 6e38
00000120: 67c5 cd39 6cf0 b4b8 9be8 48b9 1738 7e3a
00000130: 1c61 2239 b8c4 2e3a 647b 5d39 d885 08b9
00000140: ee56 593a 239e 3d38 4dfb 5bba dd1c 3db9
00000150: 7d43 333a 9efa 03ba 69ce 433a 6cb2 36b9
00000160: 9871 45ba fc88 fb36 943b 7739 a5c9 2c39
00000170: 9434 5cb6 2654 0d3a 4aa2 4c39 b88b 3eba
00000180: 8fc6 02b9 0619 3bb9 b469 f638 2fe5 23ba
00000190: e499 a0b9 d5b8 12b9 49dd 593a 4e5b 3839
000001a0: 6b1a d9b8 7cf6 06ba 8bc8 efb9 2f7e 13b9
000001b0: defb d639 f873 653a ab58 0c38 e6af b4b9
000001c0: d70b 083a a434 8a39 ff3b 08ba 8045 3d3a
000001d0: 129b 4438 8e24 e539 cce6 20ba 2ef1 0aba
000001e0: c08c a7b9 e07e 7a3a 5987 7139 97f8 88b9
000001f0: e7b6 06ba 85ef 2ab9 88d6 9eb9 7bef 42b9
00000200: a6a0 d5b8 d963 4639 d739 2a3a c718 eeb8
00000210: 1d63 b039 549f 8039 da2a 5eb9 d468 c2b9
00000220: d138 19b9 d21e 1738 3e60 ab39 50f4 17ba
00000230: fc6d 9ab9 48d1 32ba fd99 5ab9 469e 21b9
00000240: 791c 0ab9 04c0 11b9 c832 c5b7 6c50 b3b9
00000250: 27e0 cbb9 08e2 4c39 8a11 34ba ce0a f838
00000260: 28c7 9b39 54a6 0539 a37f f5b9 7763 b238
00000270: 5d11 12b8 6cdc e5b8 4699 bdb9 3593 bf39
00000280: df72 b738 5653 0139 5aa3 3939 c0ef c239
00000290: bde2 deb8 3677 5139 96bf 0eb9 619b ddb8
000002a0: 7fde 37b9 1acb e739 aa60 c939 716e e438
000002b0: f358 16ba 703d 03ba bc4b 7bb8 8cae c7b6
000002c0: ea9e 91b9 05a7 5cb9 cbbd df39 5f73 aab9
000002d0: 4463 a738 a57d c6b8 f4cf 9639 2ef0 6e39
000002e0: 56e8 72b8 38b5 1c39 0e60 7538 5907 cd39
000002f0: ca3a cd39 a9c7 a039 e0c2 de39 6c07 bf39
00000300: cb3f 32ba 77f1 493c 040f 9a3c ae97 4abc
00000310: 8a1d 383c 6300 3c3c e3cd 18bb 3ee6 79bc
00000320: 99e4 ecbb bccf 9039 45a8 6f3c 63f6 d6bc
00000330: 7b87 45bc df0e efbc d998 9abb 922c 96bb
00000340: 698e 29bc 503c 0cbc b583 b43a 47c2 09bc
00000350: 867a 84bc d4be 083c 5682 02bd 858d 033c
00000360: 754f 243c e0fb 343b e72d 9dbc 8cad ba3a
00000370: dc38 e83a 997f b6bb e4b1 50bc 76fb 533c
00000380: 1913 1d3c bee1 ee3b 89f5 163c d5b5 2a3c
00000390: b147 10bb fe41 4c3c f3b5 29bc 63e7 dcba
000003a0: f82d dfbb 009d 803c 321f 523c 7d4a 1b3c
000003b0: 8aef adbc bed7 afbc 1066 1bbb 38c7 853b
000003c0: c8b6 27bc 9296 05bc 404b 6c3c b010 64bc
000003d0: dffa b23b 7862 98bb ab38 243c 36d4 1b3c
000003e0: b93b ccb8 6818 74bb 12ea 983b 29c4 753c
000003f0: 63ac 683c c0f1 803c fc12 883c 4cfe 8b3c
