weights/2024-06-27_12-48-40/target_critic.pt (torch, 22924 bytes, 9 tensors)

critic.0.weight f4 [64, 3]
0	0xbed249c4	-0.41071904
1	0x3eb855b2	0.3600288
2	0xbd651c3f	-0.05593514
3	0xbd6efcc7	-0.058346536
4	0x3eadc62b	0.33940253
5	0x3eab0e1f	0.3340921
6	0xbe66d21f	-0.22541092
7	0xbdd85e09	-0.10564811
8	0x3efe51b6	0.49671715
9	0xbe9d9815	-0.30780092
10	0xbd2e741d	-0.042591203
11	0xbc8f350e	-0.017481353
12	0x3e8ff78e	0.28118557
13	0xbe49c906	-0.1970559
14	0x3e132d19	0.14372672
15	0x3dba750a	0.09104355
16	0xbec16e7d	-0.37779608
17	0x3e9871b3	0.29774246
18	0x3dec142b	0.11527284
19	0x3f09d370	0.53838253
20	0xbebc9b82	-0.36837393
21	0xbec44536	-0.38334054
22	0xbec9a0d8	-0.39380527
23	0xbf077648	-0.5291486
24	0x3e140e50	0.14458585
25	0xbe39ad28	-0.1813246
26	0xbf0601f3	-0.52346724
27	0xbdac8e52	-0.08425583
28	0xbf2c29ab	-0.6725108
29	0xbec9d65f	-0.39421365
30	0xbe77b32b	-0.24189441
31	0x3e626e36	0.22112355
32	0x3e832772	0.25616032
33	0xbee00627	-0.43754694
34	0x3e09bbd9	0.13450564
35	0xbea49dab	-0.3215154
36	0xbeb60259	-0.35548666
37	0xbedb0c4e	-0.42782825
38	0xbe0ac168	-0.13550341
39	0x3e720d74	0.23637944
40	0xbdf01dbc	-0.117244214
41	0xbef17d52	-0.47165924
42	0x3f109e20	0.5649128
43	0xbdb24835	-0.08705179
44	0x3e863156	0.26209515
45	0x3f17fae8	0.5936723
46	0xbe28de9c	-0.16491169
47	0x3ef38d82	0.475689
48	0x3dcbac40	0.099449635
49	0x3e8ff8f9	0.2811964
50	0xbea4f0aa	-0.32214862
51	0x3f022bb0	0.5084791
52	0x3f19daf5	0.60099727
53	0xbe957e9c	-0.29198158
54	0xbee50669	-0.44731453
55	0xbe57c966	-0.21072921
56	0x3e2dd09d	0.16974111
57	0x3f00fc6e	0.5038518
58	0xbefb09e0	-0.49030972
59	0x3eca9a02	0.39570624
60	0x3f010383	0.50395983
61	0xbea8f59b	-0.32999882
62	0xbe81e77a	-0.25371915
63	0x3f18b452	0.59650147
64	0xbdbd7246	-0.092503116
65	0x3e95431e	0.2915277
66	0x3eae5d7b	0.34055695
67	0xbf67c351	-0.90532404
68	0xbe45282a	-0.19253603
69	0x3df99bbe	0.121879086
70	0xbee7243a	-0.45144826
71	0x3ee66374	0.44997752
72	0x3ed6fdfc	0.4199065
73	0xbe36569e	-0.1780648
74	0x3e3a3378	0.18183696
75	0xbeabb988	-0.33539987
76	0xbee3e53a	-0.44510823
77	0x3e44213e	0.19153306
78	0xbe3c2af1	-0.18375756
79	0xbe695aa4	-0.22788483
80	0xbf02b27f	-0.51053613
81	0xbe319e8f	-0.17345642
82	0x3f2fcab5	0.6866868
83	0x3e6b727f	0.22992896
84	0x3e5d8a68	0.21634829
85	0xbc89dd99	-0.016829299
86	0x3d3822ec	0.04495518
87	0xbe794ce1	-0.24345733
88	0x3e3e5e68	0.185907
89	0xbd295612	-0.04134185
90	0xbf075356	-0.52861536
91	0xbe951148	-0.29114747
92	0x3e27cc89	0.16386618
93	0xbf1b65e6	-0.6070236
94	0x3f21b96e	0.6317357
95	0x3e4d3fbc	0.20043844
96	0xbede08bc	-0.4336604
97	0x3ca541be	0.02017295
98	0xbd57cfd4	-0.052688435
99	0xbed18abf	-0.40926167
100	0x3f4ebc02	0.8075563
101	0x3e238528	0.15968764
102	0x3e1adc23	0.15123038
103	0x3f0020bf	0.50049967
104	0x3ebf5ab4	0.37373888
105	0x3eb8a518	0.36063457
106	0xbf0ca7ec	-0.5494373
107	0x3ed529d9	0.4163349
108	0xbf0b3326	-0.5437492
109	0xbf320f93	-0.69555014
110	0xbe4a4c15	-0.19755585
111	0x3e99f5d1	0.30070356
112	0x3e91f567	0.2850754
113	0x3d39cfea	0.045364298
114	0x3e41a8f0	0.18912101
115	0x3b9e052c	0.004822394
116	0xbe8bb5f9	-0.27287272
117	0x3eb6ca73	0.35701331
118	0xbd7de9d2	-0.061990567
119	0x3efe7081	0.4969521
120	0xbc646750	-0.013940647
121	0xb7a7285d	-1.9926747e-05
122	0xbe862f0a	-0.26207763
123	0x3eec0938	0.46100783
124	0x3c899b14	0.01679758
125	0xbf07de89	-0.53073937
126	0xbf041e78	-0.5160899
127	0xbecb4d9e	-0.39707655
128	0x3d96cb4d	0.07362995
129	0xbebf697c	-0.37385166
130	0x3f1f219f	0.62160677
131	0xbc6ffa1c	-0.014647033
132	0xbf05535b	-0.52080315
133	0x3e922d3a	0.2855013
134	0x3ec53858	0.3851955
135	0x3e5f2e26	0.21794948
136	0xbeb9c312	-0.3628164
137	0xbb9dd242	-0.0048163245
138	0x3eafa5da	0.34306222
139	0x3e859653	0.2609125
140	0xbe9b045e	-0.3027677
141	0x3e74f8a1	0.2392297
142	0xbdc860a6	-0.09784059
143	0x3ef3986d	0.4757723
144	0x3e8abcc4	0.27097142
145	0xbf049f30	-0.518054
146	0x3ef6e4d7	0.48221466
147	0xbe50ab8e	-0.20377943
148	0xbea3b0c7	-0.31970808
149	0x3e95eb13	0.2928091
150	0xbe7577c4	-0.23971468
151	0x3ec8e4e6	0.39237136
152	0x3e16cbb3	0.14726143
153	0x3ecb8443	0.39749345
154	0xbf2e2d45	-0.68037826
155	0xbf0390e9	-0.5139299
156	0x3eca3a18	0.39497447
157	0x3ed00c04	0.40634167
158	0x3e85a796	0.2610442
159	0xbe5f2c86	-0.21794328
160	0x3f1b5c9a	0.60688174
161	0x3d47d488	0.04878667
162	0xbef94c02	-0.48690802
163	0x3f414ebf	0.7551078
164	0x3ea42bae	0.32064575
165	0xbef55d10	-0.47922564
166	0xbe7386e8	-0.23781931
167	0x3c94002c	0.018066488
168	0xbe3420ea	-0.1759068
169	0xbedbac64	-0.4290496
170	0xbe0be6bc	-0.13662237
171	0xbd9a2039	-0.07525677
172	0x3ee405e9	0.4453576
173	0x3e860016	0.2617194
174	0xbf434a3a	-0.76285136
175	0xbe975b7d	-0.29561988
176	0xbec002a9	-0.3750203
177	0xbe17ad1b	-0.14812128
178	0x3e333914	0.17502242
179	0x3ed72ac9	0.4202483
180	0x3ea28350	0.31740808
181	0xbd9bbd4e	-0.076044664
182	0xbe881810	-0.26580858
183	0x3e5c9506	0.21541223
184	0xbef7893f	-0.48346898
185	0x3eae86f9	0.3408735
186	0xbf02fcc7	-0.5116696
187	0x3dcbf9d0	0.09959757
188	0xbe9486aa	-0.2900899
189	0xbeae49ad	-0.34040585
190	0xbe87fffe	-0.26562494
191	0xbe3a2e92	-0.18181828

critic.0.bias f4 [64]
0	0xbd7a7cf5	-0.061154325
1	0x3e924bfd	0.285736
2	0x3db25fe6	0.087096974
3	0xbf0b18d4	-0.5433476
4	0xbe8fd5b1	-0.2809272
5	0xbed731f0	-0.42030287
6	0xbec41c9a	-0.3830307
7	0x3d546c73	0.051861238
8	0xbecf45f4	-0.40483057
9	0x3b929c2f	0.004474185
10	0xbeffbb25	-0.49947467
11	0xbf0d9db4	-0.5531876
12	0x3ecf9798	0.40545344
13	0xbedfb3e4	-0.43691933
14	0xbe18b725	-0.14913614
15	0xbeae3d51	-0.34031156
16	0xbd22ded8	-0.0397633
17	0x3e5fb09e	0.21844718
18	0x3eb51087	0.35364172
19	0x3d54bbd2	0.051936932
20	0x3d65f202	0.056139
21	0x3d24c5fe	0.040227883
22	0xbea48ef9	-0.3214033
23	0x3ebb889f	0.3662767
24	0x3f0849fa	0.5323788
25	0xbeb01e6f	-0.3439822
26	0x3e680239	0.22657098
27	0x3e404d0c	0.18779391
28	0x3e1db07b	0.15399353
29	0xbe2c9abb	-0.168559
30	0xbef84d90	-0.48496675
31	0x3f20be6a	0.6279055
32	0xbea2855f	-0.3174238
33	0x3ec5e5cd	0.38651887
34	0xbf24b5cf	-0.6433992
35	0x3e68b38c	0.22724742
36	0x3f065f38	0.5248904
37	0xbf1529a9	-0.58266693
38	0xb8d46baa	-0.00010129002
39	0xbeb2a132	-0.34888607
40	0xbee8874f	-0.45415732
41	0xbef0363f	-0.46916386
42	0xbf0d991c	-0.5531175
43	0x3eac43d1	0.3364549
44	0x3f068fb2	0.5256301
45	0x3ee35a8c	0.4440502
46	0x3d9ee385	0.0775824
47	0xbd9b181c	-0.07572958
48	0x3f0cc91c	0.5499437
49	0xbcc1fe70	-0.023680896
50	0x3ee34794	0.44390547
51	0xbd91526c	-0.07095799
52	0x3e127064	0.14300686
53	0xbd86fe44	-0.06591466
54	0x3f064717	0.52452224
55	0xbece26cf	-0.40263984
56	0x3f0b545a	0.54425585
57	0xbf0a39d2	-0.53994477
58	0x3b8b1fa8	0.004245717
59	0x3e874f97	0.2642791
60	0x3eafcdb2	0.3433662
61	0x3f06ebbb	0.52703446
62	0xbed3a811	-0.41339162
63	0xbd62f12b	-0.055405777

critic.2.weight f4 [64]
0	0x3f722a4c	0.9459579
1	0x3f6ddd16	0.92915475
2	0x3f817926	1.0115097
3	0x3f823b0b	1.0174268
4	0x3f88cd44	1.0687642
5	0x3f83a2f7	1.0284108
6	0x3f7fc203	0.99905413
7	0x3f658cb8	0.89667845
8	0x3f70ed6b	0.9411227
9	0x3f73040a	0.9492804
10	0x3f841de2	1.032162
11	0x3f70c183	0.94045275
12	0x3f869899	1.0515319
13	0x3f795ec5	0.9741023
14	0x3f89970b	1.074922
15	0x3f816751	1.0109655
16	0x3f73b463	0.95197123
17	0x3f7f31e2	0.9968549
18	0x3f7941d6	0.9736608
19	0x3f6d6b88	0.92742205
20	0x3f70da65	0.94083244
21	0x3f864e40	1.049263
22	0x3f8d74ca	1.1051266
23	0x3f6f4f3d	0.93480283
24	0x3f5ef2ac	0.8708904
25	0x3f85a0e8	1.043973
26	0x3f7045d4	0.9385655
27	0x3f77db2c	0.96818805
28	0x3f8d8a77	1.1057881
29	0x3f83aee5	1.0287749
30	0x3f8982d4	1.074305
31	0x3f907cea	1.1288121
32	0x3f882318	1.063571
33	0x3f922355	1.1417032
34	0x3f6a9349	0.9163099
35	0x3f72ea17	0.9488844
36	0x3f9250e9	1.1430942
37	0x3f82bacf	1.021326
38	0x3f8663af	1.0499171
39	0x3f75d7ae	0.96032226
40	0x3f863af5	1.0486742
41	0x3f70fb81	0.94133765
42	0x3f87c6a7	1.0607499
43	0x3f7cfc83	0.988228
44	0x3f80b00b	1.0053724
45	0x3f6ba5c1	0.92049795
46	0x3f785be6	0.97015226
47	0x3f774824	0.9659445
48	0x3f6fff6a	0.93749106
49	0x3f74e1e7	0.956572
50	0x3f876422	1.0577433
51	0x3f772f4c	0.96556544
52	0x3f7ba62c	0.98300433
53	0x3f6acf09	0.9172216
54	0x3f87458b	1.0568098
55	0x3f75f648	0.9607892
56	0x3f809df7	1.0048207
57	0x3f79cdaa	0.97579443
58	0x3f802149	1.0010158
59	0x3f75323a	0.95779765
60	0x3f7413d8	0.9534278
61	0x3f6fc201	0.936554
62	0x3f6dc66a	0.9288088
63	0x3f7e29da	0.9928261

critic.2.bias f4 [64]
0	0xbd48a828	-0.04898849
1	0xbd9d56a4	-0.07682541
2	0x3d372bd8	0.044719547
3	0xbc844008	-0.016143814
4	0xbd54c880	-0.051949024
5	0xbceb2200	-0.028702736
6	0xbc22dea4	-0.009940777
7	0x3cda368b	0.026637336
8	0x3c9457ea	0.018108327
9	0x3cb36c58	0.021902248
10	0xbd172428	-0.036899716
11	0xbd2658b3	-0.040611934
12	0x3caf2646	0.021380555
13	0xbd280f99	-0.0410305
14	0xbd58a8a8	-0.052895218
15	0xbd623752	-0.05522854
16	0xbcdc67d6	-0.026904982
17	0x3b969c02	0.0045962343
18	0x3c8f22fa	0.017472733
19	0xbd01d15d	-0.031693805
20	0x3cef05c2	0.02917755
21	0xbd36a5d6	-0.044591747
22	0xbbed952e	-0.0072504496
23	0xbcfa730d	-0.030572439
24	0x3d468c6d	0.048473764
25	0xbd135b6a	-0.03597585
26	0x3ca54960	0.02017659
27	0x3c8dd1a4	0.017311879
28	0xbd55531d	-0.052081216
29	0xbcdf04b2	-0.027223919
30	0xbd83a544	-0.06428006
31	0x3cd5b3c7	0.026086701
32	0xbd300d42	-0.042981394
33	0x3ccb90d2	0.02484933
34	0xbcf3b8d4	-0.029751219
35	0xbd7aceba	-0.061232306
36	0x3d8281e5	0.06372432
37	0xbc9a5a31	-0.018841835
38	0xbc7c4cfe	-0.015399216
39	0x3b7d4eae	0.0038651633
40	0xbd550491	-0.052006308
41	0x3c2700ed	0.010193092
42	0xbd50b723	-0.050955903
43	0xbc65a2fe	-0.014015911
44	0x3cde774e	0.027156498
45	0x3d4a822b	0.049440544
46	0x3d873a30	0.06602895
47	0xbd4789ae	-0.048715286
48	0x3aaf0a0c	0.0013354435
49	0x3d82b5e4	0.06382349
50	0x3d3936b6	0.045218192
51	0x3d85d673	0.065350436
52	0x3d126500	0.035740852
53	0x3d00f308	0.031481773
54	0x3c296f88	0.0103415325
55	0x3d3983ce	0.045291714
56	0x3d8c4b3a	0.06850286
57	0xbc999d74	-0.018751837
58	0xbd368642	-0.044561632
59	0x3c81ef06	0.015861046
60	0x3d3188de	0.043343417
61	0x3dbf1929	0.09330971
62	0xbb46aef6	-0.0030316687
63	0xbd1d7ef9	-0.03845117

critic.3.weight f4 [64, 64]
0	0x3d964315	0.07337014
1	0x3dd2520e	0.10269557
2	0xbdc7b6e3	-0.0975168
3	0x3e134e88	0.14385426
4	0x3d839d65	0.06426505
5	0xbd8c01b2	-0.06836261
6	0x3e09131c	0.13386196
7	0xbafbb15d	-0.0019202639
8	0x3de28017	0.110595874
9	0xbd65d85f	-0.05611455
10	0xbc4db6f1	-0.012555824
11	0x3d215926	0.03939166
12	0xbe3f57f8	-0.18685901
13	0xbba9ace8	-0.0051780827
14	0x3c6c79c2	0.014433326
15	0x3c87eece	0.016593363
16	0x3da80b21	0.08205248
17	0x3d757686	0.059927486
18	0xbb747a26	-0.0037304251
19	0xbc7fd2c4	-0.015614215
20	0x3e10e65a	0.14150372
21	0xbbffa28e	-0.0078013605
22	0x3cf3d40d	0.0297642
23	0xbd3388fc	-0.04383181
24	0x3cafc8e6	0.0214581
25	0x3ba1ea7a	0.004941282
26	0xbe0399ab	-0.12851588
27	0x3d326e5a	0.04356227
28	0x3d12131a	0.035662748
29	0x3de2f4da	0.11081858
30	0xbd5fd453	-0.054645848
31	0xbdcd425c	-0.10022423
32	0xbd8de1c0	-0.06927824
33	0x3d6a6974	0.057229474
34	0xbc8cf445	-0.01720632
35	0x3dbd3333	0.09238281
36	0xbdba5ad5	-0.09099356
37	0x3dbf231a	0.09332867
38	0xbda7b4df	-0.08188795
39	0x3da71cf6	0.08159821
40	0x3dc3b56a	0.09556086
41	0x3d9be027	0.07611113
42	0x3c4d61e6	0.012535548
43	0xbe044307	-0.12916194
44	0xbe1ad1e5	-0.15119131
45	0xbddf1009	-0.1089173
46	0xbd1ec64e	-0.038763337
47	0x3ded5b67	0.11589699
48	0x3d76c3f2	0.06024546
49	0x3d80ad7a	0.06283088
50	0x3da3e8ba	0.080033734
51	0xbdb47a44	-0.08812383
52	0xbd8b0a35	-0.06789056
53	0xbc4f2153	-0.012642222
54	0xbcc24d83	-0.023718601
55	0xbd8f0b7f	-0.069846146
56	0x3cce5996	0.025189202
57	0x3d35153b	0.0442097
58	0x3df5812c	0.11987528
59	0x3db1c99f	0.08681034
60	0xbe0e7f64	-0.13915783
61	0x3da085a1	0.07837988
62	0x3c457ba0	0.0120534
63	0xbd52b6ba	-0.051443793
64	0x3d594c23	0.053051125
65	0x3d0196f2	0.031638093
66	0x3b23cb21	0.00249929
67	0xbdf03a95	-0.11729924
68	0xbc7e5c49	-0.015524932
69	0xbd9b6ce3	-0.07589128
70	0xbd28a10d	-0.041169215
71	0xbd8d84b2	-0.06910075
72	0xbdede4ea	-0.116159275
73	0x3d5420e8	0.051789194
74	0xbe08ecea	-0.13371626
75	0x3cff8f4e	0.031196263
76	0x3de7bbaa	0.11315091
77	0xbc5edd41	-0.013602556
78	0xbe1a4d32	-0.1506851
79	0x3d280d9b	0.0410286
80	0xbcb9bcd8	-0.022673056
81	0x3d1d9875	0.038475472
82	0x3e289892	0.16464451
83	0x3cec9664	0.028880306
84	0xbdbda7ba	-0.09260507
85	0x3c5964bf	0.013268649
86	0x3dc402b4	0.09570828
87	0x3cb37f66	0.021911334
88	0xbd38b001	-0.045089725
89	0xbde7c1e6	-0.1131628
90	0x3cad9b92	0.021192346
91	0x3de0cfe3	0.10977151
92	0x3cb6412e	0.022247877
93	0x3d24d0df	0.040238257
94	0xbcc44305	-0.023957739
95	0x3d347657	0.04405817
96	0xbdf81793	-0.121138714
97	0x3d6a7c40	0.0572474
98	0x3d2a9cb0	0.041653335
99	0xbd5c48e5	-0.053780455
100	0x3d784f16	0.060622297
101	0xbe195fd8	-0.14977968
102	0xbe21ade2	-0.15788987
103	0xbda2f990	-0.079577565
104	0xbc1730f2	-0.009227978
105	0xbc0bec9e	-0.008540301
106	0xbe18c71b	-0.14919703
107	0x3d07be30	0.03314036
108	0x3d7768da	0.06040273
109	0xbd61d0bb	-0.0551307
110	0x3d4da5f2	0.050207086
111	0xbd9a921d	-0.075474
112	0x3cde6462	0.027147476
113	0x3db752de	0.089513525
114	0xbd341a46	-0.04397037
115	0x3d906c5d	0.07051919
116	0xbcd9d8f8	-0.026592717
117	0xbd61e984	-0.05515434
118	0x3d48c998	0.04902038
119	0x3d6d9114	0.057999685
120	0x3dbe2ef5	0.092863
121	0xbcf9ae96	-0.030478757
122	0x3dcd1710	0.100141644
123	0xbd3a7781	-0.045524124
124	0xbd750550	-0.05981952
125	0xbbf0e6b3	-0.0073517202
126	0xbdd5faae	-0.10448204
127	0xbd9cade1	-0.07650352
128	0xbd8c87c0	-0.0686183
129	0xbcd5f9c7	-0.02612008
130	0x3e1dc472	0.15406969
131	0xbdb86c7c	-0.09005067
132	0xbd555015	-0.052078325
133	0x3d574ec0	0.052565336
134	0x3d68dbce	0.056850247
135	0xbd0abda9	-0.03387228
136	0x3dea7978	0.114489496
137	0xbc67c655	-0.014146407
138	0x3b432995	0.0029779423
139	0x3d1baa9c	0.038004503
140	0x3ce53bc5	0.027982602
141	0x3d8944c9	0.06702573
142	0x3d060c3e	0.03272652
143	0xbc90b239	-0.017663108
144	0xbd9289a5	-0.0715516
145	0xbbb85d48	-0.0056263544
146	0xbdeb283e	-0.11482285
147	0xbcb68060	-0.02227801
148	0x3d879661	0.066204794
149	0x3dea5d4c	0.11443576
150	0xbe058c17	-0.13041721
151	0x3d35ec11	0.044414584
152	0xbceb079d	-0.028690154
153	0x3d600efb	0.054701786
154	0x3d8e254e	0.06940709
155	0xbca7a254	-0.020463146
156	0x3d6bfb06	0.05761244
157	0x3e0e074a	0.13869968
158	0xbd516710	-0.05112368
159	0x3c214e6b	0.009845356
160	0x3af24a6f	0.0018485318
161	0xbd3fcd6c	-0.046826765
162	0xbdc278dc	-0.09495708
163	0xbdbf870e	-0.093519315
164	0xbce95a88	-0.028485551
165	0xbd61eba2	-0.055156358
166	0x3d967df6	0.07348244
167	0x3e0705a6	0.13185748
168	0x3cb7a648	0.022418156
169	0x3da6fe12	0.08153929
170	0x3da51a10	0.08061612
171	0xbd0b9936	-0.03408166
172	0xbda1c283	-0.07898428
173	0x3d704c63	0.058666598
174	0x3da88932	0.08229293
175	0x3df8c27e	0.121464714
176	0x3e21f58e	0.15816328
177	0x3dfc3dba	0.12316461
178	0x3c997193	0.018730914
179	0x3cc83c08	0.024442688
180	0x3d440623	0.047857415
181	0xbcd1cdea	-0.025610883
182	0xbd02bc9f	-0.031918164
183	0x3c7dad76	0.015483251
184	0xbd2cbe69	-0.042173777
185	0x3d8bb43d	0.06821487
186	0xbbc82338	-0.006107714
187	0xbd8d6f16	-0.069059536
188	0xbda3881a	-0.07984944
189	0xbd0dd1eb	-0.03462402
190	0xbd88e7ce	-0.06684838
191	0xbdae4ea8	-0.08511096
192	0xbd9c413e	-0.076296315
193	0xbda9cf27	-0.08291464
194	0xbdd1120e	-0.10208522
195	0xbdf4fa2e	-0.119617805
196	0xbd29ca56	-0.04145273
197	0x3d01861d	0.03162204
198	0x3d7b8462	0.061405547
199	0xbd121355	-0.035662968
200	0xbdc1e682	-0.09467794
201	0x3d242e64	0.040083304
202	0x3d3b7c10	0.045772612
203	0xbdb49959	-0.08818311
204	0x3dda2df5	0.10653297
205	0xbcdc44ca	-0.02688827
206	0xbd355c12	-0.04427726
207	0xbe07fc20	-0.13279772
208	0x3ca56588	0.020190015
209	0x3d0a02a0	0.03369391
210	0xbc8b1bda	-0.016981054
211	0xbcd9e85c	-0.026600055
212	0x3c281922	0.010259898
213	0xbd9e9605	-0.07743458
214	0x3d3b1bda	0.04568086
215	0xbd9263af	-0.071479194
216	0xbcaaee5f	-0.020865617
217	0xbd32f418	-0.043689817
218	0x3d512504	0.05106069
219	0x3e21efa5	0.15814073
220	0xba19fb1e	-0.0005873906
221	0xbd82c4bc	-0.0638518
222	0xbd8a050e	-0.06739245
223	0x3d703a03	0.058649074
224	0xbcd07b4f	-0.025449423
225	0x3e4c7bb4	0.19969064
226	0xbccbccac	-0.024877869
227	0x3d54e318	0.051974386
228	0x3d8941f2	0.06702031
229	0xbdbc112b	-0.09182962
230	0xbdc23db5	-0.09484426
231	0x3db711e9	0.08938963
232	0xbda168cd	-0.07881317
233	0x3b7fa521	0.0039008337
234	0xbdbddcab	-0.09270605
235	0xbcbc1544	-0.022959359
236	0xbd1d16ad	-0.038351703
237	0x3d108034	0.035278514
238	0xbe0fd1b2	-0.14044836
239	0xbd86ac47	-0.06575828
240	0x3d821596	0.063517734
241	0xbc5c6d71	-0.013453827
242	0x3dfb3fc1	0.122680195
243	0x3d59fd65	0.05322017
244	0xbd548868	-0.0518879
245	0xbdb73422	-0.089454904
246	0x3d982a5e	0.07429956
247	0x3cf27063	0.029594606
248	0x3de1ffa2	0.11035086
249	0xbdf81d4c	-0.12114963
250	0xbc9d2a2f	-0.019185154
251	0x3df83443	0.12119343
252	0xbdc52c6a	-0.09627612
253	0x3d6da126	0.05801501
254	0x3e0ff223	0.14057212
255	0x3d6944b4	0.056950286

critic.3.bias f4 [64]
0	0xbc2cdfc6	-0.010551399
1	0xbb08c246	-0.002086775
2	0xbe05199b	-0.12998049
3	0xbd3fba10	-0.046808302
4	0x3dcce281	0.1000414
5	0x3c3be28e	0.011467589
6	0xbdc99ca2	-0.098443285
7	0x3dec26b6	0.11530821
8	0x3c424554	0.011857349
9	0xbd088616	-0.033331
10	0xbc080013	-0.008300799
11	0x3d0ac315	0.03387745
12	0x3d3848c2	0.044991262
13	0x3b2161e1	0.002462499
14	0xbe0a665c	-0.1351561
15	0xbd9a2d22	-0.0752814
16	0x3d8c83e6	0.06861095
17	0x3dd3681e	0.10322593
18	0x3d802fa4	0.06259087
19	0xbdb075d7	-0.08616226
20	0xbe0165ae	-0.12636444
21	0x3df15f51	0.11785758
22	0x3d5a5682	0.053305157
23	0x3dad166c	0.08451542
24	0xbd2e5b50	-0.04256755
25	0xbdc1edc6	-0.0946918
26	0x3db67e3e	0.089107975
27	0xbb909e92	-0.0044134343
28	0xbd23eb78	-0.040019482
29	0x3dedad82	0.116053596
30	0x3c13635a	0.008995855
31	0x3e1fef76	0.15618691
32	0xbde36906	-0.11104016
33	0xba822b51	-0.0009931122
34	0xbccc8afc	-0.024968617
35	0x3db17550	0.08664954
36	0xba4a73b6	-0.0007722931
37	0xbd06b11e	-0.032883756
38	0x3cd57ac7	0.026059521
39	0xbd1faec4	-0.03898503
40	0xbdd6db10	-0.104910016
41	0x3d5a358b	0.05327372
42	0xbd1cc844	-0.038276926
43	0x3ddae680	0.10688496
44	0x3d82d258	0.06387776
45	0x3e034cc0	0.12822247
46	0xbe032d72	-0.12810305
47	0xbd8b8740	-0.06812906
48	0x3d040a87	0.032236602
49	0x3dd37ab6	0.1032614
50	0xbdde76d4	-0.108625084
51	0x3cd58cec	0.026068173
52	0x3d8f096e	0.069842204
53	0x3de20afc	0.11037251
54	0xbbda1863	-0.006655739
55	0xbe128e7b	-0.14312164
56	0xbd300e82	-0.042982586
57	0x3de82bce	0.1133648
58	0x3dec3b7b	0.115347825
59	0x3e15c005	0.14624031
60	0x3cdbf4d3	0.02685014
61	0xbde9f600	-0.11423874
62	0x3b6b6f9b	0.0035924676
63	0x3d8ddb4b	0.069265924

critic.5.weight f4 [64]
0	0x3fce11e7	1.6099213
1	0x3fbbecdf	1.4681662
2	0x3fd5a1df	1.6690024
3	0x3fb53a6a	1.4158452
4	0x3fc5c23a	1.5449898
5	0x3fbe5bc6	1.4871757
6	0x3fc40c78	1.5316305
7	0x3fc18c5d	1.512096
8	0x3fde9a62	1.7390864
9	0x3fc48129	1.5351917
10	0x3fd50551	1.6642247
11	0x3fddea2a	1.7337086
12	0x3fbabb40	1.4588394
13	0x3fc7b2bb	1.5601419
14	0x3fc7a0a6	1.5595901
15	0x3fc4af12	1.5365927
16	0x3fb1ba22	1.3884928
17	0x3fc1a752	1.5129187
18	0x3fbfc6d8	1.4982557
19	0x3fbcea14	1.4758935
20	0x3fcbe82c	1.5930228
21	0x3fcd9a8f	1.6062793
22	0x3fc17bd6	1.5115917
23	0x3fcc6a9a	1.5970032
24	0x3fccbcdc	1.5995135
25	0x3fc28674	1.5197282
26	0x3fc4b557	1.536784
27	0x3fcab45d	1.5836293
28	0x3fcaf11f	1.5854834
29	0x3fb1faae	1.3904626
30	0x3fd9ee6a	1.7025883
31	0x3fc81dce	1.5634096
32	0x3fc4026e	1.5313241
33	0x3fbcbd5c	1.4745288
34	0x3fc2fa10	1.5232563
35	0x3fc6c0bb	1.5527567
36	0x3fc179aa	1.5115254
37	0x3fc71cd2	1.555567
38	0x3fc71020	1.5551796
39	0x3fc5d6e2	1.5456202
40	0x3fc24ea2	1.5180247
41	0x3fb466e1	1.4093896
42	0x3fd02209	1.6260387
43	0x3fd2caef	1.646818
44	0x3fc6be32	1.5526793
45	0x3fbb520b	1.4634413
46	0x3fc9aa38	1.5755072
47	0x3fdef5da	1.7418778
48	0x3fce0638	1.6095648
49	0x3fd0b5bb	1.630546
50	0x3fc74001	1.5566407
51	0x3fcb48d0	1.5881596
52	0x3fd7a9ee	1.6848733
53	0x3fcb7bd6	1.5897167
54	0x3fccc6fc	1.5998225
55	0x3fc12472	1.5089247
56	0x3fe0de2a	1.7567799
57	0x3fbad507	1.4596261
58	0x3fda0f7b	1.7035974
59	0x3fc8f119	1.5698577
60	0x3fb4ba1c	1.4119296
61	0x3fc2126e	1.5161874
62	0x3fc00a28	1.50031
63	0x3fc88240	1.5664749

critic.5.bias f4 [64]
0	0xbf195b95	-0.5990537
1	0x3eeeb4e6	0.4662239
2	0xbf1d6f56	-0.6149801
3	0x3eed1466	0.46304625
4	0xbf016f73	-0.50560683
5	0x3f018731	0.5059691
6	0xbefb5764	-0.4909011
7	0x3f02854b	0.5098464
8	0x3f2aa3c0	0.6665611
9	0x3eff2c0a	0.49838287
10	0xbf17a007	-0.5922856
11	0x3f258c1d	0.6466692
12	0x3eeebb9a	0.46627504
13	0x3f08149d	0.53156453
14	0xbf053c70	-0.52045345
15	0xbefe99ad	-0.4972662
16	0x3ee3e896	0.44513386
17	0xbeed23ee	-0.46316475
18	0x3ef9d6d0	0.487967
19	0xbf061b70	-0.52385616
20	0xbf113686	-0.5672382
21	0xbf1832d7	-0.59452575
22	0xbeeedc2f	-0.46652362
23	0xbf1060c1	-0.56397635
24	0xbf153371	-0.5828162
25	0xbf0618a5	-0.52381355
26	0xbefe8ab4	-0.49715197
27	0xbf1190fe	-0.56861866
28	0xbf1a0aef	-0.60172933
29	0x3ee758ba	0.4518488
30	0x3f1da6f0	0.6158285
31	0x3f081d06	0.53169286
32	0xbefc918a	-0.49329787
33	0x3ef2df7d	0.47436133
34	0x3efba152	0.49146515
35	0xbf183556	-0.59456384
36	0xbeed84b4	-0.46390307
37	0xbf03ee6e	-0.5153569
38	0xbf153eab	-0.5829875
39	0x3f034656	0.512792
40	0xbef4b07c	-0.47790897
41	0x3eea1263	0.45717153
42	0x3f0a6f3e	0.5407599
43	0xbf1c0d97	-0.60958236
44	0xbf029e64	-0.51022935
45	0x3eea64e8	0.4578011
46	0xbf09e498	-0.5386443
47	0x3f27aaca	0.6549498
48	0xbf14c730	-0.58116436
49	0xbf27227a	-0.6528698
50	0xbf057c40	-0.52142715
51	0xbf0d47bb	-0.55187577
52	0x3f192d76	0.5983499
53	0x3f031b5e	0.51213634
54	0xbf1186c0	-0.5684624
55	0xbf0611af	-0.52370733
56	0x3f317078	0.6931224
57	0x3ef352b6	0.4752404
58	0xbf1ce178	-0.6128154
59	0x3f08ec9a	0.53486025
60	0x3ee3af90	0.4446988
61	0xbef37618	-0.47551036
62	0xbf177083	-0.59156054
63	0xbf0b4bc9	-0.54412514

critic.6.weight f4 [1, 64]
0	0x3eefda1b	0.4684609
1	0xbf0012e0	-0.500288
2	0x3ef3ddcb	0.47630152
3	0xbed613a1	-0.4181185
4	0x3f00ba8b	0.5028464
5	0xbecf90bd	-0.40540114
6	0x3f044b6a	0.5167757
7	0xbedfc319	-0.43703535
8	0xbf17bb30	-0.5927
9	0xbf0b30e6	-0.5437149
10	0x3ef4645f	0.47732827
11	0xbf11b19c	-0.56911635
12	0xbeff3e4e	-0.49852222
13	0xbf06508a	-0.5246664
14	0x3efd4e77	0.49473926
15	0x3f023f45	0.5087779
16	0xbee076c1	-0.43840602
17	0x3f0f5c17	0.5599989
18	0xbef56252	-0.47926575
19	0x3e9a6868	0.3015778
20	0x3ef2d031	0.47424462
21	0x3ee91d86	0.45530337
22	0x3f0cccb2	0.5499984
23	0x3ef0ac50	0.47006464
24	0x3eecf976	0.46284074
25	0x3efb23ce	0.49050754
26	0x3f02c234	0.5107758
27	0x3ef2b181	0.4740105
28	0x3ee1bbcf	0.440886
29	0xbed083b5	-0.40725484
30	0xbef63aa3	-0.4809161
31	0xbefd198c	-0.49433553
32	0x3f028f7e	0.510002
33	0xbef71103	-0.48255166
34	0xbf0858c4	-0.53260446
35	0x3ede2867	0.433902
36	0x3f0ed69f	0.55796236
37	0x3eff84ea	0.49906093
38	0x3ee173da	0.440337
39	0xbf035941	-0.51308066
40	0x3f073bb8	0.528255
41	0xbed90045	-0.42383018
42	0xbf12e026	-0.57373273
43	0x3eef65ad	0.4675726
44	0x3f01b97a	0.5067364
45	0xbf00f86e	-0.50379074
46	0x3ef748d7	0.4829776
47	0xbf1a7d02	-0.60346997
48	0x3ee71820	0.45135593
49	0x3f014b62	0.5050565
50	0x3ef8771a	0.48528367
51	0x3ef90d34	0.48642886
52	0xbf06fa97	-0.5272612
53	0xbf1b5d65	-0.60689384
54	0x3eed8685	0.46391693
55	0x3eefecab	0.4686025
56	0xbedf7145	-0.43641105
57	0xbee8340d	-0.45352212
58	0x3f07cfb2	0.5305129
59	0xbf06a074	-0.5258858
60	0xbeedde6e	-0.46458763
61	0x3f0b0f91	0.5432063
62	0x3ecfaa1a	0.40559465
63	0x3ef7f397	0.48428032
