experiments/training_curves/SHAC/seed_100/best_policy.pt (torch, 167108 bytes, 63 tensors)

weight f4 [64, 3]
0	0xbf060eea	-0.5236651
1	0x3ec65053	0.38733158
2	0xbe8df4a9	-0.27725723
3	0xbdaad198	-0.08340758
4	0x3e3eb665	0.18624265
5	0x3e93c92d	0.28864422
6	0xbe516989	-0.20450415
7	0xbf07b2e0	-0.53007317
8	0xbeb476c0	-0.3524685
9	0xbf04c75c	-0.518667
10	0xbefa0678	-0.4883306
11	0x3e8f1a02	0.2794953
12	0x3e99b501	0.30020908
13	0x3ed73cb9	0.42038515
14	0xbdf0acad	-0.11751685
15	0x3f074e75	0.5285409
16	0x3f2cd539	0.6751285
17	0x3e99780d	0.29974404
18	0xbe999a50	-0.30000544
19	0xbe7fb5b1	-0.24971654
20	0xbebae538	-0.36503005
21	0x3ec77f5e	0.3896436
22	0x3e0e0a7a	0.13871184
23	0x3f0ed1d0	0.557889
24	0xbe3f3787	-0.18673526
25	0x3f0b27d6	0.5435766
26	0x3e83ea47	0.25764677
27	0xbc9c71a2	-0.019097153
28	0xbec5b93c	-0.38617885
29	0x3e695f26	0.22790202
30	0x3d6c533d	0.05769657
31	0xbe7b7b92	-0.24558857
32	0x3e9bda26	0.30439872
33	0x3b54287d	0.0032372766
34	0xbf1e355d	-0.61800176
35	0xbea58805	-0.32330337
36	0x3f07cf65	0.53050834
37	0x3e56bc2f	0.20970224
38	0xbebf66d9	-0.37383154
39	0x3eec9529	0.4620755
40	0xbda0249d	-0.078194834
41	0xbf02ca1d	-0.5108965
42	0x3e8a0237	0.26954815
43	0xbe4a6602	-0.19765475
44	0xbe5fa641	-0.21840765
45	0xbc6137e2	-0.013746234
46	0xbf1d9b26	-0.6156486
47	0x3be9b827	0.0071325484
48	0x3efcbab1	0.49361184
49	0x3e5cd8ad	0.2156703
50	0xbc1066da	-0.008813584
51	0x3e864da7	0.2623112
52	0xbdcf97f4	-0.10136405
53	0xbe358961	-0.17728187
54	0x3e2cf92f	0.16891931
55	0x3d1d856b	0.038457315
56	0x3e686997	0.2269653
57	0xbe365a41	-0.17807867
58	0x3ee3a654	0.44462836
59	0x3ec8bf70	0.39208555
60	0xbe9e08b5	-0.30866018
61	0x3e901095	0.2813765
62	0x3ddc3984	0.10753158
63	0x3effff9b	0.499997
64	0x3f0d2527	0.55134815
65	0x3e7a8bf3	0.24467449
66	0x3e90dd86	0.2829401
67	0x3dd6136d	0.10452924
68	0xbe38747b	-0.18013184
69	0xbee68ab3	-0.45027694
70	0x3f081b88	0.5316701
71	0x3e6ee9ac	0.23331326
72	0xbedbd6b4	-0.42937243
73	0x3e777e9d	0.24169393
74	0xbe2f3c4d	-0.17112847
75	0xbeedd8e9	-0.46454552
76	0x3f1e4924	0.61830354
77	0x3d1671f8	0.036729783
78	0x3e7070b3	0.23480491
79	0xbdb42407	-0.08795934
80	0xbef307b3	-0.47466812
81	0x3f0a5f38	0.5405154
82	0xbe8ee679	-0.27910212
83	0xbf0d2d14	-0.5514691
84	0x3f0afb9a	0.54290164
85	0xbe99f947	-0.30072996
86	0xbe975360	-0.29555798
87	0x3f066779	0.52501637
88	0x3e7b73ad	0.24555846
89	0xbec06926	-0.37580222
90	0xbe662859	-0.22476329
91	0xbeb80853	-0.3594385
92	0x3ee0e23f	0.43922612
93	0xbf085207	-0.53250164
94	0xbeacdf11	-0.33763936
95	0xbe606304	-0.21912771
96	0xbecbbde5	-0.39793316
97	0x3f0716c1	0.52769095
98	0xbea9dd8b	-0.33176836
99	0xbdb67029	-0.089081116
100	0x3e3718de	0.1788058
101	0xbdce196e	-0.10063444
102	0x3dad8b87	0.08473878
103	0xbe1d1e14	-0.15343505
104	0xbf07a88b	-0.5299155
105	0x3ee09538	0.43863845
106	0xbeac333d	-0.33632842
107	0x3e08d935	0.13364108
108	0x3ed53b5b	0.41646847
109	0x3e154729	0.14577927
110	0xbee76997	-0.45197746
111	0xbd9fb62c	-0.077984184
112	0x3ca5c8fc	0.020237438
113	0x3e7b510d	0.24542637
114	0x3ee9d569	0.45670632
115	0x3f0f5c3f	0.5600013
116	0xba158541	-0.00057037553
117	0x3f116a7c	0.5680311
118	0xbe2bd92e	-0.16782066
119	0xbe997f09	-0.29979733
120	0xbe1c5a8f	-0.1526892
121	0x3f2ca462	0.6743833
122	0x3e7bcf86	0.24590883
123	0x3e5b7559	0.21431483
124	0xbeaae2ad	-0.33376065
125	0xbe956317	-0.29177162
126	0xbd2924fc	-0.041295037
127	0x3df64990	0.1202575
128	0xbeeac9ed	-0.45857182
129	0x3ef299e0	0.47383022
130	0xbe852c5b	-0.26010403
131	0xbe405b48	-0.18784821
132	0xbeca6a14	-0.39534056
133	0x3e124bc7	0.1428672
134	0xbe879478	-0.2648046
135	0x3f231c26	0.63714826
136	0x3f209b8c	0.62737346
137	0x3e49108c	0.19635218
138	0xbebe6ac5	-0.37190834
139	0x3f035667	0.51303715
140	0x3ec95ea0	0.39330006
141	0x3f0753bc	0.52862144
142	0xbeed0427	-0.4629223
143	0xbd79f237	-0.06102201
144	0xbd72116e	-0.059098653
145	0xbe1b9f5c	-0.1519751
146	0xbd8c647e	-0.06855105
147	0x3d97742c	0.07395205
148	0x3f1fa3a8	0.62359095
149	0xbf0f166d	-0.55893594
150	0xbf124d5d	-0.57149297
151	0x3c658c7d	0.014010546
152	0xbea761af	-0.32691714
153	0xbd56ab70	-0.05240959
154	0xbf052808	-0.5201421
155	0xbefbe281	-0.49196246
156	0x3db2b3c9	0.087256975
157	0xbdc19414	-0.09452072
158	0x3e29a443	0.16566567
159	0x3e767f5a	0.24072018
160	0xbe9b2261	-0.30299667
161	0x3e8e1d6e	0.27756828
162	0x3e0b9979	0.13632764
163	0xbe094e7e	-0.13408849
164	0xbeb80d35	-0.35947576
165	0xbe858aad	-0.26082364
166	0x3f20d26f	0.62821096
167	0xbeacd6fd	-0.33757773
168	0xbf14e37d	-0.5815962
169	0xbebe87fc	-0.37213123
170	0x3eeaf246	0.45887965
171	0x3e678d72	0.22612551
172	0xbe83ddf8	-0.25755286
173	0x3f12936f	0.57256216
174	0xbee9e2b9	-0.45680788
175	0xbf06ab20	-0.52604866
176	0xbed21a74	-0.41035807
177	0x3eb5d9f1	0.3551784
178	0xbe867150	-0.26258326
179	0xbe64d132	-0.22345427
180	0xbe98f271	-0.29872468
181	0xbec2e31f	-0.38063905
182	0x3f0801ad	0.5312756
183	0xbd5d6d9e	-0.054059617
184	0xbdde2698	-0.10847205
185	0x3f047678	0.5174327
186	0xbf133a0c	-0.5751045
187	0xbe37a552	-0.17934158
188	0x3f05d54a	0.5227858
189	0xbec8e26b	-0.39235243
190	0x3e989abd	0.29805556
191	0xbec10cdb	-0.3770512

bias f4 [64]
0	0xbee5aeb7	-0.4485986
1	0xbe58a11c	-0.21155208
2	0xbed9161d	-0.42399684
3	0xbe153654	-0.14571506
4	0xbe826b56	-0.25472516
5	0xbe6b9acf	-0.23008274
6	0xbe404eb3	-0.18780021
7	0xbe7337f0	-0.23751807
8	0xbea7379e	-0.3265962
9	0x3d52a741	0.051429037
10	0x3d915cee	0.07097803
11	0xbe14e659	-0.14540996
12	0xbeb1ef67	-0.34752962
13	0x3eda6fb8	0.4266336
14	0xbee7d016	-0.45275944
15	0x3f030517	0.5117964
16	0x3e23def8	0.16003025
17	0xbe375e04	-0.17906958
18	0xbefacbe8	-0.48983693
19	0x3db2d525	0.0873206
20	0xbeda36ea	-0.4262002
21	0x3eba075d	0.36333743
22	0xbc9b3297	-0.018945022
23	0xbeff4dd3	-0.49864063
24	0x3f0f5a4a	0.55997145
25	0x3e216346	0.15760526
26	0x3e239997	0.15976559
27	0xbd9946d9	-0.07484216
28	0x3ef52c46	0.4788534
29	0xbe9aec68	-0.3025849
30	0xbece9537	-0.40348217
31	0x3e98a884	0.29816067
32	0xbd919d0c	-0.071100324
33	0x3ddc445b	0.10755225
34	0xbef303ce	-0.4746384
35	0x3e78952d	0.24275656
36	0xbf1dc610	-0.61630344
37	0xbd45f23e	-0.048326723
38	0xbe474521	-0.19459964
39	0xbf06695f	-0.52504534
40	0x3e6488d5	0.22317822
41	0xbe25c9ed	-0.1619031
42	0x3da5f1c1	0.081027515
43	0xbf01d846	-0.5072063
44	0x3ef31448	0.4747641
45	0xbeec432d	-0.46145
46	0xbeaf57b8	-0.34246612
47	0xbec1bbd2	-0.37838608
48	0xbeee6631	-0.4656234
49	0x3e2cae4d	0.16863365
50	0xbe533af0	-0.20627952
51	0x3e4df4f3	0.20112972
52	0x3e26ed68	0.16301501
53	0x3f01f74e	0.5076798
54	0xbe1a5002	-0.15069583
55	0xbe111ccd	-0.14171143
56	0xbf072987	-0.5279774
57	0xbdab4931	-0.083635695
58	0x3f049b19	0.5179916
59	0xbec7a662	-0.38994128
60	0xbed4391d	-0.41449824
61	0x3e9d22a6	0.30690497
62	0x3e46b8a6	0.19406375
63	0x3ed8606f	0.42261073

weight f4 [64]
0	0x3f83d66d	1.0299813
1	0x3f7aa1a3	0.9790289
2	0x3f7f4393	0.99712485
3	0x3f847133	1.0347046
4	0x3f7fa89b	0.99866647
5	0x3f8b9054	1.090342
6	0x3f7c0576	0.9844583
7	0x3f7bf751	0.9842425
8	0x3f77c148	0.967793
9	0x3f81a7cc	1.0129333
10	0x3f76bc5d	0.9638117
11	0x3f82666c	1.0187507
12	0x3f809e7b	1.0048364
13	0x3f7b9a31	0.9828215
14	0x3f842464	1.0323606
15	0x3f899b58	1.0750532
16	0x3f816475	1.0108782
17	0x3f827956	1.0193279
18	0x3f6d71e2	0.92751896
19	0x3f805af9	1.0027763
20	0x3f7f25ce	0.9966706
21	0x3f7c5c37	0.9857821
22	0x3f799771	0.97496706
23	0x3f80601f	1.0029334
24	0x3f821a0e	1.0164201
25	0x3f817812	1.0114768
26	0x3f7cc57b	0.9873883
27	0x3f7f7157	0.9978232
28	0x3f7cc9ca	0.98745406
29	0x3f80b97a	1.0056603
30	0x3f7ed4e7	0.99543613
31	0x3f7bd168	0.98366404
32	0x3f8339cc	1.0252013
33	0x3f81fbd7	1.015498
34	0x3f802e50	1.0014133
35	0x3f7f8da0	0.9982548
36	0x3f813f96	1.009753
37	0x3f7bee5e	0.98410594
38	0x3f845450	1.033823
39	0x3f8c2cd5	1.0951182
40	0x3f81843c	1.011848
41	0x3f80df9b	1.0068239
42	0x3f75d4aa	0.96027625
43	0x3f7fb76e	0.99889266
44	0x3f818de0	1.0121422
45	0x3f866315	1.0498987
46	0x3f80b438	1.0054998
47	0x3f7ad134	0.9797547
48	0x3f7cb68a	0.9871603
49	0x3f7df30a	0.99198973
50	0x3f8338e5	1.0251738
51	0x3f796aa7	0.97428364
52	0x3f7b233c	0.9810064
53	0x3f7832ac	0.9695232
54	0x3f77b863	0.96765727
55	0x3f82a84a	1.0207608
56	0x3f7e354f	0.9930009
57	0x3f7a79bf	0.9784202
58	0x3f7ac61b	0.97958535
59	0x3f88aabd	1.0677105
60	0x3f7d847b	0.99030274
61	0x3f78d8b3	0.97205657
62	0x3f785d48	0.97017336
63	0x3f7d78ef	0.99012655

bias f4 [64]
0	0x3c27fdce	0.010253383
1	0x3c68fb6f	0.014220103
2	0x3c95f30b	0.018304368
3	0x3ba983b1	0.0051731695
4	0x3cc40aca	0.023930926
5	0xba1c2e3f	-0.0005957819
6	0x39732d56	0.00023191175
7	0x3d31fab9	0.043452
8	0x3cae3de3	0.021269744
9	0xbc108f91	-0.008823291
10	0x3c694b5a	0.014239157
11	0xbbfcca33	-0.0077145337
12	0xbc95e547	-0.018297805
13	0xbc9512e0	-0.018197477
14	0x3a92b448	0.0011192644
15	0x3c491462	0.012272926
16	0xbb8153a2	-0.0039467374
17	0xbb4a40c1	-0.003086135
18	0x3d3067e8	0.043067843
19	0xbc7d1eac	-0.015449207
20	0x3b59b9a8	0.0033222232
21	0x3c2e6cc6	0.010646051
22	0x3c3952ab	0.0113112135
23	0xba9336b3	-0.0011231512
24	0xbc1a8ad9	-0.009432518
25	0x3c2dce46	0.010608261
26	0xbc99d886	-0.018780004
27	0xbb2debc7	-0.002653824
28	0x3bac7216	0.0052626235
29	0xbb2bdd81	-0.0026224556
30	0xbbc5ebed	-0.0060400874
31	0xbc0927d9	-0.008371317
32	0x3b482c62	0.0030544032
33	0xbb6ca993	-0.0036111816
34	0xbb8b304a	-0.0042477
35	0xbb94efa9	-0.0045451713
36	0xbca8cc3f	-0.020605205
37	0x3bafc2ca	0.005363797
38	0x3b800917	0.0039073336
39	0x3c2ce716	0.010553142
40	0x3c904f64	0.017615981
41	0x3a8b5985	0.0010631537
42	0xbccf7b74	-0.025327422
43	0x3c929ed1	0.017897995
44	0xbb4dae9d	-0.0031384595
45	0x3c9a3137	0.018822296
46	0xbbf24c16	-0.007394324
47	0x3c98eb4e	0.01866689
48	0x3c5d9c7d	0.013526079
49	0x3c4b1e6b	0.012397389
50	0x3bb146f7	0.005410071
51	0xbce47b5b	-0.027890852
52	0x3c67a560	0.01413855
53	0xb8e568ef	-0.00010939116
54	0x3afb3e10	0.0019168276
55	0x3bd3d19a	0.0064641954
56	0x3ca0b5bc	0.019617908
57	0x3d07637f	0.03305387
58	0xbcaa0a6b	-0.02075692
59	0xbcacc152	-0.021088276
60	0x3b895008	0.0041904487
61	0x3c6dfd0f	0.014525666
62	0xba9c0378	-0.0011902889
63	0xbc57d5a6	-0.013173496

weight f4 [64, 64]
0	0xbd957280	-0.0729723
1	0xbd7ea03c	-0.06216453
2	0x3e029fc2	0.12756255
3	0xbdbc0ae9	-0.091817684
4	0xbd9b2926	-0.07576208
5	0xbd0d499f	-0.03449404
6	0xbdd6d930	-0.10490644
7	0xbd689e9e	-0.056791894
8	0xbc3432e0	-0.010998458
9	0x3c97b3a5	0.018518278
10	0x3d704e67	0.05866852
11	0xbd1831da	-0.037156917
12	0xbd5cab95	-0.05387457
13	0xbdabb191	-0.083834775
14	0x3bebe55f	0.007198974
15	0xbd155ec5	-0.036467332
16	0xbdbf2c58	-0.0933463
17	0x3da5739a	0.0807869
18	0x3d523d4e	0.051327996
19	0xbda2e116	-0.07953088
20	0xbdadb76e	-0.08482252
21	0xbda9e915	-0.0829641
22	0xbd5e1c1f	-0.054226037
23	0xbdc85364	-0.097815305
24	0xbd480ffb	-0.048843365
25	0x3dc2f4a8	0.09519321
26	0xbdb136a2	-0.086529985
27	0x3d834506	0.064096496
28	0xbda18dbb	-0.07888361
29	0xbd23ff26	-0.04003825
30	0xbd70f891	-0.0588308
31	0x3c8a9dda	0.016920973
32	0xbbc2b14c	-0.0059415456
33	0x3d895f16	0.06707589
34	0x3dec11db	0.11526843
35	0x3d947d1a	0.07250424
36	0x3d8af3af	0.0678476
37	0x3d724b5e	0.059153907
38	0xbd9050ba	-0.07046647
39	0xbd8163a2	-0.063178316
40	0x3dc439a3	0.09581306
41	0xbde14b82	-0.1100073
42	0xbdd4755b	-0.10373946
43	0x3dff8206	0.12475972
44	0x3d46248c	0.048374698
45	0x3d9ae11b	0.07562467
46	0xbdcf768a	-0.101300314
47	0xbc73f99c	-0.0148910545
48	0xbd5e0064	-0.05419959
49	0xbd9ec8d5	-0.077531494
50	0x3ba5db13	0.005061516
51	0xbdd16d09	-0.10225875
52	0x3ca29bb0	0.019849628
53	0x3d82740d	0.06369791
54	0xbd4cc97e	-0.049996845
55	0x3dd96cf4	0.10616484
56	0x3d87e6c8	0.06635815
57	0xbdac6fd8	-0.0841977
58	0xbd903a99	-0.070424266
59	0x3bd6bb91	0.0065531214
60	0xbdf7ac09	-0.1209336
61	0xbe002fcb	-0.12518232
62	0xbd938cb0	-0.072045684
63	0xbd8acab5	-0.067769445
64	0xbdc5e74c	-0.09663257
65	0xbbae8927	-0.0053264084
66	0x3ce67e10	0.028136283
67	0xbdd99e74	-0.10625926
68	0x3de8a0f5	0.11358825
69	0x3daeae1b	0.08529302
70	0xbdb8846a	-0.09009631
71	0xbd9ac36a	-0.075568035
72	0x3d7161ac	0.058931038
73	0x3de96d27	0.11397772
74	0xbdac9351	-0.08426536
75	0x3c086836	0.008325627
76	0xbd9ab6e1	-0.07554413
77	0xbd4488fd	-0.047982205
78	0x3e29331f	0.16523407
79	0xbccef0af	-0.025261251
80	0x3d897822	0.06712367
81	0x3e2b4c0b	0.16728227
82	0xbde85767	-0.11344796
83	0xbcc2e6a7	-0.023791624
84	0xbdd41fe0	-0.10357642
85	0xbcbb3286	-0.02285124
86	0xbd9a5db4	-0.07537404
87	0xbd2a3c01	-0.04156113
88	0x3cd30c85	0.025762806
89	0x3d9e2100	0.07721138
90	0x3dc9662b	0.0983394
91	0xbda1f056	-0.079071686
92	0xbd8d7912	-0.06907858
93	0xbbbafb3c	-0.005706219
94	0xbc4e9a4c	-0.012610029
95	0xbd79a50c	-0.060948417
96	0xbde32a54	-0.11092058
97	0x3d989e17	0.07452028
98	0x3dd6a6f4	0.104810625
99	0x3c7f5eab	0.015586535
100	0x3d07160c	0.03298001
101	0xbda50e3f	-0.08059358
102	0x3d14e6ca	0.03635291
103	0x3e05603d	0.13024993
104	0xbe0a38d1	-0.13498236
105	0x3dac5db0	0.08416307
106	0xbdbc081e	-0.09181236
107	0x3d4fbb02	0.050715454
108	0xbdfaaef1	-0.12240399
109	0xbc3480b4	-0.011017013
110	0xbd88c928	-0.066789925
111	0xbd7611b5	-0.06007548
112	0x3d357f4e	0.04431086
113	0xbd270997	-0.04078063
114	0xbd704638	-0.058660716
115	0x3d479b3b	0.048732024
116	0xbdcb8796	-0.0993797
117	0xbd9e9632	-0.07743491
118	0x3dbf1507	0.093301825
119	0x3dc5e410	0.0966264
120	0xbd59660b	-0.05307583
121	0xbdad0d0a	-0.08449753
122	0x3d4e303b	0.050338965
123	0x3e38bf91	0.18041827
124	0xbcdcc155	-0.026947657
125	0xbde42bbe	-0.11141156
126	0x3c26a4a2	0.010171087
127	0x3d04b67c	0.032400593
128	0xbe1b7555	-0.15181477
129	0x3d3f966f	0.046774324
130	0xbd8ebdc7	-0.06969791
131	0xbdafd165	-0.08584861
132	0x3cc7299d	0.024311835
133	0xbb95a27b	-0.0045664883
134	0x3d9c8878	0.07643217
135	0xbd835153	-0.06411996
136	0x3d1dfece	0.03857308
137	0x3d430466	0.047611617
138	0xbdf23cd4	-0.11828008
139	0x3c05b8d5	0.008161743
140	0x3d02acdd	0.031903137
141	0xbd8e1f23	-0.069395326
142	0x3e085789	0.13314642
143	0xbdfca41a	-0.123359874
144	0x3dc56d57	0.096399955
145	0x3c55bd21	0.01304558
146	0xbdd6f43b	-0.10495802
147	0xbd91ace5	-0.07113055
148	0x3d89a509	0.06720931
149	0xbc888fc5	-0.016670117
150	0x3da8b497	0.0823757
151	0x3dfcbfca	0.12341268
152	0x3d440db3	0.047864627
153	0x3ce21725	0.027598927
154	0x3df9a38b	0.121893965
155	0x3d053321	0.032519463
156	0xbd314e9c	-0.04328786
157	0xbd418f99	-0.047256086
158	0x3d9585e6	0.0730093
159	0xbda085a3	-0.07837989
160	0xbdf83f08	-0.12121397
161	0xbd83b34e	-0.06430684
162	0xbdd11040	-0.102081776
163	0xbd85f227	-0.065403275
164	0x3dcbaf58	0.099455535
165	0xbd54a649	-0.051916394
166	0x3adcd4cd	0.0016848088
167	0xbd2628ec	-0.04056637
168	0xbd531082	-0.051529415
169	0x3db1ced9	0.08682031
170	0x3cfdbbd9	0.030973362
171	0x3d34387c	0.04399918
172	0xbd576bc0	-0.052592993
173	0xbdcfa009	-0.10137946
174	0x3d24dedc	0.040251598
175	0x3cd5f40f	0.026117353
176	0x3d9e7145	0.07736448
177	0xbdfa7d6c	-0.122309536
178	0x3d5cc97a	0.05390308
179	0x3dc55328	0.096350014
180	0xbda0af10	-0.078458905
181	0x3d8424af	0.06452309
182	0x3da00ea5	0.07815293
183	0x3c9753e9	0.018472629
184	0xbc8ae73c	-0.016955964
185	0x3d5d8886	0.054085277
186	0x3d8d070c	0.0688611
187	0xbd1bcc72	-0.03803677
188	0xbddc1373	-0.10745897
189	0xbd7c3239	-0.061571334
190	0x3d2c1ae9	0.04201785
191	0x3cf4e4b2	0.029894207
192	0x3de48619	0.111583896
193	0x3b446413	0.0029966875
194	0xbbb7b581	-0.0056063537
195	0xbdd13eeb	-0.10217079
196	0xbd13f05b	-0.036117893
197	0x3e1831a6	0.1486269
198	0xbddeaa39	-0.10872311
199	0xbd070080	-0.03295946
200	0xbc4084f4	-0.0117504485
201	0xbe00b2d1	-0.12568213
202	0xbcbfa1a3	-0.023392504
203	0xbc1d4f6d	-0.009601456
204	0xbdbbf70e	-0.09177981
205	0xbe1cabf4	-0.1529997
206	0xbc55e52a	-0.013055125
207	0xbda3e8bb	-0.08003374
208	0xbd5a5f1c	-0.05331336
209	0x3df70ca5	0.12062959
210	0x3b0ba20b	0.0021306302
211	0xbd11b025	-0.035568375
212	0x3cb1ee16	0.021719974
213	0x3d9da46e	0.07697378
214	0xbca058d3	-0.019573605
215	0xbcc5ec90	-0.024160653
216	0xbda2d887	-0.079514556
217	0xbcc3a4ad	-0.023882234
218	0x3d493e15	0.04913147
219	0x3b086e62	0.0020817746
220	0xbcd3d3c7	-0.02585782
221	0x3d0376fd	0.032095898
222	0x3cb8b266	0.022546005
223	0x3b1c08f3	0.0023809045
224	0xbccaaf96	-0.024741929
225	0x3d943b20	0.0723784
226	0x3d7e4e2b	0.062086266
227	0x3d6cfc0e	0.057857566
228	0xbd55e521	-0.052220467
229	0xbd3bbd0d	-0.04583459
230	0x3db89828	0.090133965
231	0x3d9e66db	0.07734462
232	0x3cbb6677	0.022876007
233	0xbdc4e9d5	-0.096149124
234	0x3d36a636	0.044592105
235	0xbd44ff6a	-0.048095144
236	0xbd5d2858	-0.053993553
237	0xbc0f51b0	-0.008747503
238	0x3dbcecd7	0.09224861
239	0x3c850fdc	0.016242914
240	0xbda1ef57	-0.079069786
241	0xbd8e43b9	-0.06946511
242	0xbccfc9e1	-0.025364818
243	0x3d5ae146	0.053437494
244	0x3d917bd8	0.071036994
245	0x3cfd7bc3	0.030942803
246	0xbd9b6e88	-0.075894415
247	0x3e05c305	0.13062675
248	0xbd4fb534	-0.05070992
249	0x3dd0d650	0.10197127
250	0xbd665a49	-0.056238446
251	0x3e047660	0.12935781
252	0x3c39983d	0.0113278
253	0x3c89430d	0.016755605
254	0xbdc3236d	-0.09528241
255	0xbddad673	-0.10685434

bias f4 [64]
0	0x3de9aa87	0.11409479
1	0xbca031f4	-0.01955507
2	0xbd66dd65	-0.056363482
3	0x3c2a2a29	0.010386028
4	0x3d634ab1	0.055491153
5	0xbdd19717	-0.10233896
6	0xbd7b0482	-0.061283596
7	0xbe050937	-0.12991796
8	0x3d0e65bc	0.03476499
9	0x3d27dfba	0.040984847
10	0xbd8c191e	-0.06840728
11	0x3c382818	0.011240028
12	0xbaa707a2	-0.0012743364
13	0x3c701686	0.0146538075
14	0x3c8f6b47	0.017507209
15	0x3d1bbe6d	0.0380234
16	0xbd7d62ca	-0.06186179
17	0xbda2c371	-0.07947434
18	0xbc905ff0	-0.017623872
19	0xbd95db99	-0.073172756
20	0x3d60fad3	0.054926705
21	0xbdd59f03	-0.1043072
22	0x3d694340	0.0569489
23	0xbc651bfd	-0.013983724
24	0xbdea995e	-0.11455034
25	0xbde24072	-0.11047448
26	0x3e05b718	0.13058126
27	0xbd8b3669	-0.06797487
28	0xbd8a570b	-0.067548834
29	0x3cc737ab	0.024318537
30	0x3dc9aa86	0.09846978
31	0xbd551ce0	-0.05202949
32	0x3de9d986	0.114184424
33	0xbd3581d0	-0.044313252
34	0xbd6b5a00	-0.057458878
35	0xbc6fa1e4	-0.014626
36	0x3d1ba36c	0.037997648
37	0xbd421d16	-0.04739102
38	0x3b773c51	0.003772516
39	0x3d5e5498	0.054279894
40	0xbdbfe257	-0.09369343
41	0xbdd1f077	-0.10250943
42	0x3cc3e623	0.023913449
43	0x3daea2cd	0.085271455
44	0xbdaaee56	-0.0834624
45	0x3dcd846c	0.10035023
46	0x3c9904a8	0.018678978
47	0xbdfa60b6	-0.122254774
48	0xbc5ddbdc	-0.013541188
49	0x3df2fa56	0.11864154
50	0xbdcac8f7	-0.09901612
51	0xbd60d2d9	-0.05488858
52	0xbd701b66	-0.05861988
53	0x3c8f534a	0.01749577
54	0x3dc2477e	0.09486292
55	0x3d88656f	0.06659972
56	0xbd85456a	-0.0650738
57	0x3d8e6dd2	0.0695454
58	0xbddf8fe5	-0.109161176
59	0x3cafb009	0.021446245
60	0x3cce06ed	0.025149787
61	0xbda72645	-0.08161596
62	0x3d33b5bd	0.04387449
63	0xbd4fecf7	-0.050763097

weight f4 [64]
0	0x3f767d8a	0.9628531
1	0x3f8004e1	1.0001489
2	0x3f7a0e2d	0.9767788
3	0x3f815a2c	1.0105643
4	0x3f807615	1.0036036
5	0x3f7d15be	0.988613
6	0x3f7a63f2	0.97808754
7	0x3f81f92b	1.0154165
8	0x3f832de2	1.0248377
9	0x3f7fd739	0.9993778
10	0x3f80d06b	1.0063604
11	0x3f84e524	1.0382428
12	0x3f8831ef	1.0640239
13	0x3f809585	1.004563
14	0x3f849687	1.0358437
15	0x3f7b540a	0.9817511
16	0x3f874ca5	1.0570265
17	0x3f811b6f	1.0086497
18	0x3f7f4ace	0.9972352
19	0x3f808c4b	1.0042814
20	0x3f825222	1.0181315
21	0x3f82f5eb	1.0231298
22	0x3f7b6109	0.9819494
23	0x3f7e33a6	0.9929756
24	0x3f7ad081	0.979744
25	0x3f802b34	1.0013185
26	0x3f826ab5	1.0188814
27	0x3f8002e6	1.0000885
28	0x3f77ba20	0.9676838
29	0x3f81f7f0	1.015379
30	0x3f829f0a	1.0204785
31	0x3f7e4f1e	0.99339473
32	0x3f84be6a	1.037061
33	0x3f7bdf26	0.9838737
34	0x3f81671f	1.0109595
35	0x3f7b12d8	0.9807563
36	0x3f80d037	1.0063542
37	0x3f792282	0.9731828
38	0x3f818696	1.0119197
39	0x3f7ee861	0.9957333
40	0x3f874ad1	1.0569707
41	0x3f788a31	0.97085863
42	0x3f81baf9	1.0135185
43	0x3f7f2e04	0.9967959
44	0x3f7fb1e9	0.99880844
45	0x3f8002db	1.0000871
46	0x3f81f63b	1.0153269
47	0x3f810c91	1.008196
48	0x3f7d50fd	0.98951703
49	0x3f8146cf	1.0099734
50	0x3f8113fc	1.0084224
51	0x3f853e66	1.0409667
52	0x3f7acdb7	0.97970146
53	0x3f84cf0b	1.0375684
54	0x3f813e7a	1.0097191
55	0x3f8ded3a	1.1088021
56	0x3f7dce24	0.9914267
57	0x3f8497df	1.0358847
58	0x3f832234	1.0244813
59	0x3f800b9a	1.000354
60	0x3f7a5fdc	0.9780252
61	0x3f7d9078	0.99048567
62	0x3f878761	1.0588189
63	0x3f7e82d8	0.994184

bias f4 [64]
0	0x3d1317f1	0.035911504
1	0x3b263d09	0.002536597
2	0x3b75695e	0.0037446837
3	0xbad60484	-0.001632825
4	0x3b0ab502	0.0021165018
5	0xba7efe24	-0.0009727201
6	0x3b85d6ef	0.00408446
7	0x3b0235be	0.0019868459
8	0x3ae93a1d	0.0017793808
9	0xbba0114f	-0.004884876
10	0xbb92cd43	-0.0044800355
11	0xbaedffd2	-0.0018157905
12	0xbb000580	-0.0019534528
13	0xbafc29e9	-0.0019238564
14	0x3b75b3c4	0.0037491182
15	0x3ae1bf74	0.0017223195
16	0xbaa30233	-0.0012436569
17	0xbaf522f1	-0.001870243
18	0xbaf0d74a	-0.0018374708
19	0x3aad0b03	0.0013202134
20	0x3b0cc524	0.002147981
21	0x3b1118e8	0.002214009
22	0x3a6ef19a	0.0009114981
23	0x39bceee4	0.00036036142
24	0xbb44d7ac	-0.0030035777
25	0xba2ea142	-0.00066616025
26	0x3b279cc2	0.0025575613
27	0xba3d29b2	-0.0007215991
28	0x3cc47f5a	0.023986507
29	0xba95f4f7	-0.0011440803
30	0x3aa9eefc	0.00129649
31	0x3b586d79	0.0033024235
32	0xbacf3315	-0.001580807
33	0x3b406e3f	0.0029362587
34	0x3afb3369	0.0019165102
35	0x3becb843	0.007224114
36	0xbaa4cfdc	-0.0012574154
37	0x3c786638	0.01516109
38	0xba2867a1	-0.00064241333
39	0x3bce9f35	0.0063056
40	0xba5d44a5	-0.000844071
41	0x3c59d2b9	0.013294869
42	0xbb0255b8	-0.0019887518
43	0x3b035a7e	0.0020042951
44	0x3b328629	0.002724061
45	0x3abe9a52	0.0014541841
46	0x3b461278	0.003022341
47	0x3b3ff589	0.0029290637
48	0xbae39440	-0.0017362908
49	0xbabca75b	-0.0014393138
50	0x3b8344b5	0.0040059933
51	0x3b333e14	0.0027350234
52	0x3a2c4c96	0.00065726915
53	0xba3e670f	-0.0007263282
54	0x3ab73693	0.0013978056
55	0xbb22affd	-0.0024824135
56	0x3a16181f	0.000572564
57	0x3b1395c9	0.0022519699
58	0x3a09ff56	0.0005264183
59	0xbb1be251	-0.0023786018
60	0xb856fdac	-5.1257826e-05
61	0xbb85c992	-0.004082867
62	0xbae5427b	-0.0017491126
63	0x3bc7e0a0	0.0060997754

weight f4 [1, 64]
0	0xbbe10c5a	-0.0068679275
1	0x3de82b07	0.11336332
2	0x3d3a4aac	0.04548137
3	0xbd8aeccf	-0.06783449
4	0x3d2d2e98	0.042280763
5	0xbdd1a259	-0.102360435
6	0x3be04a47	0.006844792
7	0x3d98e69e	0.07465862
8	0x3d72d33f	0.05928349
9	0x3cab5a4c	0.02091708
10	0x3cc824de	0.024431642
11	0xbe082c80	-0.13298225
12	0xbe0bcbb5	-0.13651927
13	0xbddbbd3d	-0.10729454
14	0x3dcb6c0f	0.0993272
15	0x3dc8ed92	0.09810938
16	0xbdb9658e	-0.09052573
17	0xbdfa986f	-0.12236106
18	0xbdedc12a	-0.11609109
19	0x3e0130c2	0.12616256
20	0x3e0e7e6e	0.13915417
21	0x3e04cceb	0.12968795
22	0x3d0ef793	0.034904074
23	0xbd3c7295	-0.04600771
24	0xbd3a5427	-0.04549041
25	0xbdac9a6d	-0.08427892
26	0x3d7cdb2f	0.061732467
27	0xbd956ebd	-0.07296512
28	0xbb380c9b	-0.0028083685
29	0xbde4f02f	-0.11178624
30	0x3d1581ec	0.036500856
31	0x3d7f476e	0.06232398
32	0xbe249e7a	-0.16076079
33	0x3d8fc617	0.070202045
34	0x3e030500	0.12794876
35	0x3c724951	0.014787988
36	0xbda9b738	-0.08286899
37	0xbb3ec847	-0.0029111074
38	0xbda329bd	-0.07966945
39	0x3c81c006	0.015838634
40	0xbd97cc06	-0.07411961
41	0x3a36b567	0.000696978
42	0xbe05aa71	-0.130533
43	0x3dbe2762	0.092848554
44	0x3dbc0b59	0.09181852
45	0x3de7c9d5	0.11317793
46	0x3d114551	0.035466496
47	0x3d6cb711	0.057791773
48	0xbdd1b36a	-0.10239299
49	0xbe09b208	-0.1344682
50	0x3d888052	0.066651
51	0x3e0f51f0	0.139961
52	0xbcb38f6e	-0.021918979
53	0xbda14f25	-0.07876424
54	0x3da1b15a	0.07895155
55	0xbe60f0a1	-0.21966793
56	0xbd2185b3	-0.039434146
57	0x3e171196	0.14752802
58	0xbd23bacd	-0.03997307
59	0xbdc93eda	-0.09826441
60	0x3ca20afa	0.019780625
61	0xbd0c5e20	-0.034269452
62	0xbe2643fb	-0.1623687
63	0x3c86d754	0.016460098

exp_avg f4 [64, 3]
0	0x39e9c7af	0.0004459
1	0xbac8b16b	-0.0015311664
2	0x3cf810bf	0.030281423
3	0xb9563a1c	-0.00020430278
4	0xb8f7c44b	-0.0001181444
5	0x3b82210c	0.0039712247
6	0x397e4d05	0.0002425202
7	0x3a8ebcd8	0.001089002
8	0xbb80da62	-0.0039322833
9	0x3b970374	0.004608566
10	0xba998347	-0.0011712097
11	0xbcdb4c1b	-0.026769688
12	0xbb7c5beb	-0.0038506936
13	0xbaaa51d6	-0.001299436
14	0x3b39c697	0.0028347129
15	0xbc78deb7	-0.015189818
16	0xba2537b7	-0.00063025526
17	0x3d99c56c	0.07508358
18	0xb9705ece	-0.00022923501
19	0xb930fe4b	-0.000168794
20	0x3b703f12	0.0036658687
21	0xbb793c9e	-0.0038030515
22	0xba3a487f	-0.00071061397
23	0x3c9b31af	0.01894459
24	0x3ab7ec4c	0.0014032214
25	0xba996841	-0.0011704044
26	0xbb69c231	-0.0035668726
27	0x3b34b097	0.0027571076
28	0x3a515a9d	0.000798622
29	0xbc9877f2	-0.018611882
30	0x39d71288	0.00041021802
31	0xb94413c7	-0.00018699384
32	0x3a193618	0.00058445474
33	0x3b31a8fe	0.0027108784
34	0x3b7d47d5	0.0038647552
35	0xbcdebdce	-0.027190115
36	0xb9f83d2e	-0.00047347829
37	0x39f89127	0.00047410393
38	0xbc001a5e	-0.007818786
39	0x3b5e2721	0.0033897834
40	0x3b6729ae	0.0035272646
41	0xbc897ade	-0.01678222
42	0x3af012c6	0.0018316142
43	0x3b23af24	0.0024976218
44	0xbcdd5ec0	-0.02702272
45	0x3c5e903b	0.013584192
46	0x3adbf2d5	0.0016780744
47	0xbd9615b2	-0.07328357
48	0xbb81d212	-0.00396181
49	0xbb50636d	-0.0031797544
50	0x3c2f1e1d	0.010688332
51	0x3b3a224f	0.0028401797
52	0x3b38f49c	0.002822197
53	0xbc8f1e05	-0.01747037
54	0xbadef9a1	-0.0017011651
55	0xb9be4686	-0.00036292168
56	0x3c3a14b7	0.011357478
57	0x380289ea	3.1122858e-05
58	0xba1a6b09	-0.0005890583
59	0x3ba720c5	0.005100342
60	0x3afe314b	0.0019393353
61	0xba2ee94c	-0.0006672337
62	0xbc107d7a	-0.008818978
63	0xbc256975	-0.010095944
64	0xbbc0e3f1	-0.0058865477
65	0x3d21c1c2	0.039491422
66	0x3a1c9d7b	0.0005974394
67	0xba15eb46	-0.00057189574
68	0x3a0ee4d1	0.00054509664
69	0x3b6759fd	0.003530144
70	0xbac8b0a2	-0.001531143
71	0xbc996c81	-0.018728497
72	0xbbfff9b7	-0.0078117508
73	0xbb7d4687	-0.0038646774
74	0x3ceae60b	0.028674146
75	0xbb4974c7	-0.003073977
76	0xbb2d75d2	-0.0026467931
77	0x3c1f0e80	0.009708047
78	0x3b6f5590	0.0036519505
79	0x3b8075be	0.003920286
80	0xbc8d8660	-0.017275989
81	0x3b5ff34d	0.0034172118
82	0x3b5a80a6	0.003334084
83	0xbc9dbae2	-0.019254152
84	0x3a979864	0.0011565802
85	0x39bb77f7	0.000357568
86	0xbc168163	-0.009186122
87	0x3ac1a7af	0.0014774705
88	0x3acf7675	0.001582815
89	0xbc5b42c0	-0.013382614
90	0x3abd166e	0.001442624
91	0xbaadcaab	-0.0013259252
92	0xb9b9f5f1	-0.0003546919
93	0xbb03380f	-0.0020022427
94	0xbae16345	-0.0017195722
95	0x3c6395ae	0.013890667
96	0xbb495b47	-0.0030724572
97	0xbb20c853	-0.0024533465
98	0x3cd6ac0d	0.026205087
99	0xbc050c5e	-0.008120624
100	0xbb544630	-0.0032390468
101	0x3cd1a15c	0.025589637
102	0x3af18cf0	0.0018428843
103	0x3b2112f0	0.0024577938
104	0xbc7ec310	-0.015549436
105	0x3b84e9a4	0.0040561724
106	0x3aca41a6	0.0015430942
107	0xbc18edee	-0.009334071
108	0x3b43a8d1	0.002985526
109	0x3b57748a	0.003287586
110	0xbcbef5d0	-0.023310572
111	0x3a556f18	0.00081418594
112	0x39930ff8	0.00028049923
113	0xbc4e32cc	-0.012585353
114	0xbbecadda	-0.007222873
115	0xbb9c71f0	-0.0047743246
116	0x3c8fd4bc	0.017557494
117	0x3c25c887	0.01011861
118	0x3bd67ad5	0.0065454044
119	0xbd5ac649	-0.053411756
120	0xbbbdbb00	-0.0057901144
121	0xbb374570	-0.0027964972
122	0x3c8d0b1e	0.017217215
123	0x3bc82912	0.0061084116
124	0x3b927220	0.004469171
125	0xbcdb7c77	-0.026792748
126	0xbaea583f	-0.0017879083
127	0xbaa626c0	-0.0012676343
128	0x3bee0bcb	0.0072645894
129	0x3b0f3cf3	0.0021856397
130	0x3b2ac736	0.002605868
131	0xbc90523a	-0.017617334
132	0xbc0579ec	-0.008146744
133	0xbb484ab1	-0.0030562098
134	0x3cffe732	0.031238172
135	0xbc57c370	-0.0131691545
136	0x3b8b9636	0.00425985
137	0x3cbaeacb	0.022817036
138	0x3b9621f3	0.004581684
139	0xbb1a8b43	-0.0023581542
140	0xbc77830e	-0.0151069295
141	0x3a383307	0.00070266466
142	0x39e5eec2	0.00043856172
143	0xb9c6a7a0	-0.00037890393
144	0xb7a6091e	-1.9792988e-05
145	0x37e9665c	2.782343e-05
146	0x39241a47	0.00015650048
147	0xbaddaa86	-0.0016911782
148	0xba7ee9c1	-0.0009724163
149	0x3c33631f	0.010948925
150	0x3a41bde3	0.0007390661
151	0x3a9a52fc	0.0011773999
152	0x3c5cd23a	0.013477856
153	0x3ba70e0c	0.00509811
154	0x3ac20973	0.0014803841
155	0xbc3fd22c	-0.011707824
156	0xbb119fef	-0.0022220572
157	0x388a75cf	6.602296e-05
158	0x3bbe440f	0.005806453
159	0x3b45fbbf	0.0030209867
160	0xb97c70ff	-0.00024074687
161	0xbc549afa	-0.012976402
162	0x38d4ae42	0.00010141406
163	0x384806e2	4.7690126e-05
164	0x3b0286cf	0.0019916778
165	0xbb2fcd8e	-0.00268254
166	0xbb400c7c	-0.0029304316
167	0x3cac6348	0.021043435
168	0x3abc5ed5	0.0014371524
169	0xba439fe4	-0.0007462485
170	0xbbb7c2c8	-0.0056079365
171	0xbb02b349	-0.0019943288
172	0xba78004f	-0.0009460495
173	0x3c61597b	0.013754244
174	0xba14e0b8	-0.00056792377
175	0xb845a5a5	-4.712273e-05
176	0x3b66ed7d	0.003523677
177	0x3b836fc4	0.0040111262
178	0x3b883ade	0.004157408
179	0xbd04db34	-0.03243561
180	0x3a1b6569	0.0005927892
181	0xbaaf3f12	-0.0013370237
182	0x3b8c5823	0.0042829677
183	0x3ab8afb7	0.0014090453
184	0xba236d5d	-0.0006234253
185	0xba52b77b	-0.0008038205
186	0x3a8c133d	0.0010686886
187	0xb9a40ea3	-0.00031291423
188	0xbbd6ad7f	-0.006551444
189	0xbbb8963a	-0.005633143
190	0xbabcebe0	-0.0014413558
191	0x3c932659	0.017962622

exp_avg_sq f4 [64, 3]
0	0x39cbb9d7	0.0003885764
1	0x3a22ff9c	0.00062178983
2	0x3d782195	0.0605789
3	0x374536a3	1.1754836e-05
4	0x3724ab2d	9.815017e-06
5	0x3a542110	0.0008092085
6	0x37d73db0	2.5658723e-05
7	0x385d97a2	5.2831725e-05
8	0x3b27156d	0.0025494948
9	0x39a858de	0.00032109668
10	0x394703fa	0.000189796
11	0x3c2520ee	0.010078652
12	0x3b01f617	0.001983052
13	0x3838a551	4.402298e-05
14	0x3a685636	0.0008862944
15	0x3c8868ff	0.016651629
16	0x3ab0ceab	0.0013489326
17	0x3d6eee2e	0.058332615
18	0x37e1c4b4	2.6913687e-05
19	0x37668374	1.3739675e-05
20	0x39c5a2d6	0.0003769609
21	0x3b16a732	0.002298784
22	0x39149d76	0.00014173039
23	0x3b7b07b0	0.0038304143
24	0x37a403bc	1.9552062e-05
25	0x37161e9b	8.947823e-06
26	0x3a28ff95	0.0006446776
27	0x3aad520e	0.0013223307
28	0x391a706f	0.00014728469
29	0x3bbd5133	0.005777502
30	0x39753069	0.00023383055
31	0x37b883dd	2.1995913e-05
32	0x3aa1a09e	0.0012331193
33	0x3a108fa5	0.0005514569
34	0x39d6ff6a	0.0004100756
35	0x3ca91487	0.020639671
36	0x38821a07	6.203731e-05
37	0x37fb9bc6	2.999407e-05
38	0x3b5a5ae8	0.0033318345
39	0x3b704eff	0.003666818
40	0x3999dd74	0.0002934743
41	0x3be3ef4a	0.0069560157
42	0x39cdd3d8	0.00039258483
43	0x39c2f865	0.00037187632
44	0x3cebc2e2	0.02877945
45	0x3c282aa1	0.01026407
46	0x3a8c92a5	0.0010724856
47	0x3d318668	0.04334107
48	0x3b8a60bc	0.0042229574
49	0x396dc064	0.00022673752
50	0x3ba29c96	0.004962514
51	0x3ac29ea3	0.0014848303
52	0x396d7fde	0.00022649716
53	0x3c156c6c	0.009120088
54	0x37e3d7c0	2.7160975e-05
55	0x37a9b5a2	2.023095e-05
56	0x3aad519d	0.0013223175
57	0x3841fa1f	4.624773e-05
58	0x37ab8976	2.0448799e-05
59	0x3a33cbe8	0.00068586925
60	0x37019da3	7.725702e-06
61	0x359d7eda	1.173433e-06
62	0x39f675b7	0.0004700848
63	0x3ba3ac69	0.004994918
64	0x39e500f0	0.00043678982
65	0x3c1c0e0a	0.009524832
66	0x393cc1fe	0.00018001345
67	0x37b89b8f	2.2006947e-05
68	0x3a895b0b	0.0010479403
69	0x37842923	1.5754782e-05
70	0x36b57d29	5.408791e-06
71	0x3a4c01ef	0.00077822705
72	0x3bea32ad	0.0071471543
73	0x3a0ea1f7	0.0005441005
74	0x3cb1a761	0.021686258
75	0x38f5607d	0.00011700483
76	0x39d0493c	0.00039727415
77	0x3c4fd5c0	0.012685239
78	0x3b1ac8f3	0.002361831
79	0x39a65c66	0.0003173083
80	0x3c28b0e0	0.010296077
81	0x3a94a1d9	0.0011339738
82	0x3927bb74	0.00015996193
83	0x3bdb85c8	0.0066992976
84	0x39fef655	0.00048630187
85	0x3874b07a	5.833849e-05
86	0x3b8b3c40	0.0042491257
87	0x3a0e472d	0.0005427476
88	0x394136b6	0.00018426296
89	0x3c631478	0.013859861
90	0x38234173	3.8923183e-05
91	0x3782e4d5	1.5603766e-05
92	0x3a90b9e4	0.0011041728
93	0x38b4ba95	8.6178225e-05
94	0x38a3e3a2	7.8148456e-05
95	0x3bc32b4f	0.0059560905
96	0x3a030ef5	0.0004999482
97	0x39ef7a83	0.0004567691
98	0x3d041ac1	0.032252077
99	0x3b6003dd	0.003418199
100	0x39ab6d1e	0.0003269696
101	0x3c45445d	0.012040225
102	0x390388af	0.00012544052
103	0x38ff08dd	0.000121609984
104	0x3bd26d18	0.0064216964
105	0x3af13315	0.0018402064
106	0x38f200bf	0.00011539598
107	0x3a9a865a	0.0011789307
108	0x38d2eecc	0.0001005806
109	0x39266ddb	0.00015871918
110	0x3c47b939	0.012190157
111	0x39755ff6	0.00023400769
112	0x3894c2f2	7.093501e-05
113	0x3b1ad3e0	0.0023624822
114	0x3bfdaf5c	0.0077418517
115	0x3943af02	0.00018661845
116	0x3b4b6ea6	0.0031041293
117	0x3c16b5c7	0.0091986125
118	0x3a98fa58	0.0011671288
119	0x3d801d92	0.0625564
120	0x3b3ddce5	0.0028970775
121	0x38d3f09f	0.00010106083
122	0x3aef6df9	0.0018267027
123	0x3b6d4341	0.0036203417
124	0x399a4824	0.00029426918
125	0x3c294738	0.010331921
126	0x39a7632d	0.00031926614
127	0x3813b5df	3.521691e-05
128	0x3ae419cf	0.0017402711
129	0x390a469e	0.00013187013
130	0x38e3d053	0.00010863007
131	0x3bc8197c	0.0061065536
132	0x3bfdc6ec	0.0077446606
133	0x3a215bec	0.000615536
134	0x3ce50ebf	0.027961133
135	0x3c0306d4	0.007997233
136	0x39fe7f33	0.00048541426
137	0x3c9ec2d7	0.019380016
138	0x3941af7b	0.00018471286
139	0x388ccce5	6.713885e-05
140	0x3bc69ee5	0.006061422
141	0x39bb0b13	0.0003567567
142	0x37f8a0a7	2.9638713e-05
143	0x3a46a17c	0.00075771636
144	0x357a5d66	9.326817e-07
145	0x34e51c9f	4.2675399e-07
146	0x388b4a5b	6.641886e-05
147	0x3ad7e3f4	0.0016471134
148	0x393630f9	0.00017375116
149	0x3bf66e34	0.0075204615
150	0x39244b30	0.00015668268
151	0x39385235	0.00017578232
152	0x3cab38b9	0.02090107
153	0x3bbc162d	0.0057399482
154	0x39836c05	0.00025066748
155	0x3b94da80	0.004542649
156	0x3ab00e69	0.0013432029
157	0x38e162c5	0.00010747233
158	0x3b292080	0.0025806725
159	0x3a0aee21	0.0005299766
160	0x3833f6ea	4.2906882e-05
161	0x3b1d4c3c	0.0024001738
162	0x39323024	0.00016993337
163	0x38027f11	3.1112755e-05
164	0x3b4fcac3	0.0031706549
165	0x39c3b402	0.00037327415
166	0x39b5a01b	0.00034642298
167	0x3c8d7969	0.017269807
168	0x3831a5bd	4.2354444e-05
169	0x37cd07d3	2.4441548e-05
170	0x3aa3e229	0.0012503314
171	0x3b0e336f	0.0021698137
172	0x390e27e9	0.00013557043
173	0x3b4ab15a	0.0030928464
174	0x38b4d6d6	8.623085e-05
175	0x37c88232	2.3902485e-05
176	0x3a91d3da	0.0011125759
177	0x3a8b202d	0.0010614448
178	0x3a0fdfeb	0.00054883835
179	0x3ce0f6b6	0.027461391
180	0x37b3d15e	2.1435957e-05
181	0x3700b821	7.672265e-06
182	0x39bb7edb	0.00035761934
183	0x386a82c3	5.591173e-05
184	0x3772c133	1.4469307e-05
185	0x3a8855ca	0.0010401544
186	0x388e7ff6	6.794922e-05
187	0x37faff18	2.992111e-05
188	0x3aca0ef2	0.0015415831
189	0x3b39ad0c	0.0028331904
190	0x39252410	0.0001574906
191	0x3bc66f83	0.0060557737

exp_avg f4 [64]
0	0xbc335a8a	-0.010946879
1	0x3a811ec6	0.000985109
2	0x3a95a439	0.001141674
3	0xbc15bf3f	-0.009139835
4	0xbb8936f9	-0.0041874615
5	0x3c5f13c5	0.013615553
6	0xba8c6629	-0.0010711598
7	0x3b5d5cf5	0.003377733
8	0xba8cf0b6	-0.001075289
9	0xbbb9c3aa	-0.005669077
10	0x388c5a62	6.692555e-05
11	0x3c196577	0.00936257
12	0x3b0800ee	0.0020752507
13	0x3bdccdbf	0.006738394
14	0x3c24ab31	0.010050581
15	0xbbf02b79	-0.007329401
16	0xbb8f673b	-0.0043763197
17	0x3bf0e38d	0.007351345
18	0x3b21334e	0.002459723
19	0x3b1bd3db	0.0023777399
20	0xbb2031f5	-0.002444384
21	0xbb81336b	-0.003942897
22	0x3a6e954f	0.0009101228
23	0xbb9be7fe	-0.0047578802
24	0xbc4f76ee	-0.012662632
25	0xbb27cf1d	-0.0025605627
26	0x3be83dbb	0.007087437
27	0x3c036358	0.008019291
28	0x3b6896f7	0.0035490373
29	0x3bb19f07	0.005420569
30	0xba16e8cc	-0.00057567353
31	0xbb541ff0	-0.003236767
32	0xbc260a40	-0.01013428
33	0xbc251228	-0.01007513
34	0x3bbe27e4	0.005803095
35	0x3b5058ca	0.0031791204
36	0x3c16200c	0.009162914
37	0xbbba042e	-0.005676768
38	0xbc0bc559	-0.008530938
39	0x3ccfe029	0.025375443
40	0xb9d26ee3	-0.00040136938
41	0x3c51208a	0.012764106
42	0xbb85ae45	-0.0040796124
43	0x3bdeff8b	0.0068053654
44	0xbc2d14a2	-0.010564001
45	0xbb2107a5	-0.0024571207
46	0xbb97ffdf	-0.0046386565
47	0x3a0ff61a	0.0005491689
48	0xb73661b4	-1.0870794e-05
49	0xbba7dd3b	-0.0051228083
50	0xbb9bbd4b	-0.00475279
51	0x3c064741	0.008195699
52	0x3ac9175e	0.0015342047
53	0xbb2b5f55	-0.0026149352
54	0xba472348	-0.0007596505
55	0xbc1f8a55	-0.009737571
56	0xbad0a828	-0.0015919255
57	0x3b2d72a2	0.0026466032
58	0xb9d17697	-0.00039951943
59	0x3c590f14	0.013248224
60	0x39b7393f	0.00034947132
61	0xb9cd09eb	-0.00039108036
62	0xbadfe3f8	-0.001708149
63	0xbbac61f3	-0.0052607

exp_avg_sq f4 [64]
0	0x3b2bb459	0.0026200025
1	0x382359e8	3.894596e-05
2	0x38fd265a	0.00012071124
3	0x3a4a97a1	0.0007728283
4	0x3b056633	0.0020355105
5	0x3ca01cc8	0.019544974
6	0x381c3cb5	3.7249836e-05
7	0x3b259323	0.0025264702
8	0x381a6bae	3.6816746e-05
9	0x3add9900	0.001690656
10	0x398ab25d	0.00026454302
11	0x3aca6748	0.0015442157
12	0x39362cde	0.00017373587
13	0x3b8543c7	0.0040669176
14	0x3ad0d71d	0.0015933249
15	0x3c4aeb96	0.01238527
16	0x3b933e73	0.0044935285
17	0x3b0445f4	0.0020183297
18	0x3890a31a	6.896835e-05
19	0x3894cd8d	7.095477e-05
20	0x376d9582	1.4161111e-05
21	0x3bb51002	0.00552559
22	0x396942d1	0.00022245503
23	0x38071bfd	3.2212574e-05
24	0x3c0a7927	0.0084517365
25	0x3a45b4a8	0.00075418735
26	0x3b4180dc	0.002952627
27	0x3ac66d78	0.0015138825
28	0x3a414518	0.00073726615
29	0x3aabc1a9	0.001310398
30	0x38a4baed	7.854947e-05
31	0x39a551cd	0.000315322
32	0x3b03953d	0.0020077967
33	0x3b880587	0.0041510495
34	0x39ecd1cc	0.0004516974
35	0x3afd286c	0.0019314415
36	0x3a2121f4	0.0006146722
37	0x39bae33f	0.00035645996
38	0x3c014d82	0.007892014
39	0x3c4e3318	0.012585424
40	0x3b4260d8	0.0029659774
41	0x3b87f1ac	0.0041486826
42	0x39e0dbf9	0.00042888502
43	0x39db55d8	0.00041834894
44	0x3c1b7fa7	0.009490884
45	0x3c11806d	0.008880717
46	0x39bab7fa	0.00035613758
47	0x39cb21f0	0.00038744463
48	0x35e88b5b	1.7325905e-06
49	0x3b0e0031	0.0021667595
50	0x3a74dc53	0.0009340692
51	0x3bc76028	0.0060844608
52	0x3ac17f48	0.0014762664
53	0x3a24739f	0.00062733324
54	0x39803698	0.00024454738
55	0x3aaa5950	0.0012996588
56	0x38b7c8ae	8.7634995e-05
57	0x3b1b19a7	0.0023666413
58	0x38ef248c	0.000114032155
59	0x3b296e1c	0.0025852984
60	0x3806ae0f	3.2110194e-05
61	0x38c7dfea	9.530767e-05
62	0x390419b6	0.00012598079
63	0x3b575f7a	0.0032863305

exp_avg f4 [64]
0	0x3a9bee9e	0.0011896675
1	0x37b1f389	2.121345e-05
2	0xb9296f91	-0.00016158658
3	0xbbbbd8a8	-0.0057326145
4	0xbaece1e3	-0.001807269
5	0x3ba64611	0.0050742705
6	0xb9e08b1f	-0.00042828263
7	0x3c052ef7	0.008128873
8	0xba37a520	-0.00070055015
9	0xbb98c739	-0.004662421
10	0x3a09256b	0.0005231711
11	0x3b5ac60c	0.0033382205
12	0x3a4aa0c0	0.0007729642
13	0x3c640ef5	0.013919582
14	0xbb2074ad	-0.0024483607
15	0xbae7c7e9	-0.0017683479
16	0xbb1a7257	-0.0023566687
17	0x3923afa4	0.00015610323
18	0x3a3c17b3	0.00071751623
19	0x39b5d3f2	0.00034680922
20	0xbaaf0535	-0.0013352992
21	0x3b323c2c	0.002719651
22	0x3b0c2394	0.002138351
23	0xbb74a7a9	-0.0037331379
24	0xbb7ef008	-0.0038900394
25	0x3aeac399	0.0017911076
26	0x3c12482c	0.00892834
27	0x3c1934e0	0.009350985
28	0x3bb5b1a0	0.005544856
29	0x3b865693	0.004099676
30	0xbb1e7d5b	-0.0024183604
31	0xbb07f713	-0.0020746633
32	0xbb9196a4	-0.0044430066
33	0xbb00b79e	-0.0019640694
34	0x3b76a00c	0.0037632016
35	0xbaf5378b	-0.001870857
36	0x3b8b89a1	0.00425835
37	0xbb9437ca	-0.004523252
38	0xbb64f83b	-0.0034937996
39	0xb81a23ad	-3.6749687e-05
40	0x3b7d1509	0.0038617274
41	0x3b883543	0.00415674
42	0xbb6d8c1f	-0.0036246849
43	0xbb874489	-0.004128043
44	0xbbe5c184	-0.0070115943
45	0xbaca282b	-0.0015423348
46	0xbbf4d3a4	-0.0074715186
47	0x3a1572d6	0.0005701011
48	0xbaca0a32	-0.0015414415
49	0xbb9b9d1e	-0.0047489544
50	0xb9364b71	-0.00017384977
51	0x3bbfd988	0.005854789
52	0x3ae46e31	0.0017427859
53	0xbb98dd2e	-0.0046650385
54	0x3a9b2f58	0.0011839671
55	0xbb8304ee	-0.0039983904
56	0xba2f7706	-0.0006693456
57	0x3c093c30	0.008376166
58	0xba2ec2d3	-0.00066666043
59	0xbac4446b	-0.0014974003
60	0x3b4b9e69	0.0031069762
61	0xb82993ff	-4.0430572e-05
62	0xbb848667	-0.0040443423
63	0xbbf2318c	-0.0073911604

exp_avg_sq f4 [64]
0	0x3990bea1	0.0002760785
1	0x392c4c02	0.00016431513
2	0x38d135ce	9.9759185e-05
3	0x399dd84a	0.0003010652
4	0x383311f8	4.269366e-05
5	0x3a60f7d6	0.00085818523
6	0x37867c34	1.6031881e-05
7	0x3a16e145	0.00057556137
8	0x37f5d617	2.930597e-05
9	0x399ab711	0.00029509564
10	0x39220265	0.00015450416
11	0x3a14e699	0.00056801137
12	0x39015bff	0.0001233667
13	0x3bafecbd	0.0053687976
14	0x3988d724	0.00026100234
15	0x3af3d749	0.0018603589
16	0x3a350b05	0.0006906244
17	0x3819951d	3.6616915e-05
18	0x37cdc58f	2.45299e-05
19	0x388629c8	6.3974e-05
20	0x39df3fb3	0.00042581334
21	0x3afcd86a	0.0019290571
22	0x38dcb99f	0.00010524992
23	0x39805fbb	0.00024485387
24	0x39ac3038	0.00032842322
25	0x3a2df2b6	0.0006635593
26	0x3b073d74	0.0020635994
27	0x3ad529bd	0.0016263049
28	0x3aaa1865	0.0012977241
29	0x3a210a89	0.00061432325
30	0x39c7d3ba	0.00038113986
31	0x38aba26c	8.184169e-05
32	0x3a51ac6e	0.00079984113
33	0x391f45ec	0.0001518947
34	0x3a0d276f	0.0005384599
35	0x3a8e8ac1	0.0010875092
36	0x3a12c140	0.00055982545
37	0x3a3ee49d	0.0007281991
38	0x3936fa82	0.00017450194
39	0x3972607d	0.00023114863
40	0x39904a98	0.00027521397
41	0x39964e5c	0.00028668612
42	0x391b8a71	0.00014833525
43	0x3929cd2a	0.00016193526
44	0x3a6cde3f	0.0009035803
45	0x399ed248	0.0003029278
46	0x3a1553b4	0.00056963717
47	0x3893afb9	7.042237e-05
48	0x38c71a1d	9.4939234e-05
49	0x3ab6156f	0.0013891886
50	0x39590b35	0.00020698908
51	0x3a4385bc	0.00074585876
52	0x39d4c2f1	0.00040581034
53	0x3a4fcfad	0.00079273694
54	0x38e9e77d	0.00011153424
55	0x3a041dda	0.00050398486
56	0x3929dcc6	0.0001619934
57	0x3a65d113	0.0008766811
58	0x38ac3a67	8.2124774e-05
59	0x3974bf4a	0.00023340914
60	0x39366fd4	0.00017398532
61	0x39d4ae69	0.00040565737
62	0x39dae615	0.00041751625
63	0x3a2a60a8	0.0006499388

exp_avg f4 [64]
0	0xbbca82ad	-0.0061801285
1	0x3a8de530	0.001082575
2	0x3a519cd6	0.00079960877
3	0xbb5c3a68	-0.0033604149
4	0x3aef5325	0.0018259032
5	0x3c019024	0.007907901
6	0x381e40f0	3.7730613e-05
7	0x39d62e6e	0.00040851854
8	0xbacffe89	-0.0015868704
9	0xba7501f2	-0.0009346298
10	0xba154902	-0.0005694778
11	0x3afaf38e	0.0019146071
12	0x3b2f8394	0.0026781308
13	0x3aa4052b	0.0012513747
14	0x3b966125	0.0045892172
15	0xbbacbd89	-0.005271618
16	0xb96a6647	-0.0002235408
17	0x3b32f539	0.0027306809
18	0x3a5d773b	0.00084482477
19	0x3adeda3e	0.0017002297
20	0x39e78ae1	0.00044163226
21	0xbb24ba9a	-0.0025135637
22	0xbb154e70	-0.0022782348
23	0xbae138d7	-0.0017183077
24	0xbbc3ee5c	-0.0059793424
25	0xbb310f12	-0.002701704
26	0x3b482d73	0.0030544668
27	0x3b7cc860	0.0038571581
28	0x3a9af718	0.0011822907
29	0x3ab4b1d2	0.0013785905
30	0x3b5000bf	0.0031738726
31	0x3a4aaba0	0.00077312626
32	0xbb46b400	-0.003031969
33	0xba723454	-0.0009239365
34	0x3b324720	0.0027203038
35	0x3b6028d4	0.0034204023
36	0x3b5913d5	0.0033123393
37	0x3aba3e78	0.0014209291
38	0x397eafc8	0.00024288811
39	0x3c0b00ef	0.008484109
40	0xba81437e	-0.0009862033
41	0x3ae10958	0.0017168922
42	0x3aec6871	0.0018036497
43	0x3bb9d614	0.005671272
44	0xbb2b4089	-0.0026130995
45	0x3b505bb9	0.0031792952
46	0xba0c82bc	-0.0005360057
47	0xba986c63	-0.0011628981
48	0x3aed2d82	0.0018095227
49	0xba971b42	-0.0011528509
50	0xbb87e8bc	-0.004147617
51	0x3b24adc5	0.0025127989
52	0xba681678	-0.0008853446
53	0xb6f5be59	-7.3237284e-06
54	0xbacc9baf	-0.0015610362
55	0xbb11a28a	-0.0022222125
56	0xbb255826	-0.0025229543
57	0xba80b650	-0.0009819958
58	0x3a4b67ef	0.0007759323
59	0x3b9684ce	0.0045934683
60	0xba5a6c45	-0.00083321735
61	0xbaaa7a47	-0.0013006412
62	0xbabdaf42	-0.0014471787
63	0x3b2db985	0.0026508283

exp_avg_sq f4 [64]
0	0x3b316135	0.0027065997
1	0x39728625	0.00023128891
2	0x39ce3318	0.0003932945
3	0x3a4a1457	0.00077087193
4	0x392edda8	0.00016676506
5	0x3b2c5343	0.0026294745
6	0x386d0779	5.6512163e-05
7	0x39717c62	0.00023029887
8	0x3877b4d5	5.9057802e-05
9	0x39eaa373	0.00044753737
10	0x38cdfa4f	9.821785e-05
11	0x3b094c07	0.0020949857
12	0x397f708e	0.00024360625
13	0x3a5c7f18	0.00084112724
14	0x3ad23f93	0.0016040675
15	0x3b0e5f59	0.0021724312
16	0x39cf40c8	0.00039530382
17	0x3a3146a1	0.00067625387
18	0x38bb8c7b	8.9430214e-05
19	0x382603dd	3.9581082e-05
20	0x3a396324	0.0007071963
21	0x3a6e86a5	0.0009099043
22	0x3999bb90	0.0002932218
23	0x39fb366c	0.00047914998
24	0x3a96385f	0.0011460892
25	0x3abd146b	0.0014425641
26	0x3a4eca6d	0.000788844
27	0x3a05d69a	0.00051055255
28	0x39bd91b6	0.00036157452
29	0x3a4b62c8	0.0007758555
30	0x39e8b02f	0.00044381755
31	0x3969d34d	0.00022299327
32	0x3abbbb96	0.0014322873
33	0x3a42a387	0.000742488
34	0x3a000aaa	0.00048844016
35	0x3a60ea83	0.0008579867
36	0x3a477b69	0.0007609637
37	0x3a9e438c	0.0012074574
38	0x3a301cc4	0.00067181536
39	0x3b58eb48	0.0033099223
40	0x39fb87d2	0.00047975645
41	0x3a95c921	0.0011427739
42	0x392f940b	0.00016744451
43	0x3a079ef9	0.000517353
44	0x3abf916d	0.0014615484
45	0x3abaa45b	0.0014239656
46	0x3a49282d	0.0007673528
47	0x393fcf40	0.00018292386
48	0x3935ef31	0.00017350611
49	0x39be7e07	0.00036333522
50	0x3a5844ea	0.0008250015
51	0x3a5a6180	0.00083305687
52	0x3a06fcae	0.00051493465
53	0x396d74f2	0.00022645647
54	0x398c73a1	0.0002678903
55	0x3a52d6ec	0.000804289
56	0x3987f28e	0.00025929924
57	0x399fad8c	0.00030456146
58	0x3878f0af	5.935196e-05
59	0x3add8684	0.0016901051
60	0x398da8cc	0.0002701938
61	0x38f80234	0.00011825972
62	0x38fbb4fe	0.00012002325
63	0x3a55b4a4	0.0008152223
