experiments/training_curves/SHAC/seed_100/best_policy.pt (torch, 167108 bytes, 63 tensors)

weight f4 [64, 3]
00000000: e170 00bf 6328 c93e 3d01 8fbe 3456 58bd
00000010: 1c48 383e c889 973e 37f6 64be e942 09bf
00000020: 26b6 b9be 7c5f f0be fe3e fcbe 82c3 8f3e
00000030: f1dc 963e dd04 ce3e 77dd f8bd e16a 023f
00000040: a35d 273f cf5b 983e 9b67 93be 3393 86be
00000050: 0b2e bcbe 3ff0 c63e 5fbb e03d ff6c 113f
00000060: fa27 04be ec18 fe3e ca70 8f3e d4c4 c0bc
00000070: 0100 bdbe bb2b 6c3e a5c1 463d d773 83be
00000080: 02e5 9e3e a84c c4bc e61a 1cbf 5d7e a7be
00000090: a035 083f 0011 663e 5283 c1be 5612 e93e
000000a0: c36b 69bd bbf9 03bf 9aa2 7c3e dc90 53be
000000b0: 8dcd 5bbe 4028 2a3b 0d93 1abf 6d52 033c
000000c0: 49ba f63e eea9 413e 3f60 1cbd 0a49 803e
000000d0: 19e1 97bd b640 37be 9eff db3d 2c74 343d
000000e0: 9772 643e 0d6b 26be d69f dc3e 0b02 cb3e
000000f0: 47b7 8cbe 1ca1 743e 6a6b c73d ae3f f93e
00000100: 0f18 083f 2d3c 853e b31b 923e 9c14 233e
00000110: 8101 39be 8868 bfbe 7e40 013f 7671 653e
00000120: 4f23 dabe ff31 643e 34a6 29be 8fef f3be
00000130: 6895 1a3f 1f2d 383d 0e3b 633e 107f 98bd
00000140: 9e98 f5be d921 043f 7ece 85be 4842 0ebf
00000150: 79dc 063f 89a2 8ebe ac99 97be 0668 003f
00000160: 2189 823e 2c8f c1be 3abe 12be f29d c7be
00000170: 06ce e93e ae41 06bf 14e3 b1be 7fcf 5ebe
00000180: c29a c9be 1679 063f 47ef aabe 3146 bcbd
00000190: 7ff7 223e fad4 c2bd edf1 813d 35c5 10be
000001a0: 9f79 08bf 8765 e33e fd90 9cbe 4078 053e
000001b0: 80ee d43e 9faa 163e 6ddc e9be 06e6 59bd
000001c0: 1146 fb3c e97a 853e e4d6 e33e bf22 0b3f
000001d0: 3d09 073b 0933 0e3f d555 1ebe dbaa 9abe
000001e0: 825d 2fbe 4332 223f 0e04 8f3e 413e 573e
000001f0: dae3 9fbe d6d4 97be 965c 01bd 0d14 fb3d
00000200: c891 fabe 6ae7 f13e 9b24 88be a093 42be
00000210: f6eb bbbe 5f1f 063e d051 87be 0dd8 1c3f
00000220: 7c71 1c3f 0d09 333e 7b75 a0be 20bb f43e
00000230: 9dab cd3e 5161 0c3f 052c e4be be5f 5bbd
00000240: 31fe 86bd 34ee 18be 857c 86bd c177 b43d
00000250: bcc0 1d3f 490b 10bf 5f58 0ebf 9b82 ae3c
00000260: cb7b a9be 4e2e 61bd dbcf fbbe eca8 01bf
00000270: 3479 a43d 603b d8bd de5d 303e c88a 813e
00000280: d76a a2be a958 933e d157 133e 35ba 08be
00000290: 82d2 babe 603a 7fbe dd91 1e3f 83bf adbe
000002a0: 5e94 04bf c5e4 d1be 2689 f43e 7a4b 683e
000002b0: 5fa2 8fbe 5654 123f 4394 e5be 23cc 0abf
000002c0: b3b2 d4be bc0e b03e cf47 7ebe c1d3 62be
000002d0: 313b 81be bf58 cdbe e32f 0e3f 95bc 2cbd
000002e0: 9cd1 02be 096f 063f 4087 0bbf eb95 3ebe
000002f0: 3b94 093f 3291 ccbe 53a3 8b3e 555b bfbe
-0.5017224 0.39288625 -0.27930632 -0.052816585 0.17996258 0.29597306 -0.22359549 -0.5361772
-0.3627178 -0.4694785 -0.4926681 0.28078848 0.2946544 0.40238085 -0.12151616 0.50944334
0.65377253 0.29757544 -0.28789982 -0.2628418 -0.36753878 0.38855168 0.10973238 0.5680694
-0.12905875 0.4962839 0.2801574 -0.023531355 -0.36914065 0.23063557 0.048524518 -0.25674316
0.31034094 -0.023962334 -0.60978544 -0.32713595 0.53206825 0.22467422 -0.37795502 0.45521802
-0.056987535 -0.51552933 0.24671403 -0.20660728 -0.2146513 0.0025963932 -0.6038063 0.008015257
0.48189 0.1891248 -0.038177725 0.25055724 -0.07415981 -0.17895779 0.107421145 0.044056103
0.22309338 -0.16251774 0.43090695 0.39649996 -0.2748358 0.23889583 0.097372845 0.48681396
0.5316171 0.26022473 0.28536758 0.1592583 -0.1806698 -0.3738444 0.5048903 0.22406563
-0.42605063 0.22284697 -0.16567308 -0.47643706 0.60384226 0.044964906 0.22190496 -0.0744611
-0.47968 0.5161415 -0.26134104 -0.5556989 0.52680165 -0.2785838 -0.2960943 0.5015873
0.25495246 -0.37804544 -0.14330378 -0.3898769 0.45664996 -0.5244397 -0.3474356 -0.21758841
-0.39375883 0.5252851 -0.3338568 -0.091930754 0.15914725 -0.09513278 0.06344972 -0.14137729
-0.5331058 0.44413397 -0.30579367 0.13034153 0.4158821 0.14713524 -0.45675984 -0.053197883
0.030673059 0.26070336 0.44499886 0.54349893 0.0020604872 0.55546623 -0.1546243 -0.30208477
-0.17125514 0.63357943 0.2793278 0.21019842 -0.31228524 -0.29654568 -0.031582437 0.12259684
-0.48939347 0.47246867 -0.26590428 -0.19001627 -0.3670346 0.13097905 -0.26429605 0.6126717
0.61110663 0.17483921 -0.3133963 0.47799015 0.40169993 0.54835993 -0.44564834 -0.053558104
-0.06591452 -0.14934617 -0.06566719 0.08811904 0.61622214 -0.5626722 -0.55603594 0.021302512
-0.3310226 -0.0549758 -0.4918202 -0.5064838 0.0803093 -0.105582 0.17223307 0.25301194
-0.31722137 0.2877858 0.14388968 -0.13352282 -0.3648873 -0.24924612 0.6194132 -0.33935174
-0.5178889 -0.4099485 0.47760886 0.22685042 -0.28053567 0.57159936 -0.44839677 -0.5421774
-0.41542587 0.3438624 -0.2483208 -0.2215109 -0.25240472 -0.4010677 0.5554182 -0.042172033
-0.12775272 0.52513176 -0.5450325 -0.18611877 0.53741807 -0.39954525 0.27273044 -0.37374368

bias f4 [64]
00000000: 6240 e8be 49d6 4dbe 970b d1be edbb 23be
00000010: 3d2a 7fbe 6304 6cbe b03d 3ebe ee0e 68be
00000020: 8cf5 98be aae7 df3c c306 a43d 5d77 0dbe
00000030: 5dcf a4be 05c2 de3e 72cc e6be 4469 003f
00000040: fc03 1d3e 23b3 37be 09c5 febe d23f cf3d
00000050: 134c e8be 3d7e b43e 407f 20bc 40a4 06bf
00000060: 3446 0e3f 1b7d 123e 1ebb 283e 9ec4 97bd
00000070: 6548 f73e 485f 98be 7739 c5be 06ea 983e
00000080: cfb1 9ebd bbb5 ce3d d273 eebe b83f 763e
00000090: 068f 18bf 954c 46bd 2e8c 4ebe 49fc 03bf
000000a0: 8217 5a3e 1ba7 17be 4677 b83d d28f ffbe
000000b0: 8b03 f63e 59d8 f6be 46b5 acbe 4f22 b9be
000000c0: f3c1 edbe 5d66 2e3e f00e 54be 9239 5d3e
000000d0: d5c9 2c3e 489b 003f 7eb4 1dbe bff7 18be
000000e0: 6c7c 02bf dad1 a5bd 2f1e 0a3f 2fc4 c4be
000000f0: 5545 cbbe 580e 9e3e b0c3 513e 7e53 d93e
-0.4536162 -0.20101275 -0.40829155 -0.15989657 -0.24918456 -0.23048548 -0.1857822 -0.22661945
-0.29874837 0.027332146 0.08009102 -0.13815065 -0.32189456 0.435074 -0.45077854 0.5016062
0.15333551 -0.17939429 -0.497597 0.10119595 -0.4537054 0.35252562 -0.009795964 -0.52594376
0.5557587 0.14305536 0.1647763 -0.074105486 0.4829742 -0.29760194 -0.38520405 0.29866046
-0.07748758 0.10093256 -0.4657274 0.24047744 -0.59593236 -0.048412878 -0.20170662 -0.5155683
0.2129803 -0.1480984 0.090071246 -0.49914414 0.48049578 -0.48211935 -0.3373205 -0.36158988
-0.46437034 0.17031236 -0.20708823 0.21603993 0.16873868 0.5023694 -0.15400884 -0.14938258
-0.509711 -0.08096667 0.53952307 -0.38430926 -0.39701334 0.30870318 0.20484805 0.42446512

weight f4 [64]
00000000: 58ae 833f 00bd 7c3f 11d5 803f f389 843f
00000010: 7c57 7c3f e441 873f eb2c 7e3f c993 803f
00000020: 5958 7a3f 725f 823f 49b6 783f e8cd 823f
00000030: e891 803f 3e64 7b3f 2a2e 833f 6c72 873f
00000040: 27fd 803f 7b28 813f 27e3 723f b90b 803f
00000050: 00a5 7e3f e666 7a3f 0ae5 7a3f a995 7f3f
00000060: 2a93 803f ddee 803f 1077 7d3f 108d 7e3f
00000070: 7449 7c3f 903f 803f 188d 803f 8649 7b3f
00000080: 9f13 833f c844 813f 213f 803f 9031 7f3f
00000090: 9c27 803f c1e1 7c3f 553b 853f 7348 873f
000000a0: 4768 823f 3056 7f3f ebc5 7c3f a1c8 7e3f
000000b0: 541f 813f 281d 843f 4b44 803f dae6 7d3f
000000c0: 31b3 7d3f 28d3 7e3f 5d47 833f eb49 7c3f
000000d0: 16a6 7c3f 3611 7a3f 192a 783f 2379 823f
000000e0: 3284 803f 7455 7c3f 1ac1 7e3f 9694 863f
000000f0: 8157 803f b635 7b3f 7770 7a3f 3344 7c3f
1.028758 0.9872589 1.0065023 1.0354599 0.9857099 1.0566983 0.9928729 1.00451
0.9779106 1.0185378 0.97153145 1.0219088 1.0044527 0.9819983 1.0248463 1.0581794
1.0077256 1.0090479 0.94877857 1.0003577 0.9947052 0.9781326 0.98005736 0.9983774
1.0044911 1.0072895 0.990098 0.99433994 0.9854958 1.0019398 1.0043058 0.9815906
1.0240363 1.0099115 1.0019265 0.99685 1.0012088 0.98781973 1.0408732 1.0568985
1.0188073 0.99740887 0.987395 0.99524885 1.0087686 1.0321398 1.0020841 0.99180377
0.9910155 0.9954095 1.0256153 0.9855029 0.9869093 0.9768251 0.96939236 1.0193218
1.0040343 0.9856789 0.995134 1.0514095 1.0026704 0.9812883 0.9782786 0.98541564

bias f4 [64]
00000000: 4a42 1a3c f21f 8d3c 3551 ab3c ce03 13bb
00000010: 0285 083d dd72 103b 438b 97bb c07c fb3c
00000020: 002f 563c 1bd5 33bc cdae 543c 7e74 90bb
00000030: 5c14 88bc d680 80bc 35b9 37bb 70ab f33b
00000040: cef8 f9ba e97c d8bb 2c42 e53c a4e0 243a
00000050: 0b9a cd3b 6572 393b c200 8b3b e58b a1ba
00000060: e15b 38bc c9db 0d3c c7c6 94bc 9ba8 43bb
00000070: e7d3 923b bf00 82bb da91 bfba 79d2 31bc
00000080: ec38 dd3b 02ed 1dbc 8f6c edba 3315 c4bb
00000090: 2904 8cbc 38a2 dc3b 4297 9a3b 4408 633c
000000a0: 3afd 853c 75ec 0c3c 6cdf 49bc 8042 823c
000000b0: 5ae6 92bb 127c 853c 0610 1cbc ffee 6c3b
000000c0: c322 243c a421 553c c8ae be3b cc9b 6bbc
000000d0: 9de2 1f3c 5774 263b 4ff9 cf3b d2ea fa3b
000000e0: e885 833c f888 d33c 4889 bbbb 6412 c1bc
000000f0: dc07 0c3c ce7d a83b 2931 9d37 351b 2bbc
0.009415219 0.017227147 0.020912746 -0.0022432688 0.03332997 0.002204112 -0.0046247556 0.030699134
0.013072729 -0.010976101 0.012981129 -0.004408418 -0.01661127 -0.015686434 -0.0028033976 0.0074362084
-0.0019071342 -0.0066066873 0.027985655 0.00062895776 0.006274467 0.0028296944 0.0042420337 -0.0012325017
-0.011252374 0.008658358 -0.01816119 -0.0029855135 0.004480827 -0.003967374 -0.0014615611 -0.010853403
0.0067511704 -0.009639027 -0.0018114018 -0.0059839725 -0.017091827 0.006733205 0.0047177384 0.013856951
0.0163561 0.008601298 -0.012321334 0.01590085 -0.0044830265 0.016294513 -0.009525305 0.0036153195
0.010018053 0.013008509 0.0058191754 -0.014380407 0.009758619 0.0025398934 0.0063468586 0.0076573873
0.016055062 0.025822148 -0.0057231523 -0.02356834 0.008546796 0.00514195 1.873875e-05 -0.010443498

weight f4 [64, 64]
00000000: 8931 95bd fca8 5fbd ba05 043e 30da b9bd
00000010: 3be1 98bd 28e4 16bd f7b3 d5bd c9d1 68bd
00000020: 1043 853b 49aa ad3c 3de7 763d d04f 12bd
00000030: 13de 56bd 141d abbd 680c 0d3c 1ac7 24bd
00000040: 0e30 bfbd 7f4b a83d ec75 5c3d 7f1b a2bd
00000050: 2318 aabd c19d aabd 240c 59bd ff81 a0bd
00000060: 036e 98bd 9fe8 ac3d a22f afbd 2e0a 863d
00000070: da03 a0bd 8049 1ebd f4f2 67bd afd9 99bb
00000080: 9c02 3abc c806 853d f7e7 ee3d ab26 973d
00000090: 8de1 8d3d 07e5 803d 11fa 8fbd 083e 7dbd
000000a0: 65e5 c03d dd75 debd a303 d5bd 381b 013e
000000b0: adaf f83c 97f0 9b3d 731f c7bd 8097 61bc
000000c0: 9064 58bd 9fd6 a2bd 550b d5b9 cc16 d3bd
000000d0: a5a9 b33c 6080 823d 4e2e 47bd 08e2 d43d
000000e0: 2fc2 8c3d daa1 a9bd c3be d0bd 03ac 033c
000000f0: 9406 f3bd 4292 ffbd dbb5 93bd f7af a8bd
00000100: 4900 c4bd 53b8 b0bb 9f75 d53c 8c11 dabd
00000110: a6d9 e03d f87b af3d f81d b7bd c8ea 9abd
00000120: 5404 713d be3a e93d 8fd2 acbd de26 d03b
00000130: a48a a3bd 69b0 42bd 2ee9 1d3e 1dda a1bc
00000140: ad83 893d afc8 1e3e fb85 e8bd 378a c6bc
00000150: 7e4b d4bd 17e6 94bc fca1 adbd 1180 2abd
00000160: 4f3b 073d c0fb a63d 40f5 c93d ab48 a4bd
00000170: 6abf 8bbd c5ca 22bc a3e2 4fbc 2e29 5cbd
00000180: 6f18 e0bd b796 9e3d 3e43 d23d b225 843c
00000190: 0a4f e33c 8330 a5bd 9151 163d 6145 e13d
000001a0: 8ca1 0abe 2a8a a43d 1add babd 5824 313d
000001b0: f5f9 efbd 978f 24bc 95fc 88bd 4ab4 74bd
000001c0: c673 343d 95d1 25bd fb51 67bd 6156 4c3d
000001d0: ccd5 cbbd d11f 9ebd c9b3 bc3d a955 c63d
000001e0: 53fa 59bd 8754 adbd f36a 5d3d 1011 293e
000001f0: 48ff ddbc 1ced e4bd fc4a 173c ee79 113d
00000200: c2bb 1abe 696d 463d 1c08 9abd dd06 adbd
00000210: b8d2 ae3c 281e 3dbb e894 943d 9104 80bd
00000220: 6102 253d 5023 493d 26da eebd a447 8c3b
00000230: 9cc0 df3c 2482 8ebd 7738 fd3d 277a e6bd
00000240: 912d c83d 7599 073b 0601 d4bd a31e 8ebd
00000250: e5a6 8c3d 0c84 25bc c220 983d e218 003e
00000260: 0b1e 5c3d 7f63 053d cee4 f73d cc1a 003d
00000270: 8d75 28bd acf1 55bd 62ab 983d 0bb3 95bd
00000280: 4778 fcbd 2388 81bd 6aba dabd fd3e 7cbd
00000290: 4ccb bd3d e1a0 4dbd 71c7 4a3b 0c9e 73bd
000002a0: 08fc 4dbd 075d ab3d 2b9d f13c a45b 213d
000002b0: a360 48bd 140c cbbd 278e 2c3d 74b2 f43c
000002c0: 7c1d a13d afbe febd ed63 543d adf1 c43d
000002d0: 31b6 9cbd 80c2 8b3d 14e8 9b3d 62f0 643c
000002e0: 1c20 7dbc 6e0b 643d 06d0 913d f381 54bd
000002f0: 35ef d8bd 0b96 74bd 17f0 2e3d 30ca fd3c
00000300: ff1e db3d acc8 21bc 4abf 2ebc ae74 dabd
00000310: a20a 27bd 000f 063e 7eb1 e9bd 021d 1dbd
00000320: ca02 59bc 00da 06be c9df b8bc d6ed 86bc
00000330: 7960 b3bd 4eaa 0ebe 8b4c 94bc bff3 85bd
00000340: 1b11 42bd 2ed5 f23d e147 87bc 672c 2abd
00000350: f8f6 a73c 9be9 a43d 3484 64bc c912 6bbc
00000360: 8b0e 9ebd 83c1 6bbc aa05 803d 9850 933c
00000370: da04 28bc 3d8e 1d3d 0456 5f3c dd91 f0ba
00000380: 6286 eabc c05d 8b3d b8c8 643d 591d 7f3d
00000390: cf79 64bd da59 67bd ffb3 ba3d 2633 953d
000003a0: 1d6b 803c 82d1 cfbd 5ec5 2e3d 92ec 61bd
000003b0: a6c3 69bd ff4e edbc f681 bb3d d350 e53c
000003c0: 0d25 abbd 1a88 80bd 2127 f7bc af6f 783d
000003d0: 1880 9b3d 0637 143d 4e27 a8bd 8379 023e
000003e0: bea4 63bd cb5e cd3d 92b2 65bd 2b48 fc3d
000003f0: 5bd5 af3b b972 9c3c 21d6 c1bd f0a4 e2bd
-0.07284839 -0.054604515 0.1289281 -0.09074819 -0.07464834 -0.03683868 -0.10434716 -0.05684069
0.0040668324 0.021199362 0.06027912 -0.035720646 -0.05245788 -0.083551556 0.008608915 -0.04022894
-0.093353376 0.08217525 0.053823397 -0.07915401 -0.08305385 -0.083308704 -0.052990094 -0.07837295
-0.07442858 0.084428065 -0.08554007 0.0654491 -0.078132346 -0.038644314 -0.056628183 -0.0046951394
-0.011353161 0.06495434 0.116653375 0.07380422 0.06927786 0.062936835 -0.07030118 -0.061826736
0.094187535 -0.108623244 -0.10401084 0.1260804 0.030357206 0.07614248 -0.09722795 -0.013769031
-0.05283028 -0.07951092 -0.0004063497 -0.103070825 0.021931479 0.06372142 -0.048628144 0.103946745
0.06872975 -0.08282824 -0.10192635 0.008036616 -0.11866489 -0.12479068 -0.072124206 -0.08236688
-0.09570367 -0.005393067 0.026057063 -0.10647878 0.10979013 0.08568567 -0.08941263 -0.07564312
0.05884202 0.11388157 -0.08438598 0.0063522896 -0.07985428 -0.04753152 0.15420982 -0.019757325
0.06714568 0.15506242 -0.1135368 -0.024235828 -0.103659615 -0.018176122 -0.08478162 -0.04162604
0.033015545 0.08153486 0.09861231 -0.08021673 -0.06823619 -0.009936039 -0.012688312 -0.05375021
-0.1094216 0.0774359 0.10266732 0.016131256 0.02774765 -0.080658935 0.03669888 0.10999561
-0.13538188 0.08034165 -0.09124203 0.04324755 -0.117175974 -0.010044 -0.06688801 -0.05974225
0.044055723 -0.040483076 -0.056474667 0.049887065 -0.09952888 -0.07720912 0.09213979 0.09684307
-0.053217243 -0.08463388 0.054057073 0.16510415 -0.027099267 -0.111780375 0.009234186 0.03551667
-0.15110686 0.048444185 -0.07521078 -0.08448575 0.021340713 -0.0028857086 0.07254964 -0.06250871
0.04028547 0.049105942 -0.11662702 0.004281001 0.027313523 -0.06958416 0.123642854 -0.112537675
0.09774316 0.0020690833 -0.10351758 -0.06939437 0.0686777 -0.010102283 0.07428123 0.12509492
0.05373959 0.03256559 0.12104188 0.031275555 -0.04112773 -0.05223243 0.07454564 -0.0730954
-0.123276286 -0.06324794 -0.10680087 -0.061583508 0.092672914 -0.050202254 0.003094163 -0.059476897
-0.050289184 0.08367353 0.029493889 0.039394036 -0.048920285 -0.09914413 0.042127755 0.02987025
0.07866952 -0.12438714 0.05185311 0.096164085 -0.07651938 0.06824207 0.07612625 0.013973327
-0.01544955 0.055674963 0.071197554 -0.05188174 -0.105925 -0.059713405 0.042709436 0.0309802
0.106992714 -0.009874504 -0.010665724 -0.10666786 -0.040781625 0.1309166 -0.11410807 -0.038357742
-0.013245294 -0.13169098 -0.022567647 -0.01647083 -0.08758635 -0.13932154 -0.018102905 -0.065406315
-0.047379594 0.11857067 -0.016513767 -0.04154625 0.020503506 0.08052369 -0.013947535 -0.01434774
-0.077176176 -0.0143893985 0.0625108 0.017982766 -0.010255063 0.038465727 0.013631348 -0.0018354018
-0.028628532 0.06804991 0.055855483 0.062283847 -0.05578023 -0.056482174 0.09116363 0.072851464
0.015676076 -0.10147382 0.042668693 -0.05515725 -0.05707135 -0.028968332 0.091556475 0.027992642
-0.08356676 -0.06275959 -0.030170025 0.060653385 0.07592791 0.036185287 -0.08210622 0.12741666
-0.055577032 0.10027846 -0.0560785 0.123184524 0.00536601 0.019097673 -0.0946467 -0.110666156

bias f4 [64]
00000000: 9d43 e53d 3080 98bc 44b0 68bd 55db 813c
00000010: c610 763d 0e81 cdbd 2490 56bd d563 01be
00000020: 3b3a f93c 5b42 713d 1709 5abd 5a0e c83b
00000030: 25e2 83bb c0a3 8e3c 79c1 ba3c 8510 1f3d
00000040: 0ca4 71bd e0d0 99bd a0f5 37bc 8222 9bbd
00000050: e49e 6e3d 5df4 d3bd a3cf 6d3d 02da 4cbc
00000060: db4b cfbd 5fad e1bd 365a 043e ba4f 97bd
00000070: 6a4c 83bd 025e ee3c a13d cd3d 7b45 5abd
00000080: 23be f53d e0ea 48bd 4c61 68bd 756a 78bc
00000090: 1c43 053d 78b1 4bbd 318d 853b 957d 5e3d
000000a0: 1498 b3bd 243f c7bd 5f96 ed3c dcd4 b23d
000000b0: 1deb b9bd 0e77 bc3d d6df e13c bb62 00be
000000c0: 1bcc 0dbc 6467 f43d 3520 bfbd 7030 63bd
000000d0: cd2a 59bd 056c 943c d3c0 ca3d d8a5 8a3d
000000e0: 1987 88bd b017 913d 0290 dcbd 1334 e93c
000000f0: 8743 dc3c 1fca 93bd 1e52 423d 3b1a 49bd
0.11194537 -0.018615812 -0.056808725 0.015851656 0.06007459 -0.10034381 -0.052383557 -0.12635739
0.030423274 0.058901172 -0.053231325 0.0061052265 -0.0040247613 0.017412066 0.022797333 0.038834114
-0.058994338 -0.07510543 -0.011227995 -0.07574941 0.058257 -0.10349343 0.058059346 -0.012503149
-0.1012189 -0.11019396 0.12925038 -0.073882535 -0.06411059 0.02909756 0.100215204 -0.053288918
0.11999156 -0.04905212 -0.056733415 -0.0151621 0.032534704 -0.049729794 0.004075669 0.054318983
-0.08769241 -0.0972884 0.029002367 0.08732006 -0.090780474 0.092023954 0.027572554 -0.12537663
-0.00865462 0.11933783 -0.09332315 -0.055466115 -0.053019334 0.018117914 0.099000596 0.067699134
-0.06666393 0.07084596 -0.10769655 0.028467214 0.026887668 -0.07216286 0.047441594 -0.04909728

weight f4 [64]
00000000: cbd9 7b3f ab07 7f3f 52e9 7a3f 0bb4 803f
00000010: 8306 803f e456 7d3f e5cc 793f a477 813f
00000020: 998c 813f fbbd 7f3f 20ea 803f e01b 843f
00000030: d1ef 833f 1568 803f 76e1 823f e183 7b3f
00000040: e82d 843f 51d8 803f 126e 7f3f 7f28 803f
00000050: 89ad 813f 3f40 813f 9a1f 7c3f 5c17 7e3f
00000060: 97f8 7b3f a96b 803f c2af 813f b313 7d3f
00000070: 44ed 7d3f dff8 803f 82e0 813f e031 7b3f
00000080: ad0e 843f ac3a 7b3f 2fd1 803f fff5 783f
00000090: 6e75 803f ca8a 7b3f a078 813f 4116 7f3f
000000a0: 7278 853f 9d17 7b3f 846b 813f 1dd6 7e3f
000000b0: 8be6 7f3f 72d7 7d3f 3685 813f a664 7e3f
000000c0: 9a76 7d3f 154d 813f 5a21 813f 0050 843f
000000d0: 47da 7b3f 70c2 823f 0c0a 813f 13f5 893f
000000e0: 7c18 7c3f 32b5 813f b948 823f 43e3 7e3f
000000f0: fd79 7b3f 770b 7f3f 59c4 863f 5a63 7e3f
0.983792 0.99621075 0.9801227 1.0054945 1.0001987 0.9896071 0.9757827 1.0114636
1.0121032 0.9989926 1.0071449 1.0321007 1.0307561 1.0031763 1.0225055 0.98248106
1.032651 1.0066015 0.9977733 1.0012358 1.0131084 1.0097731 0.9848572 0.99254394
0.98426193 1.0032855 1.0131762 0.98858184 0.99190164 1.007595 1.0146639 0.9812298
1.0316979 0.981364 1.0063838 0.9725036 1.0035837 0.9825865 1.0114937 0.9964333
1.0427382 0.98082906 1.0110936 0.9954546 0.99961156 0.9915687 1.0118778 0.9937233
0.99009097 1.0101649 1.0088303 1.0336914 0.9837994 1.0215588 1.0081191 1.0777916
0.9847486 1.0133421 1.0178443 0.99565524 0.98233014 0.9962687 1.052867 0.9937035

bias f4 [64]
00000000: 8fe1 3a3c f979 b83a f86e e83a 6891 a5ba
00000010: 0deb 9a3a 9b5d 2aba 1b6b d43a 8bea af3a
00000020: d6c8 a23a eb90 56ba 7ad2 82b9 eddb 90ba
00000030: 5f8c a6ba 4cf2 9dba 73d9 083b 64af 753a
00000040: fe9f 19ba 5187 9eba 756d a2ba a468 8a3a
00000050: 7618 b23a 8337 9c3a fe9e 503a a1b3 0c38
00000060: 92c4 baba 1085 40ba 6631 b73a f3c3 cdb9
00000070: 754d 9c3b c6f0 6cba 8bff ac3a a432 c93a
00000080: 7d87 a7ba cb54 ae3a aef4 9a3a c0f6 293a
00000090: e48d 28ba 5450 b93a f2cc a2b9 ff66 7f3b
000000a0: 7ad8 a3ba 2e76 c83b 942d b3ba 05e9 9c3a
000000b0: c8b9 e43a 4448 753a ae7f 9b3a 36a6 d13a
000000c0: d4ce 8cba 7319 83ba e505 d03a a242 e13a
000000d0: 46b0 8839 68d8 34ba 597f 583a 88f0 d5ba
000000e0: 36d7 a339 f5f9 963a 4870 d4b8 1e26 a3ba
000000f0: 82d4 1639 15a1 08bb b95e b9ba d056 683b
0.011406316 0.0014074437 0.0017733267 -0.0012631835 0.0011819318 -0.00064989337 0.0016206236 0.001342134
0.0012419473 -0.00081850466 -0.0002495235 -0.0011051871 -0.0012706629 -0.001205036 0.0020881563 0.00093721435
-0.00058603275 -0.0012094771 -0.001239224 0.001055975 0.0013587612 0.0011918399 0.0007958262 3.3545894e-05
-0.0014249256 -0.00073440466 0.0013976514 -0.0003924664 0.004769976 -0.00090385636 0.0013198716 0.0015350175
-0.0012781468 0.0013300417 0.0011822188 0.0006483607 -0.0006429835 0.001413832 -0.00031051744 0.0038971303
-0.0012500428 0.0061176037 -0.00136702 0.0011971301 0.0017450387 0.0009356777 0.0011863613 0.0015994969
-0.0010742792 -0.0010002091 0.0015870897 0.0017185996 0.00026071275 -0.0006898702 0.00082587224 -0.0016322294
0.00031250127 0.0011518585 -0.00010129862 -0.0012447273 0.0001438428 -0.0020847965 -0.001414261 0.0035452135

weight f4 [1, 64]
00000000: 3930 f1bb 7af1 df3d b38e 433d ec0c 82bd
00000010: 92a6 1e3d 2ba2 d3bd 7e9c c53b 50db 903d
00000020: 4911 4a3d dd0b 813c f9aa ac3c ae00 03be
00000030: 667b ddbd cce5 d8bd f28d b33d d221 ca3d
00000040: 2da8 96bd ee62 f6bd 6bb1 eebd 9dd0 fb3d
00000050: 0c65 093e ae19 f13d 9986 1a3d 8c74 38bd
00000060: 2ae6 49bd 88ac b0bd d47d 6e3d cf1e 7cbd
00000070: 1c30 6dbc 7be2 d4bd 6555 093d 7878 4a3d
00000080: 6b7c 1fbe c672 893d 3164 fc3d 71cd 8638
00000090: c197 a3bd 1d55 71bb 816a a3bd af78 7b3c
000000a0: 0a94 80bd fa46 9f3b 803c 03be 8e1e bb3d
000000b0: ff4b bd3d 771e d73d b69d 033d 005e 393d
000000c0: 2ccd d2bd a136 0abe ce84 873d 808b 083e
000000d0: f0ac d5bc d578 8bbd 9404 9f3d 077d 46be
000000e0: 244a 08bd 560a 033e 57fd 0abd 93fc bfbd
000000f0: ebda bf3c cc12 1cbd bcfb 20be 8872 733c
-0.007360485 0.1093473 0.04774351 -0.06350121 0.038733073 -0.103336655 0.006030618 0.070730805
0.04933289 0.015752727 0.02107762 -0.12793228 -0.10814552 -0.10590705 0.08767308 0.09869732
-0.07356296 -0.12030588 -0.116549335 0.12295649 0.13417453 0.11772476 0.03772602 -0.045033023
-0.049291767 -0.08626658 0.058225468 -0.06155282 -0.014476802 -0.1039476 0.033528704 0.049431294
-0.15574805 0.067113444 0.123237975 6.4278844e-05 -0.07987929 -0.0036824413 -0.079792984 0.015348597
-0.06278236 0.004860756 -0.12816048 0.09136687 0.09243011 0.105038576 0.032132827 0.04525566
-0.1029304 -0.13497402 0.06617127 0.13334465 -0.02608344 -0.06810156 0.07764545 -0.19383632
-0.03327383 0.12796912 -0.03393301 -0.093743466 0.023419818 -0.038103864 -0.15721029 0.014858849

exp_avg f4 [64, 3]
00000000: 5e6a fc3b 2bc9 bf3b 17e0 a0bb c785 96bb
00000010: 0f6e b93a b152 30ba 27ea c7ba 7e95 24b9
00000020: dcd8 c33a 3b14 563c 371f 33bb 1866 8cbc
00000030: 0bf6 0abc b4bb 56ba e7d3 99bb d5c2 3dbd
00000040: 4bac 163a a54c 473d 5820 c3b9 dedf 0d39
00000050: 7fdb 803b 7f77 25bc 33e0 a6ba 945e 143c
00000060: 5dcd 94ba 0e48 a4b9 6c48 883a 0e3c 173c
00000070: 66c5 ed3a 37d2 bdbc 98ea c23b 8fa9 23bb
00000080: 5df9 4a3c 7144 a6bb 14e3 9db9 5b17 4ebb
00000090: 34eb f2ba 2655 aa39 fcab 95bb 7d17 a83b
000000a0: 767c a23b 1e35 1fbc ba43 d6bb 3193 81bb
000000b0: 6fb1 393c 4d1b 223d a332 2bbb 2551 21bd
000000c0: 32f3 58bc 56eb 7fb7 a082 e0bc 03c5 a7ba
000000d0: 47c2 973a c4ee 48bb b537 75bb e0e2 263a
000000e0: 111d da3a fb32 d6ba a18d 833a 0021 a1bb
000000f0: a482 343b 9512 dfb9 f8e7 7fbc e02a 51bc
00000100: dd38 36bb 1b82 103c bb2f 04b9 d0fe 51ba
00000110: 2280 853b f96a 203b 0b4b 65ba f7a6 49bc
00000120: 4992 04bc b6d1 faba 1f38 303c f879 38bb
00000130: b34c fcb9 ba03 303c e233 8a3b 0581 623b
00000140: 36d4 2ebc 99fd 893b 49ad 123b cc26 1fbc
00000150: c9fd c83a 075e ebba 2512 033b 481b b2ba
00000160: d489 17ba 071a 13bb 845e 123c 9919 4abb
00000170: a0b2 053b e830 593a cb98 883a b9a4 4e3a
00000180: c45d 033b 8a7c 093b d751 85ba 3357 16bc
00000190: 058e 4eba 5d85 293b f67f 39ba 4284 9e39
000001a0: 91f5 a9bb a891 1b3c 9983 cd3a 9811 cf3b
000001b0: 48d2 d2b9 0a27 f4b9 d9d7 4abb fe87 093c
000001c0: 59c0 20bb c5fe b93b 4067 a6bc 3ef3 26bb
000001d0: 78ae 47bc 53c1 ad3b 76f3 86ba a536 17ba
000001e0: 8f3c a8bc 14a3 c9ba 7a27 813c 057b 533b
000001f0: 7c5a df3a d2b7 9bbb 5cfe 08ba 6ab2 893a
00000200: dfad 0abc 65c1 14bb 6564 99b9 e951 f53a
00000210: 48f5 0fbc 0576 1238 3b7b c43b 6c8f 3abd
00000220: ea38 443c 341d f4bc 8099 5a3c fcab 9bbb
00000230: 2390 24bc 0053 123c 95a3 c1ba c756 973c
00000240: f180 1b38 cafd 8c38 9e73 713a 38fc 6bbb
00000250: 0091 283a d445 13ba 34d4 d33b 01ab ba3b
00000260: 0722 26bc 51d1 1e3c 4d10 ae3a a27a 97bb
00000270: 3a34 1abc 38a4 e3ba 4707 903c 5157 443c
00000280: cec5 0dbb 8ed3 8ebb 9553 fb3a 2438 613a
00000290: 53ea a1bb c09c bdb9 05e3 2b38 d073 743b
000002a0: a75b c33b 7c85 e3ba 2e24 52ba a10d ccbb
000002b0: affa efba 4ea9 bc3b ce6d f53a 6ba8 c73a
000002c0: d62d 7ebb e7e8 83bb e05e 2aba 9760 653b
000002d0: 3db1 bb3b 1b65 12bb e46f b23b ce58 f03a
000002e0: 5936 dfba 4b8a 0e3c 3029 5c3b d2d8 04bb
000002f0: 5856 453c c123 ffbb c207 133a 85bd 923b
0.0077031096 0.0058528385 -0.004909526 -0.004593584 0.001414718 -0.0006726189 -0.0015252278 -0.00015695949
0.0014941948 0.013066347 -0.0027331838 -0.017138526 -0.008481513 -0.0008191422 -0.00469445 -0.046328384
0.00057477196 0.04865708 -0.00037217396 0.00013530205 0.003932416 -0.010099291 -0.0012731611 0.009055752
-0.0011352707 -0.00031334203 0.001039756 0.009230627 0.0018140494 -0.023171527 0.005948376 -0.002497289
0.012388554 -0.005074077 -0.0003011456 -0.0031447026 -0.0018533231 0.00032488367 -0.0045676213 0.005129753
0.0049586846 -0.009717254 -0.0065388354 -0.003954314 0.011333807 0.039576817 -0.002612271 -0.039384026
-0.013241576 -1.5253978e-05 -0.027406037 -0.0012799803 0.0011578285 -0.0030659894 -0.0037417237 0.00063662045
0.0016640743 -0.0016342098 0.0010036716 -0.004917264 0.0027543688 -0.0004254772 -0.0156192705 -0.01276657
-0.002780489 0.008820082 -0.00012606282 -0.00080106873 0.0040741125 0.0024477823 -0.0008746839 -0.012307874
-0.008091518 -0.0019135985 0.010755568 -0.002814887 -0.0004812233 0.010743076 0.0042176107 0.0034561765
-0.010670712 0.0042111394 0.0022381118 -0.00971384 0.0015334423 -0.00179571 0.0019999829 -0.0013588453
-0.0005780731 -0.0022445933 0.008933667 -0.0030838011 0.0020400658 0.00082851807 0.0010421512 0.0007882822
0.0020044902 0.0020978772 -0.0010171485 -0.009176063 -0.0007879439 0.0025866844 -0.00070762576 0.00030234648
-0.0051867445 0.009495176 0.0015679478 0.006319236 -0.00040210993 -0.00046568393 -0.003095141 0.0083942395
-0.002452871 0.005676123 -0.020312905 -0.0025474573 -0.012187593 0.005302587 -0.0010295946 -0.00057683355
-0.02053669 -0.0015383684 0.015765894 0.003226937 0.0017040516 -0.0047521377 -0.0005225891 0.0010505442
-0.008464306 -0.002269828 -0.00029257234 0.0018716428 -0.008786507 3.4919027e-05 0.0059961355 -0.045546934
0.01197646 -0.029799081 0.013342261 -0.0047507267 -0.0100441305 0.008930922 -0.0014773483 0.018473996
3.7074966e-05 6.722992e-05 0.0009210649 -0.0036008488 0.0006430298 -0.000561801 0.0064645056 0.005696655
-0.010139949 0.00969346 0.0013280004 -0.0046227733 -0.009411866 -0.0017367667 0.017581595 0.0119837085
-0.0021632793 -0.0043587154 0.001917469 0.00085914345 -0.0049412637 -0.00036165677 4.0981005e-05 0.0037300475
0.0059618535 -0.0017358507 -0.00080162555 -0.0062272106 -0.0018308962 0.0057574874 0.0018724741 0.0015232688
-0.0038784645 -0.004025567 -0.0006499123 0.00350002 0.0057279156 -0.0022338096 0.0054454673 0.0018337013
-0.0017029747 0.008699964 0.0033593886 -0.0020270837 0.012044512 -0.0077862446 0.0005608761 0.004478159

exp_avg_sq f4 [64, 3]
00000000: 533c a339 a21f fc39 9908 493d d217 b837
00000010: 4451 3d37 42c9 693a 6128 2638 0db5 5538
00000020: 0715 233b 1c74 5739 4765 0b39 41a6 1c3c
00000030: 221e 383a 7ac5 3c38 bc46 943a 7dd2 db3b
00000040: b7da 883a b93a 583d 1325 5938 f4fe f737
00000050: 96c0 453a 868e 3a3a c40e 2c39 2573 913b
00000060: b79c 6437 a8ec 0837 fc85 823a 1867 2d3a
00000070: e2ef 8b39 d697 483c 9792 9839 1123 dd37
00000080: cb86 963a a22a 033a 16a4 eb39 1936 b13c
00000090: 5324 ce38 b9c5 ef37 fe5e 3c3b 8a96 1d3b
000000a0: 90de bb39 f4cc bc3b cfb7 b339 6587 ad39
000000b0: b16a dd3c b9fb a23b 1c49 8a3a 2bd7 4e3d
000000c0: 04d6 233b 1a72 a739 446b ba3b 784c fa38
000000d0: 77f4 b238 7707 753b 940b 5237 3707 2e37
000000e0: 96ce 833a 0389 0c38 6e1c 4f37 cdde 9639
000000f0: be12 7137 2c2a d035 1b97 8e3a eb62 ba3a
00000100: a3bd 9139 bb30 b03b fa92 9a38 4477 4e38
00000110: 4ae7 493b f52d b236 9296 e635 c9bc fb39
00000120: 96d3 293b 354e ba39 044e 733c 111d 4638
00000130: 3b77 9e39 f1ee 473c 9c29 683a b791 8339
00000140: e195 f63b 6b66 e639 f520 e138 2235 8b3b
00000150: 1400 5039 5f14 6a38 d616 993b b634 f639
00000160: 21bc 3a39 ea1c 543c fd4a a838 9e9a dc37
00000170: 99ea 023b 1e90 8b38 59f9 f837 d610 1d3b
00000180: 9c7a c939 a9ed a839 d78b d53c 5b8b 3e3a
00000190: 55d3 5f39 c0cf e83b cb40 9c38 b29e 8c38
000001a0: 237f 863b 40fb 8e3a 85fc 0f39 9280 ae3a
000001b0: bdc7 9038 4cde 2c39 87d3 453c ea12 de39
000001c0: 90ee d238 5832 873b d83f 693b cd6c 5939
000001d0: dbc8 6d3b cc05 ca3a de7d 3e3a 7b59 3e3d
000001e0: 52be 083b 1ea9 2339 cad8 833b b4bf 293a
000001f0: 9bc0 6c39 7010 053c 20e5 8539 1260 e437
00000200: f019 b53a 4068 1639 d706 dc38 fbbe bf3b
00000210: 8b73 8d3b c8c4 1e3a 6016 c23c 0fee 433b
00000220: f5c4 1639 63d5 333c 067d 3e39 16ad 8538
00000230: 6f7f 213c e349 9639 12fc 0738 9e68 4c3a
00000240: 060c 5435 c960 a434 60dd 6438 5197 ad3a
00000250: 5764 5639 6356 083c 3a48 0e39 34f5 0539
00000260: c95b 9b3c ebf4 3c3b 8fb1 8139 8185 8f3b
00000270: 46eb b73a edb7 5939 6b65 a73b 419a 8039
00000280: 8463 7937 1754 d63a a819 ac38 ba01 de37
00000290: 5e7c 323b 3f9f c739 04c4 c439 3dba 953c
000002a0: ec9e 0238 3aea a537 f8a6 cd3a 0aa2 403a
000002b0: b845 1539 71d2 763b 7dd4 ba38 2bd5 8b37
000002c0: 6a43 cb39 b07d 143a 5c24 b239 c9bc 8b3c
000002d0: 2176 5f38 34b6 9637 e5e4 9d3a 01e9 0639
000002e0: 1b49 ab37 05b0 cf3a 66a6 2938 cecc 5537
000002f0: f5e8 4f3a d107 673a a453 b738 5122 3f3b
0.00031134728 0.00048088754 0.049080465 2.1945601e-05 1.1284199e-05 0.00089182344 3.961509e-05 5.0951774e-05
0.002488436 0.00020547252 0.00013293802 0.009561122 0.0007023533 4.5006607e-05 0.0011312584 0.006708442
0.0010441159 0.052790377 5.177136e-05 2.9563416e-05 0.0007543651 0.00071165746 0.00016408699 0.004438775
1.3626347e-05 8.1613325e-06 0.0009958143 0.00066147884 0.00026690873 0.012243232 0.00029100917 2.6361582e-05
0.0011484263 0.0005003606 0.00044944946 0.021632241 9.8296114e-05 2.8583092e-05 0.0028743143 0.0024046027
0.0003583324 0.005761737 0.0003427849 0.00033098008 0.027028413 0.0049738553 0.0010550353 0.05049817
0.002499939 0.00031937734 0.0056890566 0.000119351724 8.5332365e-05 0.0037388483 1.2519671e-05 1.0372888e-05
0.0010056074 3.3506203e-05 1.2344781e-05 0.0002877623 1.4369083e-05 1.5509481e-06 0.0010878773 0.0014220154
0.00027797846 0.005376903 7.370669e-05 4.9225302e-05 0.0030808025 5.3101635e-06 1.7180157e-06 0.00048015107
0.0025913469 0.00035534953 0.014850143 4.723395e-05 0.00030224942 0.012202964 0.0008856298 0.00025094833
0.007525191 0.00043945326 0.00010734975 0.0042482773 0.00019836455 5.580892e-05 0.0046719117 0.0004696005
0.00017808426 0.012946347 8.024832e-05 2.6298043e-05 0.0019976257 6.6548804e-05 2.9680015e-05 0.0023966334
0.0003842906 0.00032220528 0.026067657 0.00072686904 0.00021345665 0.007104844 7.450728e-05 6.7052795e-05
0.0041045113 0.0010908619 0.00013731614 0.0013313463 6.903659e-05 0.0001648601 0.012074358 0.00042357232
0.00010058016 0.0041258745 0.0035591032 0.00020735264 0.003628305 0.0015413105 0.00072666805 0.046472054
0.0020865393 0.00015607892 0.004023646 0.00064754044 0.00022578465 0.008121595 0.00025538448 2.7224454e-05
0.0013816934 0.00014343951 0.000104916915 0.005851624 0.0043167523 0.00060565444 0.02369231 0.0029896533
0.00014378487 0.010976168 0.00018166387 6.374174e-05 0.009857043 0.0002866528 3.2421267e-05 0.00077975716
7.899365e-07 3.06178e-07 5.4565608e-05 0.0013243948 0.0002044601 0.008321377 0.00013569082 0.00012775214
0.018964665 0.0028832506 0.0002473709 0.0043799286 0.0014031909 0.0002076325 0.0051085255 0.0002452899
1.4864727e-05 0.0016351965 8.206378e-05 2.6465266e-05 0.0027234773 0.00038074885 0.00037530076 0.018277282
3.1142423e-05 1.9778603e-05 0.0015690019 0.00073483645 0.0001423572 0.0037662054 8.90875e-05 1.6669355e-05
0.00038769405 0.0005664481 0.00033977896 0.017057793 5.327736e-05 1.7966238e-05 0.0012046365 0.00012866037
2.041883e-05 0.0015845305 4.044771e-05 1.2743474e-05 0.00079311366 0.00088131154 8.741699e-05 0.0029164741

exp_avg f4 [64]
00000000: f4ce bdba 514a 13bb fa09 0bba 6be9 9cbb
00000010: 4af0 0abc 1599 2ebc 69c4 3fba 6b3c 16bb
00000020: 545f 17ba 1a46 0bbc 8236 eb3b 4e47 d23a
00000030: 24db a239 52f8 043c 29b7 b9ba 0d30 d43b
00000040: 10e7 61bc bdf7 d93a e348 89ba 766e 8bba
00000050: 8065 58bb 8995 8abb e3a5 dcba 77df 3ebb
00000060: 0ddc 44bc 6ca0 bb39 95af ff3b 9f7e 013c
00000070: 16fd 723b 025e 023b 5574 3d3b 7409 a83a
00000080: be69 85bb b846 17bc 388e 323b 5d20 0a3c
00000090: 13c6 8b3b cee9 d23a 80b6 a7bc 77ad 803c
000000a0: bca2 febb c391 0b3c 4e65 adba cb80 903a
000000b0: fa44 2dbc 6185 1cbd 80ba 09ba fee3 123c
000000c0: c15d e4b8 0cb2 edbb bd56 913a 0513 5b3c
000000d0: baf4 8bb9 f01c c63b bf82 d83a 7e93 e3bb
000000e0: af28 a43a f4a1 ddba ed6e 9c3b c485 0a3b
000000f0: a26a 2d3b 78d7 3e3b 190e a23b 28ea b0bb
-0.0014481233 -0.0022474716 -0.0005303916 -0.004788568 -0.008480141 -0.010656615 -0.0007315339 -0.0022924196
-0.0005774398 -0.0085006 0.0071781287 0.0016042979 0.0003106232 0.008115845 -0.0014168966 0.0064754547
-0.013788 0.0016629618 -0.0010473992 -0.0010637778 -0.0033019483 -0.0042292518 -0.0016834106 -0.0029124895
-0.012015355 0.00035786943 0.0078029134 0.007903724 0.003707712 0.0019892459 0.002890845 0.00128202
-0.0040714433 -0.009233169 0.0027245414 0.008430568 0.0042655556 0.0016091408 -0.020472765 0.015707714
-0.0077708643 0.008518639 -0.0013229044 0.0011024711 -0.010575527 -0.038213138 -0.0005253926 0.00896549
-0.0001088935 -0.007253891 0.0011088472 0.013371234 -0.00026694481 0.00604593 0.0016518458 -0.0069450727
0.0012524332 -0.0016909228 0.0047739656 0.002113686 0.0026461263 0.0029120129 0.004945528 -0.0053990074

exp_avg_sq f4 [64]
00000000: 8d6b 053b 9d7e 5b38 8b30 1039 9d58 303a
00000010: 552c 433a 474d 1f3c 3fbd ae38 9256 873a
00000020: abbf 3638 f983 c53a e0e3 a739 3bbf b93a
00000030: 0e64 5639 8ef7 203b cd9f b93a 6c37 e83b
00000040: b523 2a3b 9df5 9139 de4f 4638 4d9b 1c38
00000050: 1ff4 ea37 590a d93a 98cb 6439 8501 8137
00000060: 0364 3d3b 0108 0c3a 675a 943a 04cf 223a
00000070: debd b839 71cc 5d3a 84a4 3239 cc58 2b39
00000080: 2ed6 cd3a a68d 893a 7619 8a39 9362 973a
00000090: 7ec8 153a d591 323a 09bf 703b 59a0 663b
000000a0: dffb 133b 4bc2 833a a06c b039 47dd d039
000000b0: 904b a63b b237 653b 5d34 043a 12d7 a539
000000c0: 035c af35 082b d33a e570 4a3a 5c58 403b
000000d0: 12c9 e23a f2a6 9d39 5435 4b39 cb6a b23a
000000e0: ead2 c838 5987 853a f41a 0139 d66e b83a
000000f0: 3064 e738 a819 4439 75bb 9438 3173 813a
0.0020358295 5.2331587e-05 0.00013750994 0.00067270716 0.00074452657 0.009723014 8.3322164e-05 0.0010325483
4.3570686e-05 0.0015069238 0.00032022502 0.0014171371 0.00020445904 0.0024561617 0.0014162004 0.007086685
0.0025961224 0.0002783955 4.728126e-05 3.7337933e-05 2.8008651e-05 0.001655887 0.00021819619 1.5378706e-05
0.0028898723 0.0005341769 0.0011318446 0.00062106573 0.00035236677 0.0008460945 0.0001703669 0.0001634091
0.0015704089 0.0010494485 0.0002634038 0.0011549763 0.00057137746 0.0006811892 0.003673496 0.003519079
0.0022580547 0.0010052411 0.00033650268 0.00039837716 0.0050749257 0.0034975824 0.0005043203 0.00031631492
1.3065295e-06 0.0016110847 0.0007722511 0.0029349541 0.0017302355 0.00030069757 0.00019379455 0.0013612149
9.576029e-05 0.0010187431 0.0001231244 0.0014071118 0.000110336 0.00018701574 7.0921065e-05 0.0009876249

exp_avg f4 [64]
00000000: 30d2 053a a8f1 ef3a 0911 c738 09e9 e2bb
00000010: 0934 48ba dc44 1abc 9811 8dba 5712 853b
00000020: af22 ba3a 47e1 86bb 2b2b 893b 5e34 ed3a
00000030: b765 ceba 0208 333c 08f9 dfba d548 1c3c
00000040: c70e dcbb 2034 0bba 985e 1f3b d125 b5ba
00000050: db44 3fba b405 abbb e4af 153b 8235 1cbb
00000060: f447 e3ba d39a cf3a a542 bf3b 0b7f 823b
00000070: 88e2 6f3b 90e0 9fba 14a1 99ba 9618 30bb
00000080: 2a5d af3a e2e9 1cbb 6b41 48ba 3424 bf3b
00000090: 2b40 2fbb e629 c3ba 594f 96bb 0b60 c0bb
000000a0: 02c9 b83b 5aea a13a 8353 f73a b1a2 8bbb
000000b0: 732b 14bb 3ccb febb 1019 28bc 6d76 083b
000000c0: 82fc e6ba 3a40 af3a a757 60b9 334d 193b
000000d0: 8211 1e3b 44a3 dc3b 6de2 0f3a 0aa3 2dbb
000000e0: f759 55bb f3ab b43b 689e 2a3b b69d d5ba
000000f0: a1f9 303a ce15 bb3b 42fb a23b 0593 bfba
0.0005104868 0.0018306272 9.4922325e-05 -0.0069247526 -0.00076371484 -0.009415831 -0.001076269 0.004061024
0.001420101 -0.0041162106 0.004186054 0.0018097272 -0.0015746866 0.010927202 -0.0017087767 0.009538849
-0.006715629 -0.00053101964 0.0024317857 -0.0013820474 -0.0007296332 -0.0052191857 0.0022840435 -0.0023835604
-0.0017340169 0.0015838988 0.005836802 0.00398243 0.003660353 -0.0012197662 -0.0011720979 -0.0026870123
0.0013379205 -0.0023943116 -0.00076391426 0.005833173 -0.0026741128 -0.0014889806 -0.0045870957 -0.005870824
0.0056391964 0.0012353167 0.0018869493 -0.0042613377 -0.0022608906 -0.0077756923 -0.010259882 0.002082254
-0.0017622861 0.0013370581 -0.00021394958 0.0023391962 0.0024119322 0.00673333 0.0005488757 -0.0026494884
-0.0032554844 0.005513662 0.002603436 -0.0016297612 0.0006751065 0.0057093864 0.0049738 -0.0014615959

exp_avg_sq f4 [64]
00000000: 4d11 8e39 7751 1439 9129 9738 e4a1 4e39
00000010: f939 7837 2aaf 553a 2ab4 8237 c82f 3a3a
00000020: f196 3f38 6b5a f639 a6bd 1d39 9b0c 2d3a
00000030: 9f94 c038 d509 453b 0cce 4839 36d2 ba3a
00000040: ab6a ce39 e8f5 4b38 a8f3 cf37 fc11 5238
00000050: 9c7d a739 a7a8 5a3a a329 f538 c6f0 0239
00000060: 7460 6b39 b7a2 fd39 d419 ac3a e41a 5a3a
00000070: f211 113a 766a 053a d0f9 de39 4565 c238
00000080: 43da 3c3a ebc3 b338 d031 fd39 70bc 8a3a
00000090: aebd 2a3a 3645 2e3a 5c86 0539 f964 0439
000000a0: 50a4 ea39 f444 9f39 7ee6 3139 89fc 2a39
000000b0: fd7f 7f3a b0f1 9139 cfe2 373a dd94 e838
000000c0: 7ed2 9b38 3ed0 c43a 1603 8139 d664 623a
000000d0: 9af4 1f3a 0e74 0b3a c9e4 c938 cc22 2a3a
000000e0: 506b 1a39 5ea6 933a 2066 9338 bc87 d638
000000f0: acf2 6c39 96fa 283a b377 8439 33a0 113a
0.0002709724 0.00014144728 7.2079834e-05 0.00019706 1.479545e-05 0.00081514067 1.5581103e-05 0.0007102457
4.5678524e-05 0.00046988143 0.00015043336 0.00066013046 9.182956e-05 0.0030065675 0.00019150245 0.0014253322
0.00039370856 4.862799e-05 2.4789784e-05 5.008465e-05 0.00031946308 0.0008341171 0.00011690266 0.00012487461
0.00022447278 0.00048377152 0.0013130256 0.0008320047 0.0005533985 0.0005089411 0.00042529264 9.269504e-05
0.00072041544 8.571878e-05 0.00048293034 0.0010584723 0.000651325 0.00066478865 0.00012733921 0.00012626116
0.0004475438 0.00030378217 0.000169659 0.0001630654 0.000974655 0.00027836626 0.0007014693 0.0001109035
7.430183e-05 0.0015015674 0.00024607097 0.00086362415 0.0006101817 0.00053197227 9.6270414e-05 0.00064901705
0.00014726561 0.0011264791 7.0285285e-05 0.00010229598 0.00022597116 0.00064460316 0.00025266185 0.00055551826

exp_avg f4 [64]
00000000: b46d 18ba aa35 5dba 22d5 9639 787c 0cbb
00000010: df8f 303a 30c8 cd3b c55f 2c39 f130 b7ba
00000020: 7390 c2ba 527d 33bb fb9c 523b ba7b 61ba
00000030: 1aa7 523b 3f7e af3a 3f33 1cba 8257 b0bb
00000040: 589a b637 42fa 303a 72f3 33bb bc3e f239
00000050: f7f1 9e39 efef 9539 7215 8ebb 2ce8 f5b9
00000060: a338 a5bb 6af3 24ba 3f7f 1c3b f39a 823b
00000070: b2e6 333a 3f13 8a3a cd4d 233b 5ca5 5a3b
00000080: ef70 a2ba 67b6 313b fabd 443b 7c5b 6d3b
00000090: 90cd e03a abab 893b 8a0d edba a811 223b
000000a0: 4466 9bb9 74b6 a0ba df61 513b 1bf0 6a3b
000000b0: cb0f 06bb 1811 9e3a 5c16 3a39 4745 1aba
000000c0: c493 1f3b 78b4 50bb 015e 62ba aed8 513b
000000d0: 7b9f 973a 50c0 b53a 4104 b33a a659 623b
000000e0: 43c7 01b8 7eab 09bb 33a3 3839 573c 8eba
000000f0: c6a7 f33a d207 c73a 8163 0f3b b95c 893a
-0.0005814687 -0.00084384775 0.00028769026 -0.0021436494 0.00067353057 0.0062799677 0.00016438875 -0.0013976378
-0.0014844075 -0.002738793 0.0032137025 -0.00086015055 0.0032143057 0.0013389065 -0.0005958564 -0.0053815255
2.1767963e-05 0.00067511585 -0.0027458337 0.00046204578 0.00030316386 0.0002859826 -0.0043360526 -0.00046903023
-0.005042152 -0.0006292375 0.0023879556 0.0039857565 0.00068626844 0.00105343 0.00249182 0.0033362722
-0.0012393276 0.0027116777 0.0030020461 0.003621786 0.0017151106 0.0042013726 -0.00180857 0.0024729762
-0.00029640098 -0.0012261407 0.0031949205 0.003584868 -0.002045619 0.0012059538 0.00017746672 -0.0005884957
0.002434955 -0.003184585 -0.00086352235 0.003202002 0.0011567915 0.0013866518 0.0013657884 0.0034538298
-3.0941574e-05 -0.0021006758 0.00017608404 -0.0010851723 0.0018589429 0.0015184826 0.0021879377 0.0010479904

exp_avg_sq f4 [64]
00000000: 70d6 e63a b39e 3639 22b5 a139 8ae8 0c3a
00000010: 982a 9938 95ba 173b 4bf9 d338 fa32 2539
00000020: cdcd 9438 52ec 0b3a 223a a638 f029 b03a
00000030: 8411 7c39 bcc1 063a bbf2 a53a fd42 e03a
00000040: e3b4 9639 0cf7 bd39 41c6 ab38 0e07 f137
00000050: f98c 0c3a 97e2 ce39 0cb6 033a 8fa2 4939
00000060: 3217 163a a4b9 843a f64c cd39 d209 7c39
00000070: b2df 9439 2e4d 1f3a 26eb 9739 b5bb fd38
00000080: d650 6a3a a124 a539 668f 6d39 fe1c 053a
00000090: b1e9 033a 0cd0 583a 1979 d139 c9a7 f43a
000000a0: 604f 023a 4527 193a e9c9 2239 31de 043a
000000b0: 7212 7b3a 8fc2 603a 4c14 353a fbe5 6239
000000c0: 6b72 0539 d1de 003a b79b 3d3a fc21 e239
000000d0: a934 fe39 e499 0a39 0132 b539 0e52 233a
000000e0: 1337 8c39 be97 2b39 0d39 9f38 bcd6 493a
000000f0: 3596 ef39 3873 3f39 22f1 8538 6a2d 193a
0.0017611515 0.00017415993 0.00030843267 0.0005375227 7.303542e-05 0.0023151983 0.000101076985 0.00015754616
7.095523e-05 0.00053376437 7.926325e-05 0.0013440233 0.00024039118 0.0005140563 0.001266084 0.0017109808
0.00028745 0.00036232953 8.190843e-05 2.8732724e-05 0.0005361583 0.00039460204 0.00050243805 0.00019229412
0.0005725502 0.0010126126 0.00039157987 0.00024036251 0.00028395426 0.00060768693 0.00028976164 0.00012098943
0.0008938437 0.00031498543 0.00022655501 0.00050778675 0.0005032076 0.00082707475 0.0003995381 0.0018665727
0.0004970934 0.00058423384 0.00015524741 0.00050685095 0.00095776387 0.00085739134 0.00069076265 0.00021638714
0.00012726492 0.0004916015 0.0007232981 0.000431314 0.0004848589 0.00013218034 0.00034560266 0.00062301836
0.00026743914 0.00016364359 7.592337e-05 0.00076995394 0.00045697545 0.00018258102 6.386849e-05 0.0005843254

exp_avg f4 [64, 64]
00000000: 7f92 e134 1e32 3f35 d5ef 7b35 2316 fa34
00000010: e9f0 5b35 1ad0 cd34 7c56 8135 639f 4535
00000020: 2778 ac33 d10f 8635 5983 5235 b672 8535
00000030: cac6 8535 7459 3835 847b 8535 0ece 1bb4
00000040: 1f50 2f35 b83e 8435 75f6 6935 c149 23b6
00000050: 62ae 7f35 7bad a4b5 e2c4 6a35 ce5e fd34
00000060: c3e9 a1b6 bf85 8cb6 233a 7935 bf85 8135
00000070: b962 6735 08bb 8235 6f83 8235 205c e7b5
00000080: d7cd ddb5 d973 f1b4 8842 8235 94bd 8035
00000090: 337b 8535 c56c 0135 50e9 2f35 3ffb 8535
000000a0: 9900 7db6 6be2 7e35 120b 0035 7d21 7b35
000000b0: 3918 76b6 8f27 5635 0634 19b5 4197 7f35
000000c0: 8095 7c35 8fc1 80b5 b47a 2eb4 09bd 6e35
000000d0: 54fe c534 eab6 acb4 088a 7835 05d2 69b5
000000e0: dc03 8035 d852 6635 9f8a 06b6 ab6f 8d35
000000f0: 0c73 8435 2f56 bfb5 3496 3ab6 5812 78b6
00000100: 2bd0 a5b7 1e70 0437 9b94 bc3a baae 17b6
00000110: 4ea8 9fba f6e7 d439 3148 473a c4e4 6e37
00000120: 09f5 bc36 cea6 5fb7 e21c 8e36 4608 c839
00000130: 3777 45bb 2fee 3f39 493b 03bb 40cf 293b
00000140: 0211 25ba 7813 adba 0454 6237 752b 8db5
00000150: 2c8d 1636 e13f 243b 59aa 8bba db9c d5b5
00000160: 87b3 463b 30cf 883a 2cac a4b6 748f c7ba
00000170: bfd9 bc39 1c03 3bbb a8aa dbb5 bd5f 4c3b
00000180: 6af2 b639 5d63 f339 92a9 d2ba e417 a439
00000190: 3d2e 65bb 12ca 2736 50d3 5f39 e4fa 64bb
000001a0: 3875 1b38 9825 4eba 972a 9f39 a1af 38bb
000001b0: b5ac 313b 52bf d639 833c cbb6 63f7 13ba
000001c0: 4094 bfb8 578b a5b9 195f c73a 5132 c33a
000001d0: ee31 81b7 7f9c 5439 6877 4bba 45ec f3b9
000001e0: af2a d636 1810 4537 df3c 7f3b 9e0d 12bb
000001f0: 7967 4536 5730 a035 0fb1 b2b5 5de4 1d3b
00000200: e7b4 cfb4 e659 fd39 0271 543a 81e1 083a
00000210: 0993 a4b9 1c62 533a 7378 8739 6ce5 fe39
00000220: 58ba fb39 e468 003a 5c8e df39 af37 2e39
00000230: e538 eeba 8217 c8ba 9423 15ba 8713 903a
00000240: 26e9 e8b9 e40c 05ba fd2a f139 d104 023a
00000250: 0bc4 003a 95f4 a53a a3fd 29ba e404 023a
00000260: d483 923a e0c8 483a ad88 87ba b196 f2ba
00000270: 2990 86ba 46f7 e6ba b5d2 023a a586 bf3a
00000280: eab7 99b9 33a6 da39 7c42 9bba 4db4 de38
00000290: 1b58 f1ba dca4 ff39 e596 e839 03b9 d3ba
000002a0: 58ea 103a 0cec 12ba f455 2aba c635 80ba
000002b0: 9d68 4a3a faca 503a 2d52 033a e43f a0b8
000002c0: 0902 ea39 4c42 b2ba 05ac 223a 5c0d 7ab9
000002d0: fed5 9939 4e42 5b38 7b2c 2fba 6973 29ba
000002e0: 1eda 003a 5f03 f639 75f1 803a 1702 55ba
000002f0: e77f 013a 273a d539 e0b3 003a cb93 f339
00000300: 1d2a 12ba a0e6 06b9 259c 0bba e313 a639
00000310: 1e0f 66ba f2ab 05bb 6f66 11ba e4d8 aab9
00000320: 3dbc 183b 15f5 153a 1c1d 723a fd0e 11ba
00000330: d5aa dfba f86f 903a 657b 15ba e2dc 0d3b
00000340: 5e69 4db9 d26a 4eba 72d1 46ba d571 a63a
00000350: 10bf 113a b738 ed39 c934 7dba 636b 3b3b
00000360: 3fbe 05ba 7b41 363b 973e 8eba d6db 3dba
00000370: a2fa 763b e709 deba 3ac9 b8ba b473 10ba
00000380: 5ece 12ba 9465 2eba dadb 11ba 0ba6 aa39
00000390: 4e73 16ba 7b3b 49b9 6f3e e5ba 3ed2 3eba
000003a0: 966b c43a 6ad1 f9b9 d242 7cba 52ce 04ba
000003b0: b7e3 93ba 154d 2fbb 7dc1 453b 4894 953a
000003c0: ada7 0cba c1e1 0fbb b4dc 12ba 7c5a b0b9
000003d0: b68e 2f3a 2ace 123b 799a 0dba e329 12ba
000003e0: 16ef 5a3a e85d 603a 7ad2 1339 531f 1dba
000003f0: cd3c 83ba b3b3 2b3b a9ff e63a b6ef 55ba
4.2016106e-07 7.1225975e-07 9.385379e-07 4.6582235e-07 8.193443e-07 3.833564e-07 9.636419e-07 7.3620157e-07
8.03123e-08 9.988381e-07 7.842223e-07 9.942657e-07 9.967127e-07 6.8675513e-07 9.94522e-07 -1.4510462e-07
6.530917e-07 9.85302e-07 8.7157906e-07 -2.4331823e-06 9.5248663e-07 -1.2269442e-06 8.7458295e-07 4.7193902e-07
-4.8253874e-06 -4.1878952e-06 9.284433e-07 9.650174e-07 8.6197866e-07 9.740188e-07 9.724007e-07 -1.7237653e-06
-1.652569e-06 -4.4974038e-07 9.705118e-07 9.591918e-07 9.945128e-07 4.8214525e-07 6.5532095e-07 9.982394e-07
-3.7700286e-06 9.4951855e-07 4.7699825e-07 9.355352e-07 -3.6670956e-06 7.977878e-07 -5.7072646e-07 9.5215006e-07
9.4094867e-07 -9.593076e-07 -1.6249652e-07 8.893699e-07 3.6879158e-07 -3.2170584e-07 9.258806e-07 -8.710488e-07
9.537866e-07 8.580223e-07 -2.0048244e-06 1.0537818e-06 9.86825e-07 -1.4255692e-06 -2.780359e-06 -3.6965557e-06
-1.9766469e-05 7.893917e-06 0.001438755 -2.2602458e-06 -0.0012180896 0.00040608615 0.0007602005 1.4239169e-05
5.6313625e-06 -1.3330673e-05 4.235292e-06 0.00038153137 -0.0030130872 0.0001830391 -0.002002435 0.0025910884
-0.0006296785 -0.0013204655 1.3490211e-05 -1.0517966e-06 2.2433915e-06 0.002506249 -0.0010655626 -1.5915388e-06
0.003031941 0.0010437723 -4.9076243e-06 -0.0015225247 0.00036020388 -0.002853579 -1.6366439e-06 0.0031184994
0.00034894358 0.00046422603 -0.0016072264 0.00031298317 -0.0034970187 2.500256e-06 0.00021345657 -0.0034939582
3.706405e-05 -0.0007863878 0.00030358575 -0.0028180855 0.0027110998 0.00040959805 -6.056916e-06 -0.00056444685
-9.1352034e-05 -0.0003157507 0.0015210836 0.0014892315 -1.5401249e-05 0.00020276195 -0.00077616284 -0.00046524606
6.382666e-06 1.1745862e-05 0.0038946194 -0.0022285949 2.9415517e-06 1.1934998e-06 -1.3313564e-06 0.0024092414
-3.8688378e-07 0.000483229 0.00081039977 0.0005221591 -0.00031390067 0.00080636307 0.00025838948 0.00048617588
0.00048013288 0.00048984424 0.0004263994 0.00016614677 -0.0018174915 -0.0015265795 -0.00056892005 0.0010992148
-0.00044424197 -0.0005075468 0.0004599913 0.0004959824 0.0004912025 0.0012661392 -0.0006484633 0.0004959835
0.0011178204 0.0007659327 -0.0010340415 -0.0018508044 -0.0010266352 -0.0017621301 0.0004990504 0.0014612271
-0.0002931946 0.00041704028 -0.0011845375 0.000106193685 -0.0018413098 0.0004876022 0.00044362913 -0.001615316
0.0005528084 -0.0005604632 -0.00064977934 -0.0009781651 0.0007721277 0.0007964816 0.00050094986 -7.641295e-05
0.00044633474 -0.001360008 0.00062054425 -0.00023846835 0.0002934187 5.227542e-05 -0.00066823483 -0.0006464036
0.00049153145 0.00046923288 0.0009837585 -0.00081256166 0.00049400184 0.00040669853 0.0004909616 0.00046458686
-0.00055757334 -0.0001286515 -0.00053256965 0.00031676804 -0.00087760563 -0.0020396677 -0.0005546575 -0.00032586523
0.0023305558 0.0005720419 0.0009235905 -0.00055335445 -0.0017064462 0.0011019697 -0.0005702286 0.002164655
-0.00019589576 -0.0007874194 -0.00075843104 0.001269872 0.00055597816 0.00045246418 -0.00096590497 0.0028597943
-0.0005101896 0.0027810025 -0.0010852393 -0.0007242536 0.003768601 -0.0016940207 -0.0014098056 -0.0005510405
-0.0005600209 -0.00066527096 -0.00055640715 0.00032548638 -0.00057392276 -0.00019191012 -0.001748992 -0.00072792533
0.0014985676 -0.00047649007 -0.0009622994 -0.00050661445 -0.0011283074 -0.0026748825 0.0030175142 0.0011411989
-0.0005365562 -0.0021954628 -0.00056023453 -0.00033636752 0.0006696986 0.0022400715 -0.00054017414 -0.00055756996
0.00083516666 0.0008558915 0.00014097421 -0.00059937424 -0.0010012627 0.0026199638 0.00176238 -0.0008161025
