weights/2024-06-27_15-07-14/actor.pt (torch, 22551 bytes, 9 tensors)

mu_network.0.weight f4 [64, 3]
0	0xbe831229	-0.25599793
1	0x3f0d8c17	0.55291885
2	0x3e0fe2cf	0.14051364
3	0xbdddc970	-0.10829437
4	0xbd0d89ba	-0.034555174
5	0x3ecb5c6a	0.39718944
6	0x3dad12c1	0.08450843
7	0xbe490b10	-0.19633126
8	0xbe3280e1	-0.17431976
9	0x3eb8cd75	0.3609425
10	0xbebae621	-0.365037
11	0x3dd32825	0.10310391
12	0xbf050768	-0.51964426
13	0x3f0b3332	0.5437499
14	0xbe08b845	-0.13351543
15	0xbe805c05	-0.25070205
16	0xbf13842a	-0.5762354
17	0x3eeab637	0.45842144
18	0xbe3b9812	-0.18319729
19	0x3f242c1f	0.64129823
20	0x3d0f173d	0.03493427
21	0x3e033820	0.12814379
22	0x3c083265	0.008312796
23	0xbb00893e	-0.0019613053
24	0xbee7d2cd	-0.45278016
25	0x3f094537	0.5362124
26	0x3cffd9cd	0.031231785
27	0xbee075ca	-0.43839866
28	0xbdb48ca7	-0.0881589
29	0xbe047930	-0.12936854
30	0x3ec4b32f	0.38417956
31	0x3ec4aa19	0.38411024
32	0xbdb1e6dd	-0.08686612
33	0x3d7b7298	0.061388582
34	0xbeb06404	-0.34451306
35	0x3ee35a54	0.44404852
36	0xbf41c950	-0.75697803
37	0x3ea9c525	0.33158222
38	0xbeb2c577	-0.3491628
39	0x3ee7bfc9	0.45263508
40	0xbe6a5114	-0.22882491
41	0xbdc6f92e	-0.09715496
42	0x3cb71b84	0.022351988
43	0xbf2e578f	-0.68102354
44	0xbeb33a03	-0.35005197
45	0x3f0677b0	0.5252638
46	0xbe8ab83a	-0.2709368
47	0xbe2c928c	-0.16852778
48	0x3ef6b76e	0.4818682
49	0x3ed311ca	0.4122451
50	0xbefbf896	-0.49213094
51	0x3eb0b947	0.34516355
52	0xbd847f84	-0.06469634
53	0xbebb3e8d	-0.3657116
54	0xbf16b98d	-0.5887688
55	0xbda607c7	-0.08106952
56	0xbef7d093	-0.48401317
57	0x3ecd1c46	0.40060633
58	0x3d9b9738	0.07597202
59	0xbebbdd86	-0.36692446
60	0xbe8afa71	-0.27144197
61	0x3ee3a832	0.4446426
62	0x3dcd4ba3	0.10024192
63	0xbf1fb4bb	-0.6238515
64	0xbf098ae2	-0.53727543
65	0xbd6d5f91	-0.057952467
66	0xbc6bb6a8	-0.01438681
67	0x3e378341	0.17921163
68	0xbeb676eb	-0.35637602
69	0x3e7dc6f6	0.24782929
70	0xbf21a9df	-0.6314983
71	0xbebb7cab	-0.36618552
72	0x3eb751fd	0.3580474
73	0x3e34190b	0.17587678
74	0x3e971127	0.29505274
75	0xbf004c73	-0.5011665
76	0xbf4cdf1a	-0.80027926
77	0xbe8f54c7	-0.27994367
78	0x3e53fd82	0.20702174
79	0x3efe33a6	0.4964878
80	0xbe93bd8f	-0.2885556
81	0x3eb5b0ae	0.35486358
82	0xbf02fb31	-0.5116454
83	0xbda100da	-0.078614905
84	0xbead575e	-0.33855718
85	0x3e8093b5	0.25112692
86	0x3d8279ef	0.06370913
87	0xbee7ecda	-0.4529789
88	0xbe1b576c	-0.15170068
89	0xbd3fab29	-0.04679409
90	0xbf1dda5e	-0.61661327
91	0xbe806054	-0.25073493
92	0xbef2fc79	-0.47458246
93	0x3f13b9d4	0.57705426
94	0xbda1e148	-0.07904297
95	0x3e4bbfeb	0.1989743
96	0x3e0fca45	0.14042003
97	0xbe0dbb4f	-0.13840984
98	0x3ee42321	0.4455805
99	0xbec926ed	-0.3928751
100	0xbef1baad	-0.47212735
101	0x3e7186d5	0.2358659
102	0x3e3eec5d	0.18644853
103	0xbf2c1389	-0.6721731
104	0x3eb850cf	0.35999152
105	0xbee635d2	-0.44962937
106	0x3f375570	0.7161474
107	0x3ea9cf2f	0.3316588
108	0xbcfb68ab	-0.030689558
109	0x3e581098	0.2110008
110	0x3e2c1934	0.16806489
111	0x3f05921c	0.5217607
112	0x3f02b374	0.51055074
113	0xbe787894	-0.24264747
114	0xbe1631d5	-0.14667447
115	0xbf0e95cc	-0.5569732
116	0x3d2d3e30	0.042295635
117	0xbdea1b1f	-0.11430954
118	0x3eff97b3	0.49920425
119	0x3e2929b7	0.16519819
120	0xbf22c234	-0.6357758
121	0xbf05e59e	-0.52303493
122	0x3e835b1d	0.2565545
123	0xbec79e15	-0.38987795
124	0xbe80733a	-0.2508791
125	0xbc39f963	-0.011350962
126	0x3f322a58	0.6959586
127	0xbeacc0a7	-0.33740732
128	0x3ee7e495	0.45291582
129	0xbf1efeab	-0.6210734
130	0x3ea83374	0.32851756
131	0xbeacb338	-0.33730483
132	0xbe1a888c	-0.15091151
133	0xbefa89ae	-0.48933166
134	0x3e0a9f2e	0.13537285
135	0xbf36035f	-0.71098894
136	0x3d36bab7	0.04461166
137	0x3ececf87	0.40392706
138	0x3ec32804	0.38116467
139	0xbee20e50	-0.44151545
140	0x3d4c0246	0.049806856
141	0x3e9ab5ba	0.3021677
142	0x3f270f2c	0.65257525
143	0x3e9fe46f	0.31228969
144	0xbf15e8e8	-0.5855851
145	0x3ec573f1	0.3856502
146	0x3e8bf0ba	0.27332097
147	0x3e0427f8	0.12905872
148	0xbf3d9da2	-0.74068654
149	0xbeb267a4	-0.34844697
150	0x3e0c965d	0.13729234
151	0xbeb0a27d	-0.3449897
152	0x3e5219c9	0.20517649
153	0xbc5a4581	-0.013322235
154	0x3e6652e0	0.22492552
155	0xbeaaddb3	-0.33372268
156	0x3de95bd2	0.113944665
157	0xbf120f30	-0.57054424
158	0x3e2dfa0a	0.16989914
159	0x3ef35c5d	0.47531405
160	0xbedbb2eb	-0.4290994
161	0xbc474679	-0.012162798
162	0xbb07d714	-0.0020727562
163	0x3eade071	0.33960298
164	0x3d6286e1	0.05530441
165	0xbbd3fe44	-0.00646952
166	0x3e904b19	0.28182295
167	0x3c0b9d1b	0.008521344
168	0x3ef7f3cb	0.48428187
169	0x3de0a020	0.109680414
170	0x3e1760fa	0.14783087
171	0xbf27742c	-0.6541164
172	0xbe722733	-0.23647766
173	0x3eef60bf	0.467535
174	0x3d79382d	0.06084459
175	0x3f16f3cb	0.5896575
176	0x3ed29926	0.41132468
177	0x3e41da6b	0.18930976
178	0xbce3bc00	-0.027799606
179	0xbee69f90	-0.45043612
180	0x3e6a6ee9	0.22893871
181	0x3ec7b656	0.390063
182	0x3e948fac	0.29015863
183	0x3d481ca3	0.048855435
184	0xbf36cbe7	-0.7140488
185	0xbee31218	-0.44349742
186	0x3dde71c0	0.1086154
187	0xbe054d91	-0.1301787
188	0xbe8ee8c9	-0.27911976
189	0x3e71fe34	0.23632127
190	0xbf31528e	-0.69266593
191	0xbe9bab7d	-0.30404273

mu_network.0.bias f4 [64]
0	0x3f069cb7	0.5258288
1	0xbe4d3f51	-0.20043685
2	0x3e81faa8	0.25386548
3	0xbe209449	-0.15681566
4	0x3f07199b	0.52773446
5	0x3e3fc438	0.18727195
6	0x3ebc4570	0.36771727
7	0x3e06f22c	0.13178319
8	0x3e0724c5	0.1319762
9	0xbeefafd7	-0.46813843
10	0x3dd31dd5	0.103084244
11	0xbf129714	-0.57261777
12	0xbeff3b89	-0.4985011
13	0xbe90606e	-0.2819857
14	0x3edc6ddd	0.4305257
15	0xbeb7393d	-0.35785857
16	0xbe09e16f	-0.13464902
17	0xbe1a55cb	-0.1507179
18	0xbf0adb08	-0.54240465
19	0xbcf2893f	-0.02960646
20	0x3e8557f0	0.26043653
21	0x3ee4f0e4	0.44715035
22	0x3e86da31	0.26338342
23	0x3c8bbcc1	0.017057778
24	0x3dc7ae15	0.097500004
25	0x3f128f6d	0.572501
26	0x3f0294aa	0.51008093
27	0x3edaea72	0.42756993
28	0x3f20df8f	0.62841123
29	0x3d884e6c	0.06655583
30	0xbda353f4	-0.07974997
31	0xbdafaa16	-0.08577363
32	0xbec5a5f9	-0.3860319
33	0xbcdb651c	-0.026781611
34	0xbf09e9a2	-0.5387212
35	0x3dddd4fd	0.1083164
36	0xbe08ee5b	-0.13372175
37	0xbf199ba4	-0.60003114
38	0xbe6d46f2	-0.23171595
39	0x3ed55ee1	0.4167395
40	0x3eaf2b12	0.34212548
41	0x3edde4c3	0.43338594
42	0xbec4a149	-0.384043
43	0x3ccd2cb7	0.025045736
44	0xbe271280	-0.16315651
45	0xbe4734cb	-0.19453733
46	0x3efe758a	0.4969905
47	0xbed384e8	-0.41312337
48	0xbe4bbc07	-0.19895945
49	0x3ead8987	0.33893988
50	0x3e2f9190	0.17145371
51	0x3ecc9b31	0.39962152
52	0xbee23a6d	-0.441852
53	0xbf14c268	-0.5810914
54	0x3e7ebd0b	0.24876802
55	0xbe0f87b2	-0.14016607
56	0xbee2cb61	-0.4429579
57	0xbd9fe339	-0.07807011
58	0x3e1fdad2	0.15610817
59	0x3d561e99	0.052275274
60	0x3b85c9ad	0.0040828795
61	0xbdb5a40a	-0.088691786
62	0xbe17eb06	-0.14835748
63	0x3e973f2f	0.29540393

mu_network.2.weight f4 [64]
0	0x3f8f97a6	1.1218154
1	0x3f7de4a2	0.9917699
2	0x3f71dff4	0.9448235
3	0x3f7d5ed5	0.9897283
4	0x3f89f92f	1.077917
5	0x3f812d1d	1.0091892
6	0x3f94e542	1.1632464
7	0x3f75864c	0.95908046
8	0x3f8cc78c	1.0998397
9	0x3f7c3fea	0.98535025
10	0x3f8026d9	1.0011855
11	0x3f6eb06e	0.9323796
12	0x3f83d36c	1.0298896
13	0x3f9d8603	1.2306522
14	0x3f8263d0	1.018671
15	0x3f9e9488	1.2389078
16	0x3f787bb3	0.9706375
17	0x3f774d87	0.9660267
18	0x3f77fbed	0.96868783
19	0x3f78fe28	0.9726281
20	0x3f94e3dd	1.1632038
21	0x3fabad1b	1.3412203
22	0x3f654a44	0.89566445
23	0x3f82ac9f	1.020893
24	0x3f81ee4c	1.0150847
25	0x3f856cfc	1.0423884
26	0x3f7df8ed	0.99207956
27	0x3f7e6470	0.99372005
28	0x3f9fdfc2	1.249016
29	0x3f879350	1.0591831
30	0x3f86d8bc	1.0534892
31	0x3f7f7c3d	0.9979895
32	0x3f68154b	0.9065749
33	0x3f809aca	1.0047238
34	0x3f852fa1	1.040516
35	0x3f823f58	1.0175581
36	0x3f78a538	0.97127104
37	0x3f8884fc	1.0665584
38	0x3f8149cd	1.0100647
39	0x3f81df94	1.0146356
40	0x3f886249	1.0654994
41	0x3fcbccd8	1.5921888
42	0x3f83ce2f	1.0297297
43	0x3f83fda8	1.0311785
44	0x3f7c416b	0.9853732
45	0x3f854f16	1.041476
46	0x3f802e8c	1.0014205
47	0x3f8407c8	1.0314875
48	0x3f847ef1	1.035124
49	0x3f83c494	1.0294366
50	0x3f5ca579	0.8618999
51	0x3f66c89b	0.9014985
52	0x3f7cec80	0.9879837
53	0x3f8cba6e	1.0994394
54	0x3f7b389b	0.9813325
55	0x3f9321ec	1.1494727
56	0x3f99b71b	1.2009004
57	0x3f853fdc	1.0410113
58	0x3f7c033f	0.98442453
59	0x3f7a277d	0.97716504
60	0x3f7cca6e	0.98746383
61	0x3f749834	0.95544744
62	0x3f679f28	0.9047723
63	0x3f85e282	1.045975

mu_network.2.bias f4 [64]
0	0x3cf85f6c	0.030318938
1	0xbb8861ee	-0.0041620648
2	0xbd29ee67	-0.041487124
3	0x3ba89a90	0.0051453784
4	0x3d28c466	0.041202925
5	0x3d1c9aa0	0.0382334
6	0x3ace5618	0.0015742211
7	0x3cde3bcc	0.027128123
8	0xbaf21823	-0.0018470328
9	0x3c997757	0.018733663
10	0x3c5f5fab	0.013633649
11	0xbbb97c79	-0.0056605903
12	0x3c87fa02	0.016598705
13	0xbd18003f	-0.03710961
14	0xbc87b22d	-0.016564453
15	0xbcf547b2	-0.029941414
16	0xbd176566	-0.036961935
17	0xbd278b9c	-0.040904626
18	0x3c0077d1	0.007841066
19	0xbd13fe8c	-0.036131427
20	0xbc4ee767	-0.012628413
21	0xbb97bcac	-0.0046306457
22	0x3e624916	0.22098193
23	0xbc38bd8d	-0.011275661
24	0x3d53dd7f	0.051724907
25	0x3b1bb53b	0.0023759145
26	0xbc81e00a	-0.0158539
27	0xbba77d59	-0.005111378
28	0x3e11761a	0.14205208
29	0x3c835758	0.01603286
30	0x3c0640e7	0.008194185
31	0x3c37f51f	0.011227875
32	0x3c36955f	0.011144011
33	0x3c852793	0.016254222
34	0xbcb7597f	-0.022381542
35	0x3d910d41	0.07082606
36	0x3c196739	0.009362989
37	0xbc898b1c	-0.016789965
38	0xbc48260f	-0.012216105
39	0x3cc2b643	0.02376855
40	0x3c18169a	0.009282732
41	0x3c09f83d	0.008421001
42	0x3c9e32b1	0.01931128
43	0x3cc94e41	0.024573447
44	0xbcc70680	-0.024295092
45	0xbc2304f8	-0.009949915
46	0x3d6c7c98	0.05773601
47	0x3c1de000	0.009635925
48	0x3d2171a3	0.039415013
49	0xbc358078	-0.011077993
50	0xbd6e3a82	-0.058161266
51	0xbe1708f8	-0.14749515
52	0xbd26678d	-0.040626097
53	0xbd1aec25	-0.03782286
54	0x3cf4394d	0.02981248
55	0xbde27f2d	-0.11059413
56	0x3b5c97c2	0.003365979
57	0xbc92b235	-0.017907241
58	0x3b8ef00e	0.004362113
59	0xbbb447fb	-0.005501745
60	0x3d98fcce	0.07470094
61	0x3cbb4344	0.022859223
62	0xbd254fde	-0.04035937
63	0xbca9d320	-0.020730555

mu_network.3.weight f4 [64, 64]
0	0x3c0d7db9	0.008635932
1	0x3d6908fa	0.056893326
2	0xbdc249a3	-0.09486701
3	0xbddc94e6	-0.107705876
4	0xbdba38bd	-0.09092853
5	0xbdeaf33a	-0.11472173
6	0x3e33df5f	0.17565678
7	0x3d95e1e4	0.07318476
8	0xbd7c8868	-0.061653525
9	0xbdc3080b	-0.095230184
10	0x3de3d4d6	0.111245796
11	0x3debd1f6	0.11514656
12	0xbd81fafe	-0.06346701
13	0x3d739d51	0.0594762
14	0xbd64ca93	-0.055857252
15	0xbdcc70c6	-0.09982447
16	0xbd5ff462	-0.05467642
17	0xbd6ceec2	-0.057844885
18	0x3dd1b4b4	0.102395445
19	0x3cdeab11	0.02718118
20	0x3cceeb9d	0.025258834
21	0xbd57121a	-0.052507497
22	0x3ddcbae9	0.10777838
23	0x3ccf79c5	0.025326619
24	0x3e0be488	0.13661397
25	0xbd97de6f	-0.07415473
26	0xbd34806b	-0.04406778
27	0xbce81c7a	-0.028333891
28	0xbd66bdff	-0.05633354
29	0x3d79c388	0.06097749
30	0x3d9a4682	0.075329795
31	0x3d83bb4b	0.06432208
32	0x3d37cd43	0.044873487
33	0x3d62dd46	0.055386804
34	0xbc5fad4f	-0.01365216
35	0xbe017fd3	-0.12646417
36	0x3dfa2533	0.122141264
37	0x3d2f471c	0.042792425
38	0x3d805c24	0.062675744
39	0xbc9c9e7c	-0.01911854
40	0xbe2de407	-0.16981517
41	0xbe470446	-0.19435224
42	0x3dba3064	0.09091261
43	0x3e293893	0.16525488
44	0xbcc1b74d	-0.023646975
45	0x3d1feb98	0.03904304
46	0xbd41646a	-0.047214903
47	0x3d24338e	0.04008823
48	0xbc9ea65d	-0.019366438
49	0xbcdc10c0	-0.026863456
50	0xbcb4045d	-0.021974737
51	0x3cc79262	0.024361793
52	0x3d6a7340	0.057238817
53	0x3dfe9fb8	0.12432808
54	0xbc91c456	-0.017793816
55	0x3de9d5cd	0.114177324
56	0x3e879546	0.26481074
57	0xbe08892f	-0.13333581
58	0x3ddcced1	0.107816346
59	0xbbd78a63	-0.0065777763
60	0x3d99cb18	0.0750944
61	0xbcd53ce4	-0.026030011
62	0xbc7224b9	-0.014779263
63	0xbd833c50	-0.06407988
64	0xbdc799de	-0.09746145
65	0x3d41efbd	0.047347773
66	0x3dbcb217	0.092136554
67	0xbdc6cc00	-0.09706879
68	0x3db4eec0	0.088346004
69	0x3dd579da	0.10423632
70	0x3d21613f	0.03939938
71	0xbd6e0a26	-0.058115147
72	0xbde81049	-0.11331231
73	0x3db94262	0.09045865
74	0x3d9289a8	0.07155162
75	0x3dc65261	0.09683681
76	0x3ce61a9a	0.028088856
77	0x3bbdf9e9	0.005797614
78	0x3d8e0d6a	0.06936152
79	0x3cda5d93	0.026655948
80	0x3dae4036	0.08508341
81	0x3d8b6cad	0.06807838
82	0xbd50a495	-0.050938208
83	0xbda71f4d	-0.08160267
84	0xbd3dc4d3	-0.046330284
85	0xbe2c6182	-0.16834071
86	0xbddda865	-0.10823134
87	0x3db34745	0.08753828
88	0x3c2ac8b4	0.010423828
89	0x3b951cf3	0.00455057
90	0xbdc888ba	-0.097917035
91	0x3c5a2a72	0.013315784
92	0xbe0af3f6	-0.13569626
93	0x3dc3096c	0.095232815
94	0x3d0440da	0.03228841
95	0xbe0692a1	-0.13141872
96	0x3caa2b0a	0.020772476
97	0xbce33bc2	-0.027738456
98	0xbd0ab11f	-0.033860322
99	0x3d8c23b5	0.06842748
100	0xbcd5f770	-0.026118964
101	0xbd8e6bc4	-0.069541484
102	0xbd9713b8	-0.07376808
103	0xbd04496e	-0.03229659
104	0xbcf8471f	-0.03030735
105	0xbdb8b0ae	-0.09018074
106	0x3d0e2cfb	0.034710865
107	0x3d13e911	0.03611094
108	0xbb667424	-0.003516444
109	0xbd48cff3	-0.04902644
110	0xbd4058f5	-0.046959836
111	0xb9cb65b1	-0.00038794943
112	0x3ddb594c	0.107103914
113	0x3d1237cb	0.03569774
114	0x3d3b4c86	0.045727275
115	0x3ca8cca8	0.0206054
116	0x3dbbbff9	0.09167475
117	0x3e0dc3fb	0.13844292
118	0x3deaea90	0.114705205
119	0x3e175e67	0.14782105
120	0xbdc8b977	-0.098009996
121	0x3da643d1	0.08118404
122	0x3df13da6	0.11779337
123	0x3def6b8b	0.11690434
124	0xbd5f2efc	-0.054488167
125	0xbd68ed6c	-0.05686705
126	0xbc296ac9	-0.010340401
127	0x3c74c424	0.014939342
128	0x3d510fc5	0.05104043
129	0x3c7712c6	0.0150801595
130	0x3cf804e2	0.030275766
131	0x3d9eff21	0.07763506
132	0xbcaf7634	-0.021418668
133	0xbc222ef0	-0.009898886
134	0xbc60dae3	-0.013724062
135	0x3d097e54	0.03356774
136	0x3cb0c8a0	0.02158004
137	0xbd38fc0f	-0.045162257
138	0xbe17bb1a	-0.14817467
139	0xbd876cb0	-0.06612527
140	0xbdb5f025	-0.088836946
141	0xbd333bf2	-0.04375834
142	0x3d8e5a62	0.06950833
143	0x3df2b9e6	0.118518636
144	0x3d88a1ce	0.06671487
145	0xbd02dc7f	-0.031948563
146	0xbd8540a2	-0.06506468
147	0xbd92a31f	-0.07160019
148	0xbd54b73b	-0.051932555
149	0x3d05b23b	0.032640677
150	0xbbe83ce4	-0.007087337
151	0xbcf5f45a	-0.030023742
152	0xbdf21704	-0.11820796
153	0x3d8ca107	0.06866651
154	0xbcef7519	-0.029230641
155	0x3d31dfa8	0.043426186
156	0xbd4dc41d	-0.050235856
157	0x3d4c9bad	0.04995315
158	0xbc84d004	-0.01621247
159	0xbe3a5eef	-0.18200277
160	0xbdf864e9	-0.12128622
161	0x3d5c2456	0.05374559
162	0x3dfa1716	0.122114345
163	0xbbc6b819	-0.0060644266
164	0xbd896b42	-0.06709911
165	0x3e048396	0.12940821
166	0xbcff554f	-0.031168608
167	0x3d915527	0.0709632
168	0xbd327b47	-0.043574598
169	0xbd09b79d	-0.033622373
170	0x3c8e2cc2	0.017355327
171	0xbd481249	-0.048845563
172	0x3dbc72cc	0.09201583
173	0x3d01a854	0.03165467
174	0xbd9a3adf	-0.0753076
175	0xbd22ccae	-0.03974598
176	0xbce7b809	-0.028285997
177	0x3de69bfc	0.112602204
178	0x3d70c8ee	0.05878537
179	0xbd801d37	-0.06255572
180	0xbd2876e6	-0.041129015
181	0x3d963dfa	0.0733604
182	0xbd028a68	-0.031870276
183	0x3e3125b0	0.17299533
184	0xbdf504a3	-0.11963775
185	0x3e25e5b2	0.16200903
186	0x3d937ce7	0.072015576
187	0x3deb8fbb	0.11502024
188	0xba869293	-0.0010267071
189	0xbdd16fc2	-0.10226394
190	0xbc219b5f	-0.0098637035
191	0xbc2edadb	-0.010672296
192	0xbd328d1d	-0.043591607
193	0x3da05c99	0.078301616
194	0x3dae2e25	0.08504895
195	0xbc9e1193	-0.01929549
196	0xbd4a49b0	-0.04938668
197	0x3e044379	0.12916364
198	0x3d540797	0.05176505
199	0x3ce82d01	0.028341772
200	0x3e172488	0.1476003
201	0x3da6348e	0.08115493
202	0xbccebe58	-0.025237247
203	0x3cc310aa	0.023811657
204	0xbdcb12e6	-0.09915714
205	0x3bad5086	0.00528914
206	0x3db5dc2f	0.08879887
207	0x3d96580a	0.07341011
208	0x3aae4dfb	0.0013298386
209	0xbdb26df4	-0.08712378
210	0xbd2d08ac	-0.0422446
211	0xbcdf6343	-0.027269011
212	0x3c3c13fd	0.011479375
213	0xbb0f1e87	-0.0021838264
214	0xbd6a26b2	-0.05716581
215	0x3dc3642d	0.095405914
216	0x3cdd0948	0.026981965
217	0x3dd39264	0.10330656
218	0x3d3fdb09	0.046839748
219	0xbe040feb	-0.12896697
220	0xbd0b83ab	-0.034061115
221	0x3db5e922	0.08882357
222	0xbe15222e	-0.1456382
223	0x3a9251d4	0.0011163303
224	0xbd4a62f7	-0.049410786
225	0x390a73a8	0.00013203791
226	0xbde0617c	-0.10956094
227	0x3da79a3a	0.08183713
228	0x3e1b2179	0.15149488
229	0x3deb5857	0.11491459
230	0x3e053d88	0.13011754
231	0x3c49ada1	0.012309463
232	0x3dd0c2a8	0.10193378
233	0xbcd52831	-0.026020141
234	0xbc77d20f	-0.015125765
235	0xbd12f223	-0.03587545
236	0x3cda2ce8	0.026632741
237	0xbd117e02	-0.03552056
238	0x3d28fbce	0.041255765
239	0xbe0e0846	-0.13870344
240	0x3e3279b7	0.17429243
241	0xbdb8ea60	-0.090290785
242	0xbdc6212c	-0.09674296
243	0x3d6d843f	0.057987448
244	0x3dea8067	0.11450272
245	0x3d6898e3	0.05678643
246	0x3e08b57c	0.13350481
247	0x3e0f5fb2	0.14001349
248	0xbcca7de6	-0.024718236
249	0xbcbb37fd	-0.022853846
250	0xbe05c68d	-0.13064022
251	0x3d892f9c	0.06698534
252	0xbb96e602	-0.004605056
253	0x3bc5db2e	0.006038091
254	0x3d86fe29	0.06591446
255	0x3bc87649	0.0061176163

mu_network.3.bias f4 [64]
0	0xbd3c449b	-0.045963865
1	0x3d595ec0	0.053068876
2	0xbe4378f8	-0.19089115
3	0x3d64da7c	0.055872425
4	0xbda6575f	-0.081221335
5	0x3d0951c3	0.03352524
6	0x3c32faf9	0.010924094
7	0x3d195fe0	0.03744495
8	0xbc080862	-0.00830278
9	0xbd505ca4	-0.0508696
10	0xbe183731	-0.14864804
11	0x3d853695	0.06504551
12	0xbddbfad7	-0.10741203
13	0x3cf766b9	0.03020035
14	0xbd97e3cf	-0.07416498
15	0x3cf38c98	0.029730126
16	0xbe275dfe	-0.16344449
17	0x3d94fb38	0.07274479
18	0x3afbf777	0.001922353
19	0x3d95edb2	0.073207274
20	0xbc11f117	-0.008907578
21	0x3c5219d5	0.012823542
22	0x3d85e656	0.06538074
23	0x3dd29bb0	0.10283601
24	0xbc9cf786	-0.019160997
25	0x3d81b349	0.06333024
26	0xbe04146a	-0.12898412
27	0x3d3e3872	0.04644055
28	0x3ccda774	0.025104262
29	0xbd920380	-0.07129574
30	0x3ce39be1	0.02778429
31	0xbe0655f8	-0.13118732
32	0x3a324da8	0.0006801733
33	0xbd82efd5	-0.063934006
34	0x3d9c0f3b	0.076200925
35	0x3d7f0393	0.062259268
36	0x3d899c78	0.06719297
37	0x3c725cd4	0.01479264
38	0xbe33d343	-0.17561059
39	0xbd3a1f35	-0.045439918
40	0xbd27eb4f	-0.040995892
41	0xbdaf6336	-0.08563845
42	0xbdedb967	-0.11607628
43	0xbe1e605c	-0.15466446
44	0xbbe802dd	-0.0070804195
45	0xbc12ae14	-0.008952636
46	0xbcad75b8	-0.021174297
47	0xbc8441f7	-0.016144736
48	0x3d20b831	0.03923816
49	0xbbad4507	-0.0052877697
50	0xbdb5af1e	-0.088712916
51	0xbdaf7390	-0.08566964
52	0xbd81dd0e	-0.06340991
53	0x3d3acd21	0.045605782
54	0xbd969ebd	-0.07354496
55	0x3b79d9a9	0.003812412
56	0xbcddefb9	-0.027091848
57	0xbe1caf64	-0.15301281
58	0xbd29f91e	-0.041497342
59	0x3d25c334	0.040469363
60	0x3d9d9b64	0.07695654
61	0x3d7a0de8	0.06104842
62	0xbddf17e2	-0.10893227
63	0xbca59e1c	-0.020216994

mu_network.5.weight f4 [64]
0	0x3f86b734	1.0524659
1	0x3f732ff7	0.94995064
2	0x3f7fa53c	0.998615
3	0x3f738932	0.9513122
4	0x3f83a31c	1.0284152
5	0x3f78aa23	0.9713461
6	0x3f9e2ff5	1.2358385
7	0x3f811176	1.0083454
8	0x3f78eccb	0.9723632
9	0x3f8667a6	1.0500381
10	0x3f783468	0.96954966
11	0x3f809fb0	1.0048733
12	0x3f8d8f8a	1.105943
13	0x3f85cb8e	1.0452745
14	0x3f8ee51c	1.1163669
15	0x3f844073	1.0332168
16	0x3f8c4026	1.0957077
17	0x3f8048aa	1.0022175
18	0x3f7da786	0.99083745
19	0x3f8b7b3d	1.0896984
20	0x3f7a014f	0.97658247
21	0x3f9705b1	1.1798612
22	0x3f8c54af	1.0963343
23	0x3f8060f5	1.0029589
24	0x3f7e5d4a	0.993611
25	0x3f8e8eed	1.1137367
26	0x3f75f7e4	0.96081376
27	0x3f85208d	1.0400559
28	0x3f949548	1.1608057
29	0x3f84f245	1.0386435
30	0x3f87dba9	1.061391
31	0x3f865ff6	1.0498035
32	0x3f85448a	1.0411541
33	0x3f7319c5	0.94961196
34	0x3f7cf8dc	0.9881723
35	0x3f85423a	1.0410836
36	0x3f7ac225	0.9795249
37	0x3f86a095	1.0517756
38	0x3f87dbdc	1.0613971
39	0x3f789aaf	0.9711103
40	0x3f82ec34	1.0228333
41	0x3f83e676	1.0304706
42	0x3f8c88dd	1.0979267
43	0x3f87f208	1.0620737
44	0x3f75de43	0.9604227
45	0x3f7f9d99	0.9984985
46	0x3f8ab1da	1.0835526
47	0x3f8ee8e1	1.1164819
48	0x3f83c32c	1.0293937
49	0x3f89f700	1.0778503
50	0x3f715d47	0.94282955
51	0x3f82b74e	1.021219
52	0x3f89a139	1.0752326
53	0x3f832a6d	1.0247322
54	0x3f83114d	1.0239655
55	0x3f841795	1.0319697
56	0x3f73d6b8	0.9524951
57	0x3f843fe7	1.0332001
58	0x3f75698f	0.95864195
59	0x3f76be7b	0.963844
60	0x3f756777	0.95861
61	0x3f85757a	1.0426476
62	0x3f84f2c4	1.0386586
63	0x3f83aff7	1.0288075

mu_network.5.bias f4 [64]
0	0x3c2340d6	0.009964189
1	0x3bc5dcb5	0.006038273
2	0xbba15577	-0.0049235183
3	0x3c176bf1	0.009242044
4	0xbb785f21	-0.0037898498
5	0x3a81dfcd	0.0009908617
6	0xbc275e83	-0.010215404
7	0x3bfcc303	0.007713677
8	0xbc7d629b	-0.015465404
9	0xbc63e7ef	-0.013910278
10	0xbb695da1	-0.0035608786
11	0xbb08aa13	-0.0020853325
12	0x3c1cf469	0.009579756
13	0xbd5269fb	-0.051370602
14	0x3bdfc9ce	0.006829477
15	0x3b904563	0.004402803
16	0xbbf98e13	-0.0076158135
17	0x3b009aba	0.0019623474
18	0xbacc4203	-0.0015583638
19	0xbbb76f22	-0.005597965
20	0xbb10cf01	-0.002209604
21	0xbc3c6381	-0.011498333
22	0x3b9fb36a	0.0048736827
23	0x3c4fcce8	0.012683131
24	0x3c95d7ef	0.018291442
25	0x3bd1a1b3	0.00639745
26	0x3ba0a748	0.004902754
27	0xbb645db8	-0.00348459
28	0xbc29c6b0	-0.010362312
29	0x3c16dbec	0.009207707
30	0xbb49989b	-0.0030761126
31	0xbb743582	-0.0037263338
32	0xbb621692	-0.0034498316
33	0x3b47d421	0.003049143
34	0x3c085a4d	0.008322311
35	0x3b956234	0.004558826
36	0x3c1111cb	0.00885434
37	0x3bb6e020	0.005580917
38	0x3bd317a2	0.0064420262
39	0x3d0c07c1	0.034187082
40	0xbb073a4b	-0.002063411
41	0x3beeff72	0.007293635
42	0x3bb7e16c	0.005611589
43	0x3b7529d1	0.0037408958
44	0x39f4295d	0.00046570125
45	0xbb5b4637	-0.00334586
46	0x3bdb873a	0.00669947
47	0xbc111769	-0.008855679
48	0xbac37d86	-0.0014914728
49	0x3b9940b7	0.004676904
50	0x3d9d649f	0.076852076
51	0x3c1f463e	0.009721337
52	0x3b8f384a	0.004370724
53	0x3b005090	0.001957927
54	0xbb5c67f7	-0.0033631304
55	0x3cf7fdfe	0.03027248
56	0xbb18895c	-0.0023275232
57	0x3bbe1a40	0.005801469
58	0x3b72abad	0.0037028596
59	0x3b34c822	0.0027585109
60	0xbc5e97b2	-0.013585972
61	0x3bd73435	0.006567503
62	0x3bc3ccaa	0.0059753256
63	0xbd3ed1fa	-0.046586968

mu_network.6.weight f4 [1, 64]
0	0xbdbceb2d	-0.09224544
1	0xbb3816eb	-0.0028089832
2	0x3d3182f4	0.043337777
3	0x3c802c43	0.015646106
4	0x3d6a6614	0.057226256
5	0xbc8bde8a	-0.017073888
6	0x3e606b6b	0.21915977
7	0xbda80b9f	-0.082053415
8	0x3c8a858c	0.016909383
9	0x3d8807e1	0.06642128
10	0x3d148d84	0.036267772
11	0xbd053d1f	-0.032528993
12	0xbe03daf3	-0.12876491
13	0x3d78d07e	0.06074571
14	0xbe5e3326	-0.21699199
15	0xbe14be0a	-0.14525619
16	0x3e2eed88	0.17082798
17	0xbdd64d8d	-0.104640104
18	0x3dd26c12	0.10274519
19	0x3e0582aa	0.13038126
20	0xbc863c5c	-0.016386203
21	0x3e41574b	0.18880956
22	0xbe49ea10	-0.19718194
23	0xbce9de86	-0.02854849
24	0xbc959d61	-0.01826352
25	0xbe1c25ba	-0.15248767
26	0xbca2634c	-0.019822739
27	0x3e1e4fe4	0.15460163
28	0x3e3ec504	0.18629843
29	0xbd9d7715	-0.07688729
30	0x3e1a644e	0.15077326
31	0x3e140d0a	0.14458099
32	0x3e01071c	0.12600368
33	0xbd230ff4	-0.039810136
34	0xbd7b81ee	-0.061403207
35	0xbe067ac8	-0.13132775
36	0xbc650ba4	-0.013979826
37	0xbdcb9a90	-0.0994159
38	0xbe198504	-0.14992148
39	0xbc644a66	-0.013933754
40	0x3db102a8	0.08643085
41	0xbe04b27a	-0.12958708
42	0xbe5c5fd1	-0.21520926
43	0xbdfa6c55	-0.12227694
44	0xbd2fb6b4	-0.04289885
45	0x3deb445a	0.114876464
46	0xbe2c1cca	-0.16807857
47	0x3e287a12	0.16452816
48	0x3d84ffbe	0.064940915
49	0xbe238e45	-0.1597224
50	0xbbafaf64	-0.0053614844
51	0xbdc266ff	-0.09492301
52	0xbe072209	-0.13196577
53	0xbd9d76ef	-0.076887004
54	0x3dc2ef34	0.095182806
55	0xbd4465ea	-0.047948755
56	0xbc736d12	-0.014857547
57	0xbdf99feb	-0.12188705
58	0x3b7b9389	0.0038387498
59	0xbdb0c541	-0.08631373
60	0x3b59c187	0.0033226924
61	0xbde5dd48	-0.11223847
62	0xbddd0d9e	-0.10793613
63	0x3d4cdb9c	0.050014123
