weights/2024-06-27_15-07-14/target_critic.pt (torch, 22924 bytes, 9 tensors)

critic.0.weight f4 [64, 3]
00000000: d967 033f b710 1ebe 9db8 8e3e b0bc 8bbe
00000010: a89e 1e3f 8ca9 ad3e 2e30 063e 122f 073f
00000020: 2a26 9fbe a743 c8bc e637 973e 2586 c9be
00000030: 0204 57be f871 88bd f296 7f3e 4a37 633e
00000040: 8bd4 10bf 155b 53be 7631 993e 7bae 5abe
00000050: d34a f33d 023c 843e 224b 243f a1fb 35be
00000060: 3d07 a2bd e9ee e3be 9816 6fbe fd48 90bd
00000070: 7d92 15bf 4f4c babd 21a3 893d d32a 47be
00000080: 54e6 4c3e 54b1 983e a6cd 583e 210e 093f
00000090: 7358 f8bd e71b f33e c5b4 c53e b16a d0be
000000a0: c93f 523f 30e6 933e 37eb 8bbe 7baf 9a3c
000000b0: 3463 76bc be0e f43d d311 4b3e 8bba a1be
000000c0: 96b5 023f 76ae cdbe 1162 a23e 75aa 1bbf
000000d0: e223 12bf b3a0 a6be affc 2ebe bbad 123f
000000e0: a871 9dbd 8bd6 343e ccee 453d a1ea babe
000000f0: d2bd 033f 29f0 04be 95b4 cdbc 79e9 63be
00000100: a34b 613d 7081 a63e e8b3 2f3e 7d11 0c3f
00000110: d6c0 25bf 92d4 e63e 0946 083f fb9d 11bf
00000120: c359 d9bd 6504 04bf 627e 943d 9de6 8abd
00000130: 684a 833e 3801 c13e 61de f73e 5275 4b3e
00000140: 5c4f 053f 6d81 c1bd a3d4 2e3e b17a ebbd
00000150: 8087 d0be 6e82 a33b 9d6e 8eb9 11d7 113d
00000160: 192f 09bf 8116 d3be 3a59 e3be d222 ba3e
00000170: 4d92 69be 72e3 f8be 51fb e93e 49ec 073f
00000180: 603d b5be c080 3e3e ac0a 643e dd1f 14bd
00000190: 4ce4 b6bd 7367 74be 9b2e 1dbf 7370 783e
000001a0: 92d4 06bf 2dfb d73e b886 20be 3291 213f
000001b0: 6237 2d3e 0bb0 b33e 2de2 b9be 9cbf e13d
000001c0: ade9 ffbe 6963 073e cd59 db3d 4dcb eebe
000001d0: 44c4 373e 2f87 e3bd b8b2 063f c8aa 803e
000001e0: d3fb 1dbf 800b aebd ff03 8c3d d60a 243e
000001f0: 69aa 46bf 24ac 0bbf 099c 0dbf 0199 143f
00000200: 0eea 063f 8b35 f23d 2a30 7bbe 2cb6 febe
00000210: e5a8 42bd 88e6 fe3e e3ed bcbe 42e9 bdbe
00000220: 49df 193f 899c 923e 695d d53e 616c ecbe
00000230: f72a fa3e 3044 0dbe bcca 2c3f 2d0e f73d
00000240: 73f6 f03e 1229 a23e 6feb cdbd ba5a 8bbe
00000250: 660c da3e 3d04 1ebe de32 513e 3190 d1be
00000260: 9217 e43e 2f65 8f3e efa3 31be f02d 093e
00000270: 8762 a9be 7ae4 bc3d 7ad2 e8bd 147c 013f
00000280: c2b7 2abf 723e 223c 7396 babe 2e40 17bf
00000290: 9f3c 273d fc46 af3d 8d6d 4d3e a067 9cbe
000002a0: cd7e be3e ceda 1fbf 5c54 db3e a757 18ba
000002b0: ec05 b33e 0b4a 88bd 2bc1 0f3c 36c2 083f
000002c0: d8c3 c7bd 409e 47be 3ad3 fdbe 6237 f7be
000002d0: 44ac 9f3e 0831 16bf 636c 9fbe ce5f b2be
000002e0: 40f4 573e a8ee 4ebe 141d 3dbe f64a 4a3e
000002f0: 7fb9 cfbd 4443 88be 9716 e93e 260b a7be
0.51330334 -0.15436064 0.27875224 -0.27292395 0.6196084 0.33918417 0.13104317 0.528062
-0.31083804 -0.024446322 0.29534835 -0.39360157 -0.20997623 -0.06662363 0.24959925 0.2218906
-0.56574315 -0.20640214 0.29920548 -0.21355622 0.11879506 0.25827032 0.64177144 -0.1777177
-0.07911537 -0.4451821 -0.23348463 -0.070451714 -0.5842665 -0.09096586 0.067205675 -0.1944993
0.20009738 0.2982279 0.21172199 0.53537184 -0.12126245 0.47482225 0.3861448 -0.407064
0.8212858 0.28886557 -0.27327892 0.018882504 -0.0150383 0.11916874 0.19831018 -0.31587633
0.5105833 -0.40172166 0.31715444 -0.6080697 -0.57086 -0.3254448 -0.17088579 0.5729634
-0.07687694 0.17659967 0.048323438 -0.36507133 0.5146152 -0.12982239 -0.025110522 -0.22257032
0.055003773 0.32520628 0.17158473 0.54714185 -0.6474737 0.45084053 0.53231865 -0.56881684
-0.10612824 -0.51569206 0.07250668 -0.06782267 0.25642705 0.37696242 0.4841185 0.19868973
0.5207422 -0.09448514 0.17073302 -0.11498011 -0.40728378 0.0049899137 -0.00027166764 0.035605494
-0.5358749 -0.41228107 -0.44404012 0.3635469 -0.22809716 -0.48611027 0.45699552 0.5309492
-0.35398388 0.18603802 0.22269696 -0.0361632 -0.08930263 -0.23867588 -0.6139924 0.24261646
-0.52668107 0.4218382 -0.15676391 0.63112175 0.16915658 0.35095248 -0.3630537 0.11022875
-0.49982968 0.13221516 0.107104875 -0.4663948 0.17945963 -0.111097686 0.52616453 0.25130296
-0.6171238 -0.08498287 0.068367 0.16019759 -0.77603775 -0.5455954 -0.55316216 0.58045965
0.5270089 0.11826619 -0.24530092 -0.4974836 -0.04752435 0.49785256 -0.36900243 -0.37092024
0.6010633 0.28635052 0.4167283 -0.46176437 0.48860905 -0.13795543 0.6749685 0.12063251
0.47063026 0.3167196 -0.10054671 -0.27217656 0.42587584 -0.15431304 0.2042956 -0.40930322
0.44549233 0.28006884 -0.17347692 0.1339643 -0.33082983 0.09223266 -0.1136827 0.50579953
-0.6668664 0.009902583 -0.3644291 -0.59082305 0.040829297 0.08558461 0.20061322 -0.3054781
0.37206116 -0.62443244 0.428378 -0.0005811401 0.34965456 -0.066547476 0.008774082 0.5342134
-0.09754151 -0.19493961 -0.49575216 -0.4828444 0.31186116 -0.58668566 -0.3113738 -0.34838718
0.21089268 -0.20208228 -0.18468124 0.19755158 -0.101428024 -0.2661382 0.45525047 -0.32625693

critic.0.bias f4 [64]
00000000: dd8c 85be 9206 0a3f 2ecd 09bf 0027 c93d
00000010: f2fc babe b413 86bd 7e13 013f 7c82 c83e
00000020: bb08 d33d 333b 87bb 37e7 973e 31d3 ba3d
00000030: 9111 a13e 6218 c4be 4f44 a33d fe02 c1be
00000040: ea1b 90be a5c2 b83e e29a a23e fe9e ae3c
00000050: 15e6 62be cbd8 e83e 7c8e debd bcaf f5bc
00000060: 3629 87be 85cf db3e 1fa3 18be d63e b03e
00000070: 9f4c cbbe cefc ae3e eb81 e13e 9245 863d
00000080: 88f6 723e dbe7 0abf 3ed1 893e 7834 c1bd
00000090: 63fa 26bd bfa4 0fbf a513 d0be 70e8 ec3e
000000a0: 3670 1a3f 09b0 58be ab92 f4bd 0533 083f
000000b0: 9006 13bf 996f 15be eb95 18bf 12f9 89be
000000c0: fcaf 90bd 757e bf3d b8b0 05bf cfeb b5be
000000d0: ca84 d73e 9bbf c13e 9bc4 a63e fdb8 aabe
000000e0: 4389 c23b 18df 843e 7ad0 f33c 79dd 7c3e
000000f0: 5d8a b93e c19b 043d e598 fd3e 56ab c9be
-0.26084033 0.53916276 -0.53828704 0.09821892 -0.36521107 -0.06546727 0.5042037 0.39162052
0.103043996 -0.00412693 0.2966859 0.09122313 0.31458715 -0.38299853 0.07972013 -0.37697595
-0.28146297 0.36086002 0.3175879 0.021316048 -0.22158082 0.454779 -0.108670205 -0.029991023
-0.2639863 0.42931762 -0.14905976 0.3442294 -0.39706895 0.3417725 0.44044432 0.06556238
0.23726857 -0.54260033 0.26917452 -0.09433836 -0.04076613 -0.5611076 -0.40639988 0.46271086
0.6032747 -0.21160902 -0.11942037 0.5320285 -0.5743189 -0.14593352 -0.59603757 -0.26947838
-0.07064816 0.09350292 -0.52222776 -0.3553147 0.42093498 0.37841496 0.32571873 -0.3334426
0.005936773 0.25951457 0.029762495 0.2469386 0.36238375 0.0323751 0.49530712 -0.3938853

critic.2.weight f4 [64]
00000000: 90cf 8d3f d0e5 823f 7848 843f 8e17 813f
00000010: 87bb 6b3f a895 8f3f a4a4 543f 29fb 713f
00000020: 2a72 863f 170f 843f 4ed2 6d3f 8c32 713f
00000030: be7f 823f 693a 823f 5fe5 693f 307b 853f
00000040: 78e2 843f 9dfa 8a3f d06e 8a3f a5dc 7b3f
00000050: 06f8 8d3f 29f2 693f bad2 863f 310b 823f
00000060: b7a2 7e3f d001 783f 5955 7a3f 1bfb 7e3f
00000070: ac36 763f c1a0 823f 889d 853f 2f47 863f
00000080: 9854 753f 5e82 7e3f 00d9 803f 3a9d 7c3f
00000090: 76a4 843f 4233 853f 6614 7d3f 70f0 783f
000000a0: f156 923f 5af5 773f c460 843f e742 6f3f
000000b0: 743b 7b3f 59bb 6b3f 767f 863f 46c9 773f
000000c0: 00e1 843f 4141 673f 5b3a 833f 7ddf 893f
000000d0: 552d 913f 4417 813f 8396 873f 1dcb 823f
000000e0: 6b53 863f 4566 6a3f 26c9 8a3f 866a 793f
000000f0: 58ef 5b3f cc6e 6b3f f27b 753f 5cfe 793f
1.1078968 1.0226383 1.0334616 1.0085313 0.9208302 1.1217546 0.8306372 0.94523865
1.050359 1.0317105 0.92899024 0.94217753 1.0195234 1.0174075 0.9136562 1.0428219
1.0381613 1.0857731 1.0815067 0.9838355 1.1091316 0.9138513 1.0533059 1.0159665
0.99467033 0.96877766 0.9778648 0.99601907 0.9617717 1.0205308 1.04387 1.0490474
0.95832205 0.99417675 1.0066223 0.9867741 1.036269 1.0406268 0.9885925 0.9724188
1.1432782 0.9685875 1.034203 0.9346146 0.98137593 0.92082745 1.0507648 0.96791494
1.0381165 0.90333945 1.0252184 1.0771328 1.1341959 1.0085225 1.0592808 1.0218235
1.0494207 0.915623 1.0842636 0.97428167 0.85912085 0.9196594 0.9589225 0.97653747

critic.2.bias f4 [64]
00000000: e955 36bd 9e69 783b 2280 97bc b204 2c3c
00000010: b600 193c 5877 9bbd 708a 2cbd 72d2 6bbd
00000020: b194 e4bc 1fbc 5abd 6054 0a3d b3fe a3bb
00000030: 2483 b53c 9270 66bd 2f3a 09bd 7e73 f7bc
00000040: 2e2b a13b bbc5 433d 6934 0b3d e57b a9bd
00000050: 9084 79bd 0dfe 59bc 7d77 e03c 5127 05bd
00000060: 2429 e7bc bf6c 263c 0436 10bd aec5 e0bc
00000070: 04c5 febc ca62 d73c 891e ff3c e553 1a3d
00000080: fe09 3abc c14b 48bd 0914 483d 842b f8bb
00000090: 7962 0ebd 2c82 0fbd cb07 dc3b 62a7 0f3d
000000a0: b408 4e3d 2ddc a53c ecb5 373d 6532 dd3b
000000b0: e363 7bbc 9558 5dbc f3ec 20bd fed9 8abd
000000c0: 69df febb 2bb8 033d 45cc 5d3c 140f 77bd
000000d0: f99b 0a3d 9e62 85bc c164 57bb 421d abbc
000000e0: f991 13bd 2f1f 9f3c 365d 2fbd f5dd 5f3c
000000f0: 7de5 913c 603a 0f3d 3115 053c 375b f8bc
-0.044515524 0.003790475 -0.018493716 0.010499166 0.009338548 -0.075911224 -0.04212421 -0.057573743
-0.027902933 -0.053402063 0.033771873 -0.0050047277 0.02215726 -0.0562597 -0.033502754 -0.030206438
0.0049184775 0.047795992 0.03398553 -0.08275584 -0.060917437 -0.013305199 0.027400726 -0.0325082
-0.02821786 0.010157763 -0.035207763 -0.027438011 -0.031099804 0.026292223 0.03114249 0.037677664
-0.011354921 -0.04890037 0.048847232 -0.007573547 -0.03476188 -0.03503625 0.006714796 0.035071738
0.05030127 0.02024659 0.04485123 0.0067503923 -0.015343639 -0.013509889 -0.039288472 -0.0677986
-0.0077780974 0.032158058 0.013537471 -0.060317114 0.033840153 -0.016282376 -0.003286645 -0.020887975
-0.036027882 0.01942405 -0.042813502 0.0136637585 0.017809624 0.03496778 0.008122728 -0.030316932

critic.3.weight f4 [64, 64]
00000000: d7b1 943d 05fe be3d 2c9a afbd 2699 b0bc
00000010: 555d a53d d473 4e3d b2cf 47bd 9532 87bd
00000020: f616 ba3d 675f 1b3e 8f74 113d 3231 0cbd
00000030: 52c1 97bd ce4d 67bd 15f2 bb3d bfe8 cbbd
00000040: 7306 2ebd 00b3 263e 2c59 073e a644 c9bd
00000050: 0fc0 9a3d 820e 2a3d 651f 623d 3026 c9bd
00000060: e602 0cbe 0b03 763d 1981 20bd a04a eeba
00000070: 1825 563d 12bf d5ba d0f9 173e ed2e ea3d
00000080: e8d9 353d 0d32 b2bd 20a8 2f3c 474e 243d
00000090: 0029 fb3c 1f99 53bc 6029 a2ba 55c6 49bc
000000a0: f28c 18bd 6dcd d83d 3a59 6a3d 1f29 db3c
000000b0: c391 34bd c575 9f3d 5d55 96bd 2371 0a3c
000000c0: 6217 9f3d 5656 933d 3a66 9a3c 4f71 05be
000000d0: 9717 e63c 94e3 ce3b e05a 8a3d 888f afbd
000000e0: b67c 0cbe 2e6a b4bd 6f9c b0bd e367 03bc
000000f0: 78ce 7d3d 1941 d03d eacb 663d f54a 81bd
00000100: a7b9 13ba 1696 c0bd 3687 45bc f6de f43c
00000110: b895 b93d 900c aa3d 7847 e3bd 885e e33d
00000120: c559 6cbd 73a5 b8bc b411 de3b 0f0c 89bd
00000130: a3be a23d ae75 14be fb43 743d 418e 883c
00000140: ad95 243e e922 813d aa0b 20be 8b54 ef3c
00000150: 42e2 313d 47cd bdbd 64ae 993d 7349 e53d
00000160: 1159 c4bc a402 883c ef9d 893d aa30 05be
00000170: e950 0d3d 5d8b 6bbd 57ad 83bd b89c 39bd
00000180: 5fc4 85bd 895c 203c 0774 943d e538 fb3d
00000190: 7359 b53d 3c34 c83c 93ab 533c 70fe a1bb
000001a0: ec0f 01be fb60 2bbd 6b79 08be b9a9 ae3d
000001b0: 963a 74bd 2bf8 6abd 073c 0f3e f039 8dbc
000001c0: 5eb7 a73d 90e9 3abd ec59 313e 323f be3d
000001d0: 6411 56be 91f9 b03d 054b 313e 09ea c3bb
000001e0: a674 273e 9e8e 1ebc 1f60 5dbe 63e7 67bd
000001f0: d22f efbc f49b ec3d 2436 15be 6042 b3bd
00000200: cf5a 533d 1812 debc a6d1 263e 9b4e 01bd
00000210: 0a6e 383e 3d6f e7bc 7240 06bd cf86 b1bd
00000220: 26b4 bdbc 012d b7bd 3334 fdbd a840 42bd
00000230: e507 07be 24e8 b73d 38ab eb3b be72 ffbc
00000240: dc37 f8bc 54a9 66bc 9f0b 05bd f516 03be
00000250: a1ee 9fbd 9af8 2bbe c405 e93d 13bb ef3d
00000260: 3b59 283e 14dd c7bd 5f02 dbbb d3e1 493d
00000270: 033f 17bb a20c d93c 9fe5 d5bd c7d4 493b
00000280: dd60 a33c aa70 8dbd d64a dbbd eb64 533d
00000290: e967 9c3d 6d57 13bc 0b6f 653d 3414 b33c
000002a0: bcd5 05bd d35b 763d 5eb7 e5bd 8782 0cbe
000002b0: f9bb c33d 77eb dbbd 28ce 853d b4cc 043e
000002c0: c9c4 4dbd 375a dcbd 3b62 1f3e ab61 c13d
000002d0: c14c 12bd afc3 353c 5217 573d 0305 a8bc
000002e0: 8b14 fa3d b623 a33d bb75 1cbd a6c0 18be
000002f0: fe47 64bc ee0e 16bd c5f2 b9bb 4d6f eb3d
00000300: 9497 243d d06e db3d 0fec 6bbd 2778 a2bb
00000310: 17b2 fabd eb54 06bd d2e0 0d3d 3b69 54bd
00000320: eb3f 97bd 52ef ae3c 57d0 c2bd 62c5 d93d
00000330: 8b36 9cbd 33a6 703d 06d6 8dbd 9604 2b3a
00000340: 62b6 6bbd d6f3 e93d 3739 2a3d bccf d0bb
00000350: 6b77 a1bd 4990 8d3d eb9d ccbd 4188 d6bd
00000360: 6c62 4cbd b748 6fba 0614 0fbe fff7 b53b
00000370: 271a 423d b767 403d e86c 90bd 32cc b8bc
00000380: 8017 0ebd 7d34 82bc 8d02 383d f8b9 72bd
00000390: 54ed b23b e45e 9abd 0b1f 85bd 39ad 0a3e
000003a0: dc61 83bb 38f8 50bc d579 443d 5b13 94bd
000003b0: f17a a93c 54fe b4bd 36fe e9bd 0b41 83bc
000003c0: 0d80 3ebd de18 c93d e3cc b5bb c717 e73a
000003d0: 9710 ba3d 5e92 edbd ccde ee3d dc6f 12bd
000003e0: 2e51 17bd 79d1 6abd 4dbc c9bd 758f 243d
000003f0: 881a 983d a06d b73c e2b0 913d eccf 793c
0.07260483 0.09325794 -0.08574328 -0.021557402 0.08074442 0.05040343 -0.048782058 -0.06601445
0.09086411 0.15173112 0.03551155 -0.034226604 -0.0740992 -0.056470685 0.09177033 -0.09956502
-0.04248662 0.1627922 0.1321761 -0.09827547 0.075561635 0.041517742 0.05520572 -0.09821737
-0.1367298 0.060061496 -0.039185617 -0.0018180199 0.05228147 -0.0016307554 0.1484139 0.11434732
0.044397265 -0.08700953 0.0107212365 0.040113714 0.030659199 -0.012914925 -0.001237195 -0.012315352
-0.03724379 0.10586057 0.057214 0.026753007 -0.04408432 0.07786135 -0.073405005 0.008449825
0.07768132 0.07194202 0.018847574 -0.13031505 0.02808742 0.0063137505 0.06755614 -0.08572298
-0.13719448 -0.08809315 -0.08623587 -0.008020374 0.061964482 0.101686664 0.05634681 -0.06313125
-0.00056352693 -0.094036266 -0.012056163 0.029891472 0.0906176 0.08303177 -0.11097616 0.11102015
-0.0577028 -0.02253983 0.0067770127 -0.06691753 0.07946517 -0.14498016 0.059635144 0.016669394
0.16072722 0.06305487 -0.1562945 0.029215118 0.043428667 -0.09267669 0.075039655 0.1119565
-0.023968251 0.016602822 0.067195766 -0.13006845 0.03450099 -0.057505954 -0.06429546 -0.045315474
-0.065315954 0.009787687 0.07248693 0.12266711 0.08854952 0.02443897 0.012919324 -0.0049436614
-0.1260373 -0.041840535 -0.13327567 0.08528466 -0.059626184 -0.057365578 0.13987742 -0.01723954
0.081892714 -0.0456329 0.17319459 0.09289397 -0.20905071 0.08641351 0.17313774 -0.005978827
0.16353092 -0.009677557 -0.21618699 -0.056617152 -0.029197607 0.11553183 -0.14571434 -0.087528944
0.051600274 -0.027108237 0.16290912 -0.031569105 0.18010727 -0.028251285 -0.032776304 -0.08668291
-0.02315719 -0.08944131 -0.12363472 -0.047424942 -0.13186605 0.08979824 0.0071920417 -0.031182643
-0.030300073 -0.014078457 -0.032481786 -0.12801726 -0.07809187 -0.16794053 0.11378053 0.117056035
0.16440289 -0.09758964 -0.0066836323 0.04928763 -0.002307833 0.026495282 -0.104441874 0.0030796991
0.019943649 -0.069062546 -0.10707633 0.051609915 0.07637007 -0.008993012 0.056014102 0.02186022
-0.032674536 0.060146164 -0.11216615 -0.13721667 0.09557337 -0.10738271 0.06533462 0.12968713
-0.050236497 -0.107593946 0.15564816 0.09442457 -0.03571773 0.011094018 0.052512474 -0.020510202
0.122109495 0.07965796 -0.038198214 -0.1491724 -0.01393318 -0.03663533 -0.0056746923 0.11495838
0.04018362 0.10714495 -0.05759817 -0.004958171 -0.12240999 -0.032795828 0.034638233 -0.051858168
-0.07385238 0.021354351 -0.09512394 0.10633351 -0.07627591 0.05875225 -0.06925587 0.00065238157
-0.05754698 0.11423461 0.04155847 -0.00637242 -0.07884105 0.06912286 -0.09991058 -0.10475207
-0.04989855 -0.0009127962 -0.13972482 0.005553245 0.047388222 0.04697391 -0.07052022 -0.022558305
-0.03469038 -0.015894169 0.044924308 -0.059259385 0.0054604206 -0.0753763 -0.065000616 0.13542642
-0.0040094685 -0.012754492 0.04796775 -0.07230254 0.020688506 -0.08837572 -0.1142544 -0.016022226
-0.046508837 0.09819196 -0.005548106 0.0017630988 0.090851955 -0.11600183 0.11663589 -0.03575121
-0.036942653 -0.057328675 -0.09850369 0.040175874 0.074269354 0.02239114 0.07113816 0.015247326

critic.3.bias f4 [64]
00000000: 692b 96bd 6c96 ddbd 0cce 883b d830 9f3d
00000010: 82f6 ba3d c41c 2fbd 3ea4 f23d 6cd9 043e
00000020: 0ebc 873d 0954 113b e4db c03d 674a 363d
00000030: 9df4 5e3d fdd1 1fbe af03 93bc 5222 05bd
00000040: d33e 593b ad36 dd3b 2c28 e6bd bf40 e4bc
00000050: 2961 d33d 4687 2b3d d22a 993d 4cc5 51bd
00000060: 8ac9 c93d 93bc d93c 8de7 81bb 9cd6 0a3d
00000070: 7001 a7bd 0693 053d f59d d3bd 4f4a a8bd
00000080: 2f13 e73d c15d 523c 5753 41bd 5745 09bc
00000090: 6aaa f1bc dda3 6e3d 8dd6 53bd b33d 57bd
000000a0: 3b73 80bd 1983 533c d81c 143e f7a1 093d
000000b0: 6b57 2bbe 26c0 15bd 5f3f 17be 9459 72bd
000000c0: 04ac c9bd a8f7 ecbd 727d 9c3c 80b6 69bd
000000d0: 2443 003d 85c2 f6bd f925 523a fd1b 9b3d
000000e0: 31c5 903d b3e3 35bd 9b73 823c c20b cebb
000000f0: df8b 053d 9acf acbc 6c10 cabd 1061 0f3d
-0.073324986 -0.10819706 0.0041749533 0.07772988 0.09129049 -0.042752042 0.11847733 0.12973565
0.066276655 0.0022175333 0.09416941 0.04450455 0.0544325 -0.15607448 -0.017946092 -0.032503434
0.0033149018 0.0067509026 -0.11238131 -0.027862905 0.10321266 0.041877054 0.074788705 -0.051213548
0.09852894 0.026579177 -0.0039643706 0.033896074 -0.08154571 0.032610916 -0.10332862 -0.08217298
0.11282956 0.0128397355 -0.04719862 -0.008378348 -0.029500205 0.05826174 -0.051718283 -0.052549075
-0.062719785 0.012909674 0.14464128 0.033601727 -0.16732566 -0.0365602 -0.14770268 -0.05916746
-0.098472625 -0.11570674 0.019102786 -0.05705881 0.03131403 -0.120488204 0.00080165226 0.07573698
0.07068861 -0.044406604 0.015924266 -0.0062880227 0.032604095 -0.021095086 -0.098664135 0.035004675

critic.5.weight f4 [64]
00000000: 68d2 b53f b566 e43f f48a bf3f c17d bd3f
00000010: e2dc c93f da20 cd3f 54fb d13f e5bb c73f
00000020: 0cbd bf3f 11d3 b23f 1802 ce3f 63bc ca3f
00000030: a350 cb3f a4b9 d03f 2e1d bd3f a8f1 ad3f
00000040: 756f c63f 2569 dc3f 2be7 c23f 15ea b73f
00000050: 4b82 bb3f 57da c63f 8e5f d93f 5938 c03f
00000060: 24ec c33f 0988 c43f d8f9 e13f aa46 c03f
00000070: efba bd3f 6292 c43f 16d0 be3f a2e1 d13f
00000080: dcd1 c33f 3510 d43f d33e c13f 38fd d73f
00000090: f2d1 d13f 7ef1 c33f e8d9 bc3f e613 dc3f
000000a0: f1e5 c93f b6b4 c13f ed86 e13f dde3 c23f
000000b0: 6670 c03f e3e0 e13f d751 ba3f c992 d63f
000000c0: ca44 b93f 46ad e23f 2f9a cb3f c176 d43f
000000d0: ecbb c43f 26b4 d73f c2f9 b23f 0923 d83f
000000e0: 0bc5 b73f 40b0 ca3f 8c1c c53f 2dcd b03f
000000f0: 6d0d c13f 3d20 c03f 5c15 c33f 27a2 c53f
1.4204836 1.7843844 1.496428 1.4804002 1.5770533 1.602565 1.6404824 1.5604216
1.4979568 1.3970662 1.6094389 1.5838741 1.5883983 1.6306653 1.477453 1.3589373
1.5502764 1.7219588 1.5226797 1.4368311 1.4649137 1.5535382 1.6982286 1.5017196
1.5306439 1.5354015 1.7654371 1.5021565 1.4822673 1.5357172 1.4907253 1.6396983
1.5298419 1.6567446 1.5097297 1.6874151 1.6392195 1.5308073 1.4754 1.7193573
1.5773298 1.5133274 1.7619301 1.5225788 1.5034301 1.7646755 1.4556226 1.6763545
1.4474118 1.7709129 1.5906428 1.6598741 1.5369849 1.6851852 1.398247 1.6885692
1.4357008 1.5835037 1.5399337 1.3812615 1.5082222 1.5009838 1.5240893 1.544011

critic.5.bias f4 [64]
00000000: f02a ed3e 861b 37bf 08e2 ffbe 4c22 f73e
00000010: 5430 0ebf 806b 143f 4690 1a3f c06d 0c3f
00000020: fcfe 02bf cf11 eb3e 66c6 1e3f cae3 0ebf
00000030: 348b 123f 4d9c 16bf 7a8a f9be 6682 e53e
00000040: 4428 0abf a3a6 2cbf 42e7 06bf 7e49 f83e
00000050: a255 f3be aac0 0abf 8262 2e3f 7996 053f
00000060: 58c1 093f 70d1 08bf ad97 33bf dbc9 fabe
00000070: be84 013f a5a0 06bf bbbb 01bf 0324 17bf
00000080: 7abc 083f 36c6 1b3f 7ce4 00bf 8766 233f
00000090: 14b0 1c3f b356 063f b511 f5be 247a 293f
000000a0: a3a8 0f3f 8a5e 06bf 61eb 293f cc7a 06bf
000000b0: c0ef 02bf 9ec7 343f d954 f7be 9ee2 1e3f
000000c0: 5f75 f9be 2510 30bf e4ab 113f 76c3 203f
000000d0: 4a27 0a3f b547 23bf 3f68 f33e fe9c 233f
000000e0: c464 003f 722d 123f deee 0e3f e5f3 f13e
000000f0: ce40 03bf 0dfa fdbe 2878 03bf 0960 0c3f
0.4632182 -0.7152637 -0.49977136 0.48268354 -0.5554249 0.5797653 0.60376394 0.54854965
-0.51170325 0.45912024 0.6202148 -0.5581633 0.5724366 -0.58832246 -0.48738462 0.4482605
-0.5396769 -0.6744177 -0.5269662 0.4849357 -0.4752627 -0.5420023 0.6811906 0.5218273
0.53810644 -0.53444576 -0.70153314 -0.48982129 0.50593174 -0.52588874 -0.5067708 -0.59039325
0.5341259 0.6084932 -0.5034864 0.6382832 0.61206174 0.5247604 -0.47865072 0.66201997
0.56116694 -0.52488005 0.66374785 -0.52531123 -0.5114708 0.7061709 -0.4830692 0.6206454
-0.4872236 -0.68774635 0.5690291 0.6279825 0.539662 -0.6378129 0.4754047 0.63911426
0.50153756 0.57100594 0.5583323 0.4725639 -0.5127076 -0.49604836 -0.5135522 0.5483404

critic.6.weight f4 [1, 64]
00000000: b5bf f8be de9f 0d3f 42ef 023f a425 06bf
00000010: 7544 e93e c2eb 00bf 4bf2 e3be 3337 fcbe
00000020: 3b62 ea3e 04f2 ebbe 1254 ecbe f54c ec3e
00000030: 6ef9 f3be 4df9 f43e b4cb fd3e 0e2b dcbe
00000040: 69c6 eb3e ff61 143f 88da ee3e d2ee f2be
00000050: 0f42 003f 909a ff3e e68a b2be 189f e6be
00000060: 772e ffbe 661c eb3e 3dca 133f 362b 093f
00000070: a1ed f8be 451a 053f 122c e83e 2499 013f
00000080: 668d 00bf a0b2 00bf 52d8 003f e127 0dbf
00000090: 3e08 08bf fcd7 0cbf 4c8a 033f 97c5 0ebf
000000a0: fcd7 02bf 1aab 043f 1bd1 19bf e32d 033f
000000b0: 4432 003f e277 19bf c2a0 fa3e 7b68 efbe
000000c0: 6748 e13e 35e1 173f 44be ffbe 409a 07bf
000000d0: d14e f1be 66e3 0f3f ba02 d1be cccc 0cbf
000000e0: e49b c9be e72b e5be d4db d5be 3098 c8be
000000f0: c36f f03e 3028 013f 2052 fd3e e0c6 e1be
-0.4858376 0.5532206 0.5114633 -0.52401185 0.4556004 -0.5035974 -0.44520792 -0.49260864
0.4577807 -0.4608308 -0.4615789 0.46152464 -0.47651237 0.4784645 0.49569476 -0.43001598
0.46049812 0.5796203 0.466511 -0.4744783 0.501008 0.4992261 -0.34871596 -0.45043254
-0.49840137 0.45920104 0.57730466 0.5358156 -0.48618796 0.5199321 0.45346123 0.506243
-0.50215757 -0.5027256 0.5033008 -0.55138975 -0.53137577 -0.55017066 0.513829 -0.5577025
-0.51110816 0.5182358 -0.60084695 0.5124189 0.500767 -0.5994855 0.48950773 -0.467594
0.4400055 0.59328014 -0.4994985 -0.5296974 -0.47130445 0.5620636 -0.40822393 -0.54999995
-0.39376748 -0.44760057 -0.41769278 -0.3917861 0.46960267 0.50451946 0.4947672 -0.44097042
