weights/2024-06-27_12-46-04/actor.pt (torch, 22551 bytes, 9 tensors)

mu_network.0.weight f4 [64, 3]
000000 12 0f cf be 90 28 ee be 03 91 01 3f 82 d2 e0 bd
       -0.40441185 -0.46515322 0.50611895 -0.10977651
000010 07 72 d9 be fe ee b1 3e 52 34 c8 be f6 c3 ca bd
       -0.42469808 0.3475265 -0.39102417 -0.09900658
000020 bd 7d 02 3f 78 85 bb 3d 9e a3 66 bd 30 e6 0a 3f
       0.5097311 0.091563165 -0.05630838 0.5425749
000030 5e d5 f8 be d9 10 6c bc f1 93 78 be 2c cd 0c 3f
       -0.48600286 -0.014408314 -0.24275185 0.5500057
000040 8b 8e 90 3d 70 06 dd be ec 0b d2 be 12 9e 38 3d
       0.07058438 -0.43168974 -0.4102472 0.045072623
000050 09 30 90 be 7e 02 8f be a1 4b a2 be d9 cb 01 bf
       -0.28161648 -0.2793159 -0.31698325 -0.5070167
000060 97 c1 9a 3e ea a0 dc bd 01 c9 07 bf b7 23 fe be
       0.30225822 -0.107728794 -0.5304108 -0.49636623
000070 24 81 46 3d f5 cb c4 3c 18 20 d0 3e d6 d8 01 3e
       0.048463 0.024023036 0.40649486 0.12680373
000080 9e 4a 3b be 7d dc 67 3e 24 f4 e7 3e 78 9a e8 be
       -0.18290183 0.22642703 0.45303452 -0.4543035
000090 f0 41 19 be fb ed 9e be 4a d0 9f 3e 84 a9 09 3f
       -0.1496656 -0.3104094 0.312136 0.53774285
0000a0 35 e6 03 3e e8 e9 0e bf c3 9b 30 3e 01 01 34 be
       0.12880786 -0.5582566 0.17246918 -0.17578508
0000b0 a7 a0 fb bd e8 3c 0d bf cf 9e 28 3e 15 47 81 3e
       -0.122865014 -0.5517106 0.1646683 0.25249544
0000c0 cb 11 07 be 2e 54 a7 be ca bd e9 bd 6d 56 01 bf
       -0.13190381 -0.32681412 -0.114131525 -0.505225
0000d0 47 33 ab be 13 0c 94 3e 1f 8a 14 3f 6c fd 19 be
       -0.3343756 0.28915462 0.58023256 -0.15038079
0000e0 5c 72 97 be 0c 2a 02 3e d7 88 ab 3e 35 24 03 3f
       -0.29579437 0.12711352 0.33502838 0.5122712
0000f0 4f 34 14 be a7 84 eb 3e 19 8e 2a be 05 dd 86 3e
       -0.14473079 0.45999643 -0.16655768 0.263405
000100 4c ba 19 be 75 7c 1a 3d 99 a4 c7 bd 73 27 0d 3e
       -0.15012473 0.037716348 -0.097481914 0.1378458
000110 4c 9b 09 bf cd e0 c6 3d 7d cf 7b be f5 c9 aa be
       -0.5375259 0.09710846 -0.24590869 -0.33357206
000120 1e 35 01 bf 80 46 59 3e e3 ce 5a 3d 81 ad 91 3e
       -0.50471675 0.212183 0.05341996 0.28452685
000130 02 25 75 3e d3 63 54 3d 4f 64 b9 be 3d 78 dd ba
       0.23939899 0.051853012 -0.36209342 -0.0016896796
000140 70 b8 f7 bb a0 ab 0d bf ff 47 0f 3f ea a5 06 3f
       -0.0075598285 -0.55340004 0.5596923 0.52596915
000150 40 00 b9 be f4 da c5 be 28 f4 3e 3d a4 21 db 3d
       -0.36133003 -0.3864361 0.046619564 0.10699776
000160 ab ac 79 3c b8 bc f0 3e a3 1f b9 be ed 95 b1 be
       0.015238921 0.4701898 -0.3615695 -0.34684697
000170 0f 43 07 bf b2 98 09 3d ef f1 05 bf 49 f9 12 3f
       -0.528367 0.033592887 -0.52322286 0.5741163
000180 01 e6 b6 be 5b c7 a3 3e 19 46 f3 be e7 8b 06 3f
       -0.35722354 0.31988034 -0.47514418 0.52557224
000190 e0 76 c1 3e c3 ce c4 3e 9c 0d b9 be 77 04 b7 be
       0.37786007 0.38438997 -0.36143196 -0.35745594
0001a0 9a ee f6 bd 39 54 5b bd 11 9b bc be 4f 68 32 be
       -0.120572284 -0.053547118 -0.36837056 -0.17422603
0001b0 b9 03 c3 3e e8 7e f8 be 95 9f e2 be 63 a5 a6 3c
       0.38088778 -0.48534322 -0.44262376 0.020342534
0001c0 b9 aa 94 be 7d bc 62 be d9 d0 0e 3f 5b 61 13 bf
       -0.290365 -0.22142215 0.55787426 -0.5757043
0001d0 9b 14 d9 be 84 58 19 3e dc ed 89 be 50 82 da 3e
       -0.42398533 0.14975172 -0.26939285 0.42677546
0001e0 ba ae c7 be cb c0 f0 bd d3 73 0e 3f 50 42 5a 3e
       -0.39000493 -0.11755522 0.55645484 0.21314359
0001f0 5f 5b 83 be 69 cd 9f 3d 4a cb c1 bd b8 5b e7 3e
       -0.25655648 0.07802851 -0.094626024 0.45187163
000200 32 3c 30 3e 9b 28 fd 3c 12 b2 de bd c3 c9 0e 3f
       0.17210463 0.030903151 -0.10873808 0.55776614
000210 28 6a 0b be cc 29 aa 3e 7e 39 d0 be aa 61 f1 3e
       -0.13614714 0.33235013 -0.40668863 0.47144824
000220 06 de ff 3e a9 1b c7 3d a7 5e b1 bc 81 25 01 bf
       0.49974078 0.09722073 -0.021651579 -0.5044785
000230 20 0c 8c 3e b7 8f 03 bf e2 fe b9 3c 07 df 98 be
       0.27353 -0.51391166 0.022704545 -0.29857656
000240 70 9f 01 3f ec f4 00 3f 4b bf a0 3d 2d b3 14 3f
       0.5063391 0.5037372 0.07848986 0.580859
000250 49 0e 6e 3c fc af f7 be 5c 3f 15 3e 26 2f 01 3d
       0.014529773 -0.48376453 0.14574951 0.031539105
000260 58 37 e7 bd 55 12 16 3e 1b f4 47 3e ef 9f 08 bf
       -0.11289853 0.1465543 0.19526713 -0.5336904
000270 3d a0 0e 3f 82 50 0b 3f 08 63 04 bf 6a 2c d7 be
       0.55713254 0.5441972 -0.5171361 -0.42026073
000280 e8 ba 16 3e 52 bf a9 3e 0c a1 10 3d d1 cb 1c be
       0.14719737 0.33153778 0.035309836 -0.15312125
000290 48 15 10 3f 22 a9 d2 be 33 d3 6f 3e 2f a5 b3 bc
       0.5628247 -0.41144663 0.2342041 -0.021929352
0002a0 b0 ff 7e 3e ca 41 92 be 4e 2c a2 be b5 a9 03 bf
       0.24902225 -0.28565818 -0.31674427 -0.5143083
0002b0 e4 a3 49 be 35 63 fe 3e a7 96 f7 3e db f1 43 bd
       -0.19691426 0.49685064 0.48357126 -0.047838073
0002c0 3a 68 9a be dc 75 ce 3e a7 ce bd 3e 82 ed c3 3e
       -0.30157644 0.40324295 0.37071726 0.38267142
0002d0 78 d3 d8 be 40 13 da 3e 5e 94 62 be 12 6e bd be
       -0.42348838 0.42592812 -0.2212691 -0.3699804
0002e0 3a e8 08 bf b7 6e fe 3e 33 5c bc be 47 e6 70 3e
       -0.5347935 0.49693844 -0.36789092 0.23525344
0002f0 2a a3 09 bf 54 51 13 be cc ef 68 bd 6f 6d 28 3b
       -0.53764594 -0.14386493 -0.056869313 0.0025699993

mu_network.0.bias f4 [64]
000000 76 6d 13 3f 44 a4 ed 3d 1d 40 cc 3e 6e 37 66 3e
       0.575889 0.11603597 0.39892665 0.22482082
000010 a2 f1 a2 3d ac 98 b6 3e ab 43 ca 3e a7 cd cb bd
       0.07956244 0.35663354 0.39504752 -0.099513344
000020 f5 54 fe be 60 ad 96 be 9c 45 0d bf 1a bf c5 3e
       -0.49674192 -0.2942915 -0.5518434 0.3862236
000030 ee 4f 91 be 7e 43 38 3d 0b 36 30 be 41 0e 17 3f
       -0.28381294 0.04498624 -0.17208116 0.59006125
000040 74 c1 d8 3e f1 fd 02 3f 5c cc 8f bb 37 89 aa be
       0.42335093 0.51168734 -0.004388375 -0.33307812
000050 8a 9a 8b 3d 84 fc 34 be 03 1d b5 3e 1f 6b a9 3d
       0.06816585 -0.17674452 0.35373697 0.08272385
000060 39 af 3e be 5a fe bf 3e 73 bb fe bd 28 d1 a8 3e
       -0.1862153 0.37498742 -0.12438097 0.32972074
000070 64 f5 97 be 74 f2 da bd 93 37 10 3f aa 25 91 be
       -0.29679406 -0.106907755 0.563348 -0.28349048
000080 82 c7 8d 3d ac c3 57 3e ab dd a2 be c6 f5 b0 3e
       0.06922819 0.21070737 -0.31809744 0.3456251
000090 23 95 93 3e c7 31 b9 be 5b 92 d8 3e 62 f2 0c 3c
       0.2882472 -0.3617079 0.4229916 0.00860271
0000a0 3e 87 04 bf e7 ef fe 3e dd 84 e0 be 3c 60 0e bf
       -0.51768863 0.49792406 -0.43851367 -0.5561559
0000b0 7b f9 c4 be bd 72 06 bf 7f f0 57 3e ea 1b d9 be
       -0.38471588 -0.52518827 0.21087836 -0.4240411
0000c0 86 63 35 bd 1d b8 ff bb 43 8e bf bc 44 67 b3 bd
       -0.044284366 -0.0078039304 -0.023383265 -0.08759931
0000d0 65 ce b0 be e6 1d 03 3f fd 99 ec 3e a0 51 08 3f
       -0.34532467 0.51217496 0.46211234 0.5324955
0000e0 69 15 be 3e bc 89 d4 be 16 03 f8 3d b0 49 da bd
       0.3712571 -0.41511333 0.121099636 -0.10658586
0000f0 cf 16 e9 bd 7a 83 ee be 1b 1e d5 3e 90 25 8c 3e
       -0.113813035 -0.46584684 0.4162453 0.27372408

mu_network.2.weight f4 [64]
000000 6f a9 80 3f e1 a9 80 3f c0 d5 81 3f 05 36 80 3f
       1.0051707 1.0051843 1.0143356 1.0016485
000010 4d 84 7d 3f 37 54 7e 3f d0 a5 7f 3f 2f ba 80 3f
       0.9903 0.9934725 0.99862385 1.0056819
000020 0e 97 7d 3f e2 79 7f 3f c7 c1 80 3f 8c 20 80 3f
       0.99058616 0.99795353 1.0059136 1.0009933
000030 41 81 80 3f f7 e6 80 3f d1 44 80 3f d7 83 80 3f
       1.0039445 1.0070485 1.0021001 1.0040234
000040 82 03 80 3f 7f c3 7f 3f 87 81 7f 3f e1 02 80 3f
       1.000107 0.9990768 0.9980702 1.0000879
000050 5a ac 7f 3f e8 7d 7d 3f af e0 7f 3f 1e ad 7c 3f
       0.9987236 0.9902024 0.99952215 0.98701656
000060 e8 52 80 3f 18 6d 7e 3f c7 31 80 3f fc 7f 81 3f
       1.0025301 0.99385214 1.0015191 1.0117183
000070 e3 c7 7e 3f 3d 26 7f 3f 98 6b 80 3f 17 46 7f 3f
       0.9952375 0.9966772 1.0032835 0.99716324
000080 a5 65 7f 3f bc 77 80 3f a3 27 80 3f 01 5e 80 3f
       0.9976447 1.003654 1.0012096 1.0028688
000090 00 f2 80 3f 96 66 80 3f 79 47 7e 3f 97 d9 7e 3f
       1.0073853 1.0031307 0.9932781 0.99550766
0000a0 b9 3f 80 3f 62 22 7e 3f 68 30 80 3f da 73 80 3f
       1.0019447 0.99271214 1.0014772 1.0035355
0000b0 89 71 80 3f cd d6 81 3f db d4 7f 3f 59 b3 80 3f
       1.0034648 1.0143677 0.99934167 1.0054733
0000c0 a1 de 7e 3f b2 b5 80 3f ff 1a 80 3f 0e ee 7e 3f
       0.99558455 1.0055449 1.0008239 0.9958199
0000d0 d4 ca 7e 3f d8 23 80 3f 13 21 7e 3f c9 d7 80 3f
       0.9952824 1.0010939 0.9926922 1.0065852
0000e0 e6 db 7e 3f 8d 02 80 3f 10 f9 80 3f 0b 73 7c 3f
       0.9955429 1.0000778 1.0076008 0.9861304
0000f0 03 1e 7f 3f e0 84 7f 3f 00 c2 7d 3f 0d 6c 80 3f
       0.9965517 0.99812126 0.99124146 1.0032974

mu_network.2.bias f4 [64]
000000 99 01 75 ba 7f ed 06 bc 8c 50 de 3b cf 90 7d 3a
       -0.00093462464 -0.008235334 0.0067845043 0.0009672762
000010 da 38 d4 b9 58 b5 cb b8 6b c8 85 3a 51 6a 30 3b
       -0.0004047815 -9.713572e-05 0.0010206824 0.0026918838
000020 d6 f1 95 ba ef 59 53 3a c4 c8 96 3a e4 18 7b bb
       -0.001143987 0.00080624124 0.0011503925 -0.0038314397
000030 e2 43 bc bb 07 05 a4 3b d0 07 f2 bb 3a 0e 28 bb
       -0.005745397 0.005005482 -0.007386185 -0.0025643245
000040 0f 75 c1 bb ab 5c 5f 3b b8 53 26 ba be 5a 68 bb
       -0.005903847 0.0034082334 -0.00063448725 -0.0035454477
000050 25 61 da b9 11 b5 0a 3c eb 43 28 3a 04 c0 a1 bb
       -0.00041652579 0.008466021 0.0006418812 -0.00493622
000060 70 de 82 ba 9c 3c f1 bb e0 31 97 38 5a 2a 12 3b
       -0.0009984504 -0.0073619615 7.209531e-05 0.0022303076
000070 a0 55 7b 3b ba 91 39 3b 8b b1 a9 ba 79 6e a1 3a
       0.0038350597 0.002831562 -0.0012946589 0.0012316249
000080 6a e0 70 bb 01 fe 58 ba ae 4e 23 37 1d bd dd ba
       -0.0036754855 -0.00082775956 9.733876e-06 -0.0016917322
000090 65 ea 96 39 e9 76 9a bb 25 7b bd 3b 51 dd 18 bb
       0.00028784867 -0.004713882 0.0057825022 -0.0023325274
0000a0 b7 82 1f bc 5e 9b 63 bc da 27 80 ba 1f 15 18 bb
       -0.009735755 -0.013892023 -0.0009777502 -0.0023205949
0000b0 ac a2 f2 3a fa c8 63 bc 06 86 9b bb ff 4e 9b bb
       0.0018511615 -0.013902897 -0.0047462014 -0.0047396417
0000c0 ca fc 64 3b 25 4f 85 3b a9 3c 22 3b 02 62 2c bb
       0.0034940713 0.0040682727 0.0024755395 -0.0026303534
0000d0 86 83 b4 bb 88 1a 46 bb 72 14 cf 3a e9 e4 35 38
       -0.005508843 -0.0030228216 0.001579894 4.3366952e-05
0000e0 1a c4 ef b9 6f f7 c5 bb 41 45 06 bb f7 5a 1b 3c
       -0.0004573174 -0.0060414593 -0.0020488056 0.009482137
0000f0 a8 bd c0 3b 1d 1d 45 3b f9 10 80 bb e9 a2 76 ba
       0.005881984 0.0030077167 -0.0039082733 -0.0009408431

mu_network.3.weight f4 [64, 64]
000000 88 6b 9f 3d 13 b6 df 3d 47 e3 c1 3d b7 18 65 3d
       0.07784182 0.109234 0.09467178 0.055931773
000010 61 59 38 bd 71 16 4f bc 80 3d f7 bd 0c 28 eb bd
       -0.045007113 -0.012639628 -0.12072277 -0.11482248
000020 6b 53 45 bd 7c 15 50 bd 55 0f db bd a2 c4 bd 3d
       -0.048175257 -0.05080174 -0.10696284 0.0926602
000030 93 07 b7 3d dc 88 a8 bc 97 74 93 ba 00 e6 37 bc
       0.089369915 -0.020573072 -0.0011249956 -0.01122427
000040 20 b2 01 bd 63 d9 60 3d 95 03 d7 3c e9 31 f3 3c
       -0.031664014 0.054894816 0.026246825 0.029686885
000050 54 38 11 3d ad 07 d5 bd 54 aa 82 3d b5 68 d1 bd
       0.03545411 -0.10401855 0.06380144 -0.102250494
000060 d9 59 80 bd 36 49 1c 3d a0 2b 93 3d 78 d6 bb 3d
       -0.06267137 0.038155757 0.07186055 0.09171766
000070 c9 3a 22 3d 27 4c aa 3d 87 03 99 bd 64 28 e5 3c
       0.039606843 0.08315306 -0.07471376 0.027973361
000080 ed 85 68 3d 1a 2d 5c bd b6 a3 fd 3d a4 2f 1b 3d
       0.056768347 -0.05375395 0.12384741 0.03788723
000090 b0 49 82 bd 13 2b 53 bd 5c 42 fe 3d 9b 83 c0 bd
       -0.06361711 -0.05155475 0.12415001 -0.09400102
0000a0 e2 66 8f 3c 8c ee 09 bd a6 d3 26 3d 2a 7e a0 3c
       0.017505113 -0.03367476 0.040729187 0.01959141
0000b0 02 8b 7a bd 1d 96 f7 3d 63 f6 c6 3d 7a c9 ec bd
       -0.061167724 0.12089179 0.09714963 -0.11561866
0000c0 51 04 b9 bd bd a5 8a bd f8 cd 8d 3d 62 f7 4f 3d
       -0.090340264 -0.06769893 0.06924051 0.050773032
0000d0 8f 61 46 3d f9 0b 97 bd f4 df f8 3d 9d ed bd bd
       0.048432883 -0.073753305 0.12152091 -0.09273837
0000e0 49 60 08 bd d3 eb 01 be be 8b a3 3d ef 7b 3e bc
       -0.03329495 -0.12687616 0.07985638 -0.011626228
0000f0 b1 d8 5d 3d b3 9f 61 3a 45 dd 96 bd f9 62 46 3d
       0.05416173 0.0008606866 -0.073664226 0.04843423
000100 75 ca a0 bc 87 d2 5a bc 11 ec a1 3d 2d 34 e7 bb
       -0.019627789 -0.013355858 0.07906354 -0.0070557804
000110 92 f2 98 bd 4d 70 ca 3c 02 75 ae bd 7a eb c6 3d
       -0.074681416 0.024711752 -0.08518411 0.09712882
000120 d3 f3 e7 bd 24 a2 37 3d 66 31 81 bc 42 d0 b5 3d
       -0.11325803 0.044832364 -0.015770625 0.08877613
000130 44 68 fe bd ca 7f ac 3d 65 a5 e2 3c b6 c6 f5 3d
       -0.12422231 0.08422811 0.027666757 0.12000792
000140 05 32 61 3b 8b c0 c9 bd 08 00 a2 bd f5 41 7a 3d
       0.003436209 -0.09851178 -0.07910162 0.061098058
000150 d1 a2 5c bc 75 69 82 3d 61 1c 7f bd 2e b1 26 3d
       -0.013466553 0.063677706 -0.062282924 0.040696315
000160 24 f1 8d 3d a9 67 eb bd 99 3e 75 bb 0d a4 cd 3c
       0.069307595 -0.11494381 -0.0037421344 0.02510264
000170 d3 72 79 3c d5 17 31 3d 0f 17 b5 3d 9a 01 02 3b
       0.01522513 0.04323562 0.08842289 0.001983738
000180 c8 f8 c7 3c 04 44 d1 bd ac 0d c4 bd e5 4b 78 3c
       0.02441062 -0.10218051 -0.0957292 0.015154813
000190 08 27 68 3d a8 23 d8 3a 71 18 5d 3d be b8 ad ba
       0.056677848 0.0016490119 0.053978387 -0.001325391
0001a0 d0 a6 af bd 01 c0 45 3d 3e 88 3a 3d 53 ed 67 3b
       -0.08576739 0.048278812 0.045540087 0.003538926
0001b0 ca 66 c7 bd 69 26 56 bd e7 63 62 bd 25 54 da 3d
       -0.09736402 -0.052282725 -0.055271056 0.106605805
0001c0 f2 18 49 bc 1a 35 88 3d cf 15 a3 3d 98 69 eb 3a
       -0.012274014 0.06650753 0.07963144 0.0017960547
0001d0 ab ae 52 bd 08 17 55 bd f1 da 86 bd 9e 4a db 3d
       -0.051436108 -0.052023917 -0.065847285 0.107075915
0001e0 0c ac a4 3d ef 73 51 3d 71 4b 47 bd a0 b9 20 3d
       0.08040628 0.051135954 -0.04865593 0.039239526
0001f0 ce db c6 bc bd b8 c6 bd db 44 f7 3d 28 8c 37 3d
       -0.024274733 -0.09703205 0.1207368 0.044811398
000200 db 24 cc 3d a5 ad 13 3d 55 37 89 bd f9 b2 8b bd
       0.09967967 0.036054272 -0.06700007 -0.06821246
000210 83 c3 cc 3c 29 86 68 bd 46 16 53 bd 28 2d b3 3d
       0.024995571 -0.05676857 -0.051534913 0.08748847
000220 54 de cc bd e6 25 86 bb bb 1a ce bd dd fd 83 bd
       -0.10003343 -0.0040938733 -0.10063692 -0.06444905
000230 d4 cc 6a 3d 98 22 85 bd 2a dd d2 bd fb d8 e6 bc
       0.057324246 -0.06500739 -0.1029609 -0.028179636
000240 da 4c 62 bd 55 55 41 bd b9 7a e8 3c fb 4a 35 bd
       -0.055249073 -0.04720052 0.028378831 -0.04426096
000250 17 0c 3e bd 23 27 32 bd 0e a7 db bc 55 2d f3 3c
       -0.04639825 -0.043494355 -0.026813056 0.029684702
000260 7f 03 da bc 2e 25 70 3d 4e bf c2 3d fe bf fa 3c
       -0.026612995 0.058629207 0.09509145 0.030609127
000270 66 03 57 bd 1e 7e c7 3d 41 47 82 bd 2b 49 c7 bd
       -0.052493475 0.09740852 -0.06361247 -0.097307526
000280 bf 1b e0 3d 49 30 88 3d dd d2 2d 3d 92 d2 8e 3c
       0.10942792 0.06649835 0.042437423 0.017434392
000290 ec 51 db 3d f5 ab be 3d 89 b5 60 3d 73 72 68 bd
       0.10708985 0.09310142 0.054860625 -0.056749772
0002a0 5b 74 b6 bd 1c 96 8e bd 80 31 d6 3c 4a f6 84 bd
       -0.08908912 -0.06962225 0.02614665 -0.064922884
0002b0 b3 a3 86 3d 9f 2e eb 3d 4a a3 8b bb 5a 0f ea 3d
       0.06574192 0.11483502 -0.004261409 0.11428709
0002c0 fe 98 24 3d a7 f2 8b bd 82 94 dc 3c b9 ed 7a bd
       0.040184967 -0.06833392 0.026926283 -0.061261866
0002d0 a7 2f 88 3d 85 25 56 bd c5 59 cb bd e1 34 c8 bc
       0.06649714 -0.052281875 -0.099292316 -0.024439277
0002e0 91 e2 8c bd 0c 6d cb 3c 45 24 ec 3c 5f cd cb bc
       -0.068791516 0.024832271 0.028825888 -0.024878202
0002f0 f1 3f e8 bd 4e ed a9 3d d1 34 f6 3d 9a 10 04 ba
       -0.11340321 0.082972154 0.12021793 -0.0005037874
000300 2d 5c 25 3d 84 19 41 3d dc 65 32 3d 48 c4 a4 bd
       0.04037111 0.047143474 0.043554172 -0.0804525
000310 7a e1 71 bd d0 f7 ef 3b 26 67 85 bd ed 9d 16 3b
       -0.05905292 0.0073232427 -0.06513815 0.0022982315
000320 26 f6 95 3d 11 70 52 bd 3c fa 9b bd ed ec 61 3c
       0.0732234 -0.051376406 -0.07616088 0.013789398
000330 b0 58 1d 3d 62 be e6 bd ce 0d f4 3d a6 84 65 bd
       0.038414657 -0.112667814 0.119166955 -0.056034707
000340 8f ad 7d bc 71 54 8e bd f8 4d da 3d a2 0e ff 3d
       -0.015483274 -0.069497 0.106594026 0.12453963
000350 b9 d9 ee 3d e9 1d 11 3d 7c 78 71 bd 09 61 f5 bd
       0.11662621 0.035428915 -0.058952793 -0.119813986
000360 ce 6d 0f 3d 03 cc c4 3d a3 0a cd bd 37 8a c2 3d
       0.035016827 0.09609225 -0.100117944 0.09499019
000370 e0 10 65 bd 39 f4 90 bc 7f 0a d3 3b 37 a3 ea 3d
       -0.055924296 -0.01769458 0.00644046 0.11456912
000380 a6 35 f2 3a 9a ec 92 bd f8 80 cc bd c1 ae d3 3c
       0.0018479123 -0.071740344 -0.09985536 0.025840165
000390 a9 81 9d bd f2 34 0f bd 2a a6 58 3d 7a 7f 96 3d
       -0.07690746 -0.034962602 0.05289284 0.07348533
0003a0 67 b0 15 3c 1b e1 61 3d 91 ff 06 3e 7d 88 99 3d
       0.009136296 0.055146318 0.13183428 0.07496736
0003b0 cd 69 89 3d 25 bc 3f 3d 84 7b 06 bd e1 75 6b bd
       0.06709633 0.046810288 -0.032832637 -0.057485465
0003c0 29 bd b1 3c cc 13 ad 3d 36 3c 26 bc 57 98 e5 3d
       0.021696644 0.084510416 -0.010146191 0.11210697
0003d0 71 7d ca 3d e6 5a 6a bc dc 59 2d bc 3a 83 01 be
       0.09887207 -0.014303898 -0.010580506 -0.12647715
0003e0 c5 12 43 bb c5 f3 8d 3d 27 87 df bd 2f 9d bd bd
       -0.0029765826 0.06931261 -0.1091445 -0.09258496
0003f0 86 59 e7 bd 9d ec 97 bd 38 e7 8f bd ad a0 9a bc
       -0.11296372 -0.07418177 -0.07026523 -0.018875444

mu_network.3.bias f4 [64]
000000 d2 0e 4b 3d fc 53 e3 3d d0 42 8c bd 6c b8 d1 bd
       0.04957468 0.11100003 -0.06848681 -0.10240254
000010 b1 c7 a7 3c dc bc f2 3d 59 f5 7a bd d4 22 fc 3d
       0.020480962 0.11852428 -0.061269138 0.123113304
000020 ea de e9 bd bc 9a af 3d 0e d7 8b bd 22 22 97 ba
       -0.114194706 0.08574435 -0.06828128 -0.0011530558
000030 53 eb 8e bc 12 f7 84 3c 4e e6 df bd b0 21 bc bc
       -0.017446196 0.016231094 -0.10932599 -0.022965282
000040 ac 2f c6 bd d9 97 00 3e 34 3b 2a 3d 62 f7 3b bd
       -0.096770614 0.12557925 0.041560367 -0.04589022
000050 cd 80 c4 3c 98 c9 aa bb b1 b5 64 3d 60 44 14 bd
       0.023987198 -0.00521202 0.055837337 -0.03619802
000060 30 9b 04 3d 82 69 9b bd ce 3f 9f 3d 9f cd d7 bd
       0.03237456 -0.075884834 0.07775842 -0.10537266
000070 c0 1c 64 3d 26 48 9b bd 01 d6 39 3c ac e2 ad 3a
       0.05569148 -0.075821206 0.011342526 0.0013266406
000080 6a 88 75 bd 95 dd e7 3d 3b 8b f5 bd 98 98 a3 3c
       -0.059944548 0.1132156 -0.11989447 0.019970223
000090 18 6c e8 bd 2f 2f 06 bd 9a 9e 3b bd e2 55 b1 3d
       -0.11348742 -0.03275984 -0.04580555 0.08658959
0000a0 0f 35 5b bc 61 90 d3 3d 5a 47 99 3d 56 7f cd 3d
       -0.013379349 0.103302725 0.07484312 0.10034053
0000b0 d2 b1 af bd 5f 04 ed bd a8 f7 9c ba 77 63 89 bd
       -0.085788384 -0.11573099 -0.0011975663 -0.067084245
0000c0 5b b4 de bd b6 65 3e 3d 2f 29 e4 3d d7 17 76 bd
       -0.10874244 0.046483718 0.11140668 -0.06008133
0000d0 96 9f c1 3d a6 33 31 bd 9c a7 bb 3d f3 9d d1 3d
       0.09454267 -0.043262146 0.09162828 0.102352045
0000e0 66 9e a7 bd 5c 29 72 3c b5 8a 75 bd 67 b4 b1 3d
       -0.08184509 0.014780369 -0.059946734 0.08676987
0000f0 00 27 a7 bd d0 95 c6 bd 81 f6 ac bd d5 97 81 3d
       -0.081617355 -0.09696543 -0.084454544 0.06327788

mu_network.5.weight f4 [64]
000000 6e 43 7f 3f 0f fc 7f 3f 25 b8 7d 3f 54 65 80 3f
       0.99712265 0.99993986 0.9910911 1.0030923
000010 90 7a 80 3f 59 3a 7f 3f 19 5f 80 3f 30 a0 7d 3f
       1.0037403 0.99698406 1.0029022 0.9907255
000020 6e 2b 7f 3f 90 17 80 3f 47 60 7e 3f 0c 44 7e 3f
       0.99675643 1.0007191 0.9936566 0.9932258
000030 37 2f 7d 3f b4 f6 81 3f 4b a2 80 3f c6 b2 80 3f
       0.9890017 1.0153413 1.0049528 1.0054557
000040 95 6a 80 3f 88 e5 7f 3f 58 0f 80 3f 99 c0 80 3f
       1.0032526 0.9995961 1.0004683 1.0058776
000050 d3 31 7e 3f 90 16 80 3f 60 41 7f 3f 31 0a 81 3f
       0.99294776 1.0006886 0.9970913 1.0081235
000060 a2 8b 80 3f a6 6c 80 3f 71 77 80 3f 1b 08 80 3f
       1.0042613 1.0033157 1.0036451 1.0002474
000070 da 88 7d 3f 74 69 80 3f a8 7f 80 3f 57 5d 81 3f
       0.99036944 1.0032182 1.0038958 1.010661
000080 d3 08 7e 3f a1 96 80 3f 95 4a 80 3f 68 42 80 3f
       0.99232215 1.0045968 1.0022761 1.0020266
000090 f4 5f 80 3f 5c 55 7f 3f 0b 39 7f 3f b0 b6 7d 3f
       1.0029283 0.99739623 0.99696416 0.99106884
0000a0 72 76 80 3f be a8 80 3f bf 55 7f 3f 6e da 80 3f
       1.0036147 1.0051496 0.99740213 1.006666
0000b0 3f 20 80 3f d6 29 80 3f 3d 03 7e 3f 6f 5e 7f 3f
       1.0009841 1.0012767 0.9922369 0.9975347
0000c0 2a bd 7f 3f 07 63 7d 3f c5 48 80 3f eb 3a 80 3f
       0.99898016 0.9897923 1.0022207 1.001798
0000d0 81 ee 80 3f 34 2c 7e 3f 0b ba 7d 3f ae cf 7e 3f
       1.0072786 0.992862 0.99112004 0.99535644
0000e0 9d 42 7f 3f f1 f4 80 3f 64 3a 80 3f fc 2b 80 3f
       0.9971102 1.007475 1.001782 1.0013423
0000f0 e7 4c 7f 3f 8d c1 7f 3f 50 2b 7f 3f ab 74 80 3f
       0.9972672 0.9990471 0.99675465 1.0035604

mu_network.5.bias f4 [64]
000000 5b 64 38 bb 8b 28 34 bb 74 bb 3b 3b 71 57 38 bb
       -0.0028135988 -0.0027489986 0.0028645666 -0.002812829
000010 05 5e 38 bb da f1 2b 3b 47 fe 32 bb 7c ae 33 3b
       -0.0028132212 0.0026236684 -0.0027312206 0.0027417233
000020 10 70 37 3b f6 1e 3f 3b 0c 8e 32 3b 5c bd 2a 3b
       0.0027990378 0.0029162741 0.002724531 0.0026052808
000030 71 c0 33 bb 68 9d 3e bb 16 fe 60 bb a9 f8 26 bb
       -0.0027427936 -0.002908552 -0.0034331135 -0.0025477803
000040 a1 5b 34 bb 39 38 34 bb 86 bd 2c bb 1b cc 34 bb
       -0.0027520435 -0.0027499332 -0.0026358082 -0.0027587477
000050 35 61 34 bb d0 6d 34 bb cb bd 1d 3b cd 7a 39 bb
       -0.002752376 -0.0027531274 0.0024069424 -0.0028301955
000060 7a fd 32 bb d3 1c 4b 3b ec 96 39 3b 75 fe 38 3b
       -0.0027311728 0.0030992522 0.0028318716 0.002822784
000070 d7 41 24 3b cf ac 34 bb 65 c1 42 3b 00 ea 39 3b
       0.0025063658 -0.0027568822 0.0029717323 0.0028368235
000080 1a 8e 2f bb 3b 0a 3a bb 88 17 37 bb 2b 2c 37 bb
       -0.002678758 -0.0028387445 -0.002793761 -0.002794991
000090 8f 91 10 bb f2 75 49 bb 76 27 0e bb 5f 8d 98 bb
       -0.0022059416 -0.0030740467 -0.0021691 -0.0046555246
0000a0 2f f7 39 3b 2c e5 37 3b 13 93 2b bb 20 53 35 bb
       0.0028376093 0.002806018 -0.0026180192 -0.0027667955
0000b0 26 c6 32 bb 3e 8e 33 3b 90 4d 36 bb 37 61 34 bb
       -0.002727875 0.0027398015 -0.0027817227 -0.0027523765
0000c0 fe ed 33 bb 74 23 34 bb f0 40 39 bb c6 39 21 bb
       -0.0027455087 -0.0027486952 -0.0028267466 -0.0024601086
0000d0 4c 56 33 bb 6f 07 30 bb 7d af 34 3b e6 cb 18 bb
       -0.002736467 -0.00268599 0.002757042 -0.0023314892
0000e0 92 2f 33 bb 23 61 3a 3b a7 c4 34 3b 0b 80 38 bb
       -0.0027341587 0.0028439246 0.0027583034 -0.0028152491
0000f0 21 5d 38 bb 06 f5 37 3b 6a a2 37 3b da 01 35 bb
       -0.002813168 0.002806963 0.002802039 -0.0027619512

mu_network.6.weight f4 [1, 64]
000000 a7 22 d1 bd 7f aa a1 bd 95 a0 ca 3c c6 ac fa bd
       -0.102116875 -0.07893848 0.024734775 -0.12239985
000010 ff e2 56 bd be 8f cc 3c 6b 38 a8 bd d5 e1 bf 3d
       -0.052462574 0.024970885 -0.08213886 0.09369246
000020 bc 4b f4 3d fe d8 c9 3c c4 77 90 3d 1e 47 a6 3c
       0.11928508 0.024639603 0.070540935 0.020297583
000030 ab 9d 97 bd 9e 03 0a bd 90 50 14 bc 2d f0 54 bc
       -0.0740312 -0.033694856 -0.009052411 -0.0129967155
000040 40 29 cd bd eb 7a 96 bd 93 65 96 bc 11 92 c3 bd
       -0.100176334 -0.073476635 -0.018358981 -0.09549344
000050 e0 54 df bd 72 b5 83 bd 15 bb 24 3c 1d 54 9a bd
       -0.109048605 -0.06431092 0.010054369 -0.075355746
000060 e3 f5 0b bd ae 65 4d 3c 00 21 95 3d 39 9a 98 3d
       -0.034170043 0.012536449 0.07281685 0.07451291
000070 c4 22 07 3c 08 af f1 bd cd 75 84 3c 7d 41 4b 3d
       0.008248035 -0.11800963 0.016169453 0.049623
000080 ef 5e 2c bc b1 da 75 bd bb de d4 bd dd 46 ea bd
       -0.010520681 -0.060023014 -0.10394045 -0.11439297
000090 ed 2c b4 bb 49 80 1d bc 14 08 d9 bb fe 48 89 3b
       -0.0054985196 -0.009613105 -0.0066232774 0.0041896095
0000a0 cb 8a 8a 3d 8e 21 55 3d b9 98 9c bc 3a 63 05 be
       0.06764754 0.052033953 -0.019115793 -0.13026133
0000b0 13 c6 f3 bc 1d ce c5 3d f9 9c d0 bd 04 a5 f3 bd
       -0.029757535 0.096584536 -0.1018619 -0.118967086
0000c0 44 ae cd bd ac 22 9b bd 52 9a ae bd f2 11 11 bc
       -0.10043004 -0.075749725 -0.08525528 -0.008854376
0000d0 12 be 1d bd 7e de d3 bc d7 50 7d 3d 58 21 1d bc
       -0.038511343 -0.025862928 0.061844673 -0.009590469
0000e0 d8 81 81 bd 1d 12 0c 3d ab 01 f1 3d c4 71 b8 bd
       -0.06323594 0.03419696 0.11767896 -0.09006074
0000f0 b5 ab c8 bd 6b 53 f9 3d df fb d3 3d 8d 0c a2 bd
       -0.097983755 0.12174114 0.10350775 -0.0791255
