weights/2024-06-27_12-46-04/critic.pt (torch, 22250 bytes, 9 tensors)

critic.0.weight f4 [64, 3]
00000000: 3eaa 003e b4dd bd3e 267c 42be 09ab 143e
00000010: 88ed 753e b44c 14bf 6f8c af3e 841a 0b3f
00000020: a69f 773e be5c cabe 7281 09bf 5195 8c3e
00000030: 19e2 043f 7587 013f 1ac0 0cbf a5c1 ac3e
00000040: 1d96 edbe 9f4c 9d3d 8b0f 81be 2d38 90be
00000050: f239 de3e e9f2 643e a103 9e3e f32c 603e
00000060: afcf 0cbf 7ffe 803e 84ec 9fbe af26 9a3e
00000070: fe6c 333e 561a 533e e7d6 e33e 16b3 62bd
00000080: f4fd c3be 5002 103f f87a 903e caa5 c5bd
00000090: 3164 813e bdad ddbe 7bef 99be e682 1bbe
000000a0: bf38 a1be bade 153f a883 74be e91c a7be
000000b0: d63a bb3e dd21 89be 5caa f63e f474 5abe
000000c0: 7b64 35be f503 cbbe 67ba 673e 93b6 fcbe
000000d0: d984 adbe dd78 84be e9b9 d83e 3074 dfbe
000000e0: 5ac2 933e a2a3 f33e 7e34 a13d bdbc c43e
000000f0: 14a1 3dbe 8538 cfbe 90c8 0bbf d3fb 3ebe
00000100: 5ae6 abbe 3da4 093f 0070 febe e36f d5be
00000110: b0eb 053f 9299 38be 5dbf 01bf a1f4 c7be
00000120: 6eae d93e aea3 c2be 431e b33c 795f 153f
00000130: d04c 8a3e 2690 f0be dbf2 55bd 1a9b dbbd
00000140: a59f d1be cfa1 9bbe 5395 c23e 7b92 04bf
00000150: ce22 fcbe dc8e b4bd 1eca 8d3e e645 753e
00000160: a221 b13e 55d1 0ebf ac5f 2ebe 357f 0dbf
00000170: c5eb da3d afaf 983e 4f66 0ebf 2420 c0bd
00000180: d4fa 0c3f 4359 06bf 0839 1dbe 53df e1be
00000190: f0b5 7c3e eb28 88be 7746 94be 9230 e8be
000001a0: e585 80bd 0867 94be 7501 b33d 88d8 afbe
000001b0: af10 f7bd 6102 afb9 1bad 563c 2d8c cdbe
000001c0: c283 e3be 619e d93d 1071 dbbe 0516 ab3d
000001d0: 625a 733e 27d1 fc3e db1c 393d 49af 02bf
000001e0: 2151 6b3e e9e1 d23d ddd6 783e 97bc 773e
000001f0: 3102 ca3e 6670 c63e fb06 3b3e 49aa cbbe
00000200: d0eb 89be 0728 d4be fea3 633d bc04 5f3e
00000210: b2d9 2ebe 568b a2be 9421 18be ae59 bebe
00000220: 2228 49be b701 0abf 5a1f aabe ccce 573e
00000230: 4630 df3e 1172 643d 4568 e03e 0556 d23e
00000240: 211b 0c3f 5ea3 893e c015 58be ccef 283e
00000250: e1be eb3d 15bf bc3d e86b 683d 4ff7 5a3e
00000260: 0b40 0c3e e615 3b3e f22e aa3e 2063 14bd
00000270: 8d64 8c3e b733 dfbd 9eae e73e 57b3 6f3e
00000280: 2e24 88be 0ced b7bd 7ba5 b93d ba30 1fbe
00000290: 3df8 12bf 4919 f4be 659b 693d 25d9 733e
000002a0: 7a07 45be 35c1 54be 5e5b 6cbe a6b2 3c3e
000002b0: d450 333e 0035 833d cf23 f53e 42f4 8a3e
000002c0: ab34 a83e fdde 883e e748 c2bd 33bd 033f
000002d0: d53c fdbe 2f42 d9be aa9b 483e be60 9fbe
000002e0: 5ebd ba3e f851 e83e 44ec 8c3d d79e d3bd
000002f0: fedb c53e 63f7 2dbc d04d a6be f086 a6be
0.12564942 0.3708321 -0.18992671 0.1451837 0.24016392 -0.5792954 0.3428683 0.54337335
0.24181995 -0.39523882 -0.5371314 0.2745767 0.519075 0.50597316 -0.54980624 0.3374149
-0.4640359 0.0768063 -0.2520717 -0.2816786 0.43403584 0.22358288 0.30862144 0.21892147
-0.550044 0.25194165 -0.31235135 0.30107638 0.17522046 0.20615515 0.44499895 -0.05534657
-0.38279688 0.5625353 0.28218818 -0.096507624 0.25271752 -0.43296614 -0.30065522 -0.15186653
-0.31488606 0.5854298 -0.23878348 -0.32639244 0.36568326 -0.26783648 0.4817685 -0.21333677
-0.17714112 -0.39651456 0.226297 -0.49358043 -0.33890417 -0.2587346 0.42329338 -0.43643332
0.28859216 0.4758578 0.0787134 0.38425246 -0.18518478 -0.40472808 -0.5460291 -0.18650751
-0.33574182 0.5376623 -0.49694824 -0.41686925 0.52312756 -0.18027332 -0.5068262 -0.39053825
0.42515892 -0.38015503 0.021865016 0.58348805 0.27011728 -0.46984977 -0.05223356 -0.10722943
-0.40942112 -0.30396888 0.3800455 -0.5178601 -0.49245304 -0.08816311 0.27693266 0.23952445
0.34595972 -0.55788165 -0.17028683 -0.5527223 0.10689501 0.29821536 -0.5562486 -0.0938113
0.55070233 -0.5247995 -0.15353787 -0.44115695 0.24678779 -0.26593718 -0.2896001 -0.45349556
-0.06275538 -0.28984857 0.08740512 -0.34344888 -0.12063729 -0.00033380373 0.013102795 -0.40146008
-0.4443646 0.106259115 -0.42859697 0.08353809 0.23764947 0.4937832 0.045193534 -0.51048714
0.22980167 0.10296995 0.24300714 0.24193035 0.39454797 0.38757628 0.18264382 -0.39778355
-0.26937723 -0.41436788 0.055576317 0.2177915 -0.17075232 -0.3174693 -0.14856559 -0.37177795
-0.19644216 -0.53908867 -0.33227044 0.2107498 0.43591517 0.055772845 0.4382955 0.41081253
0.54728895 0.26882452 -0.21102047 0.16497725 0.11511017 0.092161335 0.056743532 0.21383403
0.13696305 0.18270072 0.3323894 -0.036227345 0.27420464 -0.10898536 0.4525041 0.23408256
-0.26590103 -0.0898076 0.09064766 -0.15545931 -0.5741003 -0.4767554 0.05703296 0.23813303
-0.19241133 -0.20776828 -0.23081729 0.18427524 0.17511302 0.06406593 0.47878882 0.2713948
0.32852682 0.26732627 -0.09486561 0.5146057 -0.49460474 -0.42433307 0.19590631 -0.31128496
0.364726 0.45375037 0.068810016 -0.10333031 0.38644403 -0.010618064 -0.3248124 -0.32524824

critic.0.bias f4 [64]
00000000: 427b 09bf 8dc8 b03d e52a cebe 9796 f63d
00000010: 2fbb d63e 164e 09bf c3cf 543e d563 00be
00000020: ea38 8c3e d68b 5a3e 26a7 c5be 69a6 ea3e
00000030: a2dc 51be fda4 5f3e 8b5b 9cbd f33e bf3e
00000040: 7248 54be 42e0 39be d445 cebe c8ca cd3d
00000050: 0aa8 ecbe 522e e43d 4e81 ee3e f731 10bd
00000060: c414 55bd 8c5f d73d c22c 98be ab87 e13c
00000070: 8072 cdbe e2da 9abe 9b05 e0be b5d2 983e
00000080: 8612 13be 1dfa cf3e 43f8 6cbc 3bfa ccbe
00000090: 9d72 6fbe 3978 7c3e f6a0 2dbe 661f 11be
000000a0: 4128 3f3e 1b78 00bf 890e a83e ae26 853e
000000b0: 7d9d 043f 9c97 9c3e ce40 02bf 2f9a a93e
000000c0: 8c21 0d3f 9a3f f73e 3e1a 0dbf d852 103f
000000d0: 675e c2be 470c 0ebf 3d16 583e 0382 acbe
000000e0: 8872 51be ac14 fb3e 1973 c13c 3e09 1f3e
000000f0: 6b02 d33e 9e96 2dbb 4e4c 133f ded1 b73d
-0.537037 0.08632002 -0.402671 0.120404415 0.41939685 -0.53634775 0.2078238 -0.12538083
0.27387172 0.21342406 -0.38604087 0.45830086 -0.20494321 0.21840282 -0.07634648 0.37352714
-0.2073076 -0.18151954 -0.4028765 0.10048443 -0.46221954 0.111416474 0.46583027 -0.0352039
-0.052021757 0.10516271 -0.29721648 0.027530512 -0.4012642 -0.3024512 -0.43754277 0.29848257
-0.14362535 0.4062051 -0.014463487 -0.4003466 -0.23383565 0.24655236 -0.16955933 -0.14172134
0.186677 -0.50183266 0.3282359 0.26006073 0.5180281 0.3058442 -0.50880134 0.33125445
0.55129313 0.48290712 -0.5511817 0.5637641 -0.37962648 -0.55487484 0.21102233 -0.3369294
-0.20453846 0.4903921 0.023614453 0.1553087 0.41212782 -0.002648748 0.57538307 0.08975576

critic.2.weight f4 [64]
00000000: bdf1 7e3f a26f 813f 61b4 7c3f bb4b 803f
00000010: fcb1 7c3f 1d17 823f 6115 813f 592a 7f3f
00000020: 22fb 7d3f 8e0c 813f 7d05 7c3f afd0 803f
00000030: 6587 7c3f 9b11 823f 7d1c 7c3f b25e 813f
00000040: 5b3d 7c3f e9fc 813f efbb 7c3f 0e19 7d3f
00000050: cd12 7c3f a3be 813f c643 7c3f 131c 7c3f
00000060: ff14 823f 542c 7e3f 423c 813f 6f49 7c3f
00000070: 64f3 7c3f 6d58 803f 9805 823f ff63 813f
00000080: 8d0f 823f 8e40 7c3f e5f4 813f a512 7c3f
00000090: c8fa 813f 784c 7c3f 0bde 813f 34b4 813f
000000a0: d190 803f d361 7f3f f492 7e3f 0cac 813f
000000b0: 0e3c 7c3f 65fe 803f 27fd 7c3f ca4d 813f
000000c0: 9ca1 7c3f b865 7f3f 17fd 813f 104b 7c3f
000000d0: d88f 7f3f c4fc 7c3f 4e46 803f 706b 813f
000000e0: e22b 7c3f 032b 813f 1825 7c3f 2f04 823f
000000f0: c8df 7b3f da05 7e3f 62d5 7e3f 13aa 813f
0.99587613 1.0112193 0.98712736 1.0023111 0.9870908 1.0163304 1.0084649 0.9967399
0.99211323 1.0081956 0.98445874 1.0063685 0.98644096 1.0161623 0.9848097 1.0107024
0.9853112 1.0155307 0.98724264 0.98866355 0.9846619 1.0136303 0.98540914 0.9848034
1.0162657 0.9928639 1.0096514 0.9854955 0.98808885 1.0026985 1.0157957 1.0108641
1.0160996 0.98536 1.0152861 0.9846595 1.0154657 0.9855418 1.0145887 1.0133119
1.0044194 0.9975864 0.9944298 1.013063 0.98529136 1.0077635 0.9882378 1.0101864
0.98684096 0.99764585 1.0155362 0.98552036 0.99828863 0.9882319 1.0021455 1.0110912
0.9850446 1.0091251 0.984941 1.0157527 0.9838834 0.9922768 0.99544346 1.0130028

critic.2.bias f4 [64]
00000000: c869 c83b b1a7 5f3c 6920 493c b5e8 85bc
00000010: 4c0b 82bc 478e 85bc d17a 5d3c 421c 833b
00000020: 2c2c 83bc 4d27 67bc 3770 5d3c fb08 7fbc
00000030: c57c 99bb 1b05 833c f4e1 493c e933 babb
00000040: a7d6 6d3c 7cbe 81bc 0c82 4c3c 191b 793c
00000050: 551a 833c ab07 853c 7a2d 7bbc 6c30 863c
00000060: dab0 85bc 5c7d ec3b e404 81bc 8c99 83bc
00000070: a151 81bc 5efb 6a3c 67fd 82bc c85f 45bc
00000080: 0261 86bc b920 77bc ba09 82bc 4173 10bc
00000090: 0aa2 7dbc d463 70bc b6e1 46bc e365 3ebc
000000a0: 25e9 84bc a138 82bc 4e86 833c cca6 7b3c
000000b0: 243c 7bbc 5459 793c a52c 86bc d373 4cbc
000000c0: f9a0 79bc f5c5 7a3c 310b 7fbc 35eb 66bc
000000d0: cef1 813c 3fe1 423c 2c26 623c b961 83bc
000000e0: ad96 633c 3716 71bc a96b 653c c8a3 823c
000000f0: 456c 5bbc b2d1 7cbc 35ff 853c 98e3 833c
0.0061161257 0.013650821 0.012275794 -0.016346315 -0.015874527 -0.016303195 0.013518051 0.0040011713
-0.016012274 -0.014108491 0.013515524 -0.015566106 -0.004684063 0.015993645 0.012321938 -0.0056824577
0.014516509 -0.0158379 0.0124821775 0.0152042145 0.016003767 0.016239008 -0.015330667 0.016380511
-0.016319681 0.0072170924 -0.015749402 -0.016064428 -0.015785994 0.014342157 -0.015989972 -0.012046762
-0.016403679 -0.015083485 -0.015873779 -0.008816541 -0.015480528 -0.014672238 -0.012138775 -0.011620971
-0.016224453 -0.015896143 0.016055252 0.015359592 -0.015334163 0.015219051 -0.01637871 -0.0124787865
-0.015236133 0.015305986 -0.015566633 -0.014094164 0.015862372 0.011894523 0.013803046 -0.016037809
0.013890904 -0.014714769 0.014002719 0.015947238 -0.013392513 -0.015430855 0.016357044 0.016099736

critic.3.weight f4 [64, 64]
00000000: 3c3b ff3d b711 823d 900d 673d 937a 4a3c
00000010: 2990 3dbd a6cf 193d 23bd 983d 696f 053d
00000020: ff17 b23c 106b 953c 9a1a ed3c c06a 16bd
00000030: 4476 cd3d b000 293d 3104 633c ffa1 a83d
00000040: c5bb 5cbd 313c 93bd 824d b7bd 9df5 cabd
00000050: 363b c83d a260 8d3d 9963 26bd 09b5 06be
00000060: 826c 033e b400 5b3d e653 9cbc 7f1a 863d
00000070: 0f95 86bc f60d 583d ea77 763c 7f16 8cbd
00000080: 917d b0bd abb3 683d a125 333d f4e6 cd3d
00000090: 20b5 f9bc bcd2 ce3d 8238 8d3b 38a4 2abd
000000a0: d761 25bd b04b 3f3d ebd0 0bbe 1903 b53d
000000b0: 4c56 873d d3a3 8bbc 442e 97bb dfa0 b93c
000000c0: 980b 8abd e43d 90bd b121 943d 30a3 233d
000000d0: 2a4e d3bd 367d 753d bd67 833d 51b4 853c
000000e0: d4c0 82bc b1dc 39bd dd43 8d3d f48c debc
000000f0: 511d 61bd 2ee0 023e 104c 4ebd dd8f 8a3d
00000100: eddb 82bd e52a e9bd a412 df3d f8ef bdbc
00000110: 69d9 60bd 8ba0 983d e4b2 98bc cf86 033d
00000120: 15ea 6ebc 353f dd3d d794 b33c 0e6b e6bd
00000130: fb2a bb3d f8ba e13d 307c e83b b95e aa3d
00000140: 3970 dc3d 4d5a 29bd f3f3 b43d 9343 8bbd
00000150: 7ec0 aebd 6867 80bc c51a 8c3c 81cd 6d3d
00000160: 5164 c53d 05b6 ae3d 139b a5bc 7371 f2bd
00000170: e9dc 90bd 9d3a a2bd a4e0 f1bd 112c 07be
00000180: 37c7 923d 8179 d7bd 7ea8 bf3c 3207 ff3b
00000190: fc81 dabd 3fcc 9cbd 1871 b3bd 2fe9 963d
000001a0: f1cd e33d c05e e039 771a a13c 678f 973d
000001b0: 14aa 843d 048f 643d 643f 74bc 06e8 c63d
000001c0: 3f89 883d cf7f 8e3d 1ec6 40bc 5764 25bd
000001d0: 6f76 f0bc 3342 7f3d 98f8 f5bd bd1c af3c
000001e0: d345 d43d dd40 b1bd 4ce0 43bd 9570 c53d
000001f0: 31e8 3d3d 4800 9cbd e15a 07bd 1c74 f0bd
00000200: 51b1 0b3d 2386 c83c e6f0 07be f11d a33d
00000210: c0cf cebd a280 c93c 67ce e23d d399 293d
00000220: 9e71 50bc c6f5 dd3d af07 9e3d a692 9a3c
00000230: 5aa1 f2bd 7917 78bc df6d 6c3a b453 02be
00000240: bf0b bf3d f327 07be 00d5 1a3d 239b 073e
00000250: d482 90bd 5611 0d3e 5854 f3bc 6454 813d
00000260: 23bd 26bd c98a 0abd adc3 0cbe b357 5c3d
00000270: cebc b03d 66d3 303a 2e0e 123d 024f debd
00000280: 3439 0e3c fe14 d73b c23b f8bb c9e7 6b3d
00000290: a8ae debc faf9 b73d 4f89 023e 3a47 7cbc
000002a0: c1b4 0fbd c959 113c bc06 6fbd 457a 773c
000002b0: 7e72 9c3d 0b59 d73d c97f 94bd 57ec d43d
000002c0: 294e bb3d 5686 9d3d 257f 24bd 2f35 083d
000002d0: 630c d23d 3d78 993d e429 7d3d b25a 3d3d
000002e0: 4f03 2d3d c070 983d 3efe b03d 8fcc 703d
000002f0: 2891 2cbc 808b 6f3d 878d 74bc c919 533d
00000300: 41e1 ce3c 4236 6fbb 2abe e93c 6a6b a7bc
00000310: 9faa d83c eb34 d9bd 6afe 9e3d 7a16 75bb
00000320: 0762 16bd f81e 923d c633 18bd aad0 d73a
00000330: 34db a8bd 9d46 85bd 93c1 d53d 3c11 26bd
00000340: 7907 56bd 56f8 fd3c 9fb2 bfbd 3357 43bd
00000350: 2c1f 2b3d 91e1 1ebd 7082 38bd 618c 0b3d
00000360: 78ea 0a3e adc0 a43d 235f fcbc d06c d8bd
00000370: fd6f 9f3d 8b21 b23d d425 723d 6479 b23d
00000380: 511a 873c 26c9 503d 5082 f63d 0b26 2ebd
00000390: fd79 0f3e 3022 72bd 1f0b 083a bdea 263d
000003a0: 403f 803d aa96 71bd ea48 f5bd dd47 db3c
000003b0: cdc3 02be c1bd 9f3d 7a65 55bd 575a 95bd
000003c0: e280 b43c 30d8 9bbd 7fb4 753c 96d5 f3bd
000003d0: 3bd1 b1bd 86a9 8a3d 7ea0 ac3c d615 1e3d
000003e0: 1934 9fbd edcc 9d3d 5e11 86bd 30ce d9bd
000003f0: 4b25 8cbd cf29 9b3d 33cb debd cb10 fabd
0.1246247 0.06351035 0.05640942 0.0123583255 -0.04628006 0.037551545 0.0745795 0.032576952
0.021739958 0.018239528 0.028943349 -0.0367229 0.10032323 0.04126042 0.01385598 0.08234023
-0.05389001 -0.07189215 -0.0895033 -0.09910128 0.097769186 0.06903197 -0.040622327 -0.13154997
0.12834361 0.053467467 -0.019082975 0.065480225 -0.016428499 0.05274769 0.015043238 -0.06840228
-0.086177 0.05681197 0.043737058 0.100538164 -0.030481875 0.10098788 0.004309715 -0.041660517
-0.04037651 0.04670304 -0.13653915 0.088384815 0.06608257 -0.01704589 -0.0046136696 0.022659717
-0.067404926 -0.07043055 0.072329886 0.03995055 -0.10317643 0.059933864 0.06416271 0.016321333
-0.015961088 -0.045376483 0.068977095 -0.027166821 -0.0549596 0.1278083 -0.050365508 0.06765721
-0.06389604 -0.113851346 0.10892227 -0.023185715 -0.05489484 0.07452496 -0.01863999 0.032110985
-0.014582177 0.108030714 0.021921558 -0.11250888 0.09139057 0.110219896 0.0070948824 0.08318848
0.10763592 -0.041345883 0.08835592 -0.06799998 -0.08532809 -0.015674308 0.017102608 0.058057312
0.096382745 0.08530811 -0.020215547 -0.11838045 -0.07073385 -0.07921336 -0.11810425 -0.13200404
0.071669035 -0.10521222 0.023395773 0.00778284 -0.10669324 -0.07656144 -0.08761805 0.07368695
0.111232646 0.00042795204 0.01966594 0.07400399 0.06477752 0.055800453 -0.014907692 0.09712224
0.066668026 0.06957971 -0.011765985 -0.040378895 -0.029353349 0.062318992 -0.12010306 0.021376008
0.103648804 -0.0865495 -0.047821328 0.09640614 0.046364013 -0.07617241 -0.033045653 -0.11740896
0.03410465 0.024478024 -0.13275489 0.07964695 -0.10098219 0.02459747 0.110745244 0.041406464
-0.012722401 0.10837893 0.07716309 0.018868756 -0.118471816 -0.015142315 0.00090190576 -0.12727243
0.09328412 -0.13198833 0.03780079 0.13242774 -0.070562035 0.13776144 -0.029703304 0.06314924
-0.04070772 -0.033823762 -0.1374652 0.053794574 0.08629762 0.0006745368 0.035658054 -0.10854913
0.0086806305 0.0065637818 -0.007575483 0.057594094 -0.027182892 0.08983226 0.12747692 -0.015397841
-0.03508449 0.008871504 -0.05835603 0.015104835 0.07639025 0.105150305 -0.072509356 0.10396641
0.09145767 0.07691638 -0.040160317 0.033253845 0.10256269 0.07493637 0.06180753 0.046229072
0.042239483 0.0744338 0.08642243 0.058788832 -0.010532655 0.058482647 -0.014926321 0.051538263
0.025253894 -0.0036500846 0.02853306 -0.020436961 0.026448546 -0.106057964 0.077633694 -0.003739743
-0.03671458 0.07134813 -0.03715875 0.0016465385 -0.08244935 -0.06507609 0.10437312 -0.04054378
-0.05225322 0.031002205 -0.09360241 -0.04769058 0.041777775 -0.038789336 -0.04504627 0.034069423
0.13566005 0.080445625 -0.030807083 -0.10567629 0.07785032 0.08697804 0.059118107 0.0871456
0.01649204 0.05097308 0.12036574 -0.04251675 0.14011379 -0.059114635 0.00051896455 0.040751208
0.06262064 -0.058981575 -0.11976798 0.026767666 -0.12770005 0.077998646 -0.05209873 -0.072926216
0.022034112 -0.07609594 0.014996647 -0.11905973 -0.08682486 0.06770615 0.021072622 0.038595043
-0.07773609 0.07705102 -0.06546281 -0.1063503 -0.068430506 0.07576334 -0.10878601 -0.12210234

critic.3.bias f4 [64]
00000000: 3a7c 443d 4a85 543c 9e8f 76ba f681 1f3c
00000010: 9dd3 b3bd b9ab e4bd eb39 e43d db18 d2bc
00000020: 4b61 163a 0a98 4ebd a734 d9bd 808b 05be
00000030: c7fd a63d a1fe dabd 2b23 00be 8a58 c83d
00000040: 0aa3 a63d 9c10 d93d bec0 ca3c f6da 8d3d
00000050: de72 6abc 9020 af3c 5f4d c9bd c515 48bd
00000060: 2367 28ba fda7 f43b 7ba0 be3d f142 f63d
00000070: 717f 54bc 0a1c 88bc 182b 1dbd 64fc 6abc
00000080: bc73 0b3e 6ab0 cd3c 77d3 aa3c 478f c1bd
00000090: a705 b3bd 0f95 a5bd b7a4 2b3d ae62 a43d
000000a0: 548b 9f3c 417d ddbd c226 643d 2195 bf3c
000000b0: e003 8cbd 6c6f 893d 052f 623d 535f bdbd
000000c0: c225 0a3e 22f9 853d abf4 383d 706e adbd
000000d0: 5084 033d 2f71 aabc 12e9 f5bd 73e9 e43c
000000e0: 9309 0dbe 33ea a13d 1b35 95bd 3d86 f33d
000000f0: 5545 4b3b ead0 aebd c677 413d 1e92 3a3b
0.047970034 0.012971232 -0.0009405556 0.009735575 -0.087805964 -0.11165566 0.111438595 -0.025646618
0.00057365437 -0.050437964 -0.10605746 -0.13041496 0.08153873 -0.10693098 -0.12513416 0.097825125
0.08136566 0.10598871 0.02475011 0.06926529 -0.014309613 0.021377832 -0.098292105 -0.048848886
-0.000642406 0.007466315 0.09307953 0.12024487 -0.0129698375 -0.016614933 -0.038371176 -0.014342401
0.13618368 0.025108535 0.020852787 -0.09451156 -0.087413125 -0.08085071 0.04190513 0.08026634
0.019475617 -0.10814906 0.055701025 0.02338654 -0.068366766 0.06710705 0.055220623 -0.09246697
0.13490966 0.06541659 0.04515521 -0.0846833 0.032108605 -0.020805923 -0.12007345 0.027943349
-0.13773184 0.07905998 -0.0728552 0.11890838 0.0031016667 -0.08535941 0.047233365 0.002846844

critic.5.weight f4 [64]
00000000: ad19 7d3f 0a65 7c3f 8e85 803f 78f4 7d3f
00000010: 721b 823f ba18 823f 190f 823f c6fd 7e3f
00000020: 6610 823f bdbc 7d3f 581a 823f 6f15 823f
00000030: ab1c 803f 3e06 803f ddf1 803f 523a 7f3f
00000040: 4214 823f 026f 7e3f 7f15 823f c096 7e3f
00000050: 5a14 823f d00e 823f 8436 803f b237 7d3f
00000060: a916 823f 1d20 813f 4435 7f3f 86b3 813f
00000070: ee12 803f e643 7c3f b97e 7d3f fe9a 7d3f
00000080: cf6b 7c3f fd5e 803f 508f 7c3f 4a60 813f
00000090: 55e8 7c3f 195d 7f3f c181 7c3f d10c 823f
000000a0: 2b16 823f 7013 823f 1b94 7c3f c152 803f
000000b0: 69f5 813f 4413 823f 18fb 7e3f 8097 7c3f
000000c0: 0e45 7e3f 241c 823f d0ec 7e3f 5228 7e3f
000000d0: 5011 823f 7482 7f3f 74c9 803f 961b 823f
000000e0: 951a 823f eaa9 813f 87e2 813f 6992 7c3f
000000f0: ba51 7c3f d202 7c3f 631b 823f d915 823f
0.98867303 0.98591673 1.0040758 0.99201155 1.0164626 1.0163796 1.0160857 0.9960598
1.0161254 0.99116117 1.016429 1.0162791 1.0008749 1.0001905 1.0073811 0.99698365
1.0162432 0.99388134 1.016281 0.99448776 1.0162461 1.016077 1.0016637 0.9891311
1.0163165 1.0087925 0.9969065 1.0132911 1.0005777 0.98541105 0.9902149 0.99064624
0.98602 1.0028988 0.9865618 1.010751 0.9879201 0.9975143 0.9863549 1.0160161
1.0163015 1.0162182 0.9866349 1.0025254 1.0153018 1.0162129 0.9960189 0.9866867
0.9932412 1.0164838 0.995801 0.99280274 1.0161533 0.9980843 1.0061479 1.0164669
1.0164362 1.0129979 1.0147256 0.98660904 0.98562205 0.98441803 1.0164608 1.0162917

critic.5.bias f4 [64]
00000000: 8b53 80bc 84ae 803c 068b 823c bf5e 80bc
00000010: ef62 87bc 26ab 83bc 62d6 863c 9034 813c
00000020: ad72 843c 5093 813c af17 86bc 00d0 83bc
00000030: f445 82bc f73b 82bc 94ce 84bc c31c 82bc
00000040: 24a9 833c a1ed 81bc 4feb 83bc 7fd1 81bc
00000050: 9e55 83bc 22bc 84bc 9528 823c 5fb3 813c
00000060: 019c 83bc 9687 073c 35e7 e7bb 683f 833c
00000070: c12f 823c 7582 813c 19d9 783c 4abf 813c
00000080: f262 813c ac65 82bc dd95 7e3c 5f04 83bc
00000090: 68aa 813c 4734 823c 503d 81bc abaa 833c
000000a0: f06d 873c d8c4 83bc 3207 80bc 7b7b 82bc
000000b0: 9465 84bc 0178 833c 5f75 833c 37bf 79bc
000000c0: 66a2 813c 64e7 833c 0a09 823c 679d 81bc
000000d0: b75d 83bc 5fd5 80bc f2f6 c8bb c0ef 83bc
000000e0: 5f88 83bc eec1 833c 2f94 84bc 2531 813c
000000f0: 94af 813c 395e 813c 09a3 833c 0d71 84bc
-0.015664836 0.015708216 0.015935432 -0.015670178 -0.016526667 -0.01607282 0.016459648 0.015772134
0.016167963 0.015817314 -0.016368715 -0.016090393 -0.015902497 -0.015897734 -0.016211785 -0.015882855
0.016071863 -0.01586038 -0.016103415 -0.015846966 -0.016032036 -0.01620299 0.015888492 0.015832601
-0.0160656 0.008272072 -0.0070771226 0.016021445 0.015891911 0.015809277 0.015188479 0.015838284
0.015794251 -0.015917622 0.01553866 -0.015993295 0.015828326 0.015894068 -0.015776306 0.016072592
0.016531914 -0.016085073 -0.015628431 -0.01592802 -0.016161717 0.016048433 0.016047178 -0.015243343
0.015824508 0.016101547 0.01587345 -0.015822126 -0.016035898 -0.015726743 -0.006132954 -0.016105533
-0.016056238 0.016083684 -0.01618394 0.015770504 0.015830792 0.015792 0.016068952 -0.016167188

critic.6.weight f4 [1, 64]
00000000: 7cc8 113d 5d8b 3fbd 4594 f8bd 48b6 193d
00000010: c853 b73c 89fb ca3d d150 d8bc c87d 45bd
00000020: 3f41 8abc 9649 9ebd f8a9 053d b719 b33d
00000030: 8bea 863d 83a8 ed3d 5642 743c ca6d e93d
00000040: 6a13 cabd 6de6 bc3d 41dc a53d 22fb ba3d
00000050: 4ed1 0e3e 68a2 503d a32f 8fbd a670 cebd
00000060: af8d d53d 80d6 6bbc 01c3 c63b 5db9 febd
00000070: b66e c4bd 2fdd b3bd 8ff2 03bc 5eb6 c5bd
00000080: 4278 95bd 43ab a03d 14e9 bebc a25e 053e
00000090: 19af cbbd 7c09 f8bd 79e9 813d 4846 c7bd
000000a0: d777 aabc 56af b83d ea56 063d 59f6 eb3d
000000b0: 72bc 653d e34e f2bd 8116 4bbb 6b26 403c
000000c0: b4bf 66bd 6b61 a9bd 805a e9bd 0ab6 ab3d
000000d0: fdbb 083e 9c97 0d3d 9eea 5f3c df74 a53d
000000e0: 346d e63d da7d 90bd bbfb 493d 0413 83bd
000000f0: 0413 d9bd 823a a0bd d142 d1bd 49ed 723d
0.035591587 -0.046763767 -0.12137655 0.037527353 0.022378817 0.09911258 -0.026405724 -0.048215657
-0.016876815 -0.07728879 0.032632798 0.08745139 0.06587704 0.11604407 0.014908394 0.11397894
-0.09866984 0.09223638 0.08098651 0.09129931 0.13947031 0.050936133 -0.06991508 -0.1008008
0.104274146 -0.0143944025 0.0060657267 -0.12437699 -0.09591429 -0.08782422 -0.008053436 -0.096539244
-0.07298328 0.078451656 -0.0233045 0.13024381 -0.099455066 -0.12111184 0.063433595 -0.09730202
-0.020809097 0.09017818 0.03279773 0.115215965 0.05608792 -0.11831453 -0.0030988755 0.01172791
-0.056335166 -0.08270534 -0.11394215 0.083843306 0.13352962 0.034568414 0.013666777 0.08078932
0.112512976 -0.07055254 0.049312335 -0.06400111 -0.1059933 -0.078236595 -0.10217822 0.059308324
