weights/2024-06-27_12-46-04/target_critic.pt (torch, 22924 bytes, 9 tensors)

critic.0.weight f4 [64, 3]
0	0x3dffe602	0.124950424
1	0x3ebd81da	0.3701313
2	0xbe425fb8	-0.18981826
3	0x3e15168b	0.1455938
4	0x3e772818	0.24136388
5	0xbf140ab6	-0.57828844
6	0x3eafe7e8	0.34356618
7	0x3f0b6d97	0.54464096
8	0x3e76c692	0.24099186
9	0xbecafc2e	-0.39645523
10	0xbf09d605	-0.5384219
11	0x3e8c684b	0.2742332
12	0x3f0515b6	0.51986253
13	0x3f013c5e	0.5048274
14	0xbf0cf6cf	-0.550641
15	0x3ead36c3	0.33830842
16	0xbeee1ac1	-0.46504787
17	0x3d9eedf4	0.0776023
18	0xbe80a1bf	-0.25123402
19	0xbe8fee5e	-0.28111547
20	0x3eddff82	0.43359
21	0x3e662bed	0.22477694
22	0x3e9d5a41	0.3073292
23	0x3e5f0f8e	0.21783277
24	0xbf0d204b	-0.551274
25	0x3e8122b0	0.25221777
26	0xbea08f5a	-0.3135937
27	0x3e9a98e1	0.30194762
28	0x3e348f0a	0.1763269
29	0x3e530f99	0.20611419
30	0x3ee33e70	0.44383574
31	0xbd5fcf56	-0.05464109
32	0xbec48940	-0.38385963
33	0x3f0fd331	0.5618163
34	0x3e91183c	0.28338802
35	0xbdc7418a	-0.097292975
36	0x3e81f5f0	0.25382948
37	0xbedd7f09	-0.43260983
38	0xbe99d6ed	-0.30046788
39	0xbe1a5601	-0.1507187
40	0xbea177ae	-0.3153662
41	0x3f158be2	0.5841657
42	0xbe759992	-0.23984364
43	0xbea78742	-0.3272038
44	0x3ebbb7d7	0.36663696
45	0xbe8981da	-0.2685688
46	0x3ef751c4	0.4830457
47	0xbe595a45	-0.21225841
48	0xbe34a714	-0.1764186
49	0xbecba9ef	-0.39778087
50	0x3e66b252	0.22528961
51	0xbefd3913	-0.49457607
52	0xbeae2792	-0.34014565
53	0xbe840918	-0.25788188
54	0x3ed8c617	0.4233863
55	0xbedf654a	-0.43631965
56	0x3e936d98	0.2879455
57	0x3ef43443	0.47696123
58	0x3d9ebc1f	0.07750725
59	0x3ec42325	0.38308063
60	0xbe3cafb2	-0.18426397
61	0xbecea6f8	-0.40361762
62	0xbf0b7909	-0.5448156
63	0xbe3dbe0e	-0.18529531
64	0xbeabc5f4	-0.33549464
65	0x3f095d78	0.53658247
66	0xbefeec26	-0.49789542
67	0xbed61003	-0.4180909
68	0x3f05e29e	0.52298915
69	0xbe3772a0	-0.1791482
70	0xbf01e36b	-0.5073764
71	0xbec751b8	-0.38929534
72	0x3eda14de	0.42594045
73	0xbec343d3	-0.38137683
74	0x3ca9beb7	0.020720823
75	0x3f153858	0.582891
76	0x3e8af1ce	0.27137607
77	0xbef00d70	-0.46885252
78	0xbd56d457	-0.052448597
79	0xbddd38f8	-0.108018816
80	0xbed247e6	-0.4107048
81	0xbe9c3d1d	-0.30515376
82	0x3ec29bde	0.38009542
83	0xbf04d5f4	-0.51888967
84	0xbefcb948	-0.49360108
85	0xbdb2c728	-0.08729392
86	0x3e8e5ead	0.27806607
87	0x3e74ac92	0.23893955
88	0x3eb0b7f8	0.34515357
89	0xbf0eb710	-0.5574808
90	0xbe2f9d4f	-0.17149852
91	0xbf0dd22a	-0.5539881
92	0x3ddd27a6	0.10798578
93	0x3e995192	0.29945046
94	0xbf0ea40f	-0.55719084
95	0xbdbdbd0e	-0.09264575
96	0x3f0cda29	0.55020386
97	0xbf06aeed	-0.52610666
98	0xbe1e60a3	-0.15466551
99	0xbee1d181	-0.4410515
100	0x3e7d70f8	0.24750125
101	0xbe88860c	-0.2666477
102	0xbe94cd64	-0.2906295
103	0xbee8dad8	-0.45479465
104	0xbd80e880	-0.06294346
105	0xbe946456	-0.289828
106	0x3db475ca	0.08811529
107	0xbeb01faf	-0.34399173
108	0xbdf710b0	-0.1206373
109	0xb9af0261	-0.00033380373
110	0x3c56ad1b	0.013102795
111	0xbecddf8f	-0.40209624
112	0xbee419ba	-0.44550878
113	0x3ddafec7	0.10693126
114	0xbedb1540	-0.4278965
115	0x3dadc2d5	0.08484427
116	0x3e727fa8	0.2368151
117	0x3efd1b4b	0.49434885
118	0x3d356a7d	0.04429101
119	0xbf027b6f	-0.50969595
120	0x3e6a702a	0.2289435
121	0x3dd136c4	0.10215524
122	0x3e79cd2b	0.24394672
123	0x3e76a750	0.24087262
124	0x3ec97a45	0.39351097
125	0x3ec6f3de	0.3885793
126	0x3e3c43cc	0.18385237
127	0xbecb4937	-0.39704296
128	0xbe8941c8	-0.26808
129	0xbed39968	-0.41327977
130	0x3d64344c	0.055713937
131	0x3e5e0bac	0.2168414
132	0xbe30016e	-0.17188045
133	0xbea329d0	-0.31867838
134	0xbe17f561	-0.14839698
135	0xbebe2e25	-0.3714458
136	0xbe4a67ea	-0.19766203
137	0xbf09f5eb	-0.53890866
138	0xbeaac0fc	-0.3335036
139	0x3e591adc	0.21201652
140	0x3edfc572	0.43705326
141	0x3d648407	0.055789974
142	0x3ee0cbec	0.4390558
143	0x3ed25674	0.41081583
144	0x3f0bfd1a	0.5468308
145	0x3e89f565	0.26945034
146	0xbe58cf0c	-0.21172732
147	0x3e2a080c	0.16604632
148	0x3dea5f02	0.114439026
149	0x3dbb21dc	0.091373175
150	0x3d69cab6	0.057078086
151	0x3e5c3aa5	0.21506746
152	0x3e0d6e1a	0.13811532
153	0x3e3a828d	0.18213864
154	0x3eaad8bd	0.33368483
155	0xbd105243	-0.0352347
156	0x3e8cffad	0.27538815
157	0xbde196e7	-0.110151105
158	0x3ee7265b	0.4514645
159	0x3e701e98	0.2344917
160	0xbe8896d7	-0.26677582
161	0xbdb931ef	-0.09042727
162	0x3dbc3815	0.09190384
163	0xbe1df289	-0.15424551
164	0xbf12a0cd	-0.5727661
165	0xbef4b297	-0.47792503
166	0x3d6d3bba	0.057918288
167	0x3e74faaa	0.23923746
168	0xbe44c760	-0.1921668
169	0xbe53dc5e	-0.20689532
170	0xbe6bacb9	-0.23015107
171	0x3e3b69ef	0.18302129
172	0x3e338158	0.1752981
173	0x3d81abe5	0.063316144
174	0x3ef50fa2	0.4786349
175	0x3e8aaf96	0.27087086
176	0x3ea83114	0.32849944
177	0x3e897464	0.26846611
178	0xbdc4653e	-0.09589623
179	0x3f036f08	0.51341295
180	0xbefd8e23	-0.49522504
181	0xbed8d188	-0.4234736
182	0x3e49b467	0.19697724
183	0xbe9fed86	-0.31235904
184	0x3ebb5c04	0.3659364
185	0x3ee8f3dc	0.4549855
186	0x3d8f4e30	0.06997335
187	0xbdd262b3	-0.10272732
188	0x3ec53819	0.38519362
189	0xbc1bcab6	-0.009508779
190	0xbea5e610	-0.32402086
191	0xbea5f9d8	-0.32417178

critic.0.bias f4 [64]
0	0xbf0988de	-0.5372447
1	0x3dae8e78	0.085232675
2	0xbece31fb	-0.40272507
3	0x3df91bdd	0.121635176
4	0x3ed6fffc	0.41992176
5	0xbf090e72	-0.53537667
6	0x3e53b63d	0.20674987
7	0xbe01a408	-0.12660229
8	0x3e8cdeae	0.2751364
9	0x3e5b6548	0.21425354
10	0xbec5345a	-0.38516504
11	0x3eeb3e7e	0.45946115
12	0xbe5298ee	-0.2056615
13	0x3e5e5609	0.21712507
14	0xbd9a6703	-0.07539179
15	0x3ebf6ebc	0.3738917
16	0xbe553624	-0.20821434
17	0xbe38b2e2	-0.18036988
18	0xbece9bee	-0.4035334
19	0x3dcb3db9	0.09923882
20	0xbeed5220	-0.4635172
21	0x3de1950a	0.11014755
22	0x3eeeea65	0.46663204
23	0xbd157695	-0.03649004
24	0xbd5094ec	-0.050923273
25	0x3dd56ff8	0.10421747
26	0xbe979cfd	-0.2961196
27	0x3ceadb95	0.028669158
28	0xbeccdcbf	-0.40012166
29	0xbe9b431b	-0.30324635
30	0xbedf60b5	-0.4362847
31	0x3e986056	0.29760998
32	0xbe11c63c	-0.14235777
33	0x3ecfe772	0.40606266
34	0xbc59b532	-0.013287829
35	0xbeccc5ca	-0.3999465
36	0xbe6f729d	-0.23383565
37	0x3e7d361d	0.24727674
38	0xbe2e702d	-0.17034979
39	0xbe11dde5	-0.14244802
40	0x3e407ae6	0.18796882
41	0xbf00394c	-0.5008743
42	0x3ea765df	0.3269491
43	0x3e84892a	0.25885898
44	0x3f04dc46	0.5189861
45	0x3e9c213e	0.30494112
46	0xbf01f288	-0.507607
47	0x3ea91238	0.33021712
48	0x3f0d6068	0.5522523
49	0x3ef6a48b	0.4817241
50	0xbf0cc556	-0.5498861
51	0x3f108758	0.5645652
52	0xbec2ef68	-0.38073277
53	0xbf0dccad	-0.55390435
54	0x3e56c946	0.20975217
55	0xbeabe89f	-0.33575913
56	0xbe522a9a	-0.20524064
57	0x3efb9b82	0.4914208
58	0x3cb9ab7e	0.022664782
59	0x3e1dbea5	0.15404756
60	0x3ed36b87	0.41292974
61	0xbac5bea6	-0.0015086725
62	0x3f12f68f	0.5740747
63	0x3db56d3b	0.08858725

critic.2.weight f4 [64]
0	0x3f7eb6c2	0.99497616
1	0x3f81612e	1.0107782
2	0x3f7cc1a8	0.98732996
3	0x3f805fee	1.0029275
4	0x3f7cd65e	0.987646
5	0x3f81ec93	1.0150322
6	0x3f8117e9	1.0085422
7	0x3f7ee3aa	0.9956614
8	0x3f7e497c	0.9933088
9	0x3f8102c4	1.0078969
10	0x3f7c4e8c	0.98557353
11	0x3f80c3aa	1.0059712
12	0x3f7cb525	0.98713905
13	0x3f81e860	1.014904
14	0x3f7c5e9b	0.98581856
15	0x3f815e83	1.0106968
16	0x3f7c84f9	0.986404
17	0x3f81d8c0	1.0144272
18	0x3f7cd96f	0.9876928
19	0x3f7d2c52	0.9889575
20	0x3f7c5bf8	0.98577833
21	0x3f81afe9	1.0131809
22	0x3f7c7c02	0.9862672
23	0x3f7c6762	0.9859525
24	0x3f81eabe	1.0149763
25	0x3f7e7c78	0.99408674
26	0x3f814274	1.0098405
27	0x3f7c8d5d	0.98653203
28	0x3f7d0503	0.9883577
29	0x3f8079bf	1.0037154
30	0x3f81e041	1.0146562
31	0x3f816304	1.0108342
32	0x3f81e58c	1.0148177
33	0x3f7c7cc0	0.98627853
34	0x3f81d215	1.0142237
35	0x3f7c58da	0.98573077
36	0x3f81d5ed	1.014341
37	0x3f7c9470	0.98664
38	0x3f81bbb2	1.0135405
39	0x3f81a310	1.0127888
40	0x3f806ad0	1.0032597
41	0x3f7f3cfe	0.9970244
42	0x3f7e9804	0.9945071
43	0x3f8189d7	1.012019
44	0x3f7c773b	0.9861943
45	0x3f810d84	1.008225
46	0x3f7d09c9	0.98843056
47	0x3f815302	1.0103457
48	0x3f7ccdba	0.98751414
49	0x3f7f3985	0.9969714
50	0x3f81d645	1.0143515
51	0x3f7c9aa1	0.98673445
52	0x3f7fdc1b	0.9994523
53	0x3f7d0fcc	0.9885223
54	0x3f801e86	1.0009315
55	0x3f814790	1.0099964
56	0x3f7c6700	0.98594666
57	0x3f8102aa	1.0078938
58	0x3f7c6bdd	0.98602086
59	0x3f81dfea	1.0146458
60	0x3f7c329b	0.9851472
61	0x3f7e57f6	0.9935297
62	0x3f7e9837	0.9945101
63	0x3f8199d6	1.0125072

critic.2.bias f4 [64]
0	0x3be0d18a	0.0068609165
1	0x3c50afdc	0.012737241
2	0x3c494fc3	0.012287083
3	0xbc76ae22	-0.015056165
4	0xbc7076e8	-0.014676787
5	0xbc75e918	-0.015009187
6	0x3c503127	0.012707031
7	0x3ba37413	0.0049882024
8	0xbc725f05	-0.014793162
9	0xbc576616	-0.013146898
10	0x3c5277f0	0.012845978
11	0xbc6cc444	-0.01445109
12	0xbb755385	-0.0037433815
13	0x3c71e3b5	0.014763762
14	0x3c443cee	0.011977417
15	0xbb968d65	-0.0045944923
16	0x3c5fe324	0.013664994
17	0xbc7100de	-0.014709679
18	0x3c46911c	0.012119558
19	0x3c6949b9	0.014238768
20	0x3c72313b	0.014782245
21	0x3c7497f5	0.0149288075
22	0xbc686d1a	-0.014186168
23	0x3c772486	0.015084391
24	0xbc7620fc	-0.0150225125
25	0x3bc4ab3a	0.006001857
26	0xbc6e7d83	-0.0145562915
27	0xbc7372f9	-0.014858955
28	0xbc6d2c44	-0.014475886
29	0x3c5be6c7	0.013421721
30	0xbc7295c6	-0.014806217
31	0xbc4004b6	-0.011719873
32	0xbc777f05	-0.015105967
33	0xbc660e31	-0.014041469
34	0xbc710421	-0.014710457
35	0xbc116a93	-0.008875507
36	0xbc6b1d66	-0.014350271
37	0xbc5f786c	-0.013639551
38	0xbc327600	-0.010892391
39	0xbc33e683	-0.010980251
40	0xbc74dced	-0.014945251
41	0xbc713a00	-0.014723301
42	0x3c72bdd4	0.014815766
43	0x3c69690e	0.014246238
44	0xbc6a6e9e	-0.0143086
45	0x3c6922c5	0.014229481
46	0xbc76a1c2	-0.0150532145
47	0xbc47c95d	-0.012194005
48	0xbc68dca8	-0.014212765
49	0x3c697d5a	0.014251078
50	0xbc6b6d0d	-0.014369261
51	0xbc58f0c7	-0.013241
52	0x3c717892	0.014738219
53	0x3c3da2a9	0.011574426
54	0x3c50702b	0.012722055
55	0xbc72c23c	-0.014816817
56	0x3c5808d1	0.013185696
57	0xbc5c95de	-0.0134634655
58	0x3c584990	0.013201132
59	0x3c711148	0.014713593
60	0xbc501fe6	-0.012702918
61	0xbc6a05f3	-0.014283645
62	0x3c769f56	0.015052637
63	0x3c73d9bb	0.014883454

critic.3.weight f4 [64, 64]
0	0x3dfcbb57	0.1234042
1	0x3d847ad4	0.0646874
2	0x3d621d1c	0.055203542
3	0x3c38c036	0.011276295
4	0xbd38ce2f	-0.045118507
5	0x3d14c86f	0.03632396
6	0x3d96ff6c	0.073729366
7	0x3d008cd4	0.031384304
8	0x3cbc5424	0.02298934
9	0x3c8bdee6	0.01707406
10	0x3ce84c57	0.028356714
11	0xbd18f581	-0.037343506
12	0x3dcc03b8	0.09961647
13	0x3d25f659	0.04051814
14	0x3c50109f	0.012699275
15	0x3dab4384	0.08362487
16	0xbd61b268	-0.055101782
17	0xbd91052d	-0.07081065
18	0xbdb9cc49	-0.090721674
19	0xbdcd58d4	-0.10026708
20	0x3dca6758	0.098829925
21	0x3d8b6e53	0.06808152
22	0xbd248b73	-0.04017205
23	0xbe059c0a	-0.13047805
24	0x3e02242e	0.12709114
25	0x3d5f021f	0.054445382
26	0xbc94d937	-0.018169982
27	0x3d889e04	0.06670764
28	0xbc905b17	-0.01762156
29	0x3d5c6c99	0.053814504
30	0x3c6256ba	0.013814623
31	0xbd8e9fec	-0.069640964
32	0xbdb30f28	-0.08743125
33	0x3d6dd418	0.058063596
34	0x3d2de0ad	0.042450596
35	0x3dcfdf67	0.101500325
36	0xbd01e18a	-0.03170923
37	0x3dcdaf1d	0.10043166
38	0x3b50c499	0.0031855463
39	0xbd273bd6	-0.04082855
40	0xbd2a263c	-0.04154037
41	0x3d3a5f4e	0.045501046
42	0xbe0adbdd	-0.13560434
43	0x3db51468	0.08841783
44	0x3d89b0cf	0.06723177
45	0xbc81c127	-0.015839173
46	0xbbbcfed3	-0.005767682
47	0x3cb87476	0.02251647
48	0xbd87e8c2	-0.06636192
49	0xbd91dccc	-0.07122192
50	0x3d919e4b	0.0711027
51	0x3d28dafa	0.041224457
52	0xbdd5c252	-0.10437454
53	0x3d7077e9	0.058708105
54	0x3d85c4d5	0.06531683
55	0x3c781010	0.015140548
56	0xbc8b3bc5	-0.016996274
57	0xbd3bd2d5	-0.045855362
58	0x3d8add7d	0.06780527
59	0xbce78405	-0.028261194
60	0xbd5f7560	-0.054555297
61	0x3e026c56	0.1273664
62	0xbd4fb1b0	-0.050706565
63	0x3d8cad20	0.068689585
64	0xbd80898f	-0.06276237
65	0xbde6da88	-0.1127215
66	0x3de141ca	0.109988764
67	0xbcc741b6	-0.024323326
68	0xbd5c623e	-0.05380463
69	0x3d9af8ce	0.07566987
70	0xbca1fb81	-0.019773247
71	0x3d0736d3	0.03301127
72	0xbc5fc9ba	-0.013658935
73	0x3ddbc6a6	0.107312486
74	0x3cbcd98c	0.023052953
75	0xbde46446	-0.11151938
76	0x3dbd7a43	0.09251835
77	0x3ddf705c	0.10910103
78	0x3bc4bed2	0.006004193
79	0x3dac0757	0.083998375
80	0x3ddd5a9c	0.10808298
81	0xbd24d302	-0.040240295
82	0x3db72eff	0.08944511
83	0xbd8cf389	-0.06882388
84	0xbdac6f8b	-0.08419713
85	0xbc898a9c	-0.016789727
86	0x3c82b848	0.015957013
87	0x3d7245d2	0.059148617
88	0x3dc7b795	0.09751812
89	0x3db1011e	0.08642791
90	0xbc9c4b05	-0.01907874
91	0xbdf02a31	-0.11726797
92	0xbd92557e	-0.071452126
93	0xbd9fe902	-0.078081146
94	0xbdef9064	-0.11697462
95	0xbe061dba	-0.13097277
96	0x3d951641	0.07279635
97	0xbdd5df0e	-0.10442935
98	0x3cc81d04	0.024427898
99	0x3c12169c	0.008916523
100	0xbdd82db8	-0.10555595
101	0xbd9efc6b	-0.07762989
102	0xbdb55e32	-0.08855857
103	0x3d993beb	0.074821316
104	0x3de1ef80	0.11032009
105	0x3a04c2fe	0.00050644565
106	0x3ca9c6b3	0.02072463
107	0x3d9533aa	0.07285245
108	0x3d858f62	0.06521489
109	0x3d68dde6	0.056852244
110	0xbc821c4d	-0.015882635
111	0x3dc4a718	0.09602183
112	0x3d8aa48c	0.06769666
113	0x3d8c1b48	0.06841141
114	0xbc2dce3f	-0.010608255
115	0xbd296878	-0.041359395
116	0xbcf49ad7	-0.02985899
117	0x3d81f288	0.06345087
118	0xbdf3af79	-0.11898703
119	0x3caa36ba	0.020778049
120	0x3dd69663	0.10477903
121	0xbdb38f94	-0.0876762
122	0xbd465063	-0.048416506
123	0x3dc34d77	0.095362596
124	0x3d3925f2	0.045202203
125	0xbd9e4113	-0.07727256
126	0xbd0c026f	-0.03418201
127	0xbdee319e	-0.116305575
128	0x3d102869	0.035194788
129	0x3cd16262	0.025559608
130	0xbe06b785	-0.13155945
131	0x3da0cf63	0.07852056
132	0xbdccc662	-0.09998776
133	0x3cd29d59	0.025709795
134	0x3de09dd8	0.10967606
135	0x3d2e29f5	0.042520482
136	0xbc4827d0	-0.012216523
137	0x3ddc964c	0.10770854
138	0x3da0418a	0.078250006
139	0x3ca23b01	0.019803526
140	0xbdf06c76	-0.11739437
141	0xbc848776	-0.016177874
142	0xb7cc1840	-2.4329987e-05
143	0xbe02203c	-0.12707609
144	0x3dc16080	0.09442234
145	0xbe061e7e	-0.1309757
146	0x3d1faf6e	0.038985662
147	0x3e06e6e9	0.13174023
148	0xbd8e4b1e	-0.06947921
149	0x3e0c05f4	0.13674146
150	0xbcfc5425	-0.030801842
151	0x3d834e69	0.0641144
152	0xbd2240cd	-0.03961258
153	0xbd062161	-0.032746676
154	0xbe0ba37e	-0.13636586
155	0x3d60898b	0.05481867
156	0x3db0c5e7	0.08631497
157	0x3ae74674	0.0017644898
158	0x3d1690cc	0.036759183
159	0xbddca9e7	-0.10774594
160	0x3c1fc0d5	0.009750565
161	0x3bdc9b77	0.0067324
162	0xbbdba140	-0.006702572
163	0x3d706218	0.0586873
164	0xbcd5aba2	-0.026082817
165	0x3db5876d	0.08863721
166	0x3e01a40c	0.12660235
167	0xbc6a4a6c	-0.01429997
168	0xbd12e7c6	-0.035865568
169	0x3c179fff	0.009254455
170	0xbd6b6f89	-0.057479415
171	0x3c6447fe	0.01393318
172	0x3d9bc9fd	0.076068856
173	0x3dd9074d	0.10597096
174	0xbd95b96c	-0.07310757
175	0x3dd2cb73	0.10292711
176	0x3dbd200c	0.09234628
177	0x3d9b0409	0.07569129
178	0xbd1fdb6a	-0.03902761
179	0x3d0317a7	0.03200498
180	0x3dd20ddd	0.102565505
181	0x3d9bb28a	0.07602413
182	0x3d80b0b2	0.06283702
183	0x3d3dc058	0.04632601
184	0x3d316c2a	0.043316044
185	0x3d95fbf2	0.073234454
186	0x3daffa02	0.08592607
187	0x3d6d0e15	0.057874758
188	0xbc3fc940	-0.011705697
189	0x3d6b6e4a	0.057478227
190	0xbc833a4e	-0.016019013
191	0x3d573542	0.052541025
192	0x3cc62b55	0.024190584
193	0xbb279ec1	-0.0025576802
194	0x3ce10304	0.027467258
195	0xbcb062fb	-0.021531573
196	0x3ce15cd1	0.027510079
197	0xbddb68f0	-0.107133746
198	0x3d9ccd4d	0.076563455
199	0xbb9d95e5	-0.0048091286
200	0xbd11e1bd	-0.03561567
201	0x3d8fe92e	0.07026897
202	0xbd15554c	-0.0364583
203	0x3b0f192a	0.0021835067
204	0xbda73e43	-0.08166172
205	0xbd8777ae	-0.06614624
206	0x3dd39354	0.10330835
207	0xbd2165e3	-0.039403807
208	0xbd5a63ce	-0.053317837
209	0x3d035949	0.03206757
210	0xbdc1e131	-0.0946678
211	0xbd47b9c5	-0.048761148
212	0x3d2f8812	0.042854376
213	0xbd2342aa	-0.039858498
214	0xbd3cf85e	-0.0461353
215	0x3d0ff04a	0.035141267
216	0x3e09c70c	0.13454837
217	0x3da6e2dc	0.08148739
218	0xbcf3c287	-0.029755844
219	0xbdd62dac	-0.1045793
220	0x3d9d3e4c	0.07677898
221	0x3db4592a	0.08806069
222	0x3d6dbd67	0.058041956
223	0x3db2f19c	0.087374896
224	0x3c7fa44c	0.015603136
225	0x3d554989	0.05207208
226	0x3df47949	0.11937196
227	0xbd29b0c0	-0.041428328
228	0x3e0e6011	0.13903834
229	0xbd766123	-0.06015123
230	0xba11c8bf	-0.00055612245
231	0x3d2b1554	0.041768387
232	0x3d7c1326	0.0615417
233	0xbd75fb56	-0.060054146
234	0xbdf32658	-0.11872548
235	0x3cd274d2	0.02569047
236	0xbe01b0f4	-0.12665159
237	0x3da1fc6c	0.07909474
238	0xbd59c8f6	-0.053170167
239	0xbd979034	-0.074005514
240	0x3cbcb46f	0.023035256
241	0xbd9e0cf2	-0.07717313
242	0x3c6415c5	0.013921206
243	0xbdf1ac0a	-0.11800392
244	0xbdb40027	-0.087890916
245	0x3d88758f	0.066630475
246	0x3cb579cd	0.022152806
247	0x3d19ae76	0.037519895
248	0xbd9cffb7	-0.07665961
249	0x3d9b9bc2	0.07598068
250	0xbd8841ba	-0.06653161
251	0xbddc00cc	-0.107423395
252	0xbd8e4a58	-0.06947774
253	0x3d98f66e	0.07468878
254	0xbde100b6	-0.10986464
255	0xbdf7db57	-0.12102383

critic.3.bias f4 [64]
0	0x3d498455	0.049198467
1	0x3c41d79b	0.0118311895
2	0xbb05dc06	-0.0020425334
3	0x3c311fdf	0.010810821
4	0xbdb27ce8	-0.0871523
5	0xbde2f21d	-0.11081336
6	0x3de591d8	0.11209458
7	0xbcd98bde	-0.026555952
8	0x3ad90516	0.0016557302
9	0xbd5285f9	-0.051397298
10	0xbdd8615a	-0.10565443
11	0xbe04c4af	-0.12965654
12	0x3da932f7	0.08261674
13	0xbdd91cde	-0.10601209
14	0xbdfdb92e	-0.12388836
15	0x3dca91ad	0.09891067
16	0x3da42d57	0.080164604
17	0x3ddb5735	0.10709993
18	0x3cd0949b	0.025461486
19	0x3d90329a	0.070409015
20	0xbc5f20d8	-0.01361867
21	0x3cb73e28	0.022368506
22	0xbdcbc2d0	-0.09949267
23	0xbd4cf4ce	-0.05003815
24	0xb92f2d0e	-0.00016706085
25	0x3c0d7c6c	0.0086356215
26	0x3dc0fa4e	0.09422742
27	0x3df3c898	0.119034946
28	0xbc64d1ba	-0.013966018
29	0xbc92c905	-0.01791812
30	0xbd2115b0	-0.039327323
31	0xbc7cc08c	-0.015426766
32	0x3e0a485c	0.13504165
33	0x3cd6dcb7	0.026228292
34	0x3ca447ce	0.02005377
35	0xbdbf866c	-0.09351811
36	0xbdb5994e	-0.08867131
37	0xbda80e21	-0.0820582
38	0x3d30ab8a	0.043132342
39	0x3da63a6a	0.0811661
40	0x3c96ddf3	0.01841638
41	0xbddc56ea	-0.10758765
42	0x3d69454f	0.056950863
43	0x3cc890fe	0.0244832
44	0xbd8a0f62	-0.06741215
45	0x3d86f4f2	0.06589688
46	0x3d61f32a	0.05516354
47	0xbdbac4a0	-0.091195345
48	0x3e093ac4	0.13401324
49	0x3d83c1f1	0.06433476
50	0x3d33dc9d	0.043911565
51	0xbdab4b51	-0.08363975
52	0x3d064469	0.032780085
53	0xbca2b70e	-0.019862678
54	0xbdf5887d	-0.11988924
55	0x3cebd475	0.02878783
56	0xbe0c2829	-0.13687195
57	0x3d9f6eb5	0.077847876
58	0xbd9326c3	-0.071851276
59	0x3df13121	0.11776949
60	0x3aeb5508	0.0017954418
61	0xbdb17fe5	-0.08666972
62	0x3d3e60a0	0.046478868
63	0x3b624610	0.0034526624

critic.5.weight f4 [64]
0	0x3f7d2f01	0.9889985
1	0x3f7c9834	0.98669744
2	0x3f805d3b	1.0028452
3	0x3f7dd401	0.9915162
4	0x3f81ef2a	1.0151112
5	0x3f81edb6	1.0150669
6	0x3f81e3dc	1.0147662
7	0x3f7ec12d	0.9951351
8	0x3f81e47a	1.014785
9	0x3f7dadb4	0.99093175
10	0x3f81eec3	1.0150989
11	0x3f81eac6	1.0149772
12	0x3f7ff819	0.9998794
13	0x3f7fc034	0.99902654
14	0x3f80cb0b	1.0061964
15	0x3f7eff68	0.9960847
16	0x3f81e894	1.0149102
17	0x3f7e5560	0.9934902
18	0x3f81eae7	1.0149812
19	0x3f7e6032	0.9936553
20	0x3f81ea01	1.0149537
21	0x3f81e2bb	1.0147318
22	0x3f800ef7	1.0004567
23	0x3f7d3990	0.9891596
24	0x3f81ec2a	1.0150197
25	0x3f80f61c	1.0075107
26	0x3f7efd25	0.9960502
27	0x3f8187a0	1.0119514
28	0x3f7fd89a	0.9993988
29	0x3f7c7dfc	0.98629737
30	0x3f7d9bf0	0.99066067
31	0x3f7d9168	0.9905
32	0x3f7ca6ae	0.98691833
33	0x3f803782	1.001694
34	0x3f7cc12b	0.9873225
35	0x3f8134ef	1.0094279
36	0x3f7cfa40	0.9881935
37	0x3f7f221c	0.9966142
38	0x3f7cbb58	0.98723364
39	0x3f81e411	1.0147725
40	0x3f81ea22	1.0149577
41	0x3f81e905	1.0149237
42	0x3f7cc1c9	0.9873319
43	0x3f802ebb	1.0014261
44	0x3f81c9f0	1.0139751
45	0x3f81e7f1	1.0148908
46	0x3f7f2b83	0.9967577
47	0x3f7cc728	0.9874139
48	0x3f7e43f4	0.9932244
49	0x3f81f038	1.0151434
50	0x3f7eb2de	0.9949168
51	0x3f7dff84	0.9921801
52	0x3f81e756	1.0148723
53	0x3f7f3a1f	0.9969806
54	0x3f809eea	1.0048497
55	0x3f81efdc	1.0151324
56	0x3f81eecf	1.0151004
57	0x3f817dcf	1.0116519
58	0x3f81b748	1.0134058
59	0x3f7cbf0e	0.98729026
60	0x3f7c894e	0.9864701
61	0x3f7c4f38	0.9855838
62	0x3f81ef98	1.0151243
63	0x3f81eb14	1.0149865

critic.5.bias f4 [64]
0	0xbc6d12b5	-0.014469792
1	0x3c6db706	0.014508968
2	0x3c7098be	0.014684854
3	0xbc6cf9f4	-0.01446389
4	0xbc78a4a8	-0.015175976
5	0xbc7287d8	-0.0148028955
6	0x3c77c022	0.015121492
7	0x3c6e497c	0.014543887
8	0x3c72c1b8	0.014816694
9	0x3c6f137d	0.014592049
10	0xbc7684e2	-0.01504633
11	0xbc72c3c4	-0.014817182
12	0xbc701ba4	-0.014655028
13	0xbc7015cc	-0.014653634
14	0xbc73aa00	-0.014872074
15	0xbc6feaf6	-0.014643421
16	0x3c72846c	0.01480208
17	0xbc6fa4f0	-0.0146267265
18	0xbc72f088	-0.014827855
19	0xbc6f6eb2	-0.014613794
20	0xbc71fd39	-0.014769846
21	0xbc74430d	-0.014908564
22	0x3c6fdc80	0.014639974
23	0x3c6f4e86	0.014606124
24	0xbc726f68	-0.014797069
25	0x3be3d966	0.006953406
26	0xbbbe6546	-0.0058104126
27	0x3c71cf86	0.01475895
28	0x3c6ff86c	0.014646631
29	0x3c6f0bd4	0.014590222
30	0x3c66dc96	0.014090678
31	0x3c6f5edc	0.014610019
32	0x3c6eda4a	0.014578411
33	0xbc7049ca	-0.01466603
34	0x3c6b8504	0.014374975
35	0xbc7167ca	-0.014734218
36	0x3c6f443c	0.014603671
37	0x3c7013e7	0.014653183
38	0xbc6e9dda	-0.014564002
39	0x3c728792	0.01480283
40	0x3c78b382	0.015179517
41	0xbc72b1d1	-0.014812903
42	0xbc6ca82e	-0.014444394
43	0xbc7081e4	-0.014679406
44	0xbc73b34f	-0.0148742935
45	0x3c72349a	0.014783049
46	0x3c7347e2	0.014848681
47	0xbc67b003	-0.014141086
48	0x3c6f26d0	0.014596656
49	0x3c72e963	0.014826152
50	0x3c6fcaaa	0.014635721
51	0xbc6f18fa	-0.014593357
52	0xbc720a8d	-0.014773023
53	0xbc6d7797	-0.0144938445
54	0xbb9e54b9	-0.004831877
55	0xbc72f70c	-0.014829408
56	0xbc724f04	-0.014789347
57	0x3c729986	0.014807111
58	0xbc73ff57	-0.014892421
59	0x3c6e854a	0.014558146
60	0x3c6f5368	0.014607288
61	0x3c6ed4a4	0.014577065
62	0x3c727a5b	0.01479968
63	0xbc73cae9	-0.0148799205

critic.6.weight f4 [1, 64]
0	0x3d12e1a6	0.035859726
1	0xbd42c999	-0.04755554
2	0xbdf60da4	-0.120143205
3	0x3d17428b	0.036928695
4	0x3cacbf1a	0.021087218
5	0x3dc8525c	0.09781334
6	0xbcce0eed	-0.025153602
7	0xbd41849a	-0.0472456
8	0xbc80376b	-0.015651425
9	0xbd9da4b1	-0.07697428
10	0x3d007ae0	0.031367183
11	0x3db07899	0.08616752
12	0x3d84d42b	0.0648578
13	0x3deb43e6	0.1148756
14	0x3c6250ae	0.013813181
15	0x3de785b0	0.11304796
16	0xbdc75eba	-0.097348645
17	0x3dbbee1a	0.09176274
18	0x3da33ddc	0.07970783
19	0x3db92e23	0.09042003
20	0x3e0d80fe	0.13818738
21	0x3d4b2702	0.049597748
22	0xbd8cb7c5	-0.06870989
23	0xbdce59eb	-0.10075744
24	0x3dd2ed27	0.102991395
25	0xbc590792	-0.013246434
26	0x3baa7b4d	0.005202687
27	0xbdfbfd73	-0.12304201
28	0xbdc20279	-0.09473128
29	0xbdb5b08a	-0.08871563
30	0xbc0acf60	-0.008472294
31	0xbdc54264	-0.09631804
32	0xbd975010	-0.073883176
33	0x3d9e2fcf	0.077239625
34	0xbcc54a2a	-0.024083216
35	0x3e0404c6	0.12892446
36	0xbdcc23cf	-0.099677674
37	0xbdf61dea	-0.120174244
38	0x3d83c249	0.06433541
39	0xbdc4c524	-0.09607914
40	0xbca02c80	-0.01955247
41	0x3db61258	0.088902175
42	0x3d0949f7	0.033517804
43	0x3de9ade6	0.114101216
44	0x3d60534e	0.054766946
45	0xbdef9ce7	-0.116998486
46	0xbb6a7819	-0.003577715
47	0x3c4dae7f	0.01255381
48	0xbd6657c2	-0.056236036
49	0xbda6a8f6	-0.081376955
50	0xbde77873	-0.11302271
51	0x3daa54c7	0.08316951
52	0x3e076f26	0.13225994
53	0x3d08f6b6	0.033438407
54	0x3c4c5cda	0.012473309
55	0x3da2bfbd	0.079467274
56	0x3de3b433	0.11118355
57	0xbd8dbb8f	-0.069205396
58	0x3d4496b4	0.047995284
59	0xbd8473b4	-0.06467381
60	0xbddacded	-0.106838085
61	0xbda2aa6a	-0.0794266
62	0xbdce8b03	-0.10085108
63	0x3d6db5e2	0.058034785
