weights/2024-06-27_12-46-27/critic.pt (torch, 22250 bytes, 9 tensors)

critic.0.weight f4 [64, 3]
0	0xbf1569d3	-0.583646
1	0x3d8e4d51	0.06948341
2	0xbe365379	-0.1780528
3	0x3e42c84b	0.19021718
4	0x3f11d188	0.56960344
5	0x3e490e8a	0.19634452
6	0x3e96162b	0.29313788
7	0xbf0e2268	-0.5552125
8	0xbeb806dc	-0.35942733
9	0x3f078670	0.5293951
10	0x3e8a187d	0.26971808
11	0xbe14e58c	-0.1454069
12	0x3ebc362d	0.36760083
13	0x3ea60824	0.32428086
14	0xbd9f9d42	-0.077936664
15	0x3ed70411	0.4199529
16	0x3e9df54d	0.30851212
17	0xbf005e51	-0.50143915
18	0x3ebd95bc	0.370283
19	0xbe91ad46	-0.2845251
20	0x3e472bd1	0.19450308
21	0xbdef5b19	-0.116872974
22	0xbf31e42f	-0.69488806
23	0xbe8f1c2a	-0.27951175
24	0x3e0d45d5	0.1379617
25	0x3e35e222	0.17762044
26	0x3e7f418a	0.24927345
27	0xbdfec6c0	-0.12440252
28	0x3d39a7f3	0.045326184
29	0x3f0b624d	0.5444687
30	0x3d6fa035	0.058502395
31	0x3e007a4f	0.12546657
32	0xbf0b6299	-0.54447323
33	0xbefb02d5	-0.49025598
34	0x3ea980cb	0.33106074
35	0x3e7bcec9	0.24590601
36	0x3e2bd4f2	0.16780451
37	0xbd6d6462	-0.05795706
38	0x3df3d59a	0.11905976
39	0xbc961921	-0.01832253
40	0xbe43e1ac	-0.19129056
41	0x3eba6e5e	0.36412328
42	0x3ed585fc	0.41703784
43	0x3ef70149	0.48243168
44	0xbe22cce8	-0.15898478
45	0xbee25a81	-0.44209674
46	0x3eff3a43	0.49849138
47	0xbeeb83f8	-0.45999122
48	0xbdea6355	-0.11444727
49	0xbe3f7e7e	-0.18700597
50	0x3ef0666b	0.4695314
51	0xbe01e6d3	-0.12685709
52	0xbb495a6b	-0.003072406
53	0x3e801862	0.25018603
54	0xbf0b9e31	-0.54538256
55	0xbe1f6dd4	-0.1556924
56	0x3ee2d820	0.44305515
57	0x3ebe058b	0.37113604
58	0x3ec9d9ae	0.3942389
59	0xbe9e6aad	-0.30940762
60	0x3edf81ce	0.4365372
61	0xbe98d3e9	-0.29849175
62	0x3e162997	0.14664303
63	0x3e87c495	0.26517168
64	0xbc62a592	-0.01383342
65	0x3ed384de	0.41312307
66	0x3f0dba66	0.55362546
67	0xbe294eee	-0.16534016
68	0x3dd1beb0	0.10241449
69	0x3d262181	0.040559296
70	0xbe99b8ee	-0.30023903
71	0xbd86f92d	-0.06590495
72	0xbf073177	-0.5280985
73	0x3e31d432	0.17366102
74	0x3e96dbe4	0.29464638
75	0xbe7148fc	-0.23562998
76	0xbd1e4ec0	-0.03864932
77	0xbeac52e5	-0.33656994
78	0x3e688c42	0.22709754
79	0x3eab627b	0.33473572
80	0xbeec9204	-0.4620515
81	0x3decd3e7	0.11563855
82	0x3e68b667	0.22725831
83	0x3eeaab69	0.458339
84	0x3ee18e12	0.44053704
85	0xbe232b63	-0.1593452
86	0xbece0971	-0.40241578
87	0x3ec4a10b	0.38404116
88	0x3ee5e913	0.44904384
89	0x3dc89cb6	0.09795515
90	0xbe7e4e6f	-0.24834608
91	0x3ebd62cc	0.3698944
92	0x3e8340fd	0.2563552
93	0x3e4294ef	0.19002126
94	0xbf0d103f	-0.55102915
95	0x3e8e7335	0.2782227
96	0x3e948b39	0.29012468
97	0xbec9ba39	-0.3939989
98	0x3e841a42	0.25801283
99	0x3e81ef5f	0.25377938
100	0xbf081982	-0.5316392
101	0xbf18db37	-0.59709495
102	0xbd64c921	-0.055855874
103	0x3e9faae4	0.31185067
104	0x3e8c3ff0	0.2739253
105	0xbe78b449	-0.24287523
106	0x3dd84f7a	0.10562034
107	0xbec89b44	-0.39180958
108	0xbf083c6b	-0.5321719
109	0xbed9c68c	-0.42534292
110	0xbeb44b86	-0.3521387
111	0x3dbd4850	0.09242308
112	0xbdeea326	-0.11652212
113	0x3bdb50a3	0.0066929623
114	0x3e5121ba	0.20423022
115	0xbef663f1	-0.48123124
116	0x3e97cb6b	0.29647383
117	0x3ee9d248	0.45668244
118	0x3d954489	0.07288463
119	0x3dd08187	0.101809554
120	0xbef30471	-0.47464326
121	0xbe75e6b1	-0.24013783
122	0x3e20838c	0.15675181
123	0xbeed60f1	-0.46363023
124	0xbee8aba4	-0.4544345
125	0x3e7a30db	0.244327
126	0x3ea9edd6	0.33189267
127	0x3d774814	0.060371473
128	0x3e5517a5	0.20809801
129	0x3ce1dcc3	0.027571088
130	0x3ee2889a	0.44244844
131	0x3e0e6f07	0.13909541
132	0xbe80678a	-0.25078994
133	0x3eef08a7	0.4668629
134	0xbdd424e0	-0.10358596
135	0xbeac0cd6	-0.33603543
136	0x3d9ec29d	0.07751963
137	0x3ed8d5ba	0.4235056
138	0xbf038e2d	-0.5138882
139	0xbe92cbdf	-0.28671166
140	0xbefec473	-0.49759254
141	0x3e1d973a	0.1538972
142	0x3e8fd0fa	0.28089124
143	0x3e9704c1	0.29495814
144	0xbed3260c	-0.41239965
145	0xbd9e1bbf	-0.07720136
146	0x3e22d1e7	0.15900384
147	0xbe51177a	-0.20419112
148	0x3f095f3a	0.5366093
149	0x3e00983f	0.12558077
150	0x3ee22954	0.44172156
151	0xbcd72680	-0.026263475
152	0xbe9c205a	-0.30493432
153	0x3e8baabf	0.27278706
154	0x3e8ce757	0.27520248
155	0xbdf42a09	-0.1192208
156	0xbea256e0	-0.31706905
157	0x3ee8929b	0.4542435
158	0xbf09652a	-0.5366999
159	0x3d933370	0.07187545
160	0x3e06202f	0.13098215
161	0xbf095c3f	-0.5365638
162	0x3ea9275e	0.33037847
163	0x3e5f156e	0.21785519
164	0xbe42b30e	-0.19013616
165	0x3eb58880	0.35455704
166	0x3e1e323a	0.15448847
167	0x3e03da6a	0.12876287
168	0xbeb9a7f9	-0.36260965
169	0x3e9b830e	0.30373424
170	0x3db1498f	0.08656608
171	0xbef4db35	-0.47823492
172	0x3d9b3f18	0.075803936
173	0x3e55e448	0.20887864
174	0x3d4f1e76	0.05056616
175	0xbf3430a1	-0.703867
176	0xbef62be1	-0.48080352
177	0x3eac5cae	0.3366446
178	0x3ec10c9e	0.3770494
179	0x3ef2dd59	0.474345
180	0xbea58087	-0.3232462
181	0x3e8ef0c0	0.27918053
182	0xbebc9916	-0.36835545
183	0xbe031202	-0.12799838
184	0x3d828a74	0.06374064
185	0x3cae3e70	0.021270007
186	0xbe3fe25e	-0.18738696
187	0x3eeade04	0.4587251
188	0xbf17d293	-0.59305686
189	0x3e4cf8d0	0.2001679
190	0xbe6283af	-0.22120546
191	0x3d17b6bf	0.037039515

critic.0.bias f4 [64]
0	0x3ec75d4a	0.3893836
1	0xbe29a089	-0.16565146
2	0x3ee3a7a5	0.4446384
3	0xbecdc485	-0.40188995
4	0xbe2edcb8	-0.17076385
5	0xbe9c4fb0	-0.30529547
6	0x3ef07477	0.46963856
7	0x3e29b682	0.16573527
8	0x3d20ae3d	0.039228667
9	0xbe7fa347	-0.24964629
10	0x3d9bae0d	0.07601557
11	0xbde766f7	-0.11298936
12	0x3d83339e	0.064063296
13	0xbb9cba23	-0.0047829314
14	0x3ddfd14f	0.10928594
15	0x3ca41d66	0.02003355
16	0xbe8b52bd	-0.27211562
17	0xbdd799a3	-0.10527351
18	0x3f0a135a	0.5393578
19	0x3ef509b8	0.47858977
20	0xbe3088d6	-0.17239699
21	0xbe8739b6	-0.26411217
22	0xbefadd35	-0.48996893
23	0xbf0c9bdb	-0.54925317
24	0x3f0a8b80	0.5411911
25	0xbeff0445	-0.49807945
26	0x3e96bc7d	0.2944068
27	0xbe05cc35	-0.1306618
28	0xbdc0ce89	-0.094143935
29	0xbf1130e8	-0.5671525
30	0x3ee36d60	0.44419384
31	0xbe2765df	-0.16347454
32	0xbd433a77	-0.04766318
33	0x3e23aff9	0.15985097
34	0xbe8e63bb	-0.27810463
35	0xbdc03682	-0.093853965
36	0x3f080075	0.531257
37	0x3da04a36	0.078266546
38	0x3e8d7b3a	0.27633077
39	0x3cd95b64	0.026532836
40	0x3ec74e65	0.38926998
41	0xbf1d97d3	-0.6155979
42	0xbeb47927	-0.35248682
43	0x3ee397be	0.44451708
44	0xbeae3cc6	-0.3403074
45	0x3eacc636	0.33744973
46	0x3de4c54f	0.11170446
47	0x3c867c43	0.016416674
48	0x3ea69680	0.32536697
49	0x3e41b55e	0.18916842
50	0xbf043c34	-0.5165436
51	0xbdc4a206	-0.09601216
52	0x3e9806c2	0.29692656
53	0xbf054ec1	-0.52073294
54	0xbeb59068	-0.35461736
55	0xbd9d6801	-0.07685853
56	0xbec39e13	-0.3820654
57	0x3ef839dc	0.48481643
58	0xbdaa4305	-0.08313564
59	0x3ee8f501	0.45499423
60	0xbf0a7581	-0.54085547
61	0xbec3e8aa	-0.38263446
62	0xbefd7192	-0.4950071
63	0x3da24382	0.07923032

critic.2.weight f4 [64]
0	0x3f7cf49c	0.98810744
1	0x3f84cdf6	1.0375354
2	0x3f6ed0db	0.9328744
3	0x3f8767a9	1.057851
4	0x3f81c04d	1.013681
5	0x3f7c5c33	0.98578185
6	0x3f5f5d73	0.8725197
7	0x3f84cb4a	1.0374539
8	0x3f7969c2	0.97427
9	0x3f7b93e3	0.9827253
10	0x3f7c4adc	0.98551726
11	0x3f6dd0b1	0.9289656
12	0x3f81b231	1.0132505
13	0x3f7670c5	0.9626582
14	0x3f6e0748	0.9297986
15	0x3f7136c1	0.9422417
16	0x3f69e633	0.9136688
17	0x3f71835d	0.9434107
18	0x3f8796e3	1.0592922
19	0x3f5c3852	0.8602344
20	0x3f888392	1.0665152
21	0x3f717fae	0.9433545
22	0x3f840bfc	1.0316157
23	0x3f845c68	1.03407
24	0x3f83561d	1.0260655
25	0x3f73cf74	0.95238423
26	0x3f77bec6	0.9677547
27	0x3f7a7d50	0.9784746
28	0x3f735df8	0.9506526
29	0x3f84355e	1.0328786
30	0x3f83bff7	1.0292958
31	0x3f6c6ea3	0.9235632
32	0x3f832d54	1.0248208
33	0x3f74209d	0.95362264
34	0x3f6db64e	0.928563
35	0x3f76633a	0.9624516
36	0x3f840f67	1.03172
37	0x3f883ab4	1.0642915
38	0x3f717081	0.9431229
39	0x3f7497c0	0.9554405
40	0x3f7744f6	0.965896
41	0x3f7ccf86	0.98754156
42	0x3f82e5a5	1.0226332
43	0x3f72970b	0.94761723
44	0x3f88b292	1.0679495
45	0x3f845448	1.0338221
46	0x3f7b5948	0.9818311
47	0x3f798879	0.97473866
48	0x3f7b957a	0.9827496
49	0x3f8a5a10	1.0808735
50	0x3f7cf33e	0.9880866
51	0x3f86c67a	1.052932
52	0x3f829a23	1.0203289
53	0x3f6d40a2	0.92676747
54	0x3f861e12	1.0477927
55	0x3f89c735	1.0763918
56	0x3f81985c	1.0124621
57	0x3f86a451	1.0518895
58	0x3f81a7da	1.0129349
59	0x3f7de72d	0.9918087
60	0x3f7d2b0d	0.98893815
61	0x3f8888de	1.0666769
62	0x3f77e6cc	0.96836543
63	0x3f87b6bc	1.0602641

critic.2.bias f4 [64]
0	0x3d5994fd	0.053120602
1	0xbd5ed039	-0.054397795
2	0x3ca41c81	0.020033123
3	0xbd06841d	-0.032840837
4	0xbb0476ac	-0.0020212336
5	0x3c45d9d9	0.012075865
6	0xbbc505aa	-0.006012638
7	0x3c96b492	0.01839665
8	0xbc3c22ac	-0.011482876
9	0x3d00568e	0.031332545
10	0x3c3fa1dc	0.011696305
11	0x3ceacdc7	0.028662575
12	0xbaba5977	-0.0014217336
13	0x39738b85	0.00023226261
14	0x3b99cec1	0.0046938364
15	0x3d881eec	0.06646523
16	0xbd31ab40	-0.043376207
17	0x3ccee794	0.02525691
18	0x3d652aad	0.055948902
19	0x3d27386e	0.0408253
20	0xbd2d3b08	-0.042292625
21	0xbcc7df9b	-0.024398616
22	0xbce9ec04	-0.028554924
23	0xbd17f8cf	-0.037102517
24	0x3d545521	0.051838998
25	0x3c5f5927	0.013632095
26	0xbce10717	-0.027469201
27	0x3d37884b	0.044807713
28	0xbb83f7ff	-0.004027366
29	0xbd12d4c3	-0.035847437
30	0x3d7ea1f0	0.062166154
31	0x3c1cb1b8	0.009563856
32	0xbd74d242	-0.05977083
33	0x3d61dad9	0.05514035
34	0xbcbf7c5e	-0.023374733
35	0xbc6c9ba2	-0.014441403
36	0x3d3b207a	0.04568527
37	0xbd5511e8	-0.05201903
38	0xbc1e145e	-0.009648411
39	0xbc9b293e	-0.018940564
40	0xbc57adc6	-0.013163989
41	0xbdb4a6f4	-0.08820906
42	0xbd37ef23	-0.044905793
43	0xbc02f69e	-0.007993368
44	0xbd81744c	-0.0632101
45	0x3d262cd2	0.040570088
46	0x3d2f603b	0.042816382
47	0x3d131477	0.03590819
48	0xbc83887b	-0.01605629
49	0xbc3c3612	-0.011487501
50	0xbc7f3552	-0.015576677
51	0xbd43213d	-0.04763912
52	0x3d5367c0	0.051612616
53	0x3c56c194	0.013107676
54	0xbd23282b	-0.03983323
55	0xbd56f227	-0.05247703
56	0xbd29ea70	-0.041483343
57	0x3d305759	0.04305205
58	0x3cf7800b	0.030212423
59	0x3d4a5e22	0.04940618
60	0xbd4f4e44	-0.05061175
61	0xbd81f70b	-0.06345948
62	0x3cb8d17c	0.022560827
63	0xbd423861	-0.04741705

critic.3.weight f4 [64, 64]
0	0xbde64cb7	-0.11245101
1	0xbe03af3f	-0.1285982
2	0x3d60a2ea	0.054842867
3	0xbd12c5e9	-0.035833273
4	0x3e290c19	0.16508521
5	0x3dccf3c7	0.10007434
6	0x3ce7b8c5	0.028286347
7	0xbe189e1a	-0.14904061
8	0xbc6fd707	-0.014638669
9	0x3d0d3893	0.03447778
10	0xbc3e5a2c	-0.011618178
11	0x3d30b414	0.043140486
12	0xbdf6e176	-0.12054722
13	0xbe1b0395	-0.15138085
14	0xbb678dd2	-0.0035332334
15	0x3bc2aeb2	0.0059412355
16	0x3dc2f452	0.09519257
17	0xbdaedd44	-0.08538297
18	0x3c1a6a22	0.009424718
19	0xbd4ee262	-0.050508864
20	0xbbaa1bb9	-0.005191293
21	0x3d0732bb	0.033007365
22	0x3d9ea548	0.07746369
23	0xbd9ad9c3	-0.07561066
24	0xbbdda5dd	-0.006764157
25	0xbdec05d1	-0.11524547
26	0x3d84bbb4	0.06481114
27	0xbccf1edb	-0.025283268
28	0xbce0b40e	-0.027429607
29	0xbdc94a0b	-0.09828576
30	0xbe146622	-0.14492086
31	0xbd9214c2	-0.071328655
32	0xbd960613	-0.07325377
33	0xbd7a7876	-0.061150037
34	0xbdfe0b0c	-0.12404451
35	0xbd98d4ac	-0.07462439
36	0x3d1379e8	0.03600493
37	0x3d902177	0.07037633
38	0xbddbd4d7	-0.10733955
39	0x3e0cea2c	0.13761204
40	0xbcaad667	-0.020854188
41	0x3d1f060e	0.038824134
42	0xbdbfc934	-0.09364548
43	0x3df76a95	0.12080876
44	0xbdc38901	-0.09547616
45	0xbcf62930	-0.030048937
46	0x3d4a5dcc	0.049405858
47	0xbb6afa54	-0.0035854774
48	0xbd32fbaf	-0.043697055
49	0x3c9ed477	0.01938842
50	0xbcd78163	-0.026306814
51	0xbd9000f5	-0.070314325
52	0xbc068237	-0.008209757
53	0x3d105354	0.035235718
54	0x3db05542	0.08610012
55	0x3e03656b	0.12831657
56	0xbc8418a2	-0.016125027
57	0xbcd4f0fb	-0.025993815
58	0xbc198fe2	-0.009372683
59	0xbe101d2e	-0.14073631
60	0x3d53fa6f	0.051752504
61	0xbdb55c5f	-0.08855509
62	0xbda810e6	-0.08206348
63	0x3c8e7db2	0.01739392
64	0x3ad54d72	0.0016273691
65	0x3dbf6206	0.09344868
66	0xbd4825a0	-0.048864007
67	0xbe0afdb4	-0.13573343
68	0xbd8d3acc	-0.0689598
69	0xbd7d4c8a	-0.06184057
70	0xbd6211f2	-0.055192895
71	0x3e359057	0.17730843
72	0xbde8d8cb	-0.11369475
73	0x3b0b31b1	0.0021239335
74	0x3d0c65ce	0.034276776
75	0x3c519594	0.01279201
76	0x3d81f50a	0.063455656
77	0xbd9d563e	-0.07682465
78	0x3d6953be	0.05696463
79	0x3e0d3806	0.13790902
80	0x3d3ff6bf	0.046866175
81	0x3d3ab3bd	0.045581568
82	0x3daabfa7	0.08337336
83	0x3ddad135	0.10684434
84	0xbda9a03e	-0.08282517
85	0x3db5f6e0	0.08884978
86	0xbe04c043	-0.12963967
87	0xbe189d5c	-0.14903778
88	0x3e1033ac	0.14082211
89	0x3dae3ce0	0.08507705
90	0x3d125cc0	0.035732985
91	0x3d50f789	0.051017318
92	0xbd8a228c	-0.067448705
93	0x3d3337d6	0.04375442
94	0x3dec6e28	0.11544448
95	0xbdb5d81f	-0.088791125
96	0x3d87d6e6	0.066327855
97	0x3c271c6b	0.010199646
98	0x3d09e286	0.033663295
99	0xbda586d8	-0.0808236
100	0x3d90e136	0.070742056
101	0xbc2e797b	-0.01064908
102	0x3cf6629b	0.030076316
103	0xba83a272	-0.0010042919
104	0x3d249d90	0.040189326
105	0xbc354cd6	-0.011065682
106	0xbcefa6c7	-0.02925433
107	0xbc889195	-0.016670981
108	0x3b9da6a0	0.004811123
109	0x3da8ac01	0.08235932
110	0x3d8469ec	0.064655155
111	0x3d2d5e17	0.04232606
112	0x3e00106a	0.12506261
113	0x3d9032a4	0.07040909
114	0xbb0133f8	-0.0019714814
115	0xbd89539d	-0.06705401
116	0x3d1c6920	0.038186193
117	0x3caff231	0.02147779
118	0xbb85c0ee	-0.004081837
119	0xbc68ee6e	-0.014217002
120	0x3d619600	0.05507469
121	0xbd08e455	-0.03342088
122	0x3e0709e7	0.13187371
123	0xbc92946e	-0.017893042
124	0x3dbfdeec	0.09368691
125	0xbdbdc426	-0.09265928
126	0xbdb2a8c5	-0.087235965
127	0x3da571eb	0.08078369
128	0x3dc83083	0.09774878
129	0x3d8940ae	0.0670179
130	0x3ccce4b5	0.0250114
131	0x3c0a75fc	0.008450981
132	0xbce14171	-0.027497025
133	0xbd061f28	-0.032744557
134	0xbadd2658	-0.0016872389
135	0x3dc9751b	0.09836789
136	0x3d914478	0.070931375
137	0xbba520c4	-0.0050393064
138	0x3e0515c3	0.12996583
139	0xbd03e988	-0.032205135
140	0xbca747de	-0.020420011
141	0xbd9bdcca	-0.076104715
142	0x3dd820ce	0.10553132
143	0x3e0bb27a	0.13642302
144	0xbcef3707	-0.029201044
145	0x3baa4bee	0.00519704
146	0x3df057d3	0.11735501
147	0x3e07c3ad	0.13258238
148	0xbd29af83	-0.041427147
149	0x3da8d493	0.0824367
150	0xbd7b30ff	-0.061326023
151	0xbc9f60c1	-0.019455316
152	0x3e37a2c1	0.1793318
153	0x3c8f842f	0.017519085
154	0xbd8cb10e	-0.06869708
155	0x3e12eb28	0.14347517
156	0xbd210beb	-0.039318006
157	0xbc8c001e	-0.0170899
158	0x3d2610de	0.04054343
159	0xbd9ff834	-0.07811013
160	0xbc2e4322	-0.010636123
161	0xbd89baf5	-0.06725112
162	0x3d9f02b0	0.077641845
163	0xbd69fba9	-0.057124767
164	0xbb7690a7	-0.003762284
165	0xbdda3074	-0.10653773
166	0x3d19f01f	0.037582513
167	0xbdcd0f81	-0.10012723
168	0xbd707c94	-0.058712557
169	0xbd4a2380	-0.04935026
170	0xbe0ff222	-0.1405721
171	0xbca02c45	-0.01955236
172	0xbd01af03	-0.031661045
173	0x3afb2da0	0.0019163378
174	0x3c08a0d6	0.0083391275
175	0xbc2379b4	-0.009977747
176	0x3e01d4be	0.12678811
177	0xbd3c5847	-0.045982625
178	0xbc2211a4	-0.009891901
179	0xbde43b7b	-0.111441575
180	0xbd503b3f	-0.05083775
181	0x3cf50a13	0.02991203
182	0x3cf57ab9	0.029965745
183	0xbdc6fe71	-0.097164996
184	0xbdf6ff71	-0.1206044
185	0xbdaed924	-0.0853751
186	0x3ddb3a6b	0.10704502
187	0xbd983d27	-0.07433539
188	0x3ba8f2e0	0.005155906
189	0xbe042c61	-0.12907554
190	0xbd96c6ec	-0.0736216
191	0xbcbe9421	-0.023263993
192	0x3d94b246	0.072605655
193	0xbd1a78cd	-0.03771286
194	0x3b981999	0.0046417234
195	0xbc13593a	-0.008993441
196	0xbd9633b5	-0.07334081
197	0xbdb95690	-0.090497136
198	0xbdc5090e	-0.09620868
199	0x3ccdec27	0.02513702
200	0x3d647404	0.055774704
201	0xbd0c123c	-0.034197077
202	0x3db2a0e5	0.087220944
203	0xbda4ddf2	-0.08050145
204	0xbb8eced7	-0.0043581533
205	0xbd8f728a	-0.070042685
206	0xbb9de335	-0.004818345
207	0xbd842580	-0.06452465
208	0xbd962bd6	-0.0733258
209	0xbd1c6ca2	-0.038189538
210	0x3d304969	0.04303876
211	0xbd293ab3	-0.041315746
212	0xbd45912c	-0.04823415
213	0x3daf0a98	0.085469425
214	0x3d35bec8	0.044371396
215	0xbca41d69	-0.020033555
216	0xbde045f7	-0.10950845
217	0x3ded9368	0.11600381
218	0xbca71fde	-0.020400938
219	0xbde2bfb0	-0.11071718
220	0x3d14df04	0.036345497
221	0xbcdf6799	-0.027271079
222	0xbdefeb99	-0.117148586
223	0x3d32a787	0.043616798
224	0xbe0bbcea	-0.13646284
225	0xbda662a7	-0.08124285
226	0x3cf7061f	0.030154286
227	0xbd2d4c33	-0.042308997
228	0xbdd028f3	-0.101640604
229	0xbc9bcc86	-0.019018423
230	0x3dc08dbf	0.09402036
231	0x3dfd27fd	0.12361143
232	0x3cf9915e	0.030464824
233	0x3de22119	0.11041469
234	0x3d61f618	0.055166334
235	0x3a7bccd5	0.00096054125
236	0xb9d4bb8b	-0.0004057552
237	0xbdfaa4dd	-0.122384764
238	0x3d76f03e	0.060287707
239	0xbca109b5	-0.019657949
240	0xbdbc7442	-0.09201862
241	0xbcf9e561	-0.030504884
242	0x3c697288	0.014248498
243	0xbdc14e52	-0.094387665
244	0x3dbbe60b	0.091747366
245	0xbd0bf0c8	-0.034165174
246	0x3d8896ae	0.06669365
247	0xbcd688fe	-0.02618837
248	0xbc89efe0	-0.016838014
249	0x3dba310b	0.090913855
250	0xbd83ee2f	-0.06441914
251	0x3dc7c924	0.097551614
252	0x3dc5bc32	0.09655036
253	0x3d70796e	0.058709554
254	0xbdc385ad	-0.09546981
255	0x3c6433ba	0.013928348

critic.3.bias f4 [64]
0	0xbe03b148	-0.12860596
1	0x3e1b371f	0.15157746
2	0xbd455897	-0.04818019
3	0xbe1897f6	-0.14901718
4	0x3d30b5b7	0.043142047
5	0x3dd8edad	0.10592208
6	0x3d805a39	0.062672086
7	0x3dcdd6df	0.10050749
8	0xbe01a6c7	-0.12661277
9	0xbd6dd45f	-0.05806386
10	0x3dd9eff5	0.10641471
11	0xbd764bc2	-0.060130842
12	0x3d54b0f9	0.051926587
13	0xbdd8cf54	-0.1058642
14	0x3d833fc6	0.06408648
15	0x3c2d1690	0.010564461
16	0x3d0cc995	0.03437193
17	0xbca50b31	-0.020146938
18	0x3d94a8ed	0.072587825
19	0x3d89c2ee	0.06726633
20	0x3e0a470b	0.13503663
21	0x3d25b012	0.040451117
22	0x3db579f5	0.08861152
23	0x3d55b44b	0.052173894
24	0xbdac0be2	-0.08400704
25	0xbdb794f3	-0.08963957
26	0x3da242de	0.0792291
27	0xbcde8ec4	-0.027167685
28	0xbd8ac003	-0.067749046
29	0xbda97d97	-0.082759075
30	0xbc3f8c58	-0.011691175
31	0xbdfa17d6	-0.122115776
32	0xbdcfd91b	-0.101488315
33	0x3d84a69c	0.06477091
34	0xbe0776fc	-0.13228983
35	0xbe181ee9	-0.14855541
36	0xbd807489	-0.06272227
37	0xbd045ff9	-0.03231809
38	0x3d951e11	0.07281125
39	0x3d4fecbf	0.050762888
40	0x3da73bca	0.08165701
41	0x3da3208f	0.079651944
42	0xbd7f06f7	-0.0622625
43	0xbd6f07ec	-0.058357164
44	0xbd207998	-0.03917846
45	0x3d062700	0.032752037
46	0xbe0ad06b	-0.13556068
47	0xbd019cfd	-0.031643856
48	0x3deb89c7	0.11500888
49	0x3e00d618	0.1258167
50	0xbd1a7d42	-0.03771711
51	0xbb0ad2d8	-0.0021182802
52	0x3d70b7af	0.058768924
53	0xbdbf7e72	-0.093502894
54	0xbd0fd781	-0.03511763
55	0x3e333eb5	0.1750439
56	0x3d587cda	0.052853443
57	0x3db05e7f	0.08611774
58	0x3dcfa29d	0.10138438
59	0x3d9193c4	0.07108262
60	0xbd7ce14e	-0.061738305
61	0x3e016187	0.1263486
62	0x3e1cb042	0.15301612
63	0x3e16ff33	0.14745788

critic.5.weight f4 [64]
0	0x3faa51f6	1.3306262
1	0x3fab0031	1.3359433
2	0x3f964574	1.1739945
3	0x3fa803aa	1.3126118
4	0x3fa067c3	1.2531666
5	0x3f9a0ad9	1.203456
6	0x3fa61feb	1.297849
7	0x3f9ec971	1.2405225
8	0x3fa406c2	1.2814562
9	0x3fa67661	1.3004876
10	0x3fa659e5	1.2996184
11	0x3fa692aa	1.3013508
12	0x3fa50f99	1.2895385
13	0x3faba773	1.3410476
14	0x3fa59924	1.293736
15	0x3fad02f4	1.3516526
16	0x3fa6ef7d	1.3041836
17	0x3fa9f5cd	1.3278137
18	0x3fa110c9	1.2583247
19	0x3fa6e3a5	1.3038222
20	0x3f9f4275	1.2442156
21	0x3f9f6d46	1.2455223
22	0x3fa75f68	1.3075991
23	0x3f9e6a49	1.2376186
24	0x3fa441cd	1.2832581
25	0x3fa83d01	1.3143617
26	0x3fa6232f	1.2979487
27	0x3fa9b6a4	1.3258862
28	0x3fa6b173	1.3022903
29	0x3fa693dd	1.3013874
30	0x3fa32ef9	1.274871
31	0x3fa5dc31	1.2957822
32	0x3fa6af88	1.3022318
33	0x3fa668ef	1.3000773
34	0x3fa775c6	1.3082817
35	0x3fa7550b	1.3072828
36	0x3fa7dfe3	1.31152
37	0x3fa45233	1.2837585
38	0x3fa76c9a	1.3080018
39	0x3fa3d5ae	1.2799585
40	0x3fab10c0	1.3364487
41	0x3fadb60d	1.3571182
42	0x3f9ed2e1	1.2408105
43	0x3fa79567	1.3092469
44	0x3fabfa18	1.3435698
45	0x3fa3c07a	1.2793114
46	0x3fa5653e	1.2921522
47	0x3fa5d319	1.2955047
48	0x3faa77de	1.331783
49	0x3fa83946	1.3142478
50	0x3fa8794b	1.3162016
51	0x3fa0fc87	1.2577065
52	0x3fa75186	1.3071754
53	0x3fa862b9	1.3155128
54	0x3fa7b733	1.3102783
55	0x3fa5afe8	1.2944307
56	0x3fa644d2	1.2989752
57	0x3fa6b5b3	1.30242
58	0x3fa37808	1.2771006
59	0x3fa2d146	1.2720115
60	0x3f9f2625	1.2433516
61	0x3fadcb24	1.3577619
62	0x3f9e6225	1.2373701
63	0x3f9f68f1	1.24539

critic.5.bias f4 [64]
0	0xbea06cb2	-0.31332928
1	0x3e9bf9b7	0.30463955
2	0x3e7a0164	0.24414593
3	0xbe929c49	-0.2863486
4	0x3e89b18a	0.26893264
5	0x3e7c2be4	0.24626118
6	0x3e9464e9	0.28983238
7	0x3e8bf8e9	0.2733834
8	0xbe83831b	-0.25685963
9	0x3e9873ee	0.29775947
10	0x3e96c1ff	0.29444882
11	0xbe8ce43b	-0.27517876
12	0xbe8bd102	-0.27307898
13	0xbea76550	-0.32694483
14	0xbe8c078d	-0.2734951
15	0x3ead31d6	0.33827084
16	0xbe8bb73e	-0.2728824
17	0x3ea1b058	0.31579852
18	0x3e8a8ed6	0.270621
19	0xbe89b647	-0.2689688
20	0x3e8825e7	0.26591417
21	0x3e871a35	0.26387182
22	0xbe8cd0f2	-0.27503163
23	0x3e86fa2a	0.26362735
24	0xbe820e92	-0.2540174
25	0xbe9a3f2a	-0.30126315
26	0xbe8e658a	-0.27811843
27	0xbe9939d7	-0.2992694
28	0xbe9211fc	-0.28529346
29	0xbe8f5b4e	-0.27999347
30	0x3e9a6322	0.30153757
31	0xbe89218c	-0.26783407
32	0xbe903eb3	-0.28172836
33	0x3e8b0768	0.27154088
34	0xbe902009	-0.2814944
35	0xbe902b34	-0.2815796
36	0x3e9b9f2c	0.30394876
37	0x3e8cc511	0.274941
38	0xbe95dcbc	-0.2926997
39	0x3e840c48	0.2579062
40	0xbea9a1f4	-0.33131373
41	0x3eaae188	0.33375192
42	0x3e83b021	0.25720313
43	0xbe93854a	-0.2881263
44	0x3eb949a6	0.36189002
45	0x3e92946d	0.28628865
46	0xbe98c484	-0.2983743
47	0xbe8be43d	-0.2732257
48	0x3ea38294	0.3193556
49	0x3e9d8a36	0.3076951
50	0xbe972147	-0.29517576
51	0x3e87a6bf	0.26494405
52	0xbe9210a4	-0.2852832
53	0xbe967d83	-0.29392633
54	0xbe9cfec2	-0.30663115
55	0x3e89b172	0.26893193
56	0xbe8fa627	-0.28056452
57	0x3e850f54	0.25988257
58	0x3e8d45ee	0.27592415
59	0x3e8eab05	0.27864853
60	0x3e804f4c	0.250605
61	0x3eaaa048	0.3332541
62	0x3e7fe8e7	0.24991189
63	0x3e82b9e3	0.25532445

critic.6.weight f4 [1, 64]
0	0x3e8884b5	0.26663747
1	0xbe99f995	-0.30073228
2	0xbe4f7f4f	-0.20263408
3	0x3e9da45a	0.30789453
4	0xbe88a697	-0.26689598
5	0xbe8dfa6c	-0.2773012
6	0xbe8b0df9	-0.27159098
7	0xbe89b7f4	-0.26898158
8	0x3eb4ec1f	0.35336396
9	0xbe899ad4	-0.26875937
10	0xbe881572	-0.2657886
11	0x3ea3b510	0.31974077
12	0x3ea9094e	0.3301491
13	0x3e88378d	0.26604882
14	0x3e9e96a0	0.30974293
15	0xbe96a311	-0.29421285
16	0x3ead20cd	0.33814088
17	0xbe95d489	-0.29263714
18	0xbe9e93eb	-0.30972227
19	0x3eb8408c	0.35986745
20	0xbe873659	-0.2640865
21	0xbe9a6134	-0.30152285
22	0x3eab3f3d	0.33446684
23	0xbe83e1e8	-0.2575829
24	0x3ebde38f	0.37087676
25	0x3e92f170	0.28699827
26	0x3e9aa08a	0.30200607
27	0x3e9aea4c	0.3025688
28	0x3e9e1361	0.3087416
29	0x3e9b0979	0.30280665
30	0xbe81e733	-0.25371704
31	0x3eaca015	0.33715883
32	0x3e98e04e	0.2985863
33	0xbec1fd67	-0.37888643
34	0x3ea006d1	0.312552
35	0x3ea2b1f5	0.31776395
36	0xbe8a5c4e	-0.27023548
37	0xbeb0ad1e	-0.34507078
38	0x3e9a2b64	0.3011123
39	0xbebaae7c	-0.36461246
40	0x3e8799c3	0.26484498
41	0xbea100ee	-0.31446022
42	0xbe96b68a	-0.2943614
43	0x3e962eea	0.29332668
44	0xbe788871	-0.24270798
45	0xbe884cb4	-0.2662102
46	0x3e8f5032	0.27990872
47	0x3ea1431d	0.31496516
48	0xbe91aa86	-0.28450412
49	0xbe6efacc	-0.23337859
50	0x3e931c0e	0.28732342
51	0xbea0f278	-0.3143499
52	0x3e9871f5	0.29774442
53	0x3e9413c3	0.28921327
54	0x3e93083c	0.2871722
55	0xbeb20f4e	-0.34777302
56	0x3e502bbb	0.20329182
57	0xbec5584b	-0.38543925
58	0xbe94992d	-0.29023114
59	0xbe904804	-0.28179944
60	0xbea8319d	-0.32850352
61	0xbe81a700	-0.25322723
62	0xbea66490	-0.32498598
63	0xbe9ee34b	-0.31032786
