weights/2024-06-27_12-46-27/target_critic.pt (torch, 22924 bytes, 9 tensors)

critic.0.weight f4 [64, 3]
000000 e6 5b 15 bf 4f ac 8e 3d 98 7f 36 be f9 44 43 3e
       -0.5834335 0.06966459 -0.1782211 0.1906928
000010 71 67 11 3f fb 91 49 3e 83 06 96 3e 4c f9 0d bf
       0.56798464 0.19684593 0.29301843 -0.5545852
000020 59 36 b8 be 3c 9a 07 3f f4 c3 89 3e 63 fd 13 be
       -0.35978964 0.5296972 0.26907313 -0.14452128
000030 84 49 bc 3e 51 c9 a5 3e ce 62 9e bd e3 34 d7 3e
       0.36774838 0.32380155 -0.07733689 0.42032537
000040 82 8a 9d 3e ff 54 00 bf fe 7b bd 3e 9d a3 91 be
       0.30769736 -0.50129694 0.3700866 -0.2844514
000050 2a 43 47 3e c8 d0 ef bd 30 5a 31 bf bd 74 8f be
       0.19459215 -0.11709744 -0.6927824 -0.28018752
000060 b3 f3 0c 3e 9d 38 36 3e 61 2a 7f 3e 1d 0b fe bd
       0.13764839 0.17795034 0.2491851 -0.124044634
000070 25 58 35 3d 74 7d 0b 3f fd 6b 6f 3d 34 4c 00 3e
       0.044273514 0.544883 0.058452595 0.12529069
000080 58 6d 0b bf 59 18 fb be 53 4e a9 3e 31 e1 7b 3e
       -0.5446372 -0.49042013 0.3306757 0.24597622
000090 ad f8 2b 3e 43 ac 6c bd b1 11 f3 3d d5 35 94 bc
       0.16794081 -0.05778147 0.11868609 -0.018092075
0000a0 44 48 44 be 27 ab ba 3e e1 9f d5 3e 24 b7 f6 3e
       -0.19168192 0.36458704 0.4172354 0.481866
0000b0 ac cb 22 be 50 17 e2 be 01 72 ff 3e b7 bf eb be
       -0.15898007 -0.4415841 0.49891666 -0.46044704
0000c0 a8 b8 e9 bd 7a 27 40 be 02 88 f0 3e aa 7e 02 be
       -0.114121735 -0.18765059 0.46978766 -0.12743631
0000d0 e3 7b 3c bb b0 10 80 3e 6e 9b 0b bf 98 1d 20 be
       -0.0028760366 0.25012732 -0.5453404 -0.15636289
0000e0 1a 0f e3 3e 9e f2 bd 3e 0c 2d ca 3e f1 96 9e be
       0.4434746 0.37099165 0.39487493 -0.30974534
0000f0 e4 a5 df 3e 16 d8 98 be 01 95 15 3e 4c d7 87 3e
       0.43681252 -0.2985236 0.14607622 0.26531446
000100 58 ad 56 bc 89 7b d3 3e e6 bf 0d 3f 8a c0 28 be
       -0.013102852 0.41305187 0.5537094 -0.16479698
000110 b0 8c ce 3d 51 f4 25 3d f5 c5 99 be 2d 42 87 bd
       0.10085428 0.0405162 -0.30033842 -0.06604419
000120 8a 36 07 bf 46 ce 30 3e fb 26 97 3e 52 14 70 be
       -0.52817595 0.17266187 0.29521927 -0.23445252
000130 72 a0 1c bd 26 64 ac be 30 fe 68 3e 2b 1c ab 3e
       -0.03823895 -0.33670157 0.22753215 0.33419928
000140 25 8b ec be 17 5d ed 3d 7e 71 67 3e 55 f3 ea 3e
       -0.4619991 0.11590021 0.22601888 0.45888773
000150 ee dd e1 3e 70 9a 23 be cb df cd be d7 91 c4 3e
       0.4411463 -0.15976882 -0.40209803 0.38392517
000160 00 e1 e5 3e 5a 78 c8 3d f4 82 7e be f0 aa bc 3e
       0.44898224 0.0978858 -0.24854642 0.36849165
000170 c8 86 83 3e b8 5f 42 3e a1 fa 0c bf 91 75 8e 3e
       0.25688767 0.18981826 -0.5506993 0.2782407
000180 b5 af 94 3e 6c e4 c9 be 65 e4 83 3e a6 d4 81 3e
       0.29040304 -0.39432085 0.2576019 0.2535755
000190 c0 cb 07 bf d0 ed 18 bf 5d 85 64 bd db 96 9f 3e
       -0.5304527 -0.59737873 -0.055791248 0.3116978
0001a0 34 41 8c 3e c5 3e 78 be f2 f6 d8 3d 3a d0 c8 be
       0.27393496 -0.24242695 0.10593976 -0.39221364
0001b0 5d 5b 08 bf 6c f6 d8 be b0 9e b4 be f4 aa bd 3d
       -0.5326441 -0.42375505 -0.3527732 0.09261122
0001c0 77 94 ee bd 1e 72 c8 3b a3 08 51 3e 16 49 f6 be
       -0.11649411 0.0061171195 0.20413451 -0.48102635
0001d0 a1 b1 97 3e 0b f9 e9 3e f7 ad 94 3d 3a 54 d0 3d
       0.29627708 0.45697817 0.07259744 0.10172315
0001e0 d1 f5 f2 be 50 08 76 be f2 cb 20 3e 2c 6e ed be
       -0.47453168 -0.24026608 0.15702799 -0.46373117
0001f0 d4 9a e8 be 05 31 7a 3e 05 b3 a9 3e 87 b8 7b 3d
       -0.45430624 0.24432762 0.33144394 0.061455276
000200 76 ca 54 3e 86 a8 e1 3c c7 7f e2 3e ef 66 0e 3e
       0.20780358 0.027546179 0.4423811 0.13906454
000210 3f 75 80 be 40 0f ef 3e a7 31 d3 bd 5f 0e ac be
       -0.25089452 0.46691322 -0.10312205 -0.33604714
000220 1d 96 9c 3d b5 08 d9 3e 1e 72 03 bf 71 fb 91 be
       0.07645819 0.42389455 -0.51346004 -0.28512147
000230 95 0f ff be 10 8d 1d 3e 42 b4 8f 3e d3 0a 97 3e
       -0.49816576 0.15385842 0.28067213 0.29500446
000240 74 13 d3 be 8e 05 9f bd c0 fc 22 3e 99 07 51 be
       -0.4122578 -0.07764731 0.15916729 -0.20413055
000250 d2 1a 09 3f cf 56 00 3e d2 f3 e1 3e 64 5e e6 bc
       0.5355655 0.12533115 0.44131333 -0.02812118
000260 97 e6 9b be 14 d1 8b 3e 13 98 8c 3e c3 32 f3 bd
       -0.30449364 0.2730795 0.27459773 -0.118749164
000270 2f 85 a2 be ac cb e8 3e e6 81 09 bf 29 18 93 3d
       -0.31742236 0.4546789 -0.53713834 0.071823426
000280 04 3c 06 3e b6 58 09 bf e2 04 a9 3e 00 be 5e 3e
       0.13108832 -0.5365099 0.33011538 0.21752167
000290 cf 1a 42 be aa a5 b5 3e 90 76 1e 3e e1 7b 03 3e
       -0.18955539 0.35477954 0.15474916 0.12840225
0002a0 5e a2 b9 be 5e 90 9b 3e da 37 b1 3d 0b e9 f4 be
       -0.3625669 0.3038358 0.08653231 -0.47834048
0002b0 fc 72 98 3d 80 68 56 3e e0 ec 4c 3d d2 c5 33 bf
       0.074438065 0.20938301 0.05003059 -0.70223725
0002c0 5c 6c f6 be ef 39 ac 3e 99 e8 c0 3e 6a f4 f2 3e
       -0.48129547 0.3363795 0.37677458 0.47452098
0002d0 9e bc a5 be 61 d1 8e 3e 8a 7a bc be 02 12 03 be
       -0.32370466 0.27894118 -0.3681224 -0.12799838
0002e0 74 8a 82 3d 71 3e ae 3c 19 24 40 be ab e3 ea 3e
       0.06374064 0.021270009 -0.1876377 0.45876822
0002f0 82 d2 17 bf 6e 36 4d 3e 39 d3 62 be b3 c7 15 3d
       -0.59305584 0.20040295 -0.22150888 0.0365674

critic.0.bias f4 [64]
000000 39 5d c7 3e 30 6f 29 be 9a 9c e3 3e e0 8f cd be
       0.3893831 -0.16546321 0.44455415 -0.4014883
000010 3f 94 2e be 0d 05 9c be 3a 5b f0 3e 7a 6b 29 3e
       -0.17048739 -0.30472603 0.469446 0.16544905
000020 25 aa 1f 3d e5 2e 7f be dd d8 9b 3d 52 93 e7 bd
       0.03898062 -0.24920233 0.07609723 -0.11307396
000030 aa 9b 83 3d d1 32 96 bb 76 75 e0 3d a6 45 a6 3c
       0.06426175 -0.0045836945 0.10959904 0.020296883
000040 22 2c 8b be 2a fb d7 bd 10 12 0a 3f 9c ec f4 3e
       -0.27182108 -0.105459526 0.5393381 0.4783677
000050 34 39 30 be 14 26 87 be 28 d6 fa be 44 95 0c bf
       -0.17209321 -0.2639624 -0.48991513 -0.5491526
000060 0c 7f 0a 3f b8 eb fe be 37 fa 96 3e 6d a7 05 be
       0.5410011 -0.49789214 0.29487774 -0.13052149
000070 f9 f3 be bd aa 36 11 bf e8 48 e3 3e 45 8a 27 be
       -0.09323878 -0.56724036 0.4439156 -0.1636134
000080 44 0f 42 bd fa 6b 23 3e 93 60 8e be fb 84 bf bd
       -0.04737784 0.15959159 -0.27808055 -0.09351536
000090 fa d8 07 3f 46 c8 a0 3d e1 80 8d 3e 2e 5d dc 3c
       0.53065455 0.07850699 0.2763739 0.0268999
0000a0 77 4f c7 3e 42 9c 1d bf a5 bc b4 be 82 a3 e3 3e
       0.38927814 -0.61566556 -0.35300174 0.44460684
0000b0 3b 3e ae be 95 c0 ac 3e 51 af e4 3d 38 2e 85 3c
       -0.34031853 0.33740678 0.111662515 0.01625739
0000c0 64 9f a6 3e 6f 5e 41 3e a2 48 04 bf 26 f5 c3 bd
       0.3254348 0.1888368 -0.5167333 -0.09568243
0000d0 42 d5 97 3e 40 5b 05 bf 57 7e b5 be 80 d3 9c bd
       0.2965489 -0.5209236 -0.35447952 -0.07657528
0000e0 f4 a2 c3 be 91 22 f8 3e c0 6e ab bd 63 cf e8 3e
       -0.3821026 0.48463872 -0.08370733 0.45470724
0000f0 4b 8a 0a bf aa e8 c3 be c1 74 fd be 52 cc a2 3d
       -0.5411727 -0.38263446 -0.4950314 0.07949127

critic.2.weight f4 [64]
000000 e2 01 7d 3f a9 b6 84 3f a5 d7 6e 3f 09 52 87 3f
       0.98831 1.0368243 0.932978 1.057191
000010 42 b6 81 3f d3 34 7c 3f 4f 4f 5f 3f 7f a5 84 3f
       1.0133746 0.98518103 0.8723039 1.0363005
000020 21 60 79 3f 29 aa 7b 3f 57 4c 7c 3f 2f e2 6d 3f
       0.97412306 0.9830652 0.98553985 0.92923254
000030 80 b6 81 3f 22 81 76 3f 95 10 6e 3f c2 4b 71 3f
       1.013382 0.9629079 0.9299405 0.9425622
000040 e4 fb 69 3f 76 8f 71 3f 2a a5 87 3f d0 31 5c 3f
       0.9139998 0.9435953 1.0597279 0.8601351
000050 72 88 88 3f 76 63 71 3f e6 05 84 3f 67 5c 84 3f
       1.066664 0.9429239 1.03143 1.0340699
000060 22 59 83 3f 28 d3 73 3f c6 d0 77 3f 85 9d 7a 3f
       1.0261576 0.95244074 0.9680294 0.97896606
000070 e3 66 73 3f 80 31 84 3f 5d af 83 3f f7 6e 6c 3f
       0.9507887 1.0327606 1.0287892 0.9235682
000080 82 2e 83 3f b7 14 74 3f 2a cc 6d 3f dd 6c 76 3f
       1.0248568 0.9534411 0.92889655 0.9625986
000090 4f 06 84 3f cc 45 88 3f a4 68 71 3f d8 ac 74 3f
       1.0314425 1.06463 0.94300294 0.9557624
0000a0 43 4b 77 3f da cc 7c 3f 76 df 82 3f 07 a2 72 3f
       0.96599215 0.9875008 1.0224445 0.94778484
0000b0 4c b0 88 3f 5c 60 84 3f 3a 69 7b 3f f3 83 79 3f
       1.0678802 1.0341907 0.9820744 0.97466964
0000c0 e7 9b 7b 3f e7 2d 8a 3f 75 db 7c 3f 67 c5 86 3f
       0.98284763 1.0795258 0.98772365 1.0528992
0000d0 fe ac 82 3f a6 42 6d 3f 47 10 86 3f d0 ce 89 3f
       1.0209043 0.9267982 1.0473717 1.0766239
0000e0 8e 95 81 3f 88 a7 86 3f 0a 99 81 3f b7 d5 7d 3f
       1.0123765 1.0519876 1.0124829 0.9915423
0000f0 f0 25 7d 3f f2 87 88 3f 2c db 77 3f 4d c4 87 3f
       0.98886013 1.0666487 0.96818805 1.0606781

critic.2.bias f4 [64]
000000 4e 9e 58 3d 5f ca 5e bd 40 be a4 3c 0c f7 05 bd
       0.052885346 -0.054392215 0.02011025 -0.032706305
000010 44 14 fb ba 9a b3 48 3c 09 16 c6 bb ec bf 95 3c
       -0.001915582 0.012249852 -0.0060451073 0.018279992
000020 b9 07 40 bc 28 16 ff 3c 36 59 40 3c 3a 53 e9 3c
       -0.011720591 0.031138495 0.01174002 0.028482068
000030 9b 62 b9 ba 0d 05 d1 39 c9 49 9c 3b 62 e6 87 3d
       -0.0014143767 0.0003986735 0.004769538 0.06635739
000040 aa 09 32 bd 31 1a ce 3c b7 ad 64 3d 06 38 27 3d
       -0.043466248 0.025158973 0.05582973 0.040824912
000050 42 e4 2c bd 18 4a c6 bc 27 35 ea bc 9b ca 17 bd
       -0.04220987 -0.024205253 -0.028589798 -0.037058454
000060 62 3c 54 3d 33 7a 5c 3c 5a 2e e0 bc 9c 22 37 3d
       0.051815398 0.013456869 -0.027365852 0.04471074
000070 20 f0 82 bb 0e 50 12 bd 18 f1 7d 3d 44 fd 19 3c
       -0.0039959103 -0.035720877 0.061997503 0.009398762
000080 1d 94 74 bd 27 40 61 3d dc f2 c1 bc 28 f0 6b bc
       -0.059711564 0.05499282 -0.023675375 -0.014400519
000090 4a ea 3a 3d 36 a4 54 bd 2d 3f 1e bc 5a 8a 99 bc
       0.04563359 -0.051914416 -0.009658617 -0.018742729
0000a0 ad ae 59 bc 06 78 b4 bd b4 53 37 bd 76 e4 01 bc
       -0.013286275 -0.08811955 -0.04475756 -0.0079280045
0000b0 06 50 81 bd a0 08 26 3d 5c b1 2e 3d 1c 25 13 3d
       -0.063140914 0.04053557 0.04264961 0.035924062
0000c0 b8 b4 84 bc 29 d5 3a bc 78 a8 7d bc ad 82 42 bd
       -0.016199455 -0.01140336 -0.015482061 -0.047487903
0000d0 44 25 53 3d 0a fb 53 3c f8 89 22 bd 55 62 56 bd
       0.05154921 0.01293827 -0.03968236 -0.05233987
0000e0 87 7c 29 bd 9c 00 30 3d e2 1f f7 3c 1b 84 49 3d
       -0.041378524 0.04296933 0.03016657 0.04919825
0000f0 12 30 4f bd d1 d4 81 bd 60 c4 b9 3c bd be 41 bd
       -0.050582953 -0.0633942 0.022676647 -0.047301043

critic.3.weight f4 [64, 64]
000000 6f 58 e6 bd a7 bb 03 be 84 6e 62 3d 3e ad 18 bd
       -0.11247336 -0.12864552 0.055281177 -0.03727459
000010 93 6c 28 3e f0 23 cb 3d e5 a8 eb 3c fc ad 17 be
       0.16447668 0.09918964 0.028767059 -0.14812464
000020 ec 88 6d bc 16 ec 0b 3d 82 87 41 bc d4 4e 2f 3d
       -0.014497977 0.034160696 -0.011812093 0.042799786
000030 d4 e4 f5 bd 6c 61 1b be a0 4d 5c bb dd 64 b0 3b
       -0.12006536 -0.15173882 -0.0033615604 0.0053831176
000040 e2 48 c2 3d f0 9e af bd f2 19 17 3c 43 a6 4d bd
       0.094865575 -0.08575237 0.009222494 -0.050207388
000050 61 8a 98 bb 04 b6 05 3d 27 04 9e 3d d9 8e 9b bd
       -0.004655168 0.032644287 0.07715636 -0.075956054
000060 b1 84 e0 bb 3d 8e ec bd 1c 37 85 3d 52 ac d1 bc
       -0.0068517555 -0.11550567 0.06504652 -0.025594864
000070 be 7f df bc 46 01 ca bd 56 d3 13 be d2 b8 92 bd
       -0.027282592 -0.09863524 -0.14436087 -0.07164158
000080 e0 fe 94 bd d4 f3 78 bd 9c cd fe bd 80 d8 99 bd
       -0.07275176 -0.060779408 -0.124415606 -0.07511997
000090 36 a1 15 3d 55 c5 90 3d 0d b9 da bd 53 4e 0d 3e
       0.036530696 0.07068888 -0.10679827 0.1379941
0000a0 42 3d ad bc 23 7f 1d 3d 63 85 c0 bd 9f 4e f8 3d
       -0.021147374 0.038451325 -0.094004415 0.12124371
0000b0 aa 14 c4 bd e4 f9 f7 bc f8 68 4a 3d 1a 6b 53 bb
       -0.09574254 -0.030270524 0.049416512 -0.0032259882
0000c0 00 3d 34 bd 9c 63 a0 3c d0 50 de bc 30 71 91 bd
       -0.044003487 0.019578747 -0.027138144 -0.07101667
0000d0 8d bd 0d bc bc e5 0c 3d 13 8f ae 3d 8c c9 03 3e
       -0.008651149 0.03439878 0.08523383 0.12869853
0000e0 ee 22 87 bc a1 48 d6 bc 27 fe 13 bc 58 a5 0f be
       -0.016496148 -0.026157679 -0.009032763 -0.14027917
0000f0 49 a1 52 3d d2 15 b6 bd 47 a8 a9 bd 45 97 93 3c
       0.051423345 -0.08890881 -0.082840495 0.018016467
000100 30 20 d1 3a ae 38 be 3d ea 17 49 bd 0f af 0a be
       0.0015955027 0.092881545 -0.04909507 -0.13543342
000110 64 4e 8d bd 79 78 7b bd 8a 28 62 bd 14 ec 34 3e
       -0.068997175 -0.06139419 -0.055214442 0.17668182
000120 5c 77 e8 bd fe 46 13 3b c6 f9 0c 3d d1 cc 4a 3c
       -0.11350891 0.0022472735 0.03441789 0.012377934
000130 bf d6 81 3d 58 6a 9c bd da a4 68 3d d3 7c 0d 3e
       0.06339788 -0.07637471 0.05679784 0.13817148
000140 6c 8b 40 3d 8c 0a 3a 3d 1c 72 ab 3d 2d 77 da 3d
       0.047007963 0.045420215 0.08371374 0.10667262
000150 6b c7 a8 bd 40 38 b7 3d d5 90 04 be 39 d0 18 be
       -0.08241161 0.08946276 -0.12945874 -0.1492318
000160 ad 3b 10 3e 9c cb ad 3d 5c d7 11 3d 94 a1 52 3d
       0.14085265 0.08486101 0.035605773 0.051423624
000170 de 70 8a bd 36 3d 32 3d a8 e0 eb 3d c6 61 b4 bd
       -0.06759809 0.043515407 0.11517459 -0.08807711
000180 e4 22 89 3d 5f 5c 24 3c b4 92 08 3d 6c 32 a5 bd
       0.06696108 0.010031789 0.033343032 -0.08066258
000190 58 9a 90 3d b4 34 33 bc 4d f6 f7 3c 36 b1 85 ba
       0.07060689 -0.010937858 0.030268813 -0.0010199908
0001a0 fd 12 25 3d e1 8e 3b bc 4d 96 ed bc 5f a3 8a bc
       0.04030131 -0.011447639 -0.029002333 -0.016923605
0001b0 96 6b 95 3b 06 38 a9 3d d8 ac 84 3d e2 31 2e 3d
       0.0045599444 0.08262639 0.0647828 0.04252804
0001c0 1c 1a 00 3e fb 44 8e 3d 9c dc c9 ba df 73 89 bd
       0.1250996 0.06946751 -0.001540083 -0.06711554
0001d0 46 89 1d 3d b4 23 b3 3c af 43 75 bb 07 0c 69 bc
       0.038460992 0.02186761 -0.0037424376 -0.014224059
0001e0 6a 9d 60 3d 5e d4 08 bd 73 ce 06 3e 82 96 92 bc
       0.05483762 -0.033405654 0.13164692 -0.017894033
0001f0 53 8c bf 3d fe 26 be bd 2e 07 b2 bd bf 1d a5 3d
       0.093529366 -0.09284781 -0.08692776 0.08062314
000200 f7 31 c8 3d 73 9c 88 3d 64 15 cb 3c 16 90 08 3c
       0.09775155 0.06670465 0.024790473 0.008335134
000210 ba e3 e2 bc ad bb 05 bd 9d 1a d2 ba 1f ff c8 3d
       -0.02769648 -0.032649685 -0.001602966 0.098142855
000220 48 b5 91 3d 8f ae a3 bb 59 1b 05 3e 01 fa 05 bd
       0.07114655 -0.0049951742 0.12998714 -0.032709125
000230 08 0f a6 bc 93 60 9b bd c6 9e d7 3d b3 c1 0b 3e
       -0.02027084 -0.075867794 0.105283305 0.13648109
000240 c8 b3 ee bc 93 58 a7 3b 48 7b f0 3d 32 89 07 3e
       -0.02913846 0.0051069944 0.11742264 0.1323593
000250 38 fe 27 bd 88 8f a9 3d f4 4b 7a bd 74 b7 9f bc
       -0.041013926 0.082793295 -0.06110759 -0.019496657
000260 2e 93 37 3e cc 18 90 3c ba 1a 8d bd f6 24 13 3e
       0.17927238 0.01758995 -0.06889863 0.14369568
000270 4a ca 21 bd 3e 97 8c bc 78 b1 25 3d 71 fd 9e bd
       -0.03949956 -0.017161962 0.04045245 -0.07763184
000280 3c 1e 26 bc ab 05 8a bd f1 82 9e 3d b9 8c 69 bd
       -0.010139044 -0.06739362 0.07739819 -0.05701897
000290 88 47 7b bb e4 32 da bd 19 d2 1a 3d e6 c5 cc bd
       -0.0038342196 -0.10654238 0.03779802 -0.09998684
0002a0 6e ed 70 bd 40 2d 4b bd 44 b4 0f be d4 44 a1 bc
       -0.05882018 -0.0496037 -0.1403361 -0.01968614
0002b0 08 d2 01 bd ed 58 02 3b 19 8b 0a 3c de 77 20 bc
       -0.031694442 0.001988943 0.008456015 -0.009794204
0002c0 41 b8 01 3e 9e 10 3f bd 48 79 1f bc 06 92 e4 bd
       0.12667944 -0.046646707 -0.009733506 -0.11160664
0002d0 bd 09 50 bd 06 71 f6 3c e2 ca f5 3c a3 8e c6 bd
       -0.050790537 0.03008319 0.030003969 -0.096951745
0002e0 6f 64 f7 bd a6 06 af bd 4a 29 db 3d 59 15 98 bd
       -0.12079703 -0.0854619 0.10701235 -0.07425947
0002f0 9e 88 aa 3b c5 37 04 be 8a 89 96 bd ba a1 bd bc
       0.0052042743 -0.129119 -0.07350452 -0.023148406
000300 20 b3 94 3d ca 76 1a bd fe 1a 98 3b 21 53 13 bc
       0.07260728 -0.037710942 0.0046418896 -0.008991987
000310 d6 33 96 bd e2 55 b9 bd 89 0b c5 bd e2 f6 cd 3c
       -0.07334106 -0.09049584 -0.09621341 0.025142137
000320 dc 70 64 3d ce 11 0c bd 8e a1 b2 3d fc dc a4 bd
       0.055771694 -0.034196667 0.0872222 -0.08049962
000330 cf f4 8e bb e0 72 8f bd d2 f6 9d bb e5 24 84 bd
       -0.0043626796 -0.070043325 -0.004820683 -0.064523496
000340 8e 2b 96 bd a0 69 1c bd e4 48 30 3d fa 3d 29 bd
       -0.07332526 -0.03818667 0.043038264 -0.04131887
000350 5b 94 45 bd d8 09 af 3d e5 be 35 3d 60 1a a4 bc
       -0.048237186 0.085467994 0.044371504 -0.020032108
000360 36 46 e0 bd 10 94 ed 3d 60 1e a7 bc aa c0 e2 bd
       -0.10950892 0.11600506 -0.020400226 -0.11071904
000370 16 e1 14 3d 6f 63 df bc ae ec ef bd 6f a7 32 3d
       0.03634747 -0.027269093 -0.11715065 0.04361671
000380 6d bd 0b be 9b 60 a6 bd 60 0a f7 3c d9 4a 2d bd
       -0.13646479 -0.08123895 0.030156314 -0.04230771
000390 b2 27 d0 bd 30 cb 9b bc aa 8c c0 3d 64 24 fd 3d
       -0.10163821 -0.019017786 0.094018295 0.123604566
0003a0 60 94 f9 3c 76 23 e2 3d 14 f5 61 3d ee bc 7a 3a
       0.030466259 0.1104192 0.055165365 0.0009564896
0003b0 f9 f0 d3 b9 50 a5 fa bd 92 f1 76 3d 62 12 a1 bc
       -0.00040424595 -0.12238562 0.060288973 -0.019662086
0003c0 a6 73 bc bd d5 d8 f9 bc 32 78 69 3c f0 4d c1 bd
       -0.09201746 -0.030498901 0.014249848 -0.094386935
0003d0 bb e6 bb 3d 82 ef 0b bd 6f 97 88 3d 5d 97 d6 bc
       0.09174868 -0.03416396 0.06669509 -0.026195223
0003e0 51 e7 89 bc fc 30 ba 3d 6b ed 83 bd 90 c7 c7 3d
       -0.016833933 0.09091374 -0.06441768 0.097548604
0003f0 eb bc c5 3d 06 7b 70 3d 05 85 c3 bd 3b 31 64 3c
       0.09655174 0.058711074 -0.09546856 0.013927753

critic.3.bias f4 [64]
000000 12 4b 03 be 28 53 1b 3e e2 4e 45 bd 52 98 18 be
       -0.12821606 0.1516844 -0.04817093 -0.14901856
000010 ba eb 30 3d 42 e4 d8 3d 27 eb 7f 3d 16 85 cd 3d
       0.043193556 0.10590412 0.062480118 0.1003515
000020 76 a7 01 be 7f 86 6d bd a2 bd d9 3d c2 4b 76 bd
       -0.12661538 -0.057989594 0.10631873 -0.060130842
000030 fa b0 54 3d fe 37 d8 bd c6 3f 83 3d 39 84 28 3c
       0.05192659 -0.10557555 0.06408648 0.010285431
000040 c8 30 0d 3d f6 e9 a6 bc 5f e5 94 3d 6e 0a 8a 3d
       0.03447035 -0.020375233 0.072703116 0.067402706
000050 3e 19 0a 3e 00 35 25 3d cc ba b5 3d 32 d9 55 3d
       0.13486192 0.040333748 0.08873519 0.052209087
000060 e2 0b ac bd 06 8e b7 bd 16 4c a2 3d 93 cb dc bc
       -0.08400704 -0.08962636 0.079246685 -0.02695254
000070 ff bf 8a bd 93 7b a9 bd 11 6e 42 bc d6 17 fa bd
       -0.067749016 -0.08275523 -0.011867062 -0.122115776
000080 20 d9 cf bd fc be 84 3d fc 76 07 be d2 1e 18 be
       -0.10148835 0.0648174 -0.13228983 -0.14855507
000090 33 d0 80 bd 24 9c 04 bd ba 60 95 3d b4 58 4f 3d
       -0.06289711 -0.03237547 0.0729384 0.050621703
0000a0 5c 9c a7 3d 8e 3e a3 3d ec c6 7e bd b6 07 6f bd
       0.0818412 0.07970916 -0.062201425 -0.058356963
0000b0 82 ee 20 bd 70 6e 06 3d 3a cc 0a be df a1 01 bd
       -0.03928996 0.032820165 -0.13554469 -0.031648513
0000c0 c3 2f eb 3d c0 b0 00 3e 23 6e 1a bd 36 9e 06 bb
       0.11483719 0.12567425 -0.03770269 -0.0020541078
0000d0 b0 b7 70 3d 72 7e bf bd 36 cf 0f bd e5 17 33 3e
       0.058768928 -0.093502894 -0.03510972 0.17489584
0000e0 39 1f 59 3d fb 57 b0 3d 0a 9c cf 3d cc 89 91 3d
       0.053008292 0.08610531 0.10137184 0.07106361
0000f0 6a d1 7c bd f4 3e 01 3e 5b b5 1c 3e 0e 0e 17 3e
       -0.06172315 0.12621671 0.15303557 0.14751455

critic.5.weight f4 [64]
000000 40 35 aa 3f f0 e2 aa 3f ff 12 96 3f 9f e8 a7 3f
       1.3297501 1.3350506 1.1724547 1.3117865
000010 d1 52 a0 3f 56 fd 99 3f 0f 02 a6 3f b1 9d 9e 3f
       1.2525274 1.2030437 1.2969378 1.2391874
000020 57 ee a3 3f 3a 5a a6 3f 18 3f a6 3f 89 78 a6 3f
       1.280711 1.2996285 1.2988005 1.3005534
000030 6d f5 a4 3f 94 8b ab 3f 0d 7f a5 3f 6c e2 ac 3f
       1.2887398 1.3401971 1.2929398 1.3506598
000040 3c d8 a6 3f 66 cd a9 3f e0 f8 a0 3f 1a cc a6 3f
       1.303474 1.3265808 1.2575951 1.3031037
000050 32 2a 9f 3f e0 58 9f 3f 8e 46 a7 3f 42 58 9e 3f
       1.2434752 1.2448997 1.3068407 1.2370684
000060 b7 29 a4 3f c1 20 a8 3f aa 08 a6 3f b9 9c a9 3f
       1.282523 1.3134996 1.2971394 1.3250953
000070 52 96 a6 3f 33 79 a6 3f 9b 08 a3 3f be c2 a5 3f
       1.3014624 1.3005737 1.2737001 1.2950056
000080 b6 94 a6 3f 0f 4d a6 3f 11 5b a7 3f 64 3a a7 3f
       1.3014133 1.2992266 1.3074666 1.3064694
000090 eb c3 a7 3f c8 32 a4 3f 02 53 a7 3f d1 c1 a3 3f
       1.3106664 1.2827997 1.3072207 1.2793523
0000a0 3e f0 aa 3f 82 91 ad 3f a2 c1 9e 3f 0e 7a a7 3f
       1.3354566 1.356003 1.2402842 1.3084123
0000b0 50 c3 ab 3f ff a6 a3 3f 2d 48 a5 3f ae bf a5 3f
       1.341898 1.2785338 1.2912651 1.2949121
0000c0 49 57 aa 3f 49 1a a8 3f 6a 5d a8 3f 76 e7 a0 3f
       1.3307887 1.3133022 1.3153508 1.2570636
0000d0 6f 36 a7 3f 00 47 a8 3f 20 9a a7 3f c8 98 a5 3f
       1.3063487 1.3146667 1.309391 1.293725
0000e0 34 1c a6 3f d7 9c a6 3f 70 60 a3 3f 81 b8 a2 3f
       1.2977357 1.3016614 1.2763805 1.2712556
0000f0 fe 15 9f 3f 03 a2 ad 3f f3 51 9e 3f ec 57 9f 3f
       1.2428586 1.3565067 1.2368759 1.2448707

critic.5.bias f4 [64]
000000 c9 f9 9f be 1b 8a 9b 3e 86 d4 78 3e f8 33 92 be
       -0.31245258 0.30378804 0.24299821 -0.28555274
000010 74 50 89 3e 2d 84 7b 3e b8 f5 93 3e 1d 72 8b 3e
       0.26819193 0.2456214 0.28898406 0.272355
000020 c2 26 83 be 6b 05 98 3e 7b 56 96 3e 10 80 8c be
       -0.25615507 0.29691634 0.29362854 -0.27441454
000030 3c 6d 8b be 40 f0 a6 be 4e a3 8b be 7b b7 ac 3e
       -0.27231777 -0.3260517 -0.2727303 0.33733734
000040 33 54 8b be 44 2a a1 3e 5b 2a 8a 3e 2a 55 89 be
       -0.27212676 0.3147756 0.2698544 -0.26822788
000050 7f c0 87 3e 40 bc 86 3e 39 6d 8c be 22 9d 86 3e
       0.2651405 0.26315498 -0.2742708 0.26291758
000060 f3 b3 81 be f4 d0 99 be 57 ff 8d be 60 cd 98 be
       -0.25332603 -0.3004223 -0.2773387 -0.2984419
000070 7e a9 91 be 8c f4 8e be c3 e1 99 3e a2 c0 88 be
       -0.28449625 -0.2792095 0.30055055 -0.26709467
000080 2c d7 8f be 18 a0 8a 3e 5a b9 8f be d1 c4 8f be
       -0.2809385 0.27075267 -0.280711 -0.28079847
000090 62 30 9b 3e 99 56 8c 3e 44 71 95 be 8f b2 83 3e
       0.3031035 0.2740982 -0.29187977 0.25722167
0000a0 3c 28 a9 be d7 61 aa 3e 25 57 83 3e 70 1b 93 be
       -0.3303851 0.3327777 0.25652424 -0.2873187
0000b0 46 9c b8 3e f6 2a 92 3e f0 53 98 be e9 7f 8b be
       0.36056727 0.28548402 -0.2975154 -0.27246025
0000c0 82 0a a3 3e 07 15 9d 3e 01 b5 96 be fb 47 87 3e
       0.31843954 0.30680105 -0.2943497 0.26422104
0000d0 f6 a7 91 be db 11 96 be aa 8d 9c be f3 50 89 3e
       -0.28448457 -0.29310498 -0.3057683 0.26819572
0000e0 ff 10 8f be 5f af 84 3e 28 e1 8c 3e a4 43 8e 3e
       -0.27942654 0.25915048 0.2751553 0.2778598
0000f0 92 f3 7f 3e 52 17 aa 3e f4 3d 7f 3e dd 61 82 3e
       0.24995258 0.33220917 0.24925977 0.2546529

critic.6.weight f4 [1, 64]
000000 91 35 88 3e 47 a4 99 be 0e 72 4e be 52 54 9d 3e
       0.26603368 -0.30008146 -0.20160696 0.30728394
000010 41 6a 88 be d2 cf 8d be 86 b9 8a be 0c 39 89 be
       -0.26643565 -0.27697617 -0.27094668 -0.26801336
000020 e6 9e b4 3e 8d 4c 89 be 81 ca 87 be 3e 66 a3 3e
       0.3527748 -0.26816216 -0.26521686 0.31913942
000030 03 b9 a8 3e 73 ea 87 3e 16 49 9e 3e 66 40 96 be
       0.32953653 0.26546058 0.30915135 -0.29346007
000040 14 d7 ac 3e 0f 5e 95 be 3a 4b 9e be 5c f4 b7 3e
       0.33757842 -0.29173324 -0.30916768 0.3592862
000050 fc f0 86 be cc 22 9a be 22 f2 aa 3e 96 ad 83 be
       -0.2635573 -0.30104673 0.33387858 -0.25718373
000060 d7 95 bd 3e bc a0 92 3e c3 52 9a 3e 31 9d 9a 3e
       0.3702838 0.28638256 0.30141267 0.30198053
000070 e1 c2 9d 3e 2f bb 9a 3e f0 7a 81 be 56 51 ac 3e
       0.30812743 0.30220935 -0.25289106 0.33655804
000080 23 92 98 3e e4 a2 c1 be 2c b7 9f 3e d1 61 a2 3e
       0.29798993 -0.37819588 0.31194437 0.31715253
000090 b5 0c 8a be 6a 4a b0 be 5a df 99 3e bc 6d ba be
       -0.2696282 -0.34431773 0.30053216 -0.36411846
0000a0 2d 41 87 3e b6 93 a0 be 56 81 96 be fa df 95 3e
       0.26416913 -0.31362695 -0.2939555 0.29272443
0000b0 7a 58 77 be 7d 05 88 be 00 fe 8e 3e 38 03 a1 3e
       -0.24154845 -0.26566687 0.27928162 0.31447768
0000c0 8a 4d 91 be 4c 5d 6e be 7f cc 92 3e 9f b1 a0 be
       -0.2837947 -0.23277777 0.28671643 -0.31385514
0000d0 24 23 98 3e 5a c4 93 3e f4 b4 92 3e ae c5 b1 be
       0.2971431 0.28860742 0.2865368 -0.3472113
0000e0 63 5d 4f 3e d4 06 c5 be d4 53 94 be 52 00 90 be
       0.20250468 -0.38481772 -0.28970206 -0.28125244
0000f0 78 fd a7 be d6 38 81 be 84 30 a6 be cc ad 9e be
       -0.3281057 -0.25238675 -0.3245889 -0.30991971
