experiments/training_curves/SHAC/seed_0/best_policy.pt (torch, 167108 bytes, 63 tensors)

weight f4 [64, 3]
00000000: 584e 4ebd baee ae3e 680a f1be 0920 f2be
00000010: c9e7 8cbe 0441 263e 5a46 dabc 9c7c fd3e
00000020: f314 8dbd 95ff 3d3e 0134 31be d9c8 febd
00000030: 0c42 22bf ec86 b3be 2bce 83be 79c9 0c3c
00000040: 33b2 a63e 75e2 973e 2d0f ebbe fb66 96be
00000050: edc0 5d3e a9bd 003f 7860 59bd 9e35 da3e
00000060: 631b 01be 8c04 86bb fdfc 033f 23dd 0dbf
00000070: e998 9abe 2b38 2abe cbf7 87be d9df f63e
00000080: ef74 b0be 8efe 9bbe 27e1 bfbe 92b7 06bf
00000090: 3925 d4be f962 f63e 57cb 803e 25ba 903e
000000a0: d8f6 5cbd 46c8 8dbe 6dd1 983d a3a3 febe
000000b0: 06cc d4be e5f8 a1be eb94 ac3e 8481 a63e
000000c0: ca88 57be 8573 b93c 0d2e ba3e d827 163f
000000d0: 3f2c 9b3e 5a26 b13d 27b2 c93e 06c0 90be
000000e0: 2512 e03d 9376 04bf b10c bfbe d776 9ebe
000000f0: e5dd 9b3e 9d62 6b3e e12a aabe b489 4e3e
00000100: 7242 b83e eb3c 55bd 8f9b 843d 1047 543e
00000110: 3c61 af3e ae1a 113f 734e 00bf f945 5abe
00000120: c484 503e 0102 003f 1974 f33e ba9f 093f
00000130: ee78 743d 65bc f7be be68 043d d18d c6be
00000140: e61a 05bf 48ab f53e ad6b c03e f37f 08bf
00000150: 7b5b f33d 741d 38be 81e2 babd 8b17 8dbe
00000160: 791e 923e f3a0 b0be 0d2c 373e b252 8a3e
00000170: 7fea d33e be51 593e e5fe 1bbf ea44 babe
00000180: 3872 b33e fd01 7d3d 3b92 d6be c039 8dbe
00000190: c9e7 183f 4ac8 c73e d9ca 60be a3cc 37be
000001a0: c5b1 09bf 4d86 323d c101 febe 03c2 ddbe
000001b0: f8aa 423a 9f7f df3c 9cd1 5abe 6c47 bb3e
000001c0: e6f8 a7be f8fa 033f 5327 c63e 5c99 fabe
000001d0: 297c 20be abec ef3a 40fc 353e 3666 a83d
000001e0: f6ec 613e 52cd 8c3d d27c 8bbe 7840 783e
000001f0: aa75 27bf f6a2 9dbe 3c5d d8bd 58ac a8be
00000200: ae58 3fbe cc8e 05bf c88b 13be bb06 163e
00000210: 633d c9be 3b02 48bd 7816 cd3e 56ba 40bd
00000220: c94c 8a3b aba8 19bd 8cba 2d3e 1fd4 d33e
00000230: e95d 0a3f c006 c43e a96f 213f f9d2 dcbb
00000240: dcb9 0dbf aeef a3be f707 c63e b9ed 443c
00000250: 6d42 bdbe 8da2 d7be 7deb 0cbf 2b14 e5be
00000260: 77f9 11be dbb9 a63e a050 c13e b84b 0ebf
00000270: 05dd ad3e 37b2 ffbe 61e6 02be b5d5 81be
00000280: 3bea fdbd c7fd e6bd ddb7 14bf f074 f1be
00000290: d206 cbbd a678 453d 203e 72be 70cb 663e
000002a0: 2a8f 11bf d162 cfbd a827 003f 0ff3 94be
000002b0: 05fd 003f 15b1 543e e311 05bf 6859 bc3e
000002c0: 8291 9bbd 3843 9ebe d077 fd3e cd90 efbe
000002d0: 6aeb 8d3d 465b afbd 8e64 c83e c313 5d3e
000002e0: 6ce0 b53e 17e0 3f3e 879c b6bd 33b1 21be
000002f0: a579 f0be bfba 9e3e 540d fc3e 1543 b93e
-0.050367683 0.3416651 -0.47078252 -0.47290066 -0.27520588 0.16235739 -0.026644874 0.49509132
-0.06888761 0.18554528 -0.17304994 -0.124406524 -0.6338203 -0.35063875 -0.2574323 0.008592957
0.3255783 0.2966496 -0.45910016 -0.29375443 0.21655627 0.502894 -0.053070515 0.42619032
-0.12608103 -0.0040898975 0.51557904 -0.5541555 -0.30194786 -0.16622989 -0.2655624 0.48217657
-0.34464213 -0.30467647 -0.37476465 -0.52623856 -0.4143465 0.48122385 0.25155136 0.28267017
-0.053946346 -0.2769186 0.0746182 -0.4973422 -0.41561908 -0.31635204 0.33707365 0.32520688
-0.21048275 0.022638092 0.3636326 0.58654547 0.30307195 0.08649893 0.39393732 -0.28271502
0.10940961 -0.5174343 -0.3731437 -0.30950043 0.3044273 0.22986837 -0.3323584 0.20169717
0.35988194 -0.05206005 0.06474983 0.20730233 0.3425387 0.56681335 -0.50119704 -0.21315755
0.20363146 0.5000306 0.47549513 0.5375935 0.05968564 -0.4838592 0.032326452 -0.38780072
-0.5199417 0.4798224 0.3758215 -0.53320235 0.11882683 -0.17979985 -0.091252334 -0.27557024
0.28538874 -0.34497795 0.17887898 0.27016217 0.41389844 0.21222588 -0.60935813 -0.36380702
0.3504808 0.061769474 -0.4190844 -0.27583122 0.59728676 0.39019996 -0.2195238 -0.17949156
-0.5378688 0.04358511 -0.49610713 -0.43312082 0.0007425989 0.027282534 -0.21369022 0.36577928
-0.32807082 0.5155482 0.38701877 -0.4894513 -0.15672363 0.0018304785 0.17772007 0.0822262
0.2206305 0.06875099 -0.27243668 0.24243343 -0.65413916 -0.30788392 -0.10564658 -0.32943988
-0.18686172 -0.52171016 -0.14408791 0.14651005 -0.39304647 -0.048830252 0.40056205 -0.047052704
0.0042205793 -0.03751437 0.16965693 0.41372773 0.54049546 0.382864 0.63061005 -0.006739017
-0.55361724 -0.320188 0.38677952 0.012019568 -0.3696474 -0.42116204 -0.55046827 -0.4474195
-0.1425532 0.3256367 0.37756824 -0.5558429 0.33957687 -0.49940655 -0.12783195 -0.25358358
-0.123981915 -0.11278873 -0.58093053 -0.4715953 -0.0991341 0.048210762 -0.23656511 0.22538543
-0.56859076 -0.101262696 0.5006051 -0.2909169 0.5038608 0.20770676 -0.5198042 0.36786962
-0.07596113 -0.3091066 0.49505472 -0.46790162 0.06929667 -0.08562331 0.39139217 0.2158957
0.35522783 0.18737827 -0.08916574 -0.15790252 -0.46967807 0.3100185 0.4922892 0.36183992

bias f4 [64]
00000000: 1808 c9be d111 4d3d 920e c0be caf1 98be
00000010: 947e a1be e695 233e 57ab a3be e78e e6bc
00000020: 0256 033d ab54 ba3e 9555 efbe 374f d4be
00000030: 1377 adbe fbdf be3e 8ad6 59be a579 003f
00000040: ad02 4e3e 3a90 943d 1596 d5bc fc9c d1bd
00000050: bcff 803d 5922 dfbd ef54 90bc 8e66 5f3d
00000060: 33ad f8be 48ee adbe ab5c df3e 91f3 02bf
00000070: d6c4 2ebd f038 173f 8e84 613e 45c7 08bc
00000080: 54c3 05bf be51 9a3e 1777 dfbe 9d22 30be
00000090: fc6d 66be 0485 c8bd e055 a6bc 3028 fb3e
000000a0: 3462 813d 2ee5 063f fe0f b73e db8c a7be
000000b0: 2f16 8f3e 9343 d7be dbb3 79be cfdf 3c3e
000000c0: 922d 543e fc1e da3e c8a9 47be 4af5 893c
000000d0: c0b7 943e 12b5 0cbf abf9 e23e 5201 f6be
000000e0: a71f 723c 3d1a babd 9d71 9abe e567 b83d
000000f0: 0035 f53e fadc 2bbe a300 babe de6a 7ebe
-0.39263988 0.05006582 -0.37511116 -0.2987197 -0.31541884 0.1597515 -0.3196666 -0.028144313
0.032064445 0.36392722 -0.4674498 -0.41466686 -0.3387991 0.3728026 -0.21273246 0.50185615
0.20118208 0.072540715 -0.026072541 -0.102350205 0.062987775 -0.10895223 -0.017618624 0.054541163
-0.4856964 -0.33970857 0.43625388 -0.511529 -0.042668186 0.59071255 0.22023222 -0.008348291
-0.5225117 0.3014049 -0.43645546 -0.17200704 -0.22502893 -0.09790996 -0.02030462 0.49054098
0.06317559 0.5269345 0.3575439 -0.32724652 0.27946612 -0.42043743 -0.24385016 0.18444751
0.20720509 0.42601764 -0.1949836 0.016840596 0.2904644 -0.5496379 0.44331107 -0.48047882
0.014778054 -0.09087036 -0.30164805 0.09004191 0.47891998 -0.16783515 -0.3632861 -0.24845454

weight f4 [64]
00000000: 62a6 7d3f 40d2 843f f2de 803f f751 7c3f
00000010: 0d06 833f d22f 783f b8c7 813f 7f69 7f3f
00000020: 4e79 7f3f 8b84 793f fe76 7f3f 9baf 7a3f
00000030: 90eb 7d3f f4d4 7a3f 1428 7c3f e58d 7c3f
00000040: 69a4 7d3f b279 823f 676c 793f 5525 813f
00000050: d6c3 7e3f c909 813f 6b07 7f3f ccef 853f
00000060: 499a 7c3f fef6 7d3f d3ed 7d3f 090c 773f
00000070: 2ec4 803f 7c03 823f 00c6 7e3f 8daf 7e3f
00000080: c329 7d3f 61e0 803f faf4 7d3f ad43 803f
00000090: 179e 7d3f 7388 7f3f 615e 833f da8a 7e3f
000000a0: e715 7e3f 2729 7f3f f319 7a3f 547b 7c3f
000000b0: a0ff 7f3f f452 7c3f 4195 803f cfa9 873f
000000c0: 0176 813f c220 7e3f 9aac 7c3f b9c0 803f
000000d0: f534 803f 003b 7b3f 3686 803f ec8d 7d3f
000000e0: 75e8 813f f8b0 793f df62 7e3f 3ed3 813f
000000f0: e360 7c3f 0f76 833f 3b90 803f 0cd7 7d3f
0.99082005 1.0376663 1.0068038 0.9856257 1.0236222 0.9694797 1.0139074 0.9977035
0.9979447 0.9746787 0.9979094 0.979242 0.99187565 0.9798119 0.98498654 0.98654014
0.99078995 1.0193388 0.97431034 1.0089518 0.9951757 1.0081111 0.99620694 1.0463805
0.9867292 0.99205005 0.99191016 0.9650274 1.0059869 1.0157313 0.99520874 0.9948662
0.9889185 1.0068475 0.9920193 1.0020653 0.9906935 0.9981758 1.0263177 0.9943062
0.9925217 0.9967217 0.97695845 0.98625684 0.9999943 0.98564076 1.0045549 1.0598696
1.0114137 0.99268734 0.9870087 1.0058814 1.0016161 0.981369 1.0040958 0.9904468
1.0149065 0.9753566 0.99369615 1.0142591 0.9858534 1.0270404 1.0044016 0.9915626

bias f4 [64]
00000000: e0cd 153c cee7 0c3c f9ab 09bb a0c2 593c
00000010: b166 3b3c 1888 cdbc 53af 453b 73dc 753b
00000020: e3aa ebbb fa8a b53c a50c afbc 74f4 a93b
00000030: 2164 133c 080e bebb e63b 123c 914f 523c
00000040: 2ff3 433b 758a 803c 6b0d 413b 8680 fc3b
00000050: 1c74 263c b77d 073c a483 76bc 1c3f 15bc
00000060: 91ae 70bc 2023 91bb c945 a4bb 8b6d 45bc
00000070: b4e9 113c 3b7e 473b 06ee f33b e894 003c
00000080: 0038 e73b 4f77 70b8 8bae 6ebb c2ba 92bb
00000090: 80a5 693a eb29 d4bb ed89 16bc 30e7 6f3c
000000a0: 9b0d 983b bc6a 3b3b 6ea8 4b3c 965d 0e3d
000000b0: bb66 d0b9 3fc1 723c 5660 6cb9 1fb0 1a3c
000000c0: aa70 8a3b d14d 7e3b 54ae 803c 336c a03c
000000d0: 8e30 f0ba 7e9b 883c f7b7 073d 5518 1b3c
000000e0: f812 b0bb ec4e 873c da27 b13b ca1b 46bb
000000f0: 4579 31bb a26f 6a3b 7677 58bc 2462 cbbb
0.009143323 0.008600188 -0.0021007045 0.013291031 0.011438058 -0.025089309 0.0030164316 0.0037515431
-0.007192002 0.022160996 -0.021368334 0.005186612 0.008996041 -0.0058000125 0.008925414 0.012836353
0.0029899587 0.015691021 0.002945746 0.007705751 0.010159519 0.008269719 -0.015046034 -0.009109285
-0.014690057 -0.004429236 -0.005013202 -0.012050043 0.008905817 0.003044023 0.007444146 0.007848002
0.0070562363 -5.7331574e-05 -0.0036419954 -0.0044778297 0.0008912906 -0.0064747236 -0.0091881575 0.014642522
0.004640294 0.0028597554 0.0124302935 0.03475722 -0.00039749392 0.014816581 -0.00022542602 0.009441405
0.0042248564 0.0038803706 0.015708126 0.019582843 -0.0018325017 0.016675707 0.033134427 0.00946625
-0.005373355 0.016517125 0.005406362 -0.0030228966 -0.002708034 0.0035772105 -0.013212075 -0.0062067676

weight f4 [64, 64]
00000000: 87cf 00be 8fc4 793d 6aae 69bd ee27 8fbd
00000010: 9bfc a9bd d7ff 763d 48bc 903d 3f3a b63d
00000020: 17a9 473d 5a4d 7fbd fee8 3abd 9b62 3f3d
00000030: 9257 db3d d92b cb3c 0754 e0bc 13b2 abbd
00000040: ca27 edbd 1486 243c 4f99 85bd c187 e8bd
00000050: 784c cf3d 88fd c5bd cb95 83bc 4226 813d
00000060: 9d43 073c 26eb 95bd 2871 ccbd ab12 d73d
00000070: 8706 393d b816 aa3d 985a 71bd 217b 9e3d
00000080: 9857 53bc c37d 9cbc d9df 92bd 35ac 7a3d
00000090: 7740 5d3d 2c11 aabb 86ec 8d3c 1c99 d3bd
000000a0: d374 ae3d 1f37 acbd 5a76 723d 5e81 1abd
000000b0: 526e 67bd f0a3 dd3c 9eb9 81bd 6a83 6fbc
000000c0: e430 ee3c baf7 bdbd 6af9 8c3c 285d 443d
000000d0: 0204 8a3d c07e 3fbc c72f f0bd 1aef 73bc
000000e0: ff8a 443d ca5e 34bd 6585 193d 7b70 8a3d
000000f0: b6f0 96bd a5c5 f5b9 c3d9 6e3d 960c c9b9
00000100: 7954 183c 2236 883d dc41 cbbd 81a4 1b3c
00000110: a59c b03d b388 d63d 35b4 013e 1a93 e73b
00000120: efa8 723d 7043 28bd c6a1 d7bd d54c ddbd
00000130: 4750 0e3e ed7c 9d3d b5b1 b1bd f8f5 4c3d
00000140: 2ac2 d23d bab2 a03d 4392 d63d a683 c53d
00000150: c808 0dbd b9d8 43bd d461 c23d 9b69 bb3d
00000160: 9a69 dfbd c0f2 e23d bd7e 743d 5d21 873d
00000170: d79c 9ebd 9a09 ee3c 96ce 5fbd 2f08 ce3d
00000180: 4794 bbbc 5b40 303d a6ea b03c 6962 573d
00000190: 804d 31bd 18b7 753d 5d04 8dbd c7bb 023d
000001a0: cd48 b3bd c8f4 c0bd 1c02 b1bd 8d26 013e
000001b0: 3dc7 9f3d 623d ef3d ea8d ae3d 0575 1dbe
000001c0: 6f65 88bd 05e3 9bbc dbef 99bd e7a5 a63d
000001d0: f1e5 84bd 393b 7bbd aeff a4bd 350f b4bd
000001e0: 52b5 e73d 82a3 c13d 4e02 b83d bef8 b63d
000001f0: 94d9 ec3d 4951 f6bd 4f00 5f3d e988 963d
00000200: d445 2f3d 711b f23d b98a 7f3d 5917 843d
00000210: 42fd 3cba 8fac 623d d64a 013c e807 01bd
00000220: 4184 a2bd d32a 1dbd de10 a6bd 9af8 ab3d
00000230: b3cc aa3d 10a6 9bbb 0fd4 b9bd 8af7 c73d
00000240: 4a5a 903d df8f 993c 971e 80bd 2165 093e
00000250: 3ea4 653d 8c33 c3bd d259 e83d 227a 213d
00000260: ff53 48bd 9ab5 6b3d 9678 83bd cf9d e3bc
00000270: 0103 b53d 64e7 da3c 5835 b9bd f116 73bd
00000280: f0f5 63bd 07ec dfbc 4a56 6a3c 86b7 db3d
00000290: ed09 20bc 96e6 a8bd 2d88 46bd 16a3 983d
000002a0: d064 7f3d a24d eabd 6dfe e5bb 5549 cabd
000002b0: a519 82bd 5656 2a3d b89e bfbd 37f9 a73d
000002c0: ffab c23d 575f 893c 94d8 72bd e269 25bd
000002d0: 4a17 c3bc 712c c9bd 250b c73d 11e9 eebd
000002e0: db67 06be aecb ffbd e8fe aebb 8b77 cf3d
000002f0: c80e ffbd c6dc cf3d bb19 4fbd 9d20 0e3d
00000300: 14e4 063c 43fa 21be e1ca d73d c573 8c3d
00000310: a262 043e 0f31 913d 42cb f0bd 9a93 de3d
00000320: 36a1 2e3b f4ef 4c3d 15ab c7bd 3360 00bd
00000330: b6f3 08be 4aca 34bd 302f da3c 2f3b cabd
00000340: 574f ed3c 3b4e dc3d b803 463c 6b55 a0bd
00000350: 9163 acbd ef42 f9bc 323c 783d a4eb cb3d
00000360: eea0 c43d cec0 4bbc ad14 253d 9849 f6bd
00000370: 4bfd debd 1db1 9a3d f83d 82bd 2e74 2c3d
00000380: 1806 b2bd d597 6ebd 8afa c8bd 3764 883d
00000390: b648 29bc bfa7 bd3d 0ab9 493d 2a2a 893d
000003a0: 5083 353c 7cc3 86bd d651 24bd c121 46bb
000003b0: 1d29 4c3d 836c b0bd 5594 ea3d dcb9 ce3c
000003c0: 9994 f9bd 9f19 93bd f333 e53d 4b41 023e
000003d0: fcdd 14be 6a35 b73d 4d81 e43c 9db5 c13d
000003e0: e6e9 c53d 36b4 8abd 8b8c 2c3d 5480 743d
000003f0: 78a6 32bd 60a6 fc3d 4c68 03bd 86f7 e93d
-0.12579165 0.06097847 -0.0570511 -0.06990038 -0.08300134 0.06030258 0.07067162 0.08897828
0.04874524 -0.062329628 -0.045632355 0.046724897 0.10710062 0.024801182 -0.027383817 -0.08383574
-0.11579855 0.010041732 -0.06523382 -0.11354018 0.10122007 -0.09667498 -0.016062638 0.06306125
0.008255866 -0.07320242 -0.0998252 0.105016075 0.04517224 0.083051145 -0.058924288 0.07738329
-0.012899302 -0.019102937 -0.07171602 0.061199386 0.054016557 -0.0051900353 0.017324697 -0.10331938
0.08518376 -0.08408951 0.0591949 -0.03772103 -0.056501694 0.02705571 -0.06334232 -0.014618734
0.029076047 -0.09275766 0.017208774 0.047940403 0.06739046 -0.011687934 -0.11727863 -0.014888549
0.04798412 -0.04403571 0.03748073 0.06759735 -0.07370131 -0.00046877298 0.058313143 -0.00038347085
0.009297484 0.0665095 -0.09924671 0.00949967 0.086236276 0.10475292 0.126664 0.0070670964
0.05924314 -0.04107994 -0.10528903 -0.1080567 0.13897811 0.07689843 -0.08676473 0.05003926
0.1029094 0.078465894 0.10477116 0.096442506 -0.034432203 -0.047814105 0.094913155 0.09151002
-0.10908814 0.11081457 0.05969118 0.065981604 -0.077447586 0.029057313 -0.054640375 0.10060155
-0.022897853 0.043030124 0.021596264 0.052584086 -0.0432868 0.059989065 -0.06885598 0.03191736
-0.0875412 -0.09421688 -0.086429805 0.12612362 0.078016736 0.1168163 0.08523162 -0.1537667
-0.06659972 -0.01902915 -0.07516452 0.08137112 -0.0648917 -0.061335776 -0.080565795 -0.08791963
0.11313881 0.09455015 0.089848146 0.089341626 0.11564937 -0.12027223 0.054443654 0.07350332
0.042791203 0.1182164 0.062388156 0.06449766 -0.0007209369 0.055340346 0.007891377 -0.03150168
-0.07935382 -0.03837092 -0.08108686 0.08397026 0.083398245 -0.004750021 -0.0907365 0.09764011
0.07048471 0.01874536 -0.062558345 0.13417484 0.056064837 -0.09531316 0.11345257 0.039423116
-0.04890823 0.057546236 -0.06419484 -0.02778521 0.088384636 0.026721664 -0.09043378 -0.05934805
-0.055654466 -0.027334226 0.0143027995 0.10728364 -0.0097679915 -0.08247106 -0.04846971 0.07452981
0.062352 -0.114405885 -0.0070188553 -0.09877268 -0.063525476 0.041586243 -0.09356445 0.08201831
0.09505462 0.016769094 -0.059288576 -0.04038418 -0.023814816 -0.0982293 0.097189225 -0.11665548
-0.13125555 -0.12490021 -0.005340446 0.10130223 -0.12453991 0.10149531 -0.050561648 0.03469907
0.008233089 -0.15818124 0.10536743 0.06858019 0.1292825 0.07089435 -0.11757518 0.108679965
0.0026646382 0.050033525 -0.09749428 -0.031341743 -0.13374218 -0.04413823 0.026633829 -0.098745696
0.028968496 0.10757109 0.012085848 -0.07828792 -0.08417428 -0.030427424 0.06060428 0.09957054
0.096010074 -0.012436105 0.04030292 -0.12025756 -0.108881555 0.07553313 -0.06359476 0.042102985
-0.086925685 -0.058250267 -0.098134115 0.066597395 -0.010332277 0.09260511 0.049248733 0.06697495
0.011078671 -0.065802544 -0.040117107 -0.0030232521 0.049843896 -0.08614447 0.11454073 0.025235109
-0.12186546 -0.07182621 0.11191549 0.1272022 -0.14537805 0.08945735 0.027893687 0.09458468
0.09663753 -0.06772654 0.04212622 0.059692696 -0.04361579 0.12336421 -0.032081887 0.114241645

bias f4 [64]
00000000: 3faa 8dbd b91e b73c 4de0 f53d 7227 943c
00000010: 0549 78bd fe51 623b d888 b5bd 9268 b0bd
00000020: 1805 12bd 9fc5 71bd 1789 c63d 0780 6f3c
00000030: bc23 c43d 1540 c9bc 419e 75bc 7fa1 0b3d
00000040: 4bfa 12bd 40f5 1dbd 5291 f5bd 93af 9a3d
00000050: 1cff 013e 5f24 01be ece9 2fbd 1c85 c6bd
00000060: fa5c 82bd 1691 bb3d c2ae 853d 9dff aebc
00000070: d1a8 4c3d 0b41 b13c 13c6 843d b3d4 d9bd
00000080: 446e b53c 8a65 09be eeeb c6bd 84b8 5bbd
00000090: ef73 cebc f05e f4bd 7d83 59ba 8c2e 483c
000000a0: 96b9 61bd 7843 233d 0332 ba3d f191 c0bc
000000b0: 313e 68bd f45c fabd 4613 c0bd 76d6 a2bd
000000c0: 7f84 bfbd a3a8 33bd 7977 533d 6e6c e83c
000000d0: a1d8 c83d bdc8 f03d e5cc 54bd aeab 49bd
000000e0: 7111 b73b e1ac b9bd 8842 983d d926 7ebc
000000f0: 4337 e0bd e311 c9bd 89c4 acbd 3d6f 063d
-0.069172375 0.022353517 0.120056726 0.018085215 -0.06061651 0.0034533734 -0.088639915 -0.08613695
-0.03564939 -0.059026357 0.096941166 0.014617926 0.09577128 -0.02456669 -0.014991344 0.03408956
-0.03588323 -0.038563967 -0.11990608 0.075530194 0.12694973 -0.1261153 -0.042947695 -0.09693357
-0.0636539 0.09158532 0.06527473 -0.02136212 0.049965683 0.02163746 0.06483092 -0.10636272
0.022147305 -0.1341764 -0.09712969 -0.053642765 -0.025201766 -0.119321704 -0.00082974863 0.012218129
-0.05510863 0.039859265 0.0909157 -0.02350709 -0.056699935 -0.12224761 -0.09378676 -0.079510614
-0.093514435 -0.043861996 0.05162761 0.028372016 0.09806944 0.11757038 -0.051953215 -0.049235992
0.005586796 -0.09066177 0.07434565 -0.015512192 -0.1094804 -0.09817865 -0.084359236 0.03282093

weight f4 [64]
00000000: a0c8 7d3f 2528 7f3f 0679 7f3f b452 823f
00000010: 45aa 813f fd2e 803f 0dc3 813f 3f57 7d3f
00000020: c33c 843f 275d 843f 2669 803f ea28 813f
00000030: e452 803f 2183 813f 25cb 813f 6b3c 803f
00000040: d12f 823f 85b3 803f d8fa 7d3f 4a9b 7d3f
00000050: 7155 833f 1f76 7f3f bf8b 823f 5072 7f3f
00000060: beaf 7a3f edf8 7c3f a9fa 823f cd98 803f
00000070: 7630 813f f6dd 823f b568 813f bf1d 823f
00000080: cc8e 7e3f c092 7b3f 0cdf 7d3f a3b6 7e3f
00000090: 0d82 7e3f f17a 7c3f 9e30 803f 3ef3 7e3f
000000a0: 8611 803f 5fde 7e3f dd52 7c3f 92ae 7c3f
000000b0: 9815 823f 44ec 7b3f 770d 813f 109a 823f
000000c0: a3aa 783f 2d4c 813f 3f81 833f 201b 803f
000000d0: fad1 7d3f 24c8 783f 273b 803f cc9a 833f
000000e0: 1a56 833f 1241 873f 8cb7 843f e329 853f
000000f0: 6eea 7e3f 6a5b 7a3f 2fe4 7d3f 93d9 823f
0.99134254 0.9967063 0.9979404 1.0181489 1.0130087 1.001434 1.013765 0.9896125
1.0331043 1.0340928 1.0032089 1.0090611 1.0025296 1.0118142 1.014012 1.0018438
1.0170842 1.0054785 0.9921088 0.9906508 1.026045 0.99789613 1.0198897 0.997838
0.9792441 0.9881733 1.0232745 1.0046631 1.0092914 1.0223987 1.0110079 1.0165328
0.9943664 0.982708 0.9916847 0.9949743 0.9941719 0.98625094 1.0014837 0.9958991
1.0005348 0.9955806 0.9856394 0.98703873 1.016284 0.9840739 1.0082234 1.0203266
0.9713537 1.0101372 1.0273818 1.0008278 0.99148524 0.9718039 1.0018052 1.0281615
1.0260651 1.0566733 1.0368514 1.0403408 0.9957646 0.97795737 0.99176306 1.0222648

bias f4 [64]
00000000: c6ab 0a3b d6e8 c93a b353 b7ba 2737 02bb
00000010: 0bb0 d5ba 7642 83ba 4e89 04ba f850 d1ba
00000020: 4a80 e43a 7761 f7ba ea3b 07bb 8dd9 033b
00000030: 3c61 dfba e719 483b 5ad1 db3a a8fe 053b
00000040: f6b3 243b 6201 feba a8a1 b43a b516 6abb
00000050: 2ca4 c1ba f7ea 173c af3d 543b d165 1a3b
00000060: ebd3 aa3a b8ba c23a fab9 403b da44 81bb
00000070: 5637 d73a 38a4 c43a 52bf ffba 804b 643b
00000080: 19f2 b3ba 8130 8dba 0301 e53a 8192 823b
00000090: 0005 ba3a 85a4 f0ba 1b9b 1e3b c011 153b
000000a0: d2fc 013b ef74 9c3a 5624 ffba ecd7 b03a
000000b0: faad b13a 5305 013b 2a1f de3a ea4a 36bb
000000c0: 1971 9e3c ac64 d43a 9951 f83a ad68 61ba
000000d0: 1f77 cc3a 4cc8 cd3a 8966 413a 7db5 c5ba
000000e0: 6de8 0d3b a18a 96ba 05c0 df3a f6c8 aeba
000000f0: 50c9 a53a d370 523c c282 23b9 0d15 f43a
0.0021159514 0.0015404474 -0.0013986736 -0.00198693 -0.0016303075 -0.0010014314 -0.00050558604 -0.0015969565
0.0017433253 -0.0018873651 -0.0020635077 0.0020118684 -0.0017042528 0.0030533017 0.0016770766 0.0020445976
0.002513168 -0.0019379074 0.0013781087 -0.00357191 -0.0014773658 0.009272329 0.00323854 0.0023559222
0.0013033127 0.0014856672 0.0029407726 -0.0039449753 0.001641969 0.0015002554 -0.0019511974 0.003483504
-0.0013728767 -0.0010771902 0.0017471615 0.00398475 0.0014192164 -0.0018359578 0.0024201337 0.0022746176
0.001983453 0.0011936704 -0.0019465785 0.0013492084 0.0013555877 0.0019687011 0.0016946543 -0.0027815648
0.019341039 0.0016204319 0.0018945216 -0.0008598667 0.0015599466 0.0015699952 0.00073776447 -0.0015083995
0.002165343 -0.0011485406 0.0017070776 -0.0013335038 0.0012648497 0.012844282 -0.00015593602 0.0018621996

weight f4 [1, 64]
00000000: 534b b33d f1a6 c53d 9a1e 0ebd f21c babd
00000010: e46e 8dbd 7324 b3bd d78a 3dbd f608 d3bd
00000020: a5ce c93d 86a9 1abe 7f6d a7bd 02cf bf3d
00000030: ecd8 c5bd fe67 2f3d 7221 dd3d ac82 003e
00000040: c09a a33d c920 28bd 6f21 843d f596 443c
00000050: 7dad 82bd d108 8dbc 49cb 453d f242 a83d
00000060: 289b 043d 5611 483d a81f 2d3d 5232 a4bc
00000070: 6f8c 803d 270d 573d 5836 06be 46e6 1b3d
00000080: 5068 50bd 13e7 4bbd 78d7 283d ffeb c13c
00000090: 06a0 9b3c b7d2 3ebd 0074 763d 8489 e83d
000000a0: b792 a53c 2ea4 453d 5ab6 c3bd bcbb 7c3d
000000b0: b862 753d 9ead 253d 0548 793d b0e9 54bd
000000c0: 9343 ccb9 f37e 063e 7654 f23d 4951 babd
000000d0: 1500 bb3d dc0b c43d 3a96 b53c 6921 00be
000000e0: 16c1 4c3d b63e 96bd d211 003e af80 22be
000000f0: 9882 f83c 14ef e5bb 6ab4 2a3c 9149 dc3d
0.08754601 0.09650982 -0.034697153 -0.09087552 -0.06905916 -0.087471865 -0.046274986 -0.103044435
0.098538674 -0.1510373 -0.081751816 0.093656555 -0.09660515 0.042823784 0.10797395 0.12549847
0.079885006 -0.04104689 0.064516895 0.011998882 -0.063807465 -0.017216118 0.04828957 0.08215894
0.03237453 0.048844658 0.042266518 -0.020043526 0.062767856 0.052502777 -0.13106668 0.038061403
-0.05088073 -0.049780916 0.041221112 0.023672102 0.018997204 -0.046587672 0.06016922 0.11354354
0.02021156 0.048252277 -0.09556265 0.061702475 0.0599086 0.040448777 0.0608597 -0.051980674
-0.0003896026 0.13134365 0.11832516 -0.09097535 0.09130875 0.095725745 0.02216636 -0.12512745
0.04998883 -0.0733618 0.12506798 -0.15869401 0.03033571 -0.0070170257 0.010418991 0.10756219

exp_avg f4 [64, 3]
00000000: 085b 83ba 338a 90ba 7374 763b e9f5 5d3c
00000010: 1198 9ebb 8bef 233d b300 883a c3a8 303a
00000020: 1855 0ebc 36be 6bbb 030d f7ba d91b 423c
00000030: 6208 bd3a 5732 a73a a273 44bb 1a4a 863b
00000040: 9f74 4fbb 5fb7 083c ad0c 283c 3760 d6bb
00000050: ecfc 133d 26bc aa3a da1a 39bb 32dc 09bc
00000060: a9bc 043c 705a 2fbb 107b 043d 8c31 9539
00000070: 59d5 81ba 85a8 04ba 04a9 1dba f164 3939
00000080: 6e61 7ebb d6f0 64ba a173 07ba e3bd b1bb
00000090: 3563 303b 0208 20bb 41b4 f73b c635 6d39
000000a0: 02fa e03b 3419 3cbc 8f64 18bb f11e e8ba
000000b0: 0e16 d33b 0855 3939 c5eb 88ba ef9b 373c
000000c0: eb7f 9b38 d333 81ba 3907 48ba 36d1 33ba
000000d0: 16a7 d5bb a6a4 a6bc 5b1b 523a 6cf9 64bb
000000e0: 883d 143c e172 913b 0c44 2d3b 0a3e 18bc
000000f0: f3c5 81bb 00ae 2abb ee2c 0b3b 77fc 7ebb
00000100: 7690 2abb 6793 fc39 db85 05bb 9d4c c6b9
00000110: 8b74 85bb 6604 ba3b b9c5 283c 0b88 77bb
00000120: 2673 9eb8 940b 4bba 88f2 78bb 87bd c33a
00000130: 1e20 203b 6dd6 86bc 43fc 28bb d7a6 a13a
00000140: 9da9 8bbb b72e 043c bd8c ae3b 5140 86bc
00000150: 060e e239 ea62 be3b a900 90bb b483 39bc
00000160: 4352 22bc d286 b33c 27b3 34b8 83c6 0438
00000170: 48bf 59ba cbf4 09ba 321d ba3b 0817 f6bb
00000180: 6969 5cbb ecaf 98ba a45e 7e3b 912f d9bb
00000190: 9f7b 4f3b 9f08 00bd 0390 81ba 24f5 2f3a
000001a0: a2e0 af3a 3fbc 7b3b 55bf de3b 6112 a9bc
000001b0: 599a 753b 5581 583b 468b 34bc ed73 9a3a
000001c0: 4568 f3ba 7376 613c 118f 63ba c560 0d3c
000001d0: 0bea f0bb 3763 ed3a 633e 1fbc e2f0 cc3c
000001e0: befd a73b 8870 d03a da97 51bc 952d 0fbb
000001f0: 5334 743c 1645 bcbc ed14 34bb 276e 573b
00000200: 0df2 9abb f299 9d3b 6447 5bbb 7023 c43b
00000210: 3aaf e73b fd11 61bb ce8c e63c 0b73 39a9
00000220: d09d 9228 97a0 cbaa 95a9 44bb 7ffa cbb9
00000230: a69e 19bc 83d1 3fbc d11c e6bb 5754 95bc
00000240: 6442 e83b 0fc8 23bb 01af ca3c 050e 2bba
00000250: 0447 053c 7b40 b4bc 1f57 1d3a 943a 0639
00000260: 0e8d e93a f847 ad3a 493f c0ba c828 7a3b
00000270: 05eb 803b edbd 2d3c 6488 b5bb ebf8 3839
00000280: 65d8 f137 926f 643a fff4 d93a 9786 903b
00000290: f890 61bc 29a1 78bb d28f 183b eeda 9bbc
000002a0: 1ad8 b83b 86e7 53bb 021c c43c 072c 253a
000002b0: 5c79 513a 6aee 89bb 8532 933a 0c8f 263a
000002c0: dd9c 883b aa6d 903a c58c d339 b409 87bb
000002d0: 693a 00bb efcc a6ba bc47 703c 49d9 29bc
000002e0: 2d68 ea3a e84f 2dbd 80d5 d03a 082b 233b
000002f0: 75b2 06bc aef5 1abb 2cf6 9dba 7c39 0bbc
-0.0010021636 -0.0011027515 0.003760603 0.013547399 -0.004839905 0.040023368 0.0010376185 0.00067390146
-0.00868728 -0.003597153 -0.0018848482 0.01184746 0.0014422054 0.0012756091 -0.002997615 0.004098189
-0.0031655205 0.0083445 0.010256928 -0.0065422314 0.036129877 0.0013026043 -0.0028244765 -0.008414315
0.008101621 -0.0026756786 0.032343924 0.0002845641 -0.0009905502 -0.0005060512 -0.000601426 0.00017680578
-0.0038815397 -0.0008733397 -0.00051670714 -0.0054242476 0.00269146 -0.0024418836 0.0075593297 0.00022622113
0.0068657408 -0.011480618 -0.0023253297 -0.0017709417 0.006441838 0.00017674651 -0.0010446241 0.011206611
7.4148025e-05 -0.0009857364 -0.0007630471 -0.0006859483 -0.0065201623 -0.020342182 0.00080149405 -0.0034938706
0.009047873 0.0044387435 0.0026438264 -0.009292135 -0.003960365 -0.0026043653 0.0021236497 -0.0038907805
-0.0026026047 0.0004817501 -0.0020373974 -0.00037822584 -0.004072731 0.005676794 0.010301047 -0.0037770297
-7.555475e-05 -0.0007745561 -0.0037986357 0.0014933803 0.0024433206 -0.016459668 -0.0025785125 0.0012333047
-0.004262163 0.008067778 0.005326836 -0.01638809 0.00043116527 0.0058101313 -0.00439461 -0.011322904
-0.009907308 0.021914873 -4.3082193e-05 3.165613e-05 -0.0008306396 -0.0005262612 0.00567975 -0.0075100698
-0.0033632165 -0.0011649108 0.0038813734 -0.006627985 0.0031659377 -0.03125822 -0.0009884838 0.0006712249
0.0013418386 0.0038411764 0.006797711 -0.020638647 0.0037476032 0.0033036072 -0.0110195335 0.0011783816
-0.0018570503 0.013761151 -0.00086806813 0.008629029 -0.007352119 0.0018111233 -0.009719464 0.025017206
0.005126684 0.0015902678 -0.012792552 -0.0021847237 0.014905053 -0.022982161 -0.0027478293 0.0032872052
-0.0047285617 0.0048096115 -0.00334593 0.00598567 0.007070449 -0.0034342997 0.028143313 -4.1178036e-14
1.6277696e-14 -3.6171475e-13 -0.0030008305 -0.0003890581 -0.009376204 -0.011707666 -0.007022478 -0.018228693
0.0070879925 -0.002499107 0.024741651 -0.00065252214 0.008134607 -0.022003403 0.0006002057 0.00012801058
0.0017818527 0.0013220301 -0.0014667298 0.003817128 0.0039342665 0.010604364 -0.0055399407 0.00017640337
2.8830205e-05 0.0008714135 0.0016628801 0.0044105756 -0.013767473 -0.0037937856 0.0023279083 -0.019025292
0.0056409957 -0.0032334044 0.023939136 0.0006300811 0.0007990801 -0.0042093294 0.0011230266 0.0006353713
0.00416909 0.001101901 0.00040349938 -0.0041210297 -0.0019566065 -0.001272587 0.01466554 -0.010366746
0.001788383 -0.042312533 0.0015932769 0.0024897475 -0.008221258 -0.0023644972 -0.0012051514 -0.008497592

exp_avg_sq f4 [64, 3]
00000000: ecfd 7939 9c2f 5f39 f561 543c df15 683a
00000010: 1397 bd3a c151 bb3d 8667 0e38 1c24 b838
00000020: 6138 243b 7cf3 6b38 ac3b ec37 d826 0a3b
00000030: 89c7 a937 10b3 0238 deae 853b f8f6 cb3a
00000040: 813d 0a39 003a 123b 689e 3c39 7527 9b39
00000050: dfdb ac3c ecea 1e3b 4992 363a 139f bd3c
00000060: e507 503a ea9f 9239 0b28 3a3c 2a65 fa38
00000070: a79c 2239 1097 3c3c de74 d836 9d2f 9f36
00000080: 7677 f539 6df9 0738 bb5d 3f38 e092 873b
00000090: db25 8438 92fa 2238 107c da3b ff55 a03a
000000a0: a7e3 8f39 45ba 8d3b b3bb ae38 b10f 9b37
000000b0: 8d5e 7d3a 18a1 c739 8dee 3439 0281 1c3c
000000c0: dc9d 7339 1b6d 0539 787f e83b 012b 233c
000000d0: 9102 b73a 645a 093d 7bdc 183a f564 5f39
000000e0: f0c2 153c 9552 2739 6eb8 f438 69af 893c
000000f0: 7d3d 1239 371d dc37 ff52 0a3b 6808 c83a
00000100: 8608 4b38 278b 0a3a 6d11 c53a b938 4639
00000110: 4bb4 de3b 66b2 e43b 9eeb 673b 9adc 243e
00000120: f957 5138 8699 1a38 07e9 f53a aa4b 1539
00000130: 6113 1739 2d74 533c d890 883a 57cd 4d38
00000140: c095 e539 998a 4e39 e75e e037 06ce 213a
00000150: 327b 293b 83d7 a739 644d be3b dd68 883b
00000160: 8136 9d3a 6bc1 4a3d 6efc 2e3a e3ff 8938
00000170: 4eb3 803b c540 bf3a 8034 fd39 1bc7 893c
00000180: 7775 1839 65fb d038 93cf c23b c4fc 5c3b
00000190: f418 0b3a f139 bd3c b619 f838 7948 0139
000001a0: 5647 903b 28ca 4a3a 1d5e 423a 7a4c 013d
000001b0: 9771 ea38 78cc 7338 ee25 543b 5450 e139
000001c0: 9972 ab38 ffb7 f33b 6f87 953b 6552 dc3a
000001d0: 3bcb 843d f008 483b 0da9 b439 fa33 5a3b
000001e0: e623 083a c4ba 8c38 b1c2 2c3b 8496 883b
000001f0: 21b9 f239 5066 9c3b 95d1 b939 291f 9538
00000200: 8283 b73a afe3 7038 7471 8c38 3352 e33b
00000210: 6ae8 2f39 7124 fd38 dc5d bf3b 1b40 a934
00000220: 5a03 6733 3517 cc37 45dd 003a 196c 9739
00000230: 6c64 6e3c a4a9 fb3b 8a04 c53a c835 1d3d
00000240: be34 293a 41a1 073a 534a f63c 8ca7 983b
00000250: 060a e939 610b cb3b 2ee1 de36 c82b d636
00000260: bfe0 df39 ac2a a13a 138b 1d38 c8bb 883a
00000270: 4cc7 c43b 52d4 873a 11b1 cd3c 5e9a 8b35
00000280: ede4 3a36 a806 5539 3920 9638 ad48 f138
00000290: 3e68 e93b 9781 4538 d8aa a938 f4c6 9c3b
000002a0: 8fbb 7239 0691 5239 953c 5e3c 6989 8f38
000002b0: 9b36 3438 91d8 923b 16f2 3c37 8a38 e537
000002c0: 74ac 003b 9983 703a a740 3c3a 8dc0 4c3d
000002d0: 8b05 a639 da72 d337 a241 473a 7b6a ec3b
000002e0: 1f1d a33a a146 643d f4aa f438 4b32 3a39
000002f0: c8b9 273c f56d b439 c236 7a39 c85d 2c3c
0.00023841084 0.00021284673 0.012962808 0.00088533567 0.0014464579 0.09146453 3.3951852e-05 8.7805296e-05
0.0025058019 5.625513e-05 2.816118e-05 0.0021080282 2.0239286e-05 3.116118e-05 0.0040796837 0.0015561273
0.00013183618 0.0022312403 0.00017988088 0.00029593302 0.021100936 0.002424891 0.0006964547 0.023147142
0.00079357467 0.00027966435 0.011362086 0.00011939772 0.00015507881 0.0115106255 6.4509068e-06 4.744112e-06
0.00046819047 3.2418804e-05 4.5625242e-05 0.004137382 6.3013016e-05 3.885717e-05 0.0066676214 0.001223266
0.000274447 0.0043251836 8.331928e-05 1.8484747e-05 0.0009665273 0.00038076262 0.00017255005 0.009552242
0.00023233093 0.00012724513 0.0070952736 0.009958983 0.0013962557 0.03353347 0.0005831194 0.00021304547
0.009140715 0.00015957125 0.000116691794 0.016807275 0.00013946551 2.6239648e-05 0.0021106598 0.0015261294
4.840691e-05 0.00052850175 0.00150351 0.00018903882 0.006796395 0.0069792746 0.0035388242 0.16099778
4.9911414e-05 3.685944e-05 0.0018761464 0.00014237934 0.00014407701 0.012906116 0.0010419143 4.9067046e-05
0.00043789856 0.00019697323 2.6747073e-05 0.00061723625 0.0025860784 0.0003201329 0.0058075655 0.0041628913
0.0011994393 0.049500864 0.0006675188 6.580332e-05 0.003927625 0.0014591446 0.00048295036 0.016818574
0.00014539609 9.965039e-05 0.005945155 0.0033719996 0.00053061475 0.023098918 0.000118303506 0.00012329397
0.004403035 0.0007735812 0.00074145367 0.031567074 0.00011179147 5.812614e-05 0.003237124 0.00042975193
8.175261e-05 0.0074377055 0.004563264 0.0016809223 0.06484076 0.0030522905 0.00034458228 0.003329514
0.00051933376 6.710508e-05 0.0026361162 0.0041683335 0.0004629577 0.004772939 0.000354421 7.110678e-05
0.0014000984 5.7432506e-05 6.6968525e-05 0.006937289 0.00016775882 0.00012070768 0.0058400463 3.1525346e-07
5.3786927e-08 2.4329502e-05 0.0004915784 0.00028881503 0.01455031 0.007680135 0.001503126 0.038381368
0.00064546976 0.000517387 0.030064737 0.004658645 0.0004444869 0.006196425 6.64233e-06 6.382794e-06
0.00042701323 0.0012296042 3.756124e-05 0.001043194 0.0060052034 0.0010362959 0.025108846 1.0401234e-06
2.7849412e-06 0.00020315743 7.158559e-05 0.000115053124 0.0071230223 4.708915e-05 8.09037e-05 0.0047844592
0.0002314879 0.00020081186 0.013564249 6.844366e-05 4.29662e-05 0.004481383 1.1262038e-05 2.7325255e-05
0.001963404 0.0009174883 0.0007181265 0.04998832 0.00031666117 2.5206642e-05 0.00076010276 0.007214842
0.0012444592 0.05573142 0.00011666669 0.00017757078 0.010237165 0.000344142 0.00023862257 0.010520406

exp_avg f4 [64]
00000000: a64f b6bb 8df3 7db9 11a4 923a b9e8 61bb
00000010: 2c4b 1d3a dd85 003c 544b 973b 7454 de3b
00000020: 5a91 863b d816 cbba a614 ddb6 d52e 1939
00000030: f921 833a cb9f 0cba 219c dfba 25cd d4ba
00000040: 73c4 7a3b 3c87 493b 4723 4a3b 9314 1c3b
00000050: e0db 6bbb cb9d 83bb 9c47 4e3b e643 a53c
00000060: 8430 ff3a 4c77 093c dcc5 c1ba 814e 1e3c
00000070: d550 293a 0383 95bc fdf9 35bb 048e 4f3b
00000080: a0f1 82b9 1417 e5ba 088e 943a b78d 643c
00000090: a4ff f13b 45f9 b33b 48d9 183c ddfe ebba
000000a0: 875d b93b 2b00 17bc f3b0 83bb deeb 7bba
000000b0: 49e5 d73b 5bab 4d29 94f6 093b 0769 15bc
000000c0: dd58 9dba 11f0 043b 0fa6 93b9 af20 a6ba
000000d0: b9de 333c 6f3a 58b9 baf8 8fbb bcf8 4abb
000000e0: adaa b43a 0a9a bcba 39d6 24ba 08da bfbb
000000f0: 9b22 69ba 8bb9 5c3a 79b2 bd3b 512d 4d3b
-0.005563694 -0.0002421869 0.0011187812 -0.003447099 0.0006000276 0.0078444155 0.004617134 0.00678497
0.0041066827 -0.0015494479 -6.588717e-06 0.00014608663 0.0010004631 -0.0005364387 -0.001706008 -0.0016235454
0.0038264066 0.0030750772 0.003084378 0.0023815974 -0.003598921 -0.004016613 0.0031475788 0.020173978
0.0019469415 0.008390259 -0.0014783698 0.0096622715 0.0006458883 -0.018250948 -0.0027767413 0.0031670341
-0.00024975557 -0.0017478191 0.0011333833 0.013949803 0.007385211 0.0054923617 0.009329148 -0.0018005032
0.0056569013 -0.009216349 -0.0040188967 -0.0009610037 0.006588612 4.566777e-14 0.0021051513 -0.009119279
-0.0012004633 0.0020284692 -0.00028161748 -0.0012674535 0.010978394 -0.00020621133 -0.004393664 -0.003097101
0.0013783776 -0.0014389169 -0.0006288025 -0.005854849 -0.0008893401 0.0008419982 0.005789098 0.0031307528

exp_avg_sq f4 [64]
00000000: 724d 643a dd2f a73b e837 2039 3e5c 0c39
00000010: b6ed 1639 7bb4 f53a 92ef 873a 9d0b 893b
00000020: 46de b93a 8a60 203a 1d27 ac37 a822 4739
00000030: 8fef 8939 973c af3a be4e de38 add5 713a
00000040: 8386 0d3a b193 4d3c 868f 9c3a 90df 4c3a
00000050: 7f47 5139 140a d03a 9f2f 043b 2172 5b3c
00000060: 0c45 1b39 f73d 2b3a 1d81 8d3a 75ff 6939
00000070: 4078 353b e809 cc3b 6b5f 413a 3eac 083b
00000080: e006 f339 0a28 9e3b fe8c ad39 f23f 173b
00000090: f8f7 9539 bf1b 263a 9825 e13b c5d4 503b
000000a0: f50f 203a 6f3b 9b3b fb7d cc39 0d89 9139
000000b0: 7321 ec39 4499 cf34 ab7f 9b3a 710a 0f3c
000000c0: 9f05 103b 3160 993b 23ff 7c37 52fc a33a
000000d0: 7c7a d13b f820 9336 ca4b 1e3a 4e7d 8439
000000e0: 2e92 603a 20aa 5739 1f28 9338 0fec 593b
000000f0: 7db3 af39 b910 343c 52fc 193a bcad 783a
0.000870905 0.0051021413 0.00015279616 0.00013385803 0.00014393669 0.0018745804 0.001037108 0.0041822926
0.0014180623 0.0006117901 2.0522211e-05 0.0001899103 0.0002630916 0.0013369498 0.00010600452 0.00092252606
0.0005398767 0.012547419 0.0011944629 0.0007815296 0.00019958428 0.0015872144 0.0020169986 0.01339391
0.00014807674 0.0006532366 0.0010795925 0.00022315777 0.0027690083 0.006226767 0.0007376584 0.0020854617
0.00046353694 0.0048265504 0.0003310218 0.0023078886 0.00028604246 0.0006336532 0.0068709366 0.0031865102
0.00061058934 0.0047373096 0.00039003775 0.00027758666 0.0004503835 3.866827e-07 0.001186361 0.008730517
0.0021976007 0.0046806564 1.5079774e-05 0.001251111 0.006392775 4.3847795e-06 0.0006038515 0.0002527036
0.00085667043 0.00020567374 7.016979e-05 0.0033252274 0.0003351233 0.010990315 0.00058740855 0.00094863377

exp_avg f4 [64]
00000000: 7d7f 7e3a 6130 45bb 0ba1 0fbb 1371 6739
00000010: f3a0 d7ba 74f7 6f3a 7952 89ba f300 d039
00000020: ce7f 293c f490 a03a 9822 533b 0d1b 693b
00000030: 16ec 0bb8 1794 883a 4f4e b8b8 311a 523b
00000040: 7c79 4d3b ada3 21bb d4d5 2f3b eb16 24ba
00000050: 458f 6c39 04fa beb8 e4fe 8aba 88a5 92bb
00000060: b0ef 78bb df5c 823b 938f cb3a 986d a73b
00000070: 5994 03ba 5d90 31bc 9b99 d53a f03c 31ba
00000080: 4a90 17bb 91eb 9dbb 5e57 13bb 68dc b9ba
00000090: ee58 89ba 8fc0 d83b 5705 d5bb f490 8c39
000000a0: 244d 643b 392c 09bc 6eae fdba 6149 93ba
000000b0: 89de 0e3c 3b6b 173b 8094 cdbb 73a9 89bb
000000c0: 22b6 3f3b e417 4b3b 3652 cfb9 e101 073a
000000d0: 512a 8dbb 2111 753b 317e 1cbb 0d42 0cbb
000000e0: 3f43 ed3b f463 4f3b 0501 8bba 70a0 963a
000000f0: b45c cf3b 092a 69bb f20d ddba abdf 48bb
0.0009708328 -0.003008865 -0.0021916057 0.00022072 -0.0016451165 0.0009154 -0.0010476849 0.0003967356
0.010345412 0.0012250231 0.0032216664 0.0035569102 -3.3360055e-05 0.0010420111 -8.78839e-05 0.0032059068
0.0031352928 -0.0024664209 0.0026830332 -0.00062595186 0.00022560086 -9.106475e-05 -0.0010604528 -0.0044752993
-0.0037984662 0.0039783563 0.0015530459 0.0051095 -0.0005019359 -0.010837642 0.0016296388 -0.00067610946
-0.0023126774 -0.0048193415 -0.0022482495 -0.0014180066 -0.0010478774 0.0066147516 -0.0065008807 0.0002681088
0.0034836018 -0.00837236 -0.0019354352 -0.0011237079 0.008720049 0.0023104686 -0.006273806 -0.004201108
0.0029252847 0.0030989582 -0.0003954337 0.0005150121 -0.004308023 0.0037394243 -0.0023878927 -0.0021401674
0.0072406824 0.003164527 -0.0010605162 0.0011491906 0.0063281897 -0.0035578033 -0.0016865118 -0.0030650895

exp_avg_sq f4 [64]
00000000: 96ba 7e3a 4f56 193a 0921 0739 5731 8d39
00000010: 254c f338 c868 2d39 3212 cd39 1f87 813b
00000020: 8059 413b 1319 8d38 c442 8538 6e7e 8339
00000030: 9eac b338 b9aa 123a bb65 4f39 89d5 0a3a
00000040: 6d0f d13a ce6e 263b fee9 c538 4f7a 5d39
00000050: e2d4 e538 abe7 2b38 994e 113a 3dac af3a
00000060: b50b 3939 7a6e 713a fd5c ce39 b406 7239
00000070: 7bb3 5938 f0b5 f73b eca2 d439 8f84 fa39
00000080: 5149 4239 49e5 a03a 6c9e 9e39 cd19 d43a
00000090: c240 e839 fe0f 8e3a 0760 9539 5286 0b3a
000000a0: 4c5c ca38 d82c b83a 12c2 4638 01e9 9f39
000000b0: 1b0d 473a ed0f 7939 fe00 a03a 844c a83a
000000c0: e27c 143b 9db5 a13a fb5f dd37 f982 c939
000000d0: bf94 843a 24c5 a439 7d2d e938 9b5c 4339
000000e0: 130b cd3a ff1c b338 4f09 9d39 2f03 fc3b
000000f0: dda3 3939 a45e b239 716a fd39 18aa 7a39
0.00097171345 0.0005849348 0.0001288691 0.00026930377 0.00011601326 0.000165376 0.00039114204 0.0039528753
0.002950281 6.7280744e-05 6.35437e-05 0.00025080465 8.5675376e-05 0.00055948977 0.00019778956 0.00052961014
0.0015950032 0.0025395635 9.4372765e-05 0.00021121766 0.000109592234 4.0985335e-05 0.0005543023 0.0013402771
0.00017647336 0.00092098827 0.00039360664 0.00023081416 5.1903986e-05 0.0075595304 0.00040557177 0.0004778248
0.00018528594 0.0012275364 0.00030254142 0.0016182006 0.00044298737 0.0010838506 0.0002849104 0.00053224445
9.649302e-05 0.001405145 4.738762e-05 0.00030500445 0.00075932004 0.00023752423 0.0012207327 0.0012840186
0.0022657444 0.001233745 2.6389947e-05 0.0003843529 0.001011513 0.000314274 0.00011118779 0.00018631147
0.0015643559 8.540786e-05 0.0002995231 0.007690809 0.00017704019 0.00034021318 0.00048335225 0.00023905223

exp_avg f4 [64]
00000000: d81d 9dba ee32 ea3b f583 613b 3948 95ba
00000010: 6f28 703a 462f 493b 8fa8 ed3b 43b5 69bb
00000020: 4143 193c 8ccc 1fbb 1a11 1ebb 907c 09ba
00000030: b63b 32ba 34ca 2e3b 02dc 05bb 03de 2138
00000040: 49bb 2cbb d967 faba 79af 3639 5aa5 5bb9
00000050: b542 99bb aed1 09bb 62a8 eab9 b46d ec3b
00000060: 5134 bb3a 19d8 2c3b 7603 64ba ff6a e43b
00000070: 1375 a639 29f3 2cbc 48ed 1fbb a476 b738
00000080: 9c2b 01ba 3042 afbb bc1c 063b 6785 e03b
00000090: 776b 333b f4f0 543b efd5 9d3b ebc6 1eba
000000a0: 4b69 e43a 3025 a03a 931e 903a e53c 783a
000000b0: d1f2 733b 676b 70bb a54e 3a3a 2ceb 0dbc
000000c0: d47c ba3b 2e70 bc3b b8de c2b9 e605 85bb
000000d0: b0d9 d23b 459c b9bb 4d9a d8ba 19bd dcba
000000e0: 6930 743b 1211 99bb 4405 523a c3d1 d0b9
000000f0: 6f50 3639 b8ac 0dbc a5f0 8c3b 8eb7 23bb
-0.0011987044 0.0071471846 0.0034410928 -0.0011389322 0.00091612985 0.0030698343 0.0072527598 -0.003566102
0.0093544135 -0.0024383394 -0.002411908 -0.00052446965 -0.0006799059 0.0026670815 -0.0020425324 3.8592156e-05
-0.0026356748 -0.0019104435 0.00017422241 -0.00020947066 -0.0046771416 -0.002102952 -0.00044757413 0.007215226
0.0014282559 0.0026373921 -0.00086980255 0.0069707627 0.00031749214 -0.010556021 -0.0024402905 8.7482185e-05
-0.0004927458 -0.0053484663 0.0020463904 0.0068518403 0.0027377286 0.0032492252 0.0048167626 -0.0006056863
0.0017426399 0.0012218114 0.001099544 0.0009469523 0.0037223587 -0.003668511 0.0007107056 -0.008662026
0.00569115 0.0057506775 -0.00037168502 -0.004059541 0.006434642 -0.0056643807 -0.0016525477 -0.0016841023
0.00372603 -0.0046712244 0.0008011649 -0.00039829136 0.00017386836 -0.008647136 0.004301148 -0.0024981233

exp_avg_sq f4 [64]
00000000: 2386 183a 3435 823b f999 ab39 5b60 123a
00000010: 0ad8 a939 4a7e 6d39 d816 a03a 75ef 653a
00000020: d604 923a 3d7e 153a 5d2c c638 a6a5 9339
00000030: c973 203a 4b98 043a 4bf0 b539 667e 3d3a
00000040: 1891 2c3a 9f11 c13a 6584 c439 85f5 b63a
00000050: 24ba cc38 0b3a 1e39 1c59 c939 08df ac3b
00000060: 18a7 2a39 79dd c339 81e6 6339 2664 8b39
00000070: f5b8 8f39 a99a 0c3b 8bde e539 d655 0c3a
00000080: 9a68 053a 3faf b33a c6f3 2639 c5a2 a93a
00000090: 3fd8 413a aee5 163a ac74 0c3b 4d78 d439
000000a0: 63f8 1739 d61d c43a 0994 ef38 87b6 403a
000000b0: e3a6 bc3a e857 e439 7c86 cc3a 88f5 e13a
000000c0: 05c1 c23a 55a3 963a 90b0 9d38 a850 8539
000000d0: 093a 563a 6f28 263a 2b68 393a 1ea3 353a
000000e0: 43c7 273a 2f26 f839 b353 1d3a dafd e63a
000000f0: 3ea6 f738 3bd7 103b a1c0 c139 bdbb cf39
0.0005818328 0.0039736275 0.0003273038 0.0005583816 0.00032395154 0.00022649128 0.0012213839 0.00087713386
0.0011140357 0.000570271 9.449639e-05 0.00028161443 0.0006120769 0.0005058094 0.00034702042 0.00072286127
0.00065829 0.0014729983 0.00037482675 0.0013958669 9.7621494e-05 0.00015089677 0.000384041 0.005275611
0.0001627471 0.00037358308 0.00021734276 0.00026586762 0.0002741289 0.002145449 0.0004384409 0.0005353367
0.0005089134 0.0013708844 0.00015921806 0.0012942186 0.0007394589 0.0005756271 0.0021431847 0.00040525422
0.00014493013 0.0014962505 0.00011423982 0.00073514174 0.0014392998 0.00043553044 0.0015604044 0.0017239312
0.001485855 0.0011492769 7.519231e-05 0.0002542783 0.00081721 0.00063384225 0.0007072712 0.00069289084
0.0006400237 0.00047330695 0.0006001547 0.0017623261 0.00011808843 0.0022100944 0.00036955348 0.00039621993

exp_avg f4 [64, 64]
00000000: 7803 6e3a 0c6f 76bb d210 65bb 074b a3bb
00000010: 37a7 93bb bae8 50bb 64c1 72bb 0bf5 50bb
00000020: fba8 72bb 5965 85bb 5c85 5ebb 5748 e9bb
00000030: 3c4e 6bbb 6157 543c 97ee 94bb be22 36bb
00000040: 2b40 6dbb 4468 1e3c 6916 34bb 9cc0 bdbb
00000050: cc44 433c 2662 3d3b 165c 75bb 032b 943b
00000060: 20ba 72bb 5fe3 043c 044c 333c 1ff5 073c
00000070: 2a09 4bbb 71e4 6f3c 23a3 18bb 82a4 81ba
00000080: 4ab2 1039 d19b 64bb b423 babb 960f 86bb
00000090: cfe1 62bb 6930 81bb badd 8cba 9191 e83b
000000a0: 5385 f03b 84a0 0f3c a000 c43a ea7a 60bb
000000b0: b7b7 70bb 17b1 67bb 8fa9 71bb 790f 793c
000000c0: 91ba 71bb 02f0 0f3c 1a19 72bb 8885 913c
000000d0: ce6a 803b 0ea9 6abb 0bda 82bb 55c2 6abb
000000e0: 1319 76bb 6c7f 64bb 48e3 5fbb 8e90 0a3c
000000f0: 99c4 16bb 8cce 64bb 4438 95bb df1d 69bb
00000100: ad9c c2bb 686b 0dba 78da c8bb 4f72 c0bb
00000110: f5ce ccbb b76f 1a3c 5aa2 82ba ae12 ab3c
00000120: 1a64 a13c 218c cabb 14c1 ccbb 9179 c1bb
00000130: 1aa5 9dbb d687 f0bb 9799 c1bb 5ab6 373c
00000140: 212b 4b3c 1929 823b 191b 7d3b 9926 ccbb
00000150: e5db bcbb 5ac3 bcbb 11b8 3b3c f42a 1abc
00000160: c5af 613c dae2 c6bb 9114 e4bb 8bb7 c3bb
00000170: 0714 d2bb c0a4 c8bb 14e5 963c 69cd d9bb
00000180: 36e9 c2bb 42fb 4d3c 529f c6bb d1e3 c8bb
00000190: 320f c5bb 789b c73c 05af 15bc e963 123b
000001a0: 9ac7 c2bb 5d65 3cbc 262f 06bc 3146 99bb
000001b0: 3254 5d3c 2407 c0bb d49e a63c 42c7 20bb
000001c0: d6ed 3e3c 8439 ecbb 5bd0 c6bb 5403 c0bb
000001d0: b713 bdbb 44a3 bebb 062a febb c0a0 273b
000001e0: 1197 753c 5ad7 5ebb bf2d c5bb 1d5d c7bb
000001f0: ed5f 9d3c f630 4f3b 57e8 cbbb adb9 403c
00000200: 4761 063b ff1b df38 94ca 0c39 9db6 e939
00000210: 6cd3 b8ba 4061 02ba a7ca 48b9 e1ea 59ba
00000220: aa65 ecb8 5360 8cb9 578b bc3a e665 b13a
00000230: d612 8cb9 e196 54ba 6801 c33a da44 c6b8
00000240: 0089 a437 afac 2bbb f90e 44ba 8ea0 c5b9
00000250: 7b3e 1a39 775e f3b9 4d96 bab9 440f fdb8
00000260: 0192 c6b9 e0a4 e83a 68e2 8539 e817 1c3b
00000270: 186b c437 daf0 18ba 4caa 65ba cdf2 6b3a
00000280: 5e0a 133b 3cff b3b8 b637 f03a 0a8b c53a
00000290: 4cb0 473a eecd d8b9 53f0 b438 b1f6 eaba
000002a0: c409 a138 1e42 3aba d9d7 b6b9 33b4 49b9
000002b0: 4c80 8839 d617 c1b9 d852 c1b9 cd40 08bb
000002c0: 326b d939 ad21 1737 6e24 abba 58d0 753a
000002d0: 30f8 60ba 9b8f 07ba ed55 87ba 25ec c2b9
000002e0: 2eeb 5239 4c42 63b9 4d21 ecb9 2a37 733a
000002f0: 47b8 24ba a98a 0bba 9392 e83a 32a2 ffb9
00000300: 623f dcb9 3928 a9b8 3ba2 b0b9 e50f a4b9
00000310: ec86 d3b9 5115 b4ba f94f 19bb ba57 56ba
00000320: 5e43 45bb f2e3 c0b9 7ec1 cfb9 04c3 ceb9
00000330: e2ba d63a 2577 4b3b efe6 b9b9 89fe 013b
00000340: 40b6 81b9 b24f 3638 55f6 de3a e28e ddb9
00000350: 7001 93ba 2a0e 73ba 7344 4fbb 6c1a 1f3c
00000360: 5f27 2dbc 36b2 7bba f31e a239 3572 98ba
00000370: 326e a739 2de0 c8ba f483 a7b9 7c17 3e3a
00000380: 333f ccb9 71b1 1bbb a3d4 d0b9 52f0 c5b9
00000390: 8134 b2b9 7f98 87ba bd03 ee3b 6917 983b
000003a0: 682c 43ba 694a 5d3c 2ad2 583b 97e0 f339
000003b0: 6bf6 ee39 50ea a3b9 8068 06bc 04a0 a038
000003c0: c60f db39 2c44 7b3a 250b c1b9 807d d6ba
000003d0: 4cd2 303c 1ad5 a2b9 a3c7 9e3b 5ad4 c4bb
000003e0: 4ba6 71bb dae2 c339 c06d b1b9 e48c 80ba
000003f0: ef1c a43b bb2b a5bb af30 cbb9 924f edbb
0.00090794964 -0.003760281 -0.0034952653 -0.004983309 -0.0045060175 -0.0031876997 -0.003704154 -0.0031884338
-0.003702699 -0.0040709195 -0.0033954 -0.0071192193 -0.0035904786 0.012960286 -0.0045450437 -0.0027791704
-0.0036201577 0.009668414 -0.0027479178 -0.005790783 0.011918258 0.0028897612 -0.003743892 0.004521729
-0.0037037209 0.00811085 0.0109434165 0.0082981875 -0.0030980804 0.014641867 -0.0023290596 -0.0009890946
0.00013799328 -0.0034882913 -0.0056805257 -0.0040912135 -0.0034619456 -0.0039425385 -0.0010747232 0.007097431
0.0073401122 0.008766297 0.00149538 -0.003425295 -0.0036730596 -0.0035353357 -0.0036874746 0.015201443
-0.0036884884 0.00878525 -0.0036941231 0.017763868 0.003918982 -0.003580633 -0.003993278 -0.0035821397
-0.0037551566 -0.0034865988 -0.003416257 0.008457316 -0.0023005365 -0.003491315 -0.0045538265 -0.0035570783
-0.0059390874 -0.0005394728 -0.006129559 -0.0058730016 -0.006250257 0.009426049 -0.0009966597 0.02088293
0.019701052 -0.0061812554 -0.0062486026 -0.0059043844 -0.0048109414 -0.0073404117 -0.005908202 0.01121291
0.012400419 0.0039721844 0.0038620888 -0.006230187 -0.005763518 -0.0057605924 0.011457459 -0.009409655
0.013774817 -0.0060695233 -0.0069604595 -0.0059728078 -0.006411079 -0.0061231554 0.01841978 -0.0066468013
-0.005948211 0.012572112 -0.006061473 -0.0061306735 -0.0060137743 0.024366125 -0.009135966 0.0022337383
-0.0059442045 -0.011498776 -0.008189952 -0.004677557 0.013508843 -0.005860226 0.020339407 -0.002453283
0.011653384 -0.007209005 -0.0060673184 -0.0058597717 -0.0057701725 -0.0058178026 -0.0077564744 0.0025577992
0.01498963 -0.0034002871 -0.0060174162 -0.006084098 0.01921078 0.0031614876 -0.0062227654 0.011763019
0.002050476 0.00010638683 0.00013426907 0.0004457728 -0.0014101095 -0.0004973598 -0.0001914898 -0.0008312893
-0.00011272293 -0.00026774648 0.0014384788 0.0013534396 -0.00026716915 -0.0008109641 0.0014877738 -9.4542e-05
1.9614119e-05 -0.0026195457 -0.0007479038 -0.0003769439 0.0001470986 -0.00046418954 -0.00035588667 -0.000120668235
-0.00037874284 0.0017749332 0.00025536423 0.002381796 2.341489e-05 -0.00058342295 -0.0008761033 0.0009000719
0.00224366 -8.582926e-05 0.001832715 0.0015071344 0.0007617518 -0.0004135216 8.627833e-05 -0.0017926303
7.678897e-05 -0.0007105189 -0.00034874564 -0.00019235983 0.0002603553 -0.00036829588 -0.00036873552 -0.0020790577
0.00041469332 9.008142e-06 -0.0013057122 0.0009377054 -0.00085819047 -0.000517124 -0.001032529 -0.00037178505
0.00020114772 -0.00021673104 -0.0004503824 0.00092779344 -0.0006283563 -0.0005323091 0.0017743878 -0.00048758235
-0.00042008894 -8.06604e-05 -0.00033690207 -0.0003129236 -0.0004034558 -0.0013739263 -0.0023393615 -0.00081765244
-0.0030099968 -0.00036790926 -0.0003962628 -0.0003943668 0.00163826 0.0031046357 -0.0003545801 0.0019835553
-0.00024740584 4.3466403e-05 0.0017010669 -0.0004225886 -0.0011215638 -0.0009271825 -0.0031626492 0.009710889
-0.010568469 -0.00096014456 0.00030922107 -0.0011630716 0.00031934824 -0.0015325599 -0.00031951035 0.0007251424
-0.00038957 -0.0023756886 -0.00039831278 -0.0003775382 -0.00033989924 -0.001034513 0.007263629 0.0046414626
-0.0007445277 0.01350651 0.0033084252 0.00046515904 0.00045578493 -0.0003126436 -0.008203626 7.6592e-05
0.00041782687 0.00095850485 -0.00036820132 -0.0016364306 0.010792326 -0.0003105782 0.004845576 -0.0060067596
-0.00368728 0.00037362316 -0.0003384184 -0.0009807614 0.005008332 -0.0050406135 -0.0003875545 -0.0072421515
