experiments/training_curves/SHAC/seed_0/best_policy.pt (torch, 167108 bytes, 63 tensors)

weight f4 [64, 3]
00000000: 5fc9 6ebd 8820 ac3e ca39 f0be 1d1b fbbe
00000010: ff45 90be d202 263e da33 b9bc e951 fc3e
00000020: 5006 86bd 9a48 5d3e 23df 25be e0a6 04be
00000030: b26e 2cbf 5b8e c3be 3ce3 81be 9fe0 033c
00000040: 58d7 b93e 67b1 923e 806b 00bf 98ac 94be
00000050: 14ee 593e de8f ff3e 8189 0fbd 63d5 d93e
00000060: 861f 13be 145a e0bb edb5 013f 61d1 12bf
00000070: 0891 a3be e9d0 21be 81b8 8abe 224d f73e
00000080: 700d acbe 7f6b 9bbe 928a bfbe 2a5c 04bf
00000090: b2f0 dfbe dc18 fd3e 462c 803e 8cb4 8e3e
000000a0: 02fa 8fbd e0ea 85be ba10 a23d a1ed f3be
000000b0: 0303 d7be 45d5 a0be 020c b13e da8e a43e
000000c0: 695b 54be e963 153d 9562 b73e b878 153f
000000d0: 04ec a73e f565 c53d 5096 bf3e 0dae 8bbe
000000e0: f63b da3d 8146 0dbf 5de6 cebe 5f2f 9abe
000000f0: 343e 9d3e 302e 7f3e fea5 a9be 8609 493e
00000100: 01f0 c13e 5ac5 4ebd ce20 8d3d d1f8 6a3e
00000110: 2440 ae3e 3059 103f 348e 01bf 0b81 59be
00000120: d6f4 483e 5c2c 033f d65e eb3e 3d04 0e3f
00000130: 2a0c 8f3d 0265 f6be 064b 083d 34a3 d2be
00000140: 02a4 01bf a89f f73e ba2c b63e 7c2c 06bf
00000150: 3c81 fb3d 3994 3dbe 20cb b5bd de22 8abe
00000160: 8f46 923e dbc4 b1be 780b 343e 240e 8f3e
00000170: 0c32 d63e e606 583e 6716 1ebf 2e88 bbbe
00000180: eba9 b93e 6334 c03d 97da dcbe f62a 85be
00000190: 5318 1c3f 6e51 c83e 642f 57be 3c77 38be
000001a0: 0de1 09bf d505 5d3d fa62 fcbe 7472 dcbe
000001b0: 378a 0f3c 9204 fb3c 06ab 55be f6dd b73e
000001c0: 51b0 a4be 4d00 023f 902d c93e 559a 04bf
000001d0: 863e 1cbe e4a4 fbb8 5ab2 453e ed19 ac3d
000001e0: 87b7 683e 3325 883d 3c3a 84be 1774 723e
000001f0: ccb1 33bf 24d4 9abe 6e68 dbbd e2ff b8be
00000200: 5ead 32be b592 0dbf 99e8 11be aa65 183e
00000210: 3162 d8be aee6 e1bc fa77 c53e 8657 40bd
00000220: 58db 863b 9f42 19bd bd5c 303e 3122 d63e
00000230: 5df0 093f 85fb c03e aa3b 223f 6cb4 ae3b
00000240: a1d1 11bf fea3 a7be 122e c53e 0ea8 2d3c
00000250: c489 c4be f911 d5be 2400 10bf 5aff e9be
00000260: adef 1fbe 305e a33e 3a98 ca3e ee12 10bf
00000270: 29d2 ae3e 34b4 04bf f4b4 00be 414f 60be
00000280: df3c 06be 7542 c2bd 9b43 1dbf d647 f8be
00000290: 7240 c5bd 4d9a 743d 72a8 75be 8127 6a3e
000002a0: b23f 15bf 5111 d6bd cc42 fd3e 1a9e a5be
000002b0: 2958 033f cdea 4f3e efb5 07bf 4e92 b73e
000002c0: 04f7 b8bd a0d7 a3be 09df f63e ac42 edbe
000002d0: d028 6d3d 33f6 92bd 88fa c43e ffae 693e
000002e0: ec9f c13e 48a3 3e3e 577c 97bd 4fd2 22be
000002f0: a8eb eebe 9387 9e3e d5ac 013f dc0c b43e
-0.05829751 0.3361857 -0.4691909 -0.49044123 -0.28178403 0.16212013 -0.022607733 0.49281242
-0.06544173 0.21609727 -0.16198401 -0.12954283 -0.6735641 -0.38194546 -0.2536868 0.008049159
0.36297107 0.28650972 -0.5016403 -0.2903793 0.21282226 0.4991445 -0.035043243 0.42545614
-0.14367494 -0.0068466756 0.5066822 -0.57350737 -0.31946588 -0.15802349 -0.2709389 0.48301035
-0.33604002 -0.3035545 -0.37410408 -0.5170313 -0.43738323 0.4943303 0.25033778 0.2787212
-0.07030107 -0.26155758 0.079133466 -0.47642234 -0.41994485 -0.31412712 0.34579474 0.32140237
-0.20737995 0.036472235 0.358174 0.5838733 0.32797253 0.096385874 0.37419367 -0.27281228
0.10655968 -0.55185705 -0.40410128 -0.30114266 0.3071152 0.24919963 -0.33134454 0.19632539
0.3787842 -0.050481178 0.068910226 0.22946478 0.3403331 0.5638609 -0.5060761 -0.21240632
0.19624647 0.5123956 0.45970792 0.5547522 0.06984742 -0.48123938 0.033274673 -0.4114014
-0.5064088 0.48363996 0.35581 -0.5241163 0.12280509 -0.18513574 -0.08876634 -0.26979727
0.28569457 -0.347205 0.175825 0.27940476 0.41835058 0.21096382 -0.61752933 -0.36627334
0.3626245 0.09384992 -0.4313552 -0.2600934 0.60974616 0.39124626 -0.21014172 -0.18014234
-0.53859025 0.05396064 -0.49294263 -0.4305607 0.00876098 0.030641828 -0.20866022 0.3591153
-0.3216577 0.5078171 0.39292574 -0.5179799 -0.15258226 -0.00011999326 0.19306317 0.084033825
0.2272626 0.0664772 -0.2582568 0.23677097 -0.7019317 -0.30239975 -0.10713278 -0.36132723
-0.17448947 -0.5530198 -0.14248885 0.14882532 -0.42262414 -0.027575817 0.38568097 -0.04695847
0.0041155033 -0.03741705 0.17222877 0.4182296 0.5388239 0.37691894 0.6337229 0.0053315666
-0.56960493 -0.32742304 0.3851171 0.010599149 -0.38386357 -0.41615275 -0.56250215 -0.4570263
-0.15618773 0.31907797 0.39569265 -0.56278884 0.34144714 -0.5183747 -0.12569028 -0.21905233
-0.13109158 -0.09485332 -0.6143128 -0.48492306 -0.096314326 0.059717465 -0.23990038 0.22866632
-0.58300316 -0.104525216 0.49465024 -0.32347184 0.51306397 0.20304413 -0.53011984 0.3585381
-0.090314895 -0.32000446 0.48217037 -0.4633993 0.05790025 -0.07175865 0.3847239 0.22820662
0.37817323 0.18616974 -0.07396763 -0.15900539 -0.46664166 0.3096281 0.50654346 0.3516606

bias f4 [64]
00000000: 40c2 c6be fb5f 663d 22e8 c1be fb13 96be
00000010: 1068 a3be ef3c 1b3e b302 a2be ca20 10bd
00000020: 9b91 ed3c c370 b63e 7f4f f0be b197 d7be
00000030: 36c8 acbe 37e2 be3e d3a6 5abe 90a6 003f
00000040: 3de6 443e 1aff 8f3d 3eed 21bd f7db e6bd
00000050: 8782 843d ec69 e2bd 68ba a5bc ed0b 4d3d
00000060: 304e 01bf f715 b0be f1ab e03e 0b9a ffbe
00000070: dd29 26bd 24d5 183f bb55 5c3e 4340 1ebc
00000080: 7083 03bf 27ee 9e3e a089 dfbe 4138 34be
00000090: fd75 6ebe 15c5 d5bd a34f b9bc 7598 fa3e
000000a0: c7aa 893d c733 073f 1752 b63e 9fe2 a0be
000000b0: fbd9 833e 8350 d7be 65de 83be 727a 383e
000000c0: f305 593e e541 d83e f5fa 39be 253d 983c
000000d0: 1ece 923e c7a2 12bf 0efa e23e bf8a f5be
000000e0: 9734 823c 2dbd c0bd a08f 95be c89c ba3d
000000f0: 1831 f03e e920 27be 2710 bcbe d300 89be
-0.38820076 0.056243878 -0.37872416 -0.2931212 -0.3191533 0.15159963 -0.31642684 -0.03518752
0.029000094 0.35632905 -0.4693565 -0.4210792 -0.337465 0.37281963 -0.21352701 0.50254154
0.19228454 0.07031079 -0.039532892 -0.11272424 0.064702086 -0.11055359 -0.020230487 0.0500602
-0.5050993 -0.34391758 0.4388118 -0.49922213 -0.040567268 0.59700227 0.21517079 -0.009658876
-0.5137243 0.3104107 -0.43659687 -0.17599584 -0.23287196 -0.10437981 -0.022620982 0.4894444
0.06722026 0.5281338 0.35609505 -0.31422898 0.25752243 -0.42053613 -0.2575561 0.18015459
0.21193676 0.42237774 -0.18162139 0.018583843 0.2867288 -0.5727963 0.44331402 -0.47957417
0.015894217 -0.094110824 -0.2921114 0.09111935 0.46912456 -0.16321148 -0.36731073 -0.2675844

weight f4 [64]
00000000: 8d26 7c3f 119a 853f 83f9 803f d101 7d3f
00000010: 3ecb 843f 6d5b 793f 0658 823f c569 7e3f
00000020: da0b 7e3f 2f91 793f 4538 7d3f e12d 773f
00000030: a174 7d3f 9bb6 783f 9307 7c3f 1b55 7c3f
00000040: 2f08 7c3f 7364 823f 463d 723f 8eff 813f
00000050: 6924 7e3f fe96 813f 102c 7f3f 1d82 863f
00000060: 108c 7c3f 0492 7e3f 6588 7d3f 6daf 723f
00000070: 0aa2 803f 73c1 823f 8fe1 7e3f 580f 803f
00000080: 705c 803f e2b5 803f 0b2d 7e3f 1551 803f
00000090: a7d8 7c3f 2ac1 7c3f 775e 853f 023e 7e3f
000000a0: 54ad 7a3f 6978 7f3f 0e8b 7b3f 8c7e 7c3f
000000b0: 1467 7e3f 1afd 7b3f edae 803f 45a1 863f
000000c0: bec2 813f 3762 7d3f fcd8 7f3f 5a6a 813f
000000d0: c320 803f a7ee 793f d280 813f 61b8 7e3f
000000e0: 8488 813f a82a 783f 69e6 7d3f 1b6a 813f
000000f0: 1327 793f 9f3e 853f 225e 803f a5e7 7e3f
0.98496324 1.0437642 1.0076145 0.98830897 1.0374525 0.9740513 1.0183113 0.9938014
0.99236834 0.9748716 0.98913985 0.9655438 0.99006087 0.97153634 0.9844906 0.9856736
0.9844999 1.0186905 0.94624746 1.0156114 0.9927431 1.0124204 0.9967661 1.0508457
0.9865122 0.9944155 0.99036247 0.9479893 1.004945 1.0215286 0.99562925 1.0004683
1.002821 1.0055506 0.9928748 1.0024744 0.98768085 0.98732245 1.0419453 0.99313366
0.9792073 0.99793106 0.98259056 0.98630595 0.99376035 0.9843308 1.0053383 1.0517966
1.0137556 0.9897799 0.99940467 1.0110581 1.0009998 0.9762978 1.0117438 0.9950009
1.0119786 0.9694009 0.99179703 1.0110506 0.9732525 1.0409735 1.0028727 0.9957221

bias f4 [64]
00000000: 7481 263c 2786 093c 0bea 34bb f0a6 563c
00000010: 4af2 0c3c 4fb6 0dbd 6c96 44b7 0386 7d3b
00000020: b3e0 38bc c26b ce3c da52 8abc 796d d739
00000030: ae81 353c 007b afbb aecc 1a3c c156 1c3c
00000040: 8549 5b3b 12d6 483c bdbf e239 3880 db3b
00000050: 8f35 963c a440 363c e44e 8cbc 28ee 1bbc
00000060: da24 b9bc 4467 9fbb ac73 debb d4a6 b0bc
00000070: 1876 4f3c f8cb d93b a05d 433c ef3b 5c3c
00000080: 34b8 f13b 3b22 053b a8cc a0bb 1cf0 f6bb
00000090: 2ab4 543b 26f3 42bc 3fa5 24bc 56a0 4f3c
000000a0: 6345 e03b c188 ab3b 6aae 243c 1f1e 1a3d
000000b0: cb66 deba 4038 863c 727e 87bb 31ba bd3b
000000c0: 9587 f63a 106d 383b c52e 4a3c 0eba c93c
000000d0: 9564 d7b9 f3c2 b33c c50e 223d 17e2 fd3b
000000e0: 70f5 e6bb 515d 993c 7b7e d53b 5fe5 f8bb
000000f0: 0f1a 05bc 22af 233b 15f9 95bc d138 a0bc
0.0101627 0.008393801 -0.002760532 0.013101324 0.008602688 -0.03459769 -1.1717533e-05 0.0038684614
-0.011284041 0.025197867 -0.01688521 0.0004108956 0.011078281 -0.005355239 0.0094482135 0.009542168
0.003346057 0.01225807 0.00043248935 0.0066986345 0.018336086 0.01112381 -0.017127462 -0.00951723
-0.02260058 -0.004864605 -0.0067886915 -0.021563925 0.012662433 0.0066466294 0.011924177 0.013442024
0.007376695 0.0020314592 -0.0049072094 -0.0075359475 0.003245602 -0.011898791 -0.010049163 0.012672504
0.006844209 0.005234808 0.010051349 0.037626382 -0.001696789 0.016384244 -0.0041349465 0.005790018
0.0018808717 0.0028141178 0.012340252 0.02462485 -0.00041082935 0.021943545 0.039564867 0.0077478993
-0.0070483014 0.018721255 0.006515322 -0.0075957025 -0.008123889 0.0024976213 -0.018307248 -0.019558342

weight f4 [64, 64]
00000000: 0b31 03be 317d 813d 45f4 61bd 2956 84bd
00000010: a54b 9ebd 2476 7d3d ae66 953d 263d c23d
00000020: bb2a 503d 2735 62bd d7a0 40bd f15e 573d
00000030: 51e1 df3d b639 aa3c 7d40 a7bc e889 aabd
00000040: 4939 e8bd 1d14 fa3b a08f 72bd 249f d9bd
00000050: 390b c13d e72c e0bd af19 66bc 6652 833d
00000060: 3b49 2b3c 8f08 9fbd 9357 d0bd 0bf0 c93d
00000070: 375a 4f3d ab61 9c3d 2071 68bd 2aec b03d
00000080: f0e7 78bc 97ec 8cbc 6b6b 8cbd dfab 8a3d
00000090: bce7 5b3d 6e3f 513a 8092 c63c 61d8 d8bd
000000a0: 2d28 a23d 4fcb acbd e68a 813d e52a 11bd
000000b0: 6dd4 5ebd d633 f03c cc1d 78bd 842c 9cbc
000000c0: d620 003d 5750 c1bd 2401 a53c f6ee 2b3d
000000d0: a9bf 8d3d 6024 19bc 9141 e3bd cf21 4ebc
000000e0: 37c0 4d3d 8e7d 29bd d8e5 1f3d eee1 7e3d
000000f0: d628 8dbd 3336 843a 045e 7c3d 57ac 4f3a
00000100: aa1e 563c 6e73 9f3d 7073 c3bd c995 583c
00000110: 1584 b83d 95cb cd3d 8354 103e 2285 85b9
00000120: 6951 633d 92a5 10bd 7bdc cfbd bad8 d5bd
00000130: 449a 213e 1427 a33d 4e14 aabd 6ddb 453d
00000140: 076b cd3d 3096 763d b422 c23d 1342 cd3d
00000150: 46f7 fbbc 7ece 34bd 07ae b83d 11c4 c03d
00000160: 2546 e8bd 01a7 ea3d 59f7 803d 1c15 8f3d
00000170: 84e0 96bd 8b84 0c3d ca71 77bd e03f d43d
00000180: 254a 9cbc d312 2a3d 143e cf3c 1fbf 663d
00000190: fa51 22bd 472b 5d3d 8a4b 83bd 72be ea3c
000001a0: 073d acbd 1c36 b7bd ce5d a5bd 25a6 0d3e
000001b0: 31d7 9b3d a3d4 f63d 0fc6 a43d 2bb9 1dbe
000001c0: 0cd4 8abd f37f 82bc 8bb1 90bd 4d0e af3d
000001d0: dcf6 84bd 5605 6cbd b726 93bd ec60 c8bd
000001e0: a640 e43d 0697 de3d 863f c03d 790e bf3d
000001f0: bb5f e33d bbf1 14be c36c 6e3d 1499 883d
00000200: 7da4 ff3c 6cc4 ed3d 4a1a 723d e1e9 733d
00000210: c933 2e3c f38b 843d 77ec d83b b7f0 4ebc
00000220: a6d5 a5bd 5c23 10bd e2f7 b5bd f270 a63d
00000230: cbf6 a73d 74a1 593a d15f d1bd 5be5 d83d
00000240: 7cf4 8c3d a3a2 2e3d 4344 4ebd 526e 103e
00000250: 4fef 563d 023c cabd e565 ee3d b514 613d
00000260: ba2e 4abd 2144 423d dc40 88bd 71f8 21bd
00000270: 8b07 af3d 8886 c13c a04c 94bd 6ea1 8ebd
00000280: e614 95bd 6fe3 cabc 4d3a 143c b08a c53d
00000290: 4cd2 f0bc 43af 95bd e729 2dbd 8ddd ba3d
000002a0: a42f 703d 132a ddbd 3eb8 e4bb e704 cdbd
000002b0: f016 88bd 06d6 273d 56ee bfbd 1b4d c03d
000002c0: 20ed bb3d 17ea 743c 9c5d 53bd 9097 3fbd
000002d0: 046c 983b e957 c9bd d5c5 d53d 5017 f0bd
000002e0: 2e49 09be adec 01be 9d72 b1bb 4684 bd3d
000002f0: e034 dabd 3e5a d93d 9098 70bd fc7f 273d
00000300: 32c7 3c3c e568 21be b2c6 de3d de61 933d
00000310: f7d0 073e 88c4 923d 8006 e3bd bbd8 d93d
00000320: 5397 a43a 5cd6 5a3d 2ae0 c0bd 449b e4bc
00000330: e6f8 06be 8840 44bd 2cf1 f53c 3dbb cebd
00000340: 5871 dd3c 5dfa d23d 8607 f63b c608 99bd
00000350: b947 aebd 2532 d3bc 6c85 7a3d 124e c63d
00000360: e0e0 cb3d f968 49bc 554c 1b3d 5022 f0bd
00000370: 3b73 dabd 6806 9c3d 05b4 85bd 05c2 2b3d
00000380: 330b abbd c59c 70bd beeb c1bd 8805 903d
00000390: 3f6b e3bb d17a b83d bcb0 383d f0f8 803d
000003a0: 96dd 2e3c 997a 8bbd 402d 2bbd b1f7 6eba
000003b0: aafa 433d 32a9 a9bd 7dd4 ea3d ae28 b23c
000003c0: 3870 ffbd b688 96bd aca2 eb3d 3774 013e
000003d0: 1b0f 17be b4e1 bd3d 69e6 e23c f270 d23d
000003e0: d6da c23d 6268 87bd 9230 3a3d f6ab 803d
000003f0: b183 41bd 23a4 073e 9570 eabc 35bf f43d
-0.12811677 0.063227065 -0.055164594 -0.06461746 -0.07729272 0.061880246 0.07294975 0.094843194
0.050822 -0.05522647 -0.04702839 0.052580778 0.109316476 0.020779472 -0.020416493 -0.08327085
-0.11339051 0.007631792 -0.059219003 -0.10626057 0.09425969 -0.109460644 -0.014044209 0.06412201
0.010454471 -0.07765304 -0.101729535 0.09860238 0.050623145 0.07635816 -0.05674851 0.08638795
-0.015192017 -0.017202659 -0.06856426 0.06771063 0.053687796 0.0007982169 0.024239779 -0.10588146
0.07917819 -0.084372155 0.06325321 -0.035441298 -0.054401804 0.029321592 -0.06057529 -0.019064195
0.031281315 -0.09439152 0.020142145 0.041975938 0.06921322 -0.009347051 -0.1109649 -0.012581303
0.05023214 -0.041379504 0.039037555 0.062227182 -0.068925545 0.0010086953 0.061613098 0.0007922104
0.013068834 0.07785688 -0.09543502 0.013219305 0.09009568 0.10048596 0.14094739 -0.00025466928
0.05549756 -0.03531415 -0.10149475 -0.10441728 0.15781504 0.07966438 -0.08304654 0.048304964
0.100301795 0.060201824 0.09479275 0.10022368 -0.030757558 -0.04414224 0.09017568 0.09412397
-0.11341504 0.11457635 0.06297178 0.06986448 -0.07367042 0.03430609 -0.060411252 0.10363746
-0.019078324 0.04152186 0.025298156 0.05633461 -0.03962896 0.05399635 -0.06410892 0.028655265
-0.084100775 -0.089458674 -0.080745324 0.1383291 0.07609404 0.12052276 0.08045589 -0.15402667
-0.06778726 -0.015930152 -0.07065114 0.085476495 -0.06492397 -0.057622276 -0.07185119 -0.097841114
0.11145143 0.10868649 0.09387116 0.09328932 0.111022435 -0.14545338 0.058209192 0.06669822
0.031206364 0.1160973 0.059107102 0.059549216 0.010632464 0.06472006 0.0066199857 -0.012630633
-0.08097391 -0.03518997 -0.088851705 0.08127011 0.08201369 0.00083019515 -0.10223354 0.10590621
0.06882569 0.04263557 -0.05035807 0.14104584 0.052474316 -0.09874727 0.116405286 0.05495139
-0.04936097 0.047428254 -0.06652996 -0.039543573 0.085463606 0.02362372 -0.072411776 -0.06964384
-0.07279377 -0.024766652 0.009047103 0.09645593 -0.029397152 -0.07308819 -0.04227629 0.09124289
0.058639184 -0.10799041 -0.006979971 -0.10010701 -0.06645 0.040975593 -0.09371631 0.09389707
0.091760874 0.0149483895 -0.051602945 -0.0467754 0.0046515483 -0.09831221 0.10438124 -0.117231965
-0.13406822 -0.12687941 -0.0054152743 0.09253745 -0.10654616 0.106129155 -0.058739245 0.04089354
0.011522101 -0.1576267 0.10877742 0.07196401 0.13263308 0.071663916 -0.11085224 0.10637041
0.0012557305 0.053427085 -0.09417756 -0.027906068 -0.13180885 -0.047913104 0.030022226 -0.100943066
0.027031586 0.10301659 0.007508221 -0.074723765 -0.08509774 -0.025780747 0.061162397 0.096828595
0.09955001 -0.012293094 0.037914593 -0.117252946 -0.1066651 0.076184094 -0.065284766 0.04193308
-0.083517455 -0.058743257 -0.094687924 0.07032305 -0.006940275 0.090078 0.045090422 0.06297481
0.010672947 -0.06810493 -0.0417912 -0.00091158884 0.047846474 -0.082842246 0.1146631 0.021747913
-0.12472576 -0.07350294 0.115056366 0.12641989 -0.14751856 0.09271565 0.027697759 0.10275449
0.09514396 -0.06611706 0.045456477 0.06282799 -0.04724473 0.13246207 -0.028618136 0.11950532

bias f4 [64]
00000000: 913c 93bd a79f 973c a746 f73d d335 6e3c
00000010: e7f3 7fbd 846c 773b f092 d5bd c61b b4bd
00000020: 4273 13bd ac07 6abd 81e8 b63d 5001 763c
00000030: 4453 bd3d 9d7a bcbc f911 97bc 5362 e63c
00000040: 02da 1bbd 492d 2ebd 9817 f9bd 5454 8a3d
00000050: ec3c 003e 3d95 02be d47d 3abd 7f53 cdbd
00000060: c72e 86bd 9807 b93d 0a33 843d d5bf dbbc
00000070: 3491 2d3d 99f9 a53c 66be 7d3d b613 d7bd
00000080: 5f6d a53c e5b8 07be 080d d9bd c3d2 72bd
00000090: 84a8 04bd dda2 05be 2806 10bb 77ef 243c
000000a0: d63f 68bd b88e 113d 33bc b63d f77b dabc
000000b0: ade3 89bd d1b8 f9bd 914b c8bd c7dc acbd
000000c0: 3511 c0bd 0002 38bd f0ae 473d 4772 113d
000000d0: 1558 c63d aeb7 f03d 37dd 80bd a1e6 47bd
000000e0: 00c2 6c3b b4da c2bd 7035 943d 7051 64bc
000000f0: 6004 edbd 8d4a c0bd b259 afbd b13a 063d
-0.071892865 0.018508745 0.12074023 0.0145392 -0.062488463 0.003775389 -0.10428417 -0.0879436
-0.03599859 -0.057136223 0.08931065 0.015014961 0.09244397 -0.023007685 -0.018441187 0.028123057
-0.038049705 -0.042523656 -0.12162703 0.067543656 0.1252324 -0.12752242 -0.045530155 -0.10025691
-0.06551891 0.090346515 0.064550474 -0.026824871 0.042374805 0.020260619 0.061949156 -0.105018064
0.020193754 -0.13254125 -0.10598189 -0.05928303 -0.03238727 -0.13050409 -0.0021976326 0.0100668585
-0.056701504 0.035536498 0.08922615 -0.02667044 -0.06732879 -0.12193454 -0.09780038 -0.084405474
-0.09378282 -0.044923782 0.048750818 0.035509374 0.09684769 0.11753784 -0.062921934 -0.04880393
0.0036126375 -0.095143706 0.07236755 -0.013935432 -0.115731 -0.093892194 -0.0856203 0.032770816

weight f4 [64]
00000000: 2bdd 7d3f 8d7c 7f3f 37fa 803f 21e0 823f
00000010: c46d 823f 8402 803f 174b 803f c245 7e3f
00000020: 58e6 843f 7f31 863f 6358 803f f916 823f
00000030: 9c8c 803f 645d 823f d609 833f 492c 813f
00000040: 4bcb 833f 8f63 823f 1a4b 7e3f e045 7d3f
00000050: bfb6 853f edc8 813f 563c 833f 884b 803f
00000060: 2d82 7a3f 6879 7d3f a1c8 833f abba 823f
00000070: 9371 813f 38a2 833f 0989 823f 4fab 823f
00000080: bb17 7e3f e080 7b3f a903 7e3f 9abe 7e3f
00000090: 6058 7e3f a833 7d3f b900 803f 978a 803f
000000a0: 9e70 7f3f 02e4 7f3f b886 7c3f d165 7c3f
000000b0: 0f87 833f d8d9 7c3f 70c2 813f fd1f 853f
000000c0: 0a04 783f 2685 823f 3d7b 843f 04e3 803f
000000d0: aa45 7e3f 4c5b 793f 040d 813f 5ef5 843f
000000e0: ed1c 843f 57e5 893f e0c5 863f b9d0 863f
000000f0: cb57 7f3f f13e 753f 8a47 7e3f 8b01 843f
0.991656 0.99799424 1.007636 1.0224649 1.0189748 1.0000768 1.0022916 0.9932519
1.0382795 1.0483855 1.0026973 1.0163261 1.004291 1.018475 1.0237377 1.009164
1.0296415 1.0186633 0.99333346 0.98934746 1.0446395 1.0139443 1.0252788 1.002305
0.9785488 0.99013376 1.0295602 1.0213217 1.0112785 1.028388 1.019807 1.0208529
0.9925496 0.9824352 0.99224335 0.99509585 0.993536 0.98906946 1.000022 1.0042294
0.99781215 0.9995729 0.98643064 0.9859286 1.0275592 0.98769903 1.0137463 1.0400387
0.96881163 1.0196884 1.0350109 1.006928 0.9932505 0.9740493 1.0082097 1.038738
1.0321327 1.0773114 1.0529137 1.0532447 0.99743336 0.95799166 0.9932791 1.0312971

bias f4 [64]
00000000: 69af e93a edbb a03a 6743 edba cc92 21bb
00000010: 7699 0fbb 7cd7 17ba baf6 bdb9 1f7a ddba
00000020: 70cd 323b e59c 06bb 610e 1bbb 36dc 023b
00000030: 3799 02bb 39bc 833b a244 043b 2389 0d3b
00000040: 6390 6b3b c2fe 37bb ede6 883a 7795 c139
00000050: 351e 1dbb 1f77 ac3b 062a 9f3b 54bc 263b
00000060: 6b31 113a 30d4 8e3a a2b4 743b 4910 e3bb
00000070: 082d b63a 95f1 ef3a 9fac 09bb c062 b43b
00000080: e294 8dba 836d 90ba 19a8 623b e581 ae3b
00000090: 5f8f 613a d3d0 e8ba bd9c 563b 9518 0c3b
000000a0: d4b9 ad37 4340 9c3a ba9d 05bb e83a 833a
000000b0: c7d1 e13a c3ea 113b d906 533b 47d5 9ebb
000000c0: f47c bd3c 4392 ec3a 299a 2e3b d68f 6bba
000000d0: 27a6 d33a 1023 ad3a f1ef 473b 037b faba
000000e0: 4077 6c3b deee 3fbb 1533 e93a 1f83 07bb
000000f0: cef2 b43a 2f92 dc3c 34c0 593a 2e06 4c3b
0.0017828766 0.0012263037 -0.0018101753 -0.0024654148 -0.0021911538 -0.00057923025 -0.00036232715 -0.0016897357
0.0027283095 -0.0020540294 -0.0023659694 0.0019967682 -0.001992775 0.0040202406 0.002018251 0.0021596632
0.0035944215 -0.0028075431 0.0010444798 0.0003692319 -0.0023974304 0.005263224 0.0048573045 0.0025441842
0.0005538675 0.0010896977 0.003733911 -0.0069294316 0.0013898918 0.001830625 -0.0021007431 0.005504936
-0.0010801817 -0.0011018965 0.0034585057 0.005325543 0.0008604433 -0.001776243 0.0032747232 0.0021376957
2.070974e-05 0.0011921007 -0.0020388202 0.0010012062 0.0017228656 0.0022265173 0.0032200126 -0.004847202
0.023130871 0.001804896 0.002664218 -0.0008985972 0.001614754 0.0013209302 0.0030508006 -0.0019110147
0.003608182 -0.0029286663 0.0017791713 -0.002067752 0.0013805272 0.026925175 0.00083065336 0.0031131613

weight f4 [1, 64]
00000000: 32fb b33d 6a8e c83d c9b7 31bd f0f9 c1bd
00000010: 6f37 97bd bc0f b1bd 0533 13bd 0089 dabd
00000020: 015c d03d c1d6 27be 0bc1 a6bd 99b5 cd3d
00000030: 9d58 c9bd 23ed 443d ac76 ee3d f4d9 073e
00000040: 95fb bb3d b51a 51bd 8e78 863d a47f 523c
00000050: 5df9 9fbd 3e6e e0bc 1ad2 5c3d d490 b13d
00000060: e2a9 fd3c 4fa0 4f3d 82fc 413d b3c7 e1bc
00000070: d293 843d 8cae 683d 4acb 0ebe 1294 2f3d
00000080: 05e5 48bd 6939 4abd 3fef 2a3d 84a7 ca3c
00000090: 6cad 8d3c 4448 4abd 6190 723d e178 f93d
000000a0: 6340 a03c 78c7 533d 31b2 c5bd 5d49 773d
000000b0: d2bc 8c3d f518 363d 77cf 853d a1f0 88bd
000000c0: a9ca 24bb 3d57 0f3e 0f4a 003e 563a c6bd
000000d0: a279 be3d f4c2 c83d 9192 d83c a689 09be
000000e0: 4883 5e3d d016 b4bd e38f 0e3e 65c9 2ebe
000000f0: b707 013d 2197 03bc 1964 263c f917 ee3d
0.08788146 0.09792788 -0.04338816 -0.094715 -0.0738362 -0.08645579 -0.035937328 -0.10670662
0.10173798 -0.16390516 -0.08142289 0.10044403 -0.09831355 0.048077714 0.116437286 0.13266736
0.09178845 -0.05105086 0.06565963 0.012847815 -0.07811234 -0.027396318 0.053911306 0.08670202
0.030964796 0.05068999 0.04735995 -0.027561044 0.06473507 0.056807086 -0.13944736 0.04286582
-0.049046535 -0.049371157 0.04173207 0.02473808 0.017294608 -0.049385324 0.05921972 0.12181259
0.019561952 0.0517039 -0.09653128 0.0603727 0.06871952 0.044457395 0.065337114 -0.06686521
-0.002514521 0.13998123 0.12528251 -0.096790954 0.09300543 0.09802809 0.026437076 -0.13431415
0.05432442 -0.08793414 0.13922076 -0.17069013 0.031501498 -0.008031637 0.010155701 0.11625666

exp_avg f4 [64, 3]
00000000: 0b17 8c3a cff2 a03a 3b63 26bb d872 953b
00000010: ecd4 55bb 501f 09bc 38f6 b739 bbe9 b439
00000020: a808 00bb 1fa3 84ba 4781 6bba 6a80 9f3b
00000030: 1542 f139 cfa6 b23a 9349 69bb f7ed 5c3a
00000040: 2e22 573a f8ef 8b3b e051 823b 0fbd 2fbb
00000050: 6917 a7ba eb6a 44b9 03cb 4d3a ac6e 183b
00000060: fd07 873b 0c8b d6ba 512f 0d3b 88a8 cb38
00000070: 3a29 b83a 6408 afbb 280d d038 1f93 9936
00000080: 2b80 dbb9 b274 9438 aeb8 0a39 0618 4abb
00000090: 7382 833a 59b3 90ba 43d8 1fbb 65f6 45ba
000000a0: a35b ae39 c23e b138 ed85 27ba b599 2eba
000000b0: b187 3d3b 60b7 b93a 5b84 98b9 d9d5 19ba
000000c0: 247b 54ba d844 1838 fe0f 833a 1ef1 443b
000000d0: f3f0 1b3b c1fb 1dbb cd90 9938 64b2 1dba
000000e0: a9ee d73a b703 113a 9b76 fa3a befb d2bb
000000f0: bc95 203b 0e13 8139 938a 6aba f905 3f3b
00000100: 3dc0 f839 ef00 13bb 6e04 a8ba 963e 303a
00000110: ba82 523b ccdd ddbb 87f0 a4bb d31c ad3c
00000120: c1ed 4bba 4cb2 8c39 62dd 033a e28e 3f39
00000130: 791f 85ba 356e 543b 3894 40bb 2a28 15ba
00000140: 9aa6 1839 6444 82b9 0e1f f938 b583 513a
00000150: 1762 80bb fa2b 7dba 720d 883b 7d05 ae3b
00000160: deed 6b3b 0cc8 edbb 5454 8b3a 5db4 9b3a
00000170: fff4 0fbb 3305 aabb d1e3 eeba 6c53 083c
00000180: f672 f1ba de62 ccba 4ec3 ad3b 8000 39ba
00000190: 4aea 053b f78f 5b36 36ac 71ba c6b3 61ba
000001a0: 8b35 553b 795d 8bbb 586d 11bb 8f40 d53b
000001b0: 1bc2 8aba e851 8bba 178a 073b 32c1 eeb9
000001c0: c406 42ba 1cb8 a83b d8d0 04bc 1a7b 81bb
000001d0: 2837 8c3c 7e4c 813b 562e 413a 6013 e7ba
000001e0: 5d30 033b 54dd 2e3a 08c4 72bb 489f 5bbb
000001f0: 8fe7 823a dd99 15ba 4668 03bb 9c20 16b7
00000200: e488 feb9 f82e 103b 22c9 99ba 99a0 b8bb
00000210: d7c3 a73a 6179 91ba bd72 423b 6edd ab96
00000220: 1670 0916 d009 3d98 c6eb c5ba a288 d239
00000230: 8db9 753b af60 223b 37ae cd3b 2557 35bc
00000240: 8429 903b f259 31bb 9386 99bb 5af9 2ebb
00000250: 1cd3 f4b9 6844 203a 9d5e 8739 7978 7c39
00000260: 00b1 6bba bc95 2d3b 9bde 333a 42cc f138
00000270: 37bc 9ebb 7c4c a1ba e834 ee3b e097 0fb7
00000280: 9e35 ce37 3a76 f338 7147 9539 1d89 dd3a
00000290: 1854 c9bb dbe8 8fba 4453 5c3a 8530 03bb
000002a0: afd7 083b 667d ccba 1288 96ba 31a4 dd3a
000002b0: 09d6 87ba e5b9 e1ba 5112 6139 eb5e 083a
000002c0: a610 8ab9 e962 333b 9ab2 663b adb0 0ebc
000002d0: f189 043a 8be9 1aba 8731 123b 808c 5ebb
000002e0: 7cc1 8b3b d8fc 323b b0b1 69ba a3cc 66ba
000002f0: 1d4e 553b 5f2d a6ba 899b cf39 2719 543b
0.001068802 0.0012279394 -0.0025388736 0.0045608096 -0.0032628132 -0.008369282 0.00035087927 0.00034506418
-0.001953641 -0.0010119415 -0.00089838024 0.004867603 0.00046016337 0.0013630035 -0.0035596832 0.00084277935
0.00082066923 0.00427055 0.0039770454 -0.0026815569 -0.0012748066 -0.00018731847 0.00078503805 0.0023259325
0.0041208253 -0.0016368343 0.0021543095 9.711186e-05 0.0014050372 -0.0053415764 9.9206634e-05 4.5768825e-06
-0.00041866428 7.078926e-05 0.00013229504 -0.0030837073 0.0010033384 -0.0011039778 -0.0024390377 -0.0007551669
0.0003325614 8.451707e-05 -0.0006390501 -0.00066604774 0.002891999 0.001416903 -0.00029090312 -0.00058683526
-0.00081055076 3.630374e-05 0.0009999273 0.0030050944 0.002379474 -0.0024106356 7.32258e-05 -0.0006015657
0.0016474325 0.00055318646 0.0019108834 -0.0064387014 0.002450331 0.00024618994 -0.0008947041 0.0029147847
0.00047445475 -0.0022430976 -0.0012818703 0.0006723193 0.0032121376 -0.006770825 -0.005033556 0.021131909
-0.00077792635 0.00026835722 0.0005030242 0.00018268407 -0.0010156474 0.0032414321 -0.002938522 -0.0005689884
0.00014557914 -0.00024846487 0.000118790296 0.0007992343 -0.003917943 -0.0009657737 0.0041519934 0.005310713
0.0035999934 -0.0072565135 0.001062999 0.0011879314 -0.0021966097 -0.005188608 -0.0018225854 0.008320671
-0.0018421102 -0.001559343 0.005302823 -0.00070572644 0.0020433837 3.2717342e-06 -0.0009219082 -0.0008609857
0.0032533135 -0.004253086 -0.0022190418 0.00650794 -0.0010586412 -0.0010629268 0.0020681673 -0.0004553884
-0.0007401521 0.0051489007 -0.008106433 -0.0039514424 0.017116144 0.003945886 0.00073692703 -0.0017629676
0.002001784 0.00066705537 -0.0037043113 -0.0033511687 0.0009987223 -0.00057068263 -0.0020051165 -8.948289e-06
-0.00048548647 0.0022000652 -0.0011732916 -0.005634379 0.0012799454 -0.0011098796 0.002967044 -2.7766282e-25
1.110214e-25 -2.4432632e-24 -0.0015100173 0.0004015612 0.003749463 0.0024776866 0.0062768715 -0.01106814
0.0043994803 -0.0027061668 -0.004685232 -0.0026698918 -0.00046696595 0.0006113709 0.000258197 0.00024077472
-0.00089909136 0.0026486954 0.0006861479 0.000115298215 -0.0048442143 -0.0012306119 0.0072694905 -8.558825e-06
2.4582081e-05 0.00011609164 0.00028472723 0.0016901825 -0.006144058 -0.001097943 0.00084047415 -0.0020017934
0.002088051 -0.0015601336 -0.0011484644 0.0016909895 -0.001036347 -0.0017221539 0.00021464496 0.0005202132
-0.00026333815 0.0027372187 0.003520167 -0.008709115 0.0005055955 -0.00059094344 0.0022307353 -0.0033958256
0.0042650085 0.002731135 -0.0008914722 -0.0008804297 0.003254778 -0.0012678317 0.00039598 0.0032363625

exp_avg_sq f4 [64, 3]
00000000: df87 5e39 028b 2e39 54c1 123c 155b 733a
00000010: 4d01 a43a ee85 933d 8b79 a737 0f03 8138
00000020: ae28 e53a aa7d 4838 37e2 0638 3ca9 f33a
00000030: 11d7 8937 3045 e137 677a 053b bdc3 693b
00000040: 1c16 2d39 b02c 763b 3591 4639 bc8d 9139
00000050: c433 8a3c 39a4 583b 1d2c fd39 04f9 983c
00000060: 9ecd eb39 0b32 3c39 0169 f93b f209 bc38
00000070: e479 cd38 924a de3b cb8f af36 c266 8336
00000080: 37af a739 e758 cd37 379d e437 29a9 093b
00000090: 57d2 2f38 42a1 4138 2305 ea3b d87e 433a
000000a0: 2ef5 2039 103a f53a a2e8 b638 fcc6 fe37
000000b0: e531 8a3a 6943 093a ee55 f538 aef7 093c
000000c0: 5997 2c39 0c1f 9738 a39a 8e3b 6dc7 983c
000000d0: 7010 893a be40 db3c dd36 ce39 4001 0339
000000e0: 3f6e eb3b b463 0b39 5082 f038 dc20 483c
000000f0: b768 7b3a 2b5e a937 ff99 d03a c493 4b3b
00000100: 43aa b638 d03f 743a fb4c e83a db0c 2039
00000110: b104 cb3b 3c4d 483c a123 2c3b 7a76 e13d
00000120: ddb9 5138 4900 0538 d695 9a3a 493b 2339
00000130: 4709 d338 2c19 0a3c 950d 623b d965 0238
00000140: 38eb ab39 f624 ec38 7806 7c37 af15 093a
00000150: dc28 9b3b aca4 8939 42d1 873b b70b 613c
00000160: 70fc 703a 09b4 0a3d d6de c93a 1bc5 4138
00000170: 7d1e 383b a3dd b23b e929 e139 42e4 7d3c
00000180: 9b0c 0a39 71c0 8c38 5746 803b 0478 c43b
00000190: 3918 df39 46a0 a13c d9cc f038 5ee2 c738
000001a0: a246 4c3b c79a 673a afb5 1b3a db3a be3c
000001b0: 9179 c138 2023 2d38 7ee2 013b 82f2 b43a
000001c0: cd8c 6c38 978f c63b fdd4 763c d21c bd3a
000001d0: 162d 523d ff3d b93b fcda 5d39 3626 133b
000001e0: 5fc2 e63a 5390 ff37 8285 773a 44be f73b
000001f0: 7f6e 9d39 069d ab3b 1932 a43a 19e7 9438
00000200: 00e3 ae3a 390f 5338 4114 2738 9d11 853b
00000210: d5f3 8e38 d54d 3738 54ed 2a3b 263e 8634
00000220: 0786 3a33 0249 a237 4eb8 3639 aef0 5a39
00000230: 66e3 3d3c 6f24 ac3c 9055 963a 355b be3c
00000240: 30bd 423a 98d7 273a 7f93 003d dd91 f03b
00000250: ed06 9439 33be 853b c78f bc36 799f b536
00000260: e4d5 9e39 aef7 263b d389 0f38 ab16 253a
00000270: 8bfa 293c 2bfb 1b3a 397b 7d3c 521c 4d35
00000280: 2a9b 9235 b2f9 8938 5940 7c38 5b49 e238
00000290: 9f8d c93b a4ab 1d38 b57e 3938 c9b9 2e3b
000002a0: 9b35 6e39 f027 1739 04eb 093c 89ab 8b38
000002b0: 2824 a638 4de8 093c 8b02 0d37 08e3 8837
000002c0: 11e9 823a 7f7d 803a e31a 243a 6bd2 223d
000002d0: e75a a839 fdba 3e38 4a26 b23a d076 403c
000002e0: 2dfd c13a 910d 763d 9876 0639 a743 2b39
000002f0: bc0a 123c 7de2 a839 0e3a 5939 f864 ff3b
0.00021222186 0.00016645718 0.008957226 0.00092832866 0.0012512595 0.072032794 1.996455e-05 6.151769e-05
0.0017483437 4.780075e-05 3.215877e-05 0.0018589864 1.643182e-05 2.6854308e-05 0.0020367147 0.0035669648
0.00016506802 0.0037563257 0.00018936845 0.00027762156 0.016870387 0.0033056869 0.00048288787 0.018673427
0.0004497589 0.0001794772 0.0076113944 8.966391e-05 9.797866e-05 0.006783792 5.232146e-06 3.916067e-06
0.00031983267 2.4479303e-05 2.7252927e-05 0.0021005368 4.1919146e-05 4.616497e-05 0.0071417256 0.0007457561
0.00015350126 0.001870932 8.7217675e-05 3.0371819e-05 0.0010543434 0.000523618 0.00011698516 0.008420868
0.0001645958 7.206024e-05 0.00435193 0.018649781 0.0010457169 0.02676427 0.00039332258 0.00012493599
0.007184773 0.00013293215 0.000114683644 0.012214866 0.0009590494 2.019022e-05 0.0015915035 0.0031063417
8.71015e-05 0.000931737 0.0017723137 0.00015263578 0.0061956276 0.012225445 0.0026266354 0.11008926
5.000258e-05 3.1709937e-05 0.0011793922 0.00015566977 0.00010062992 0.008428853 0.0034492959 3.108927e-05
0.00032790913 0.000112602414 1.5021877e-05 0.00052293664 0.0047350954 0.00026253366 0.0041448185 0.013735703
0.00091928896 0.0338631 0.0015401493 4.6198355e-05 0.0028094344 0.00545855 0.0004294657 0.015496315
0.00013165401 6.711565e-05 0.003914635 0.0059957523 0.00042551922 0.019729745 0.00011482248 9.5312236e-05
0.003117003 0.00088350143 0.0005939854 0.023221424 9.225601e-05 4.1279127e-05 0.0019818838 0.0013805183
5.6397916e-05 0.0060595977 0.015065429 0.0014428145 0.05131253 0.0056531425 0.0002115778 0.0022453195
0.0017605535 3.0465575e-05 0.00094421965 0.007560523 0.000300277 0.0052372245 0.0012527137 7.100235e-05
0.0013342798 5.0320497e-05 3.9834766e-05 0.0040609376 6.816505e-05 4.3703087e-05 0.00260814 2.5004664e-07
4.3428397e-08 1.9345902e-05 0.00017425531 0.0002087976 0.011589861 0.021013467 0.0011469591 0.02323685
0.0007428704 0.00064026704 0.031390663 0.007341607 0.0002823392 0.0040815114 5.6195745e-06 5.4127854e-06
0.0003029547 0.0025477218 3.4222216e-05 0.0006297628 0.0103746755 0.00059502077 0.015471273 7.640966e-07
1.0923006e-06 6.5791784e-05 6.014141e-05 0.00010790183 0.0061509158 3.759157e-05 4.4225442e-05 0.002666103
0.00022717418 0.0001441536 0.0084178485 6.6599874e-05 7.9222315e-05 0.008417201 8.404847e-06 1.6318183e-05
0.0009987672 0.0009803026 0.000626011 0.03975145 0.00032111185 4.5473676e-05 0.0013591733 0.011747077
0.0014800184 0.06007153 0.00012823415 0.00016333033 0.008913692 0.00032212204 0.0002071636 0.007794019

exp_avg f4 [64]
00000000: 8208 8439 601e 5bbb eda3 e439 3083 b5ba
00000010: 7575 163a 68c3 883b 211a c7ba d426 5d3b
00000020: 8cf7 08ba f81e d13a 5a66 24b9 7aff de39
00000030: b8e1 78ba cdc9 03ba 4aa0 48ba dad3 933a
00000040: 27ae 863a 6ab2 0a3c 5a09 ea39 241f a53a
00000050: 8048 173b 5c1f 493b edf1 2a3b b826 a5bb
00000060: 7279 b339 da85 4d3a 7d62 04bb 9ead a8b9
00000070: c3ae 7dbb 8b1b fd3b 549b 943a aad1 a8bb
00000080: 73f1 c7ba ad51 213b 1c1e 5bba 3142 42bb
00000090: 4d08 a1b9 8208 70b9 be3f ecbb 9e0e 573b
000000a0: 833d 223b 990f 98bb a23e 3dbb 233e 2dbb
000000b0: b225 843a 05ff be16 6f69 a53a ec8a 223c
000000c0: 976c 02bb 6e52 12bb 58c9 cbb8 ed19 b93a
000000d0: 37b0 96bb 956b 5bb7 e782 30b9 72d1 5bb9
000000e0: ba10 c3ba 9d5b 54ba b1a2 9d39 8cd0 033b
000000f0: 8150 423a 12c9 cc3b 14db 3fba 1cbe e63a
0.0002518334 -0.0033434853 0.00043609683 -0.0013848301 0.00057395484 0.004173685 -0.0015190282 0.0033745067
-0.00052248756 0.0015954664 -0.00015678388 0.00042533485 -0.0009494084 -0.0005027324 -0.00076532795 0.0011278347
0.001027529 0.008465389 0.00044638925 0.0012597782 0.0023083985 0.0030688858 0.002608414 -0.005040016
0.00034232024 0.0007840075 -0.0020200305 -0.00032172812 -0.0038708902 0.0077242306 0.0011337795 -0.005151947
-0.0015254453 0.0024615333 -0.00083586737 -0.0029641504 -0.00030714498 -0.00022891353 -0.007209747 0.003281511
0.0024755902 -0.0046405313 -0.0028876443 -0.0026434741 0.0010082035 3.0857095e-25 0.0012619923 0.009920817
-0.001990115 -0.0022326964 -9.7172975e-05 0.0014122106 -0.004598643 -1.3078466e-05 -0.00016833433 -0.00020963492
-0.0014882304 -0.00081008096 0.00030066588 0.0020113317 0.0007412509 0.0062495554 -0.0007318717 0.0017604264

exp_avg_sq f4 [64]
00000000: 4489 313a 4922 893b e50e dd38 6c26 0739
00000010: aac2 ab38 6512 703b 3d1b 673a d1d7 843b
00000020: 06c9 533a 77c1 c739 4a74 7f37 1436 d938
00000030: f6f5 8639 0b72 5c3a 8bd9 ff38 e287 863a
00000040: 4b24 ad39 0b0a 9d3c e895 4c3a 8fbe 163a
00000050: f9b5 823a f1a3 513b 8403 033b e59a 8e3c
00000060: 8c46 f238 7e48 0a3a 700b 653b 706d 0d39
00000070: 9b4a a13b 9d25 7a3c ebea cf3a 9c66 c73b
00000080: 16a0 b139 8d14 d33b 6526 9439 372a 0a3b
00000090: 6b3f 5939 7512 db3a 9c9b 8b3c 252c be3b
000000a0: 6dba ec3a aeb1 023c 2206 ab3a 1bcc 3f39
000000b0: 528b 3939 5b1f a534 e243 2f3a 3c99 b23c
000000c0: e6fe 153b 9c40 f13b 729a 4a37 ba09 293b
000000d0: 7bc1 2c3c a345 d835 8f64 9939 a789 1f39
000000e0: 5a4c 233a c1ad a939 1fe8 2938 366b 443b
000000f0: 13b8 d039 42df 573c 7911 153a aaf2 213a
0.00067724683 0.0041849953 0.000105408755 0.00012888917 8.1901744e-05 0.0036632058 0.00088160095 0.0040540476
0.0008078966 0.0003810038 1.522626e-05 0.00010357439 0.00025741727 0.0008409328 0.00012199868 0.0010263885
0.00033024172 0.019169828 0.000780432 0.00057504413 0.0009972445 0.0031988586 0.001999111 0.017407844
0.000115525996 0.00052750844 0.0034949444 0.00013487577 0.0049222237 0.015267757 0.0015862858 0.00608523
0.00033879344 0.006441659 0.00028257366 0.002108229 0.00020718358 0.0016713875 0.017041974 0.0058036023
0.001806093 0.007976932 0.0013048092 0.00018291215 0.00017694876 3.075646e-07 0.00066858355 0.021801583
0.0022887527 0.0073624384 1.2076098e-05 0.002579315 0.010544176 1.6113521e-06 0.00029257356 0.00015214701
0.0006229334 0.0003236365 4.050892e-05 0.002997113 0.00039809998 0.013175787 0.00056865026 0.00061778224

exp_avg f4 [64]
00000000: ee84 763a d1ac 5aba 1d6f 49ba 725c 2a3a
00000010: 7d92 f8ba ddfc 1d3a 998e 9039 987b 81b9
00000020: 15bd f73a 7b08 b3b8 ef39 043a 16c0 8c3a
00000030: f275 9bba 6dd4 ae38 ce9a e0b9 f10d 15ba
00000040: 3adc 5e39 80f5 c039 16df 4239 a730 62ba
00000050: f322 aa3a dd3b 8b38 1c66 f1b8 260e 24bb
00000060: a8bd 61b8 d2c6 b8ba 1a80 5dba a991 8bb9
00000070: 9a63 473a 04ce 773b d032 22ba 4571 18ba
00000080: deef daba 8859 c03a 8199 4a39 4ee2 413a
00000090: 6f05 4e3a df6c 593b 2ab8 47b9 3028 3f3a
000000a0: 6f4f 583a 1aae 01bb 651e b338 702e 943a
000000b0: 1c7a fc38 cd83 9bba cb7a db3a 7e93 573b
000000c0: 102a 2abb d0b4 28b9 3d7d 03ba 9dfa 513a
000000d0: 77e7 a4ba a9b7 0aba a40b adba 9fdc 34ba
000000e0: cbe4 98b9 81b6 2fba ee88 b7ba 417e 1a3b
000000f0: c5ad 513a 4d18 12bb ac08 13ba 8bd4 45b9
0.00094039633 -0.00083417917 -0.00076840987 0.0006498761 -0.0018964555 0.0006026754 0.00027572064 -0.00024696882
0.0018900955 -8.536965e-05 0.0005044033 0.0010738398 -0.0011860712 8.336534e-05 -0.00042839948 -0.00056859764
0.0002125361 0.00036804006 0.00018584388 -0.00086284656 0.0012980386 6.639187e-05 -0.00011510795 -0.0025032847
-5.382081e-05 -0.0014097339 -0.00084495696 -0.0002662067 0.00076060893 0.0037812004 -0.0006187381 -0.00058152183
-0.0016703566 0.001467512 0.00019321406 0.0007396088 0.0007859086 0.0033176464 -0.00019046725 0.000729206
0.00082515826 -0.001978761 8.5410466e-05 0.0011305343 0.00012039041 -0.0011864841 0.0016744969 0.0032894309
-0.0025965013 -0.00016089086 -0.00050159154 0.00080100616 -0.0012581189 -0.000529165 -0.0013202322 -0.000689933
-0.00029162163 -0.00067029154 -0.00140026 0.0023573788 0.0007998611 -0.0022292316 -0.0005608897 -0.00018866562

exp_avg_sq f4 [64]
00000000: 7213 393a 3d23 133a 3d8b 0c39 b0d2 2c39
00000010: aefd da38 2228 1839 374d bb39 41a7 263b
00000020: f537 dd3a b8f4 9838 88b0 6d38 df5c 0639
00000030: 726f 9438 04f0 e239 d825 1e39 8cb6 1e3a
00000040: cdd7 833a fb63 9e3b 00dd 5c38 c19f 9739
00000050: 9dee 1239 3b4e 6a38 2252 d239 c482 1f3b
00000060: 3fb9 b338 dc20 183a 1ffd 123a 403a 2439
00000070: cdd7 8938 30ed a83b cdbe e639 e6bd e639
00000080: 97ed 7d39 7574 b23a 20d0 8039 e211 ae3a
00000090: 6593 ab39 c8b1 853a 226d 683a 5b63 473a
000000a0: 763c af38 341a 593b 0b40 8d38 fd8f cc39
000000b0: 48c2 543a 3d76 9a39 1771 af3a 2b61 6d3b
000000c0: b20d 3c3b 22cb af3a 8072 1538 fe3b cc39
000000d0: 7ea1 153b 88fb 8d39 7405 3639 3efd 4139
000000e0: 36d4 853a 64be cf38 455b dd39 ef6f b73b
000000f0: 9594 aa39 478d 9239 8d5d d839 7bc6 1e39
0.00070600875 0.0005612856 0.00013403311 0.00016481685 0.000104423016 0.000145108 0.0003572495 0.002542928
0.0016877638 7.293507e-05 5.666961e-05 0.00012813833 7.077948e-05 0.00043284905 0.00015082152 0.0006054423
0.001005882 0.004833696 5.265791e-05 0.0002891999 0.00014012535 5.5862805e-05 0.00040115515 0.0024339417
8.56989e-05 0.0005803236 0.0005607176 0.00015661959 6.572865e-05 0.005155228 0.00044011176 0.00044010504
0.0002421647 0.0013615029 0.00024569128 0.0013280476 0.0003272548 0.0010200078 0.000886636 0.00076060527
8.355912e-05 0.003312719 6.735333e-05 0.00039017192 0.00081161084 0.00029461263 0.0013385144 0.0036221247
0.0028694686 0.0013411979 3.5631005e-05 0.0003895461 0.0022831853 0.0002708102 0.00017358904 0.00018500254
0.0010210339 9.905992e-05 0.00042220406 0.0055980603 0.0003253563 0.0002795255 0.0004126843 0.00015141994

exp_avg f4 [64]
00000000: b412 3d3a 675e 20bb 1116 9a3a 42dd 99ba
00000010: 86a5 143b 087d 1b3b 02f1 caba bde9 d13a
00000020: 89b6 bbba 1848 983a 6bc8 cdb9 a038 b539
00000030: 5e03 07b9 ed1b 26ba 3d30 e1b9 8f61 4c3a
00000040: 13f0 713a 3c6a 603b 0a74 e039 2679 fc3a
00000050: bf0c 9db7 fa38 223a 7e57 e73a 7fdc 7fbb
00000060: 8a13 7339 b6ec aab9 1892 15b5 8d9d 7738
00000070: 035f d5ba 4f49 6f3b 35c1 613a 07ed 49bb
00000080: 2ec6 2eba f436 a33a 2069 ccba d1fc 38bb
00000090: b07a cdba 1508 c3b9 dc5d 87bb bf6f a93a
000000a0: 679c 923a 598e 20bb d3a6 91ba 68a9 3bbb
000000b0: 6272 a43a 069e cc3a 7d0e 5039 7010 823b
000000c0: 7cdb b8ba 9ed0 9bba c35a d439 b021 003a
000000d0: 4242 26bb db93 333a 97c8 843a 6dbd 4c39
000000e0: fcf4 c4ba bd6f 79ba 27e9 003b c8e5 5e3b
000000f0: a4f6 853a 5de0 5f3b c7a3 03ba a920 853a
0.0007212565 -0.002447033 0.0011755844 -0.0011738914 0.0022681667 0.0023725647 -0.0015483203 0.0016015094
-0.0014321367 0.0011618165 -0.0003924997 0.000345652 -0.00012875858 -0.0006336559 -0.00042951285 0.000779652
0.0009229194 0.0034243008 0.00042811065 0.0019262179 -1.8721794e-05 0.00061883 0.0017649976 -0.0039041338
0.00023181565 -0.0003260129 -5.571942e-07 5.903612e-05 -0.0016278926 0.0036512201 0.0008611859 -0.0030811445
-0.00066671043 0.001245229 -0.0015595295 -0.0028226862 -0.0015676823 -0.0003719932 -0.004131062 0.001292698
0.0011185528 -0.0024498908 -0.001111234 -0.002863491 0.0012546296 0.001561106 0.00019841823 0.0039692447
-0.0014103497 -0.0011887734 0.00040503414 0.00048878323 -0.0025369083 0.000685034 0.0010130581 0.00019525523
-0.0015026624 -0.00095152465 0.001967022 0.0034011472 0.0010220599 0.003416083 -0.0005021658 0.0010156828

exp_avg_sq f4 [64]
00000000: e982 ff39 b152 463b c3e4 9939 04f5 b339
00000010: 9fe7 8939 ae21 b539 3e8b 913a 4ff5 443a
00000020: 2818 693a 807f cb39 41ed d038 cfe7 2a39
00000030: c7c0 0e3a fd16 e139 1eb6 5e39 5466 053a
00000040: b4db 193a fc54 df3a 016c 8c39 7eb4 883a
00000050: ed9c da38 8c91 8639 d20b d239 c1f3 8d3b
00000060: f323 2e39 c295 9a39 cfea b039 b12e d038
00000070: b07a ba39 3d05 263b 6932 9d39 dcc9 6b3a
00000080: ae54 bc39 4aab 983a 0638 a439 6d05 e33a
00000090: 1d75 273a 7592 d539 219d 1c3b e8de ea39
000000a0: a092 1f39 1e83 8a3a 5e91 3e39 3103 643a
000000b0: e65a 843a 9e9d 0d3a 0f43 803a 420e 193b
000000c0: c7e7 a93a eca4 923a c3fc b238 45c6 a539
000000d0: 443a 7c3a 4ffb 0d3a 27db 0f3a 4a79 f439
000000e0: 1471 103a 915d 1d3a 72b7 5a3a 4324 033b
000000f0: 74fb 2739 d85a 1b3b a6c4 c839 5ea6 8439
0.00048734926 0.003026169 0.00029352875 0.0003432409 0.00026303247 0.00034548104 0.001110412 0.00075133605
0.0008891844 0.00038814172 9.962405e-05 0.00016298819 0.0005445596 0.00042932472 0.00021239414 0.00050887954
0.0005869225 0.0017038877 0.0002678335 0.0010429767 0.0001042428 0.00025666913 0.00040063128 0.0043320362
0.00016607325 0.00029484747 0.00033744282 9.92691e-05 0.00035568094 0.0025332712 0.00029982932 0.0008994618
0.00035921246 0.0011647728 0.00031322258 0.0017320343 0.00063879957 0.00040735645 0.0023897367 0.00044798036
0.00015218044 0.001056764 0.00018173966 0.00086979853 0.0010097891 0.000540221 0.000978561 0.0023354446
0.0012962752 0.0011188067 8.534782e-05 0.00031618975 0.00096217194 0.0005416171 0.00054876733 0.00046629674
0.0005510014 0.0006003017 0.00083433755 0.0020010627 0.00016020035 0.002370527 0.00038293487 0.00025300955

exp_avg f4 [64, 64]
00000000: ead6 19ba cc3b 933a 33c6 603a 30c4 3c3a
00000010: 2d07 513a 6dce 773a ac22 913a f3e9 8639
00000020: 4f7d 8f3a defb 053a 122e 2f37 65df c4b9
00000030: e516 8b3a fdf1 0cbb 773c e3b9 ae1d 613a
00000040: 7fb4 8b3a 2422 18ba 5178 8239 7ff4 c339
00000050: 2796 e2ba 2ba8 fe39 3dee 903a cb22 e4ba
00000060: b1b6 903a 8f9a e9ba 7527 35bb 0d45 a7ba
00000070: fe1c ee39 cd6d f4ba c396 e139 15b8 96ba
00000080: d158 16ba cd33 913a cfce 1bba 7bb5 01ba
00000090: 9c0c d039 593c 503a 678c 26ba 181c 39b9
000000a0: 1650 8cba 3c3c 2dbb 47a1 07ba 1aba 853a
000000b0: 4ff1 8d3a e14e 893a 4609 903a d5bb 5bba
000000c0: 4224 903a 2a19 12bb 2665 813a eb0f 39bb
000000d0: f2a2 b1ba 9dc7 863a d837 4d3a 7366 8c3a
000000e0: 8483 913a f6c4 863a 7642 6b3a 5541 6dba
000000f0: ab85 6e38 6bdb 8d3a 079e d8b9 6b17 923a
00000100: a006 5eba b5ef f5b9 5026 68ba c5f9 5eba
00000110: b9c3 64ba 0c97 623a c98d 14ba 1a90 943b
00000120: d7a7 393b f782 92ba fbf4 64ba 7f79 5aba
00000130: 4bfd f5ba ae89 51ba 6557 5fba fa65 313a
00000140: 610e ca3a b73f a23a 7f75 d03a 79c1 61ba
00000150: d9fe 58ba 5903 60ba b5ce dc3a eebe 68ba
00000160: 9dea ce3a 3182 66ba 45fa 43ba fc80 61ba
00000170: e167 6aba 5864 7fba 7743 403b 661f 69ba
00000180: 2243 64ba b3b5 0f3a 60d4 64ba 8de8 68ba
00000190: 2731 62ba 97eb ad3b 3c02 75ba 5918 2e39
000001a0: d911 5cba c28b 88ba f6eb 99ba 465d 8eba
000001b0: 01db a53a 74ed 5cba c23e 453b c614 4aba
000001c0: d9f8 b43a 5f06 56ba 135e 75ba 9d52 5aba
000001d0: 802e e038 9e2f 59ba e623 b6ba d597 803a
000001e0: 9f8e ba3a 4a5c ebba 011c 63ba bdf2 29ba
000001f0: 8005 583b c188 9e39 85d5 6cba 82d2 c33a
00000200: 6a61 6b3a 7337 5aba cef5 96ba fbd6 82ba
00000210: b3c5 bbba d2e8 4fba 8b60 91ba 3622 1aba
00000220: b70e 5cba 2493 2eba c2da 1db7 0b59 92b9
00000230: 737b 8aba e216 173b a5bc ffb8 d31f 0c38
00000240: 08d3 37ba 6872 613a 1852 2eba 81c7 8dba
00000250: 6a41 1a3b cb2b beb9 dfe4 a1ba 9ae5 b73a
00000260: b719 b9ba a460 193b c68a 253b e747 073b
00000270: 146e 62ba e3cd 373b 49ea 8db9 94a0 ea39
00000280: 1695 6e3a b5a8 eeb9 cb1b 3439 90d2 efb8
00000290: c391 17ba cb0c 90ba a4af 3738 e29b 683a
000002a0: 0340 a93a 9f81 0a3b 325b 3339 83e8 83ba
000002b0: 60bb d5b9 53a6 b2ba 56ec b1ba 9a21 d33a
000002c0: 21ec abb9 2ad5 013b 9336 bfba 15c5 7d3b
000002d0: f35d 5e3a eda9 a7ba 8f66 6eba d2b8 b6ba
000002e0: 9d13 d9b9 a413 72ba f3c3 8eba 1ea1 ba3a
000002f0: da0f b339 7f78 b1ba d38f c638 90f3 b8ba
00000300: b549 82ba 868f 813a 14dc 7bba 055f 70ba
00000310: 6826 8cba 4868 b33a c921 8b39 d984 9e3a
00000320: 632c 4c3b 06f3 85ba f5aa 85ba d1d9 83ba
00000330: 7506 a03a a901 b4ba 443e 7eba bb33 4d3b
00000340: 6404 283b 8f53 a9ba afa0 3fba 7fae 8cba
00000350: 6287 aaba fdfa 89ba fce2 ae3a a1b6 3bba
00000360: deb5 043a c7e4 8cba 9442 c1ba c64c 81ba
00000370: 87a9 7aba e1f6 c2ba f24e 173b 7720 8cba
00000380: b142 78ba 41af 493b fdd2 87ba 2cc1 85ba
00000390: 5e36 78ba 253e 013b 98c1 0bba fb39 4d3a
000003a0: 4435 9fba 4631 35b9 ea02 3eba c516 e038
000003b0: d533 583b 353c 6eba 6433 033b 8141 85ba
000003c0: 0876 603b 4fef b5ba f2b4 83ba 0dc7 a8ba
000003d0: f296 8ab9 234e 6aba 9a8c 0c39 9c46 64ba
000003e0: 44dc 663b 60bd 953a 2163 81ba 5844 99ba
000003f0: ed62 3f3b ab25 09ba 7d43 88ba 93be 8739
-0.00058685115 0.0011233031 0.0008574456 0.0007200865 0.00079737866 0.0009453062 0.0011072955 0.00025732777
0.0010947379 0.00051110785 1.0441539e-05 -0.00037550475 0.0010611682 -0.002150654 -0.00043341864 0.00085874915
0.001065865 -0.0005803427 0.00024885175 0.00037375462 -0.001728718 0.0004857195 0.0011057329 -0.0017405389
0.0011040774 -0.0017822551 -0.0027641926 -0.0012761668 0.00045416498 -0.0018648446 0.0004302767 -0.0011498953
-0.00057352806 0.001107806 -0.00059435976 -0.0004948002 0.00039682246 0.0007943563 -0.0006353319 -0.0001765344
-0.001070502 -0.0026433608 -0.00051738735 0.0010202557 0.0010829362 0.0010475778 0.0010989092 -0.0008382176
0.0010997134 -0.002229283 0.0009872064 -0.0028238248 -0.001355259 0.0010282878 0.0007828451 0.0010711685
0.0011101817 0.0010282088 0.0008974442 -0.0009050568 5.686811e-05 0.0010822838 -0.0004131647 0.0011145895
-0.0008469615 -0.00046908637 -0.00088558067 -0.00085058465 -0.0008726675 0.00086437236 -0.00056668796 0.00453378
0.00283288 -0.0011177947 -0.00087340147 -0.00083341444 -0.0018767504 -0.0007993233 -0.00085197977 0.000676721
0.0015415662 0.0012378608 0.0015904157 -0.00086118985 -0.00082777214 -0.0008545421 0.0016846271 -0.00088785484
0.0015786473 -0.0008793204 -0.0007475953 -0.0008602289 -0.0008941871 -0.00097424304 0.0029337087 -0.00088929234
-0.00087075133 0.00054820924 -0.0008729156 -0.00088847504 -0.000862854 0.0053076255 -0.0009346341 0.00016603003
-0.00083949935 -0.0010417628 -0.0011743295 -0.0010861538 0.0012653769 -0.0008427717 0.003009722 -0.0007708784
0.0013807073 -0.00081644015 -0.00093600265 -0.00083283504 0.00010689814 -0.00082849886 -0.0013896197 0.0009810874
0.0014233178 -0.0017956581 -0.00086635357 -0.0006483009 0.0032962263 0.00030237998 -0.00090345024 0.0014940056
0.00089790544 -0.00083243026 -0.0011517347 -0.0009982282 -0.0014325887 -0.0007931116 -0.0011091394 -0.00058797316
-0.00083945267 -0.0006659499 -9.408863e-06 -0.00027913632 -0.0010565355 0.002305441 -0.00012194485 3.340824e-05
-0.0007012342 0.00086001167 -0.0006649806 -0.0010816903 0.0023537525 -0.00036272252 -0.0012351534 0.0014030219
-0.0014122044 0.002340355 0.0025259717 0.0020642222 -0.0008637619 0.0028046302 -0.00027068172 0.00044751598
0.0009101195 -0.00045520594 0.00017176491 -0.000114356284 -0.0005781913 -0.0010990141 4.3794178e-05 0.0008873326
0.0012912754 0.002113439 0.00017104743 -0.0010063801 -0.0004076613 -0.0013629891 -0.0013574462 0.0016108037
-0.0003279159 0.0019810894 -0.0014588408 0.0038722206 0.00084826275 -0.0012791731 -0.0009094262 -0.0013940579
-0.00041404078 -0.0009234494 -0.0010892138 0.001423869 0.0003415335 -0.0013539939 9.468165e-05 -0.0014110673
-0.0009940179 0.0009884692 -0.00096076843 -0.00091694325 -0.0010692598 0.0013687694 0.00026537318 0.0012094035
0.0031154386 -0.0010219521 -0.0010198044 -0.0010059421 0.0012208956 -0.0013733405 -0.00096986094 0.0031311351
0.0025637383 -0.0012918579 -0.00073100155 -0.0010733156 -0.0013010318 -0.0010527071 0.0013342793 -0.0007160698
0.0005062501 -0.0010749333 -0.0014744573 -0.0009864799 -0.00095620047 -0.0014874601 0.0023087827 -0.0010690828
-0.0009470387 0.0030774625 -0.0010362562 -0.0010204664 -0.00094685506 0.001972088 -0.0005331277 0.0007828769
-0.0012146612 -0.00017279861 -0.0007248359 0.000106853935 0.0032989879 -0.0009087951 0.0020019645 -0.0010166616
0.003425004 -0.0013880524 -0.0010048433 -0.0012876705 -0.00026433874 -0.0008938035 0.00013403819 -0.00087080314
0.0035226503 0.0011424236 -0.0009871462 -0.0011693342 0.0029203251 -0.0005231748 -0.001039609 0.00025891195
