experiments/training_curves/SHAC/seed_400/best_policy.pt (torch, 167108 bytes, 63 tensors)

weight f4 [64, 3]
0	0xbec19c9d	-0.378148
1	0x3e586af6	0.21134552
2	0x3ebaf147	0.36512205
3	0xbec9140e	-0.39273113
4	0x3f18d8ac	0.59705615
5	0x3cbb6268	0.022874072
6	0xbe76b08e	-0.24090788
7	0x3e961016	0.29309148
8	0x3ef76547	0.48319456
9	0xbe30a4a0	-0.172503
10	0xbefb0b47	-0.4903204
11	0x3c10d187	0.008839018
12	0x3e898ec2	0.26866728
13	0x3d838211	0.064212926
14	0x3e0dbd62	0.13841775
15	0xbea41cc6	-0.32053202
16	0xbef9e1dc	-0.4880513
17	0xbe03e0a0	-0.12878656
18	0x3f0e23a2	0.5552312
19	0x3ea1c91c	0.31598747
20	0xbd76958f	-0.060201224
21	0xbf12efc9	-0.57397133
22	0xbea44975	-0.32087293
23	0xbe7859a4	-0.24252945
24	0xbf002497	-0.5005583
25	0xbc9803a3	-0.018556422
26	0xbedf5754	-0.43621314
27	0xbe6e2ef6	-0.23260102
28	0x3d8e62e4	0.06952456
29	0x3ebcec2a	0.3689893
30	0xbf22e6f9	-0.63633686
31	0x3e746806	0.23867807
32	0x3e8c8c27	0.27450678
33	0xbd8280ef	-0.063722484
34	0xbe5b551a	-0.21419182
35	0x3e9e5a1d	0.30928126
36	0x3ee6ad86	0.45054263
37	0xbf0f3a79	-0.559486
38	0xbeb020a9	-0.34399918
39	0x3e11c97c	0.14237016
40	0x3ef3c369	0.47610024
41	0x3e7b7904	0.24557883
42	0x3d007255	0.031359036
43	0xbe9ff561	-0.31241897
44	0xbe5347f9	-0.20632924
45	0xbe918f28	-0.28429532
46	0xbea9f226	-0.33192557
47	0xbe0c9e1d	-0.1373219
48	0xbf3378dd	-0.701063
49	0xbec1654f	-0.37772605
50	0xbea2f2e0	-0.31825924
51	0x3efdb8ad	0.4955496
52	0xbcd89c32	-0.026441667
53	0xbd43b0ab	-0.047775906
54	0xbea65a33	-0.32490692
55	0x3f24796e	0.64247787
56	0xbe50ec08	-0.20402539
57	0x3ef1d6f3	0.47234306
58	0x3e8e5932	0.27802426
59	0xbe80deb0	-0.25169897
60	0x3f032fbf	0.5124473
61	0x3eee69dd	0.46565142
62	0xbdd10af8	-0.1020717
63	0xbcde0d6d	-0.027106011
64	0xbea4a059	-0.32153586
65	0xbe349f68	-0.17638934
66	0x3daabbae	0.08336578
67	0x3eed44fa	0.46341687
68	0xbeb84270	-0.35988188
69	0x3ef67fa2	0.4814425
70	0xbe537819	-0.20651282
71	0xbe5d9512	-0.21638897
72	0x3e0a01ec	0.13477296
73	0xbf10ce24	-0.56564546
74	0x3ecf6d60	0.40513134
75	0xbe200718	-0.15627706
76	0xbd82b687	-0.063824706
77	0xbee24f17	-0.44200966
78	0xbdfce8ee	-0.12349115
79	0xbed289a0	-0.41120625
80	0x3eb5260f	0.353806
81	0x3dd29f0a	0.102842405
82	0x3d7a187e	0.061058514
83	0x3e23f76c	0.16012353
84	0xbec944fe	-0.3931045
85	0xbf0f7662	-0.5604001
86	0xbf05ec9c	-0.5231416
87	0x3ec233af	0.37930056
88	0x3ecca746	0.3997137
89	0xbd746e63	-0.059675585
90	0xbe18cc3f	-0.14921664
91	0xbebabb46	-0.36471003
92	0xbeee7781	-0.4657555
93	0x3c99a7f9	0.018756853
94	0xbe44a991	-0.1920531
95	0xbed4429c	-0.4145707
96	0xbe1177fe	-0.1420593
97	0x3ea60e21	0.32432655
98	0xbe80a04e	-0.25122303
99	0x3ea3163b	0.31852898
100	0xbf022448	-0.5083661
101	0xbf08b4a6	-0.5340065
102	0xbe76c0eb	-0.2409703
103	0x3e45f399	0.19331206
104	0xbecbdfb6	-0.39819115
105	0x3eaa9ae0	0.33321285
106	0x3f03ece6	0.51533353
107	0x3e950af0	0.29109907
108	0xbeebfea5	-0.46092716
109	0x3eb2bd03	0.3490983
110	0x3ec2af80	0.3802452
111	0x3ef29068	0.47375798
112	0x3f045b7a	0.5170208
113	0xbe065597	-0.13118587
114	0x3ee56183	0.44800958
115	0xbe67b5a5	-0.22627886
116	0xbec5f1a4	-0.3866092
117	0xbdd513ff	-0.104042046
118	0xbebc335c	-0.36757934
119	0x3df74fc7	0.12075763
120	0x3f04b78c	0.5184257
121	0x3e10f14d	0.14154549
122	0x3f040c37	0.5158114
123	0x3e0db808	0.13839734
124	0x3e10b753	0.14132433
125	0x3f0d5e40	0.5522194
126	0xbe82fcca	-0.25583488
127	0x3ed6d910	0.4196248
128	0xbd50b292	-0.050951548
129	0xbe942836	-0.2893693
130	0x3f0c40fb	0.5478665
131	0x3ace8040	0.0015754774
132	0xbd9ad524	-0.075601846
133	0xbdc9653c	-0.09833762
134	0x3e3321b9	0.17493333
135	0x3ecf2ff0	0.4046626
136	0xbecc89ce	-0.39948887
137	0xbed6a496	-0.41922444
138	0xbe3e7c80	-0.1860218
139	0x3ed9ed7a	0.42563993
140	0xbeb613fb	-0.3556212
141	0xbf0b1788	-0.5433278
142	0xbf15aa3f	-0.584629
143	0x3ee27d05	0.44236007
144	0xbf0c309d	-0.5476168
145	0xbef514e6	-0.47867507
146	0x3dea274a	0.11433275
147	0x3cef562b	0.029215893
148	0xbf15492a	-0.58314764
149	0xbf0021cf	-0.5005159
150	0x3eae07e3	0.33990392
151	0x3f100eca	0.56272566
152	0xbee90280	-0.4550972
153	0xbd8ea402	-0.06964876
154	0x3e04c86f	0.12967084
155	0x3eafd761	0.3434401
156	0x3daeeee1	0.08541656
157	0x3dbb123c	0.09134337
158	0x3ed24d6a	0.41074687
159	0x3e5e7a08	0.21726239
160	0xbf005e9a	-0.5014435
161	0xbe5e711c	-0.21722835
162	0x3e15e836	0.14639363
163	0xbdec871c	-0.115492076
164	0x3ea0146f	0.3126559
165	0xbf28c749	-0.65929085
166	0x3de6a68d	0.11262236
167	0x3f102eba	0.563213
168	0xbde4e41a	-0.111763194
169	0xbe8945f7	-0.2681119
170	0x3dc76812	0.09736647
171	0xbf20daed	-0.62834054
172	0x3f11ef90	0.5700617
173	0x3f04d3ba	0.5188557
174	0xbedf9a03	-0.4367219
175	0xbeaa4bfc	-0.33261096
176	0xbec8a87c	-0.39191043
177	0xbd904d02	-0.07045938
178	0x3e1e0bc3	0.15434174
179	0x3e97bc52	0.29635864
180	0xbeab6785	-0.33477417
181	0x3f0d12c8	0.5510678
182	0xbead648c	-0.33865774
183	0xbf1ae74a	-0.6050917
184	0xbebf2347	-0.37331602
185	0xbe63db36	-0.22251591
186	0xbf127aeb	-0.5721881
187	0x3e09beff	0.13451765
188	0x3e3c616b	0.18396537
189	0xbe83e464	-0.25760186
190	0x3ee03e21	0.437974
191	0x3f079a27	0.5296959

bias f4 [64]
0	0x3f0b821b	0.544954
1	0x3f080ad1	0.53141505
2	0xbe820e39	-0.25401476
3	0x3eb086d0	0.34477854
4	0xbd83c280	-0.06433582
5	0x3ef9d36b	0.48794112
6	0xbeeccfd7	-0.4625232
7	0x3eda4243	0.4262868
8	0xbede73cb	-0.43447718
9	0x3e7c47d0	0.2463677
10	0xbe18735b	-0.14887755
11	0xbf183362	-0.59453404
12	0xbe547684	-0.20748335
13	0x3ea8627f	0.32887647
14	0xbf011cfb	-0.50434846
15	0x3ea63b53	0.32467136
16	0xbeac5d80	-0.33665085
17	0xbea9ff39	-0.33202532
18	0x3ed941be	0.4243297
19	0xbcef587b	-0.029216995
20	0x3f064d26	0.5246147
21	0x3f010739	0.50401646
22	0xbca9ca1b	-0.020726254
23	0xbf035fa5	-0.51317817
24	0x3d3513da	0.044208385
25	0xbecab7f6	-0.39593476
26	0x3f047152	0.51735413
27	0x3ec33813	0.3812872
28	0xbb31c0f0	-0.0027123056
29	0xbeb02412	-0.3440252
30	0x3ee2e402	0.4431458
31	0xbc5136ff	-0.01276946
32	0x3f013956	0.5047811
33	0x3f002627	0.50058216
34	0xbd827c3f	-0.06371354
35	0xbf038fd8	-0.51391363
36	0x3d4d4937	0.05011865
37	0x3eae3ccf	0.34030768
38	0xbe950620	-0.29106236
39	0xbe96e260	-0.29469585
40	0xbe657452	-0.22407654
41	0x3c49d74b	0.012319396
42	0x3f061edc	0.5239084
43	0xbe5b4149	-0.21411623
44	0xbe800213	-0.25001583
45	0xbe38ab4a	-0.18034092
46	0x3ec7c6d8	0.39018893
47	0x3e4ccbac	0.1999957
48	0x3e9756fd	0.29558554
49	0xbe7ccf4b	-0.24688451
50	0x3d269120	0.040665746
51	0xbe317a09	-0.17331709
52	0xbede4917	-0.43415138
53	0xbdcec276	-0.10095684
54	0xbdd7b9ae	-0.105334625
55	0x3d7e560b	0.062093776
56	0x3eae43dd	0.3403615
57	0xbe768176	-0.24072823
58	0xbda10b17	-0.07863443
59	0x3e09906b	0.13433997
60	0x3ea294fb	0.31754288
61	0x3ea21693	0.31657848
62	0xbec9bd7c	-0.39402378
63	0x3f07201d	0.52783376

weight f4 [64]
0	0x3f7ce58a	0.9878775
1	0x3f8700b2	1.0547087
2	0x3f7b1952	0.9808551
3	0x3f8526d8	1.0402479
4	0x3f823c48	1.0174646
5	0x3f83a989	1.0286113
6	0x3f7db893	0.9910976
7	0x3f804715	1.0021693
8	0x3f7ba576	0.9829935
9	0x3f7e71c9	0.9939237
10	0x3f83c308	1.0293894
11	0x3f812597	1.0089597
12	0x3f862f9f	1.0483283
13	0x3f7c0f71	0.9846106
14	0x3f809f94	1.0048699
15	0x3f7f3625	0.99691993
16	0x3f842b31	1.0325681
17	0x3f7d9b80	0.990654
18	0x3f831907	1.0242013
19	0x3f78a7a1	0.9713078
20	0x3f7e1996	0.9925779
21	0x3f7e525e	0.9934443
22	0x3f6e0564	0.92976975
23	0x3f83316b	1.0249456
24	0x3f7149bb	0.9425313
25	0x3f7b9fc7	0.98290676
26	0x3f76852e	0.96296966
27	0x3f7484a3	0.9551489
28	0x3f78bea2	0.9716588
29	0x3f789c29	0.9711328
30	0x3f763237	0.9617037
31	0x3f808457	1.0040387
32	0x3f79d719	0.9759384
33	0x3f79f64e	0.97641456
34	0x3f7c2a6b	0.98502225
35	0x3f89b708	1.0758982
36	0x3f70ae11	0.94015604
37	0x3f7d6f40	0.9899788
38	0x3f838a3d	1.0276562
39	0x3f7bf519	0.98420864
40	0x3f821caa	1.0164998
41	0x3f8028b7	1.0012425
42	0x3f89d1a6	1.0767105
43	0x3f7f9966	0.9984344
44	0x3f822e2c	1.017034
45	0x3f82365c	1.0172839
46	0x3f7ebf3c	0.9951055
47	0x3f814e91	1.0102102
48	0x3f854c1f	1.0413855
49	0x3f7ad88a	0.9798666
50	0x3f7c5be8	0.9857774
51	0x3f7c368b	0.98520726
52	0x3f8090a4	1.0044141
53	0x3f8c6318	1.0967741
54	0x3f769d1d	0.96333486
55	0x3f81266a	1.0089848
56	0x3f836c6e	1.0267465
57	0x3f7f0c30	0.9962797
58	0x3f7dca91	0.99137217
59	0x3f788f15	0.97093326
60	0x3f7e37a6	0.9930366
61	0x3f84e526	1.038243
62	0x3f7faa70	0.9986944
63	0x3f7bfbf5	0.9843133

bias f4 [64]
0	0xbc77cce0	-0.01512453
1	0x3c15571e	0.009115009
2	0x388fb1bb	6.851876e-05
3	0x3bce8993	0.006303021
4	0x3be5560f	0.0069987844
5	0x3ca6825f	0.020325838
6	0x3c67cef9	0.014148467
7	0xbaf89ae3	-0.0018967058
8	0x3c59c776	0.013292184
9	0x3bedece0	0.0072609037
10	0x3b9a1b5b	0.004702968
11	0xbbe6d5f4	-0.007044548
12	0x39c6ea70	0.00037940172
13	0xbca105e2	-0.019656125
14	0xbbe1ab7b	-0.006886897
15	0x3c845c88	0.016157404
16	0xbbad9e13	-0.005298385
17	0x3ba44873	0.0050135194
18	0xbb839b79	-0.0040163365
19	0xbc95cda3	-0.018286532
20	0xbbdaa7ba	-0.0066728266
21	0x3b8500f8	0.0040589534
22	0xbba1460c	-0.0049216803
23	0x3c8e56f8	0.017375454
24	0x3c3d0430	0.011536643
25	0x3c676cae	0.014125032
26	0xbaba62b1	-0.0014220086
27	0xbb5d90a6	-0.003380814
28	0xbcbaa493	-0.022783553
29	0x3cdd60bf	0.027023671
30	0xbb29b15a	-0.0025893063
31	0x3a7ba11f	0.0009598899
32	0xba2b2f9c	-0.00065302267
33	0xbbe79638	-0.007067468
34	0xba80c5b9	-0.0009824551
35	0xbbc54160	-0.006019756
36	0x3c9813a9	0.018564062
37	0xbc36861e	-0.0111403745
38	0x3c31ee2a	0.010860005
39	0x3ca20f90	0.019782811
40	0xbc2420ba	-0.010017568
41	0xbbe8e0dd	-0.007106884
42	0xbb4e9bdb	-0.0031526003
43	0x3c27158f	0.010198011
44	0xbc183525	-0.009290014
45	0xb9479859	-0.00019034873
46	0xbc8c56fc	-0.017131321
47	0x3c1fffdb	0.009765591
48	0x3b5f0207	0.0034028308
49	0xbb447b49	-0.002998071
50	0xbc30bed7	-0.010787687
51	0x3c1c744e	0.009549214
52	0x3a89cd60	0.0010513477
53	0xbb127aff	-0.0022351143
54	0xbbdb07e3	-0.00668429
55	0xbb1ab637	-0.0023607144
56	0x3c0a850a	0.008454571
57	0xba83eada	-0.0010064498
58	0x3d0d863f	0.034551855
59	0x3c8e4770	0.017368048
60	0x3c028d1a	0.007968212
61	0xbb9e4a16	-0.004830609
62	0x3ba8d4a6	0.005152303
63	0xbc8e5b3a	-0.017377485

weight f4 [64, 64]
0	0xbc1ed701	-0.009694816
1	0x3c2268a0	0.00991264
2	0x3ba08c55	0.0048995414
3	0x3e05de07	0.13072978
4	0x3d116d89	0.03550485
5	0x3e1e1e12	0.15441158
6	0x3dbdac3c	0.09261367
7	0xbd58d70a	-0.052939452
8	0xbddd9088	-0.10818583
9	0x3bf5e182	0.0075036893
10	0xbca38161	-0.019959154
11	0xbe294dc4	-0.16533571
12	0x3df68706	0.120374724
13	0xbcb5f236	-0.022210222
14	0xbe087fd7	-0.13330017
15	0x3e03484a	0.12820545
16	0x3d19d04c	0.037552163
17	0x3d751cde	0.059841983
18	0x3cbecb75	0.023290375
19	0x3d5f6842	0.054542787
20	0xbc8de214	-0.017319717
21	0xbd3588c1	-0.04431987
22	0xbd261114	-0.04054363
23	0xbcda840c	-0.026674293
24	0xbd95cb75	-0.07314197
25	0x3d3169c9	0.043313775
26	0x3d99e1df	0.075137846
27	0xbd6ed24e	-0.05830603
28	0xbe04cecc	-0.12969512
29	0x3dcfd287	0.10147577
30	0xbd854027	-0.06506377
31	0xbdd6da15	-0.104908146
32	0xbdbab519	-0.09116573
33	0x3deb23d4	0.11481443
34	0xbdf50ec5	-0.11965708
35	0xbdb8e7cf	-0.09028589
36	0xbce8c8dc	-0.02841609
37	0xbdf771f0	-0.12082279
38	0x3da3ac12	0.07991804
39	0xbdab839c	-0.08374712
40	0xbd18a6b3	-0.03726835
41	0xbdbb73a0	-0.09152913
42	0x3d1c5249	0.03816441
43	0x3df5c292	0.12000002
44	0xbe11d06e	-0.14239666
45	0x3dc9a739	0.09846348
46	0xbdccd3fd	-0.10001371
47	0x3e0b69d6	0.13614592
48	0x3dd74e48	0.10512978
49	0x3c3ed84a	0.011648247
50	0xbd883603	-0.06650927
51	0x3cf4248b	0.029802581
52	0xbb578bd3	-0.0032889738
53	0xbd9dc464	-0.07703474
54	0x3c85f63d	0.016352767
55	0xbd964e44	-0.07339147
56	0x3e05e75b	0.13076536
57	0x3da05ec4	0.07830575
58	0xbd9a9282	-0.075474754
59	0x3d987d23	0.07445743
60	0xbd56f1c4	-0.05247666
61	0x3d4819f7	0.048852887
62	0xbdc59dad	-0.09649215
63	0x3d01d260	0.03169477
64	0x3d720c69	0.059093866
65	0xbc6249fc	-0.013811585
66	0xbd8a681e	-0.0675814
67	0x3e1d2089	0.15344442
68	0xbe42e0fd	-0.19031139
69	0x3e1e251d	0.15443845
70	0xbde0efc9	-0.109832354
71	0xbdc1d031	-0.094635375
72	0xbdecafeb	-0.11556991
73	0x3c9eac3c	0.019369237
74	0x3e28cd47	0.16484557
75	0x3dcad97e	0.099047646
76	0xbdb6240e	-0.08893596
77	0xbc5e387e	-0.0135632735
78	0xbc3dabce	-0.011576606
79	0xbda4877c	-0.08033654
80	0x3b84cb2b	0.00405254
81	0x3cb0c97b	0.021580448
82	0xbd01d58d	-0.0316978
83	0x3de5f543	0.112284206
84	0x3c3257fe	0.010885237
85	0x3dc30aa2	0.095235124
86	0xbd9d095a	-0.07667799
87	0x3d423b04	0.047419563
88	0x3db043dc	0.08606693
89	0x3d40fe60	0.04711759
90	0x3d4524eb	0.04813091
91	0xbd815c14	-0.06316391
92	0xbdbaf6e8	-0.09129125
93	0x3cd8ccd8	0.026464865
94	0xbdaef666	-0.085430905
95	0x3cb7dcc6	0.02244414
96	0x3cd47f2d	0.025939548
97	0x3bdcdb9f	0.006740048
98	0xbdcfd67c	-0.101483315
99	0xbd123aa4	-0.035700455
100	0x3e08a6fc	0.1334495
101	0x3ac31f82	0.0014886709
102	0x3debf6ec	0.11521706
103	0x3e0245c7	0.1272193
104	0x3cdd91bb	0.027047029
105	0x3db7bfa2	0.08972098
106	0x3dc48abe	0.095967755
107	0x3e041088	0.12896931
108	0x3d0059c4	0.031335607
109	0xbd944a65	-0.07240752
110	0x3b39be80	0.0028342307
111	0x3d5b8b3c	0.05359958
112	0x3d12f07b	0.03587387
113	0x3dbf220c	0.09332666
114	0x3dd4d29f	0.10391735
115	0xbda37b89	-0.07982547
116	0xbba49441	-0.005022556
117	0xbd837e0d	-0.06420527
118	0x3dc5b6ec	0.0965403
119	0xbdb4ab95	-0.08821789
120	0x3e0941e5	0.13404043
121	0x3e0358e8	0.12826884
122	0xbd058c53	-0.032604527
123	0xbe054583	-0.13014798
124	0x3ddc0bd7	0.10744446
125	0x3da33ba7	0.07970362
126	0x3df2ec88	0.11861521
127	0xbd5e92b3	-0.054339122
128	0x3d972b9b	0.07381364
129	0xbdaebbf3	-0.08531942
130	0xbc96ee81	-0.018424274
131	0x3d970068	0.07373124
132	0xbdf92912	-0.12166037
133	0x3be501fa	0.006988761
134	0x3db835e3	0.08994653
135	0xbd373bf4	-0.04473491
136	0xbdbae41d	-0.091255404
137	0x3d8468c7	0.06465297
138	0x3de4bd17	0.111688785
139	0x3d891e0e	0.066951856
140	0x3d92d7f3	0.07170095
141	0x3cb552db	0.022134235
142	0xbd70fd3c	-0.058835253
143	0xbd547773	-0.05187173
144	0x3da33311	0.079687245
145	0xbdf8540e	-0.12125407
146	0xbdee4b68	-0.11635476
147	0x3d90d176	0.070712015
148	0xbd019df9	-0.031644795
149	0x3d810c9f	0.063012354
150	0xbd9754b9	-0.073892064
151	0xbd4e3091	-0.050339285
152	0x3d8e47ad	0.06947265
153	0x3c9313a9	0.01795371
154	0xbd9709b6	-0.07374899
155	0xbd1f13dc	-0.0388373
156	0xbcd72d1f	-0.026266633
157	0xbdbfaad6	-0.09358756
158	0xbd96464b	-0.07337626
159	0xbd6ded4d	-0.058087636
160	0x3db9c9d4	0.09071699
161	0x3d4bf05b	0.049789768
162	0x3d7e82c3	0.062136423
163	0xbe13c165	-0.14429243
164	0x3c67fba7	0.01415912
165	0x3ddffc87	0.10936838
166	0x3cb73a0f	0.022366552
167	0xbe12594a	-0.14291874
168	0xbdeb2f7e	-0.11483668
169	0x3d2b2637	0.04178449
170	0xbda5dfc3	-0.0809932
171	0xbde18573	-0.110117815
172	0x3d8e7cb7	0.06957381
173	0x3e098487	0.13429461
174	0xbdeb0eb5	-0.114774145
175	0x3d3ecd55	0.04658254
176	0x3de8833d	0.11353157
177	0x3d63b29a	0.05559025
178	0xbd85dc1b	-0.065361224
179	0xbe0d36fb	-0.13790505
180	0xbe0e8d0d	-0.13920994
181	0xbcd299b8	-0.025708064
182	0xbdb9691b	-0.090532504
183	0x3d8c8d9a	0.06862946
184	0xbd020f1a	-0.031752683
185	0x3d7eb913	0.06218822
186	0xbdffa2b6	-0.124822065
187	0x3b91b9ac	0.0044471826
188	0xbd61f595	-0.055165846
189	0x3c41590c	0.011801016
190	0x3e00219d	0.12512822
191	0xbdec1ca6	-0.11528902
192	0x3df3b32f	0.11899411
193	0x3d14f43d	0.036365736
194	0xbd996319	-0.074896045
195	0xbe0f8a9a	-0.14017716
196	0x3db9b927	0.09068518
197	0xbcbd7201	-0.02312565
198	0xbbe51511	-0.0069910367
199	0x3daf9e13	0.08575072
200	0x3dcada9b	0.09904977
201	0x3d91c00f	0.071167104
202	0xbd8a614b	-0.067568384
203	0xbc86aa0f	-0.016438512
204	0xbd4d9679	-0.05019233
205	0x3dd39fbd	0.10333202
206	0x3d47ea92	0.048807688
207	0xbd2b5f06	-0.04183867
208	0xbd2cd966	-0.042199515
209	0xbd7f9aa9	-0.062403355
210	0x3df8bc5f	0.12145304
211	0x3c7d10c7	0.015445895
212	0x3de0a37c	0.10968682
213	0xbd385a93	-0.045008253
214	0x3d9f9a0a	0.077930525
215	0x3cde9bae	0.027173843
216	0xbd153acd	-0.03643303
217	0xbc49878e	-0.012300385
218	0x3d7ddc0a	0.061977424
219	0xbd419770	-0.047263563
220	0xbdb9b413	-0.090675496
221	0x3dd2f5e3	0.103008054
222	0x3ce74e87	0.028235687
223	0xbd413d25	-0.047177453
224	0x3d8d3f70	0.06896865
225	0xbc9d4ecc	-0.019202612
226	0x3df9b657	0.12192982
227	0xbd8d211d	-0.068910815
228	0x3de7203f	0.11285447
229	0xbdf9e827	-0.12202483
230	0xbd9411ea	-0.07229979
231	0x3d9700e6	0.07373218
232	0x3d450a74	0.048105672
233	0x3db34d64	0.087549955
234	0x3d18c303	0.037295353
235	0x3d2ce1b7	0.042207446
236	0x3df7b95e	0.12095903
237	0xbc236f4c	-0.009975266
238	0x3d454124	0.048157826
239	0xbcabcc49	-0.020971434
240	0xbe1cc954	-0.15311176
241	0xbd0bf4b6	-0.03416892
242	0x3dd21ce8	0.1025942
243	0xbd9e7e2f	-0.07738911
244	0x3d58ee2b	0.05296151
245	0xbd1f1778	-0.03884074
246	0x3da3576e	0.0797566
247	0xbb405a62	-0.0029350747
248	0x3d6ed964	0.05831279
249	0xbdef328a	-0.116795614
250	0xbdf80552	-0.1211039
251	0x3db87e54	0.0900847
252	0xbdb2d32c	-0.08731684
253	0x3d785c82	0.060635097
254	0x3da709c2	0.08156158
255	0xbd9fc3ed	-0.07801042

bias f4 [64]
0	0xbd3f89e9	-0.04676238
1	0x3d4eb1da	0.05046258
2	0x3d6b7cd7	0.057492103
3	0xbcc0d69c	-0.023539834
4	0x3db05163	0.08609273
5	0xbcd3b909	-0.025845068
6	0x3d83846a	0.0642174
7	0x3da71753	0.081587456
8	0xbda8307e	-0.08212374
9	0x3dc9cfed	0.09854112
10	0xbda4aa8a	-0.0804034
11	0xbd662a34	-0.05619259
12	0xbd26471f	-0.04059517
13	0xbdad567b	-0.084637605
14	0x3cfc2b26	0.030782294
15	0x3d908d80	0.07058239
16	0xbe00da1f	-0.12583207
17	0xbbe76b55	-0.0070623555
18	0xbe0233c8	-0.12715065
19	0xbdb3d5c8	-0.0878101
20	0xbd876a24	-0.066120416
21	0x3d97e0b2	0.07415904
22	0x3db38b52	0.087668076
23	0x3bfa143a	0.0076318057
24	0x3e024af8	0.12723911
25	0x3dc65f52	0.0968615
26	0xbd3faf9b	-0.04679833
27	0x3d8c985f	0.06865
28	0x3dcc289b	0.099686824
29	0x3db93abc	0.09044406
30	0xbce888f6	-0.02838562
31	0x3d741447	0.05958965
32	0x3de6a922	0.11262728
33	0xbc00ae9f	-0.007854133
34	0x3d912e93	0.070889615
35	0x3dbc323e	0.091892704
36	0x3cb9914e	0.022652294
37	0xbdb97223	-0.09054973
38	0x3dd42833	0.1035923
39	0x3cc8bdef	0.02450463
40	0x3dd61b33	0.104544066
41	0xbd5fa906	-0.054604553
42	0xbe178eb7	-0.14800535
43	0xbdc76181	-0.09735394
44	0x3a0da486	0.0005403239
45	0x3cb9e2e3	0.022691196
46	0xbb8dee91	-0.004331418
47	0xbdc05ce5	-0.09392718
48	0xbd48164c	-0.04884939
49	0x3cc4bd9e	0.024016198
50	0x3db7fe4b	0.089840494
51	0x3d42aaca	0.04752616
52	0xbd491bbc	-0.049098715
53	0xbdfc169e	-0.123090014
54	0x3cb54707	0.022128595
55	0xbe01a3b3	-0.12660103
56	0x3d364f2b	0.044509094
57	0x3dd0f525	0.102030076
58	0xbc7a5552	-0.015279131
59	0x3d7d7bbb	0.061885577
60	0x3d03c699	0.03217182
61	0xbd6ffe93	-0.05859239
62	0xbd5a258d	-0.053258467
63	0xbe0644b2	-0.13112143

weight f4 [64]
0	0x3f84404b	1.0332121
1	0x3f80d461	1.0064813
2	0x3f83dea1	1.0302316
3	0x3f8674ef	1.0504435
4	0x3f833a77	1.0252217
5	0x3f84dc84	1.0379796
6	0x3f7d137c	0.98857856
7	0x3f856372	1.0420973
8	0x3f7e5b71	0.9935828
9	0x3f823cde	1.0174825
10	0x3f839638	1.0280218
11	0x3f818547	1.0118798
12	0x3f816c9a	1.0111268
13	0x3f80b03a	1.005378
14	0x3f7e2f1b	0.9929063
15	0x3f803021	1.0014688
16	0x3f82012f	1.0156611
17	0x3f7ab7cf	0.9793672
18	0x3f80c7e9	1.0061008
19	0x3f790d3d	0.97285825
20	0x3f820534	1.0157838
21	0x3f812300	1.0088806
22	0x3f81f9d6	1.0154369
23	0x3f7c239d	0.9849184
24	0x3f89b33c	1.0757823
25	0x3f82375b	1.0173143
26	0x3f80af06	1.0053413
27	0x3f805e79	1.0028831
28	0x3f7a4726	0.97764814
29	0x3f7fefdf	0.9997539
30	0x3f809253	1.0044655
31	0x3f840195	1.0312983
32	0x3f82daa8	1.0222979
33	0x3f8594fd	1.0436093
34	0x3f7ff01d	0.9997576
35	0x3f7fb809	0.9989019
36	0x3f82006d	1.015638
37	0x3f8106c4	1.008019
38	0x3f811e24	1.0087323
39	0x3f7ce905	0.9879306
40	0x3f7d78d5	0.990125
41	0x3f847096	1.0346859
42	0x3f80b581	1.0055391
43	0x3f7b8fd1	0.9826632
44	0x3f7ef37c	0.9959028
45	0x3f7d8975	0.9903787
46	0x3f8105f2	1.0079939
47	0x3f807180	1.0034637
48	0x3f810ae1	1.0081445
49	0x3f81e99a	1.0149415
50	0x3f802a49	1.0012904
51	0x3f7cf80a	0.9881598
52	0x3f858cfb	1.0433649
53	0x3f80c838	1.0061102
54	0x3f808974	1.0041947
55	0x3f826d8c	1.0189681
56	0x3f82859e	1.0197027
57	0x3f7c53e1	0.9856549
58	0x3f859efe	1.0439146
59	0x3f84a5c3	1.0363086
60	0x3f80e9c2	1.0071337
61	0x3f806031	1.0029355
62	0x3f831e84	1.0243688
63	0x3f7fa513	0.9986126

bias f4 [64]
0	0x3c2284d5	0.009919365
1	0x3c220f70	0.009891376
2	0x3c1f65be	0.009728847
3	0xbb1dc385	-0.0024072838
4	0xbc1c87fc	-0.009553906
5	0xbc1a23b2	-0.0094079245
6	0x3bcf7608	0.006331209
7	0x3ae76652	0.0017654395
8	0x3c16a090	0.0091935545
9	0xbbf7c149	-0.007560883
10	0x3c0dfd49	0.008666345
11	0xbc071292	-0.008244174
12	0x3c2cd95c	0.010549869
13	0xbc0ed16d	-0.008716923
14	0x3c1659e3	0.009176704
15	0x3c11b7a2	0.008893879
16	0xbbf60e3c	-0.007509021
17	0x3cd43278	0.025902972
18	0x3be56f32	0.007001781
19	0x3b408074	0.002937344
20	0xbc1dfb10	-0.0096423775
21	0xbc215240	-0.00984627
22	0xbc2020b3	-0.009773421
23	0x3c37be7b	0.011214848
24	0x3c18a2bc	0.009316143
25	0x3c240c47	0.010012693
26	0xbc0be65d	-0.00853881
27	0xbc01c2a9	-0.007919946
28	0xbc21398f	-0.009840383
29	0xbc470b27	-0.012148655
30	0xbc0403fb	-0.00805759
31	0xbc182c77	-0.009287945
32	0xbc2e50d4	-0.010639388
33	0x3c257ba5	0.01010028
34	0xbc390a29	-0.011293926
35	0xbc334246	-0.010941094
36	0x3bba9403	0.005693914
37	0x3c3aae36	0.011394074
38	0x3c2f26b6	0.010690382
39	0xbc235022	-0.009967836
40	0x3c1a1e97	0.009406707
41	0xbc098773	-0.00839411
42	0xbbe4c06d	-0.0069809468
43	0xbc1e5f79	-0.009666317
44	0xbc1a15f5	-0.009404649
45	0x3c08bdd4	0.00834604
46	0xbc146205	-0.009056573
47	0xbb7d1a53	-0.0038620427
48	0xbbfeafd3	-0.0077724247
49	0x3c20e640	0.009820521
50	0xbc0c9f96	-0.00858297
51	0x3c19db51	0.009390668
52	0xbc0858ad	-0.008321923
53	0xbc0996f7	-0.008397809
54	0x3c2c7eca	0.010528276
55	0x3c23456a	0.00996528
56	0xbc0ef946	-0.008726424
57	0x3c4ce27a	0.012505168
58	0xbbd090d6	-0.006364922
59	0x3c209ea5	0.009803449
60	0x3c242752	0.01001914
61	0x3c26bea1	0.010177285
62	0xbc09099e	-0.008364109
63	0x3c33f978	0.010984771

weight f4 [1, 64]
0	0x3e09e670	0.13466811
1	0x3da126d8	0.07868737
2	0x3dbe6568	0.092966855
3	0xbd51f199	-0.051255796
4	0xbde58a04	-0.11207965
5	0xbe1c2a10	-0.1525042
6	0x3cb6d11f	0.022316514
7	0x3d27f025	0.041000504
8	0x3deef7b8	0.11668342
9	0xbd99d20b	-0.07510766
10	0x3dc79f59	0.0974719
11	0xbda8c5b0	-0.08240831
12	0x3d8f58d8	0.069993675
13	0xbdbc7b53	-0.0920321
14	0x3ddcb4cd	0.107766725
15	0x3db3e159	0.08783216
16	0xbd83cbea	-0.06435378
17	0xbc03ce50	-0.008044794
18	0x3d29ac74	0.04142423
19	0x38ebb490	0.000112393056
20	0xbe09b025	-0.134461
21	0xbddba8b0	-0.10725534
22	0xbd97bada	-0.07408686
23	0x3da81b43	0.08208325
24	0x3da7b2f3	0.08188429
25	0x3d77ee48	0.060529977
26	0xbd67b7c5	-0.05657174
27	0xbcdd9f69	-0.027053552
28	0xbd6c35e0	-0.057668567
29	0xbd127137	-0.0357525
30	0xbd93be1d	-0.072139956
31	0xbde46f07	-0.11153989
32	0xbd4c442b	-0.049869698
33	0x3d922953	0.07136788
34	0xbd1b6847	-0.037941243
35	0xbd79da1e	-0.06099903
36	0x3d1c3036	0.038131915
37	0x3d87b555	0.06626383
38	0x3ccf74c4	0.025324233
39	0xbd96fe12	-0.07372679
40	0x3dd81cef	0.10552394
41	0xbe118492	-0.14210728
42	0xbd6537a9	-0.055961285
43	0xbda311a0	-0.07962346
44	0xbda7fefa	-0.0820293
45	0x3d825449	0.06363732
46	0xbe020efa	-0.12701026
47	0xbcdbded8	-0.026839659
48	0xbd9450e1	-0.07241989
49	0x3dd2c023	0.102905534
50	0xbd735e5c	-0.05941616
51	0x3da29c49	0.07939965
52	0xbe2363c9	-0.15956034
53	0xbdd4f503	-0.10398295
54	0x3df0c734	0.11756745
55	0x3e0a4cc3	0.13505845
56	0xbdfe5d28	-0.12420112
57	0x3d1dc608	0.038518935
58	0xbd9579ce	-0.07298623
59	0x3e160478	0.14650142
60	0x3de349d3	0.11098065
61	0x3dfc763c	0.12327239
62	0xbdef6517	-0.11689203
63	0x3c8f7086	0.01750971

exp_avg f4 [64, 3]
0	0x39d60cae	0.00040826708
1	0xba70032c	-0.0009155746
2	0x3b5939e3	0.0033146075
3	0x3b69d171	0.0035677815
4	0x3b64ae5e	0.003489397
5	0xbc1f5163	-0.009723994
6	0x3923e5f0	0.0001563055
7	0xb9eeece5	-0.00045571398
8	0xba7a47ba	-0.0009547431
9	0x3aca0f56	0.0015415947
10	0xbba37264	-0.0049880017
11	0x3c3ee962	0.0116523225
12	0xbadabe9b	-0.0016688885
13	0x3b4be44c	0.0031111417
14	0xbc0c105e	-0.008548824
15	0xb9952d73	-0.00028453357
16	0xbb0460f1	-0.0020199383
17	0x3c0ff042	0.008785309
18	0xba17607f	-0.0005774572
19	0xb98c20ff	-0.00026727465
20	0x3b3b7ea2	0.0028609415
21	0x3a46842d	0.00075727963
22	0x3997c020	0.0002894411
23	0xbb3bb95d	-0.002864442
24	0x39b8125f	0.00035108902
25	0x39a44346	0.0003133064
26	0xbb55a083	-0.0032596893
27	0x39f5abe2	0.00046858104
28	0xba8b91fe	-0.0010648367
29	0xb9bd4db1	-0.00036106774
30	0x3b6786e0	0.0035328194
31	0xbbc52eef	-0.006017558
32	0x3c6e9abb	0.014563258
33	0xbb0bce2d	-0.0021332607
34	0x3b2dae74	0.0026501687
35	0xbc07fd83	-0.008300188
36	0xbbad72a3	-0.005293207
37	0xbb2e85ad	-0.002662997
38	0x3c963612	0.01833633
39	0xba676120	-0.00088264234
40	0x3b0b89fc	0.0021291962
41	0xbb1b9b50	-0.0023743697
42	0xb9cf27ba	-0.00039511715
43	0xb8d62cb8	-0.00010212645
44	0x3b2e0aea	0.0026556798
45	0x39d37e31	0.00040339076
46	0x3a5d3e8c	0.0008439801
47	0xbc20f7d4	-0.009824712
48	0x3b07f595	0.0020745744
49	0x3ade2029	0.001694684
50	0xbc120863	-0.008913132
51	0xb981056e	-0.00024608843
52	0xb8b25cb5	-8.5049694e-05
53	0x3a24a2d4	0.0006280367
54	0x3b22469d	0.0024761327
55	0x3b758490	0.0037463047
56	0xbc01538a	-0.007893452
57	0x39ba8847	0.0003557822
58	0x38144a0f	3.5354922e-05
59	0xba1a9c13	-0.00058978907
60	0xba28ce75	-0.0006439456
61	0x3a87f7cb	0.0010373531
62	0x3b73b821	0.0037188607
63	0xbae4cfd7	-0.0017456961
64	0xba82659f	-0.0009948498
65	0x3a8db6c8	0.0010811919
66	0x3a4e7389	0.00078754924
67	0x3a24ab4b	0.0006281628
68	0xbb020e34	-0.0019844892
69	0xbb55dce0	-0.0032632872
70	0xbaa7e17b	-0.0012808287
71	0x3c3cb10f	0.011516823
72	0x39b60c8c	0.00034723093
73	0x3921affc	0.00015419716
74	0x37fa58e0	2.9843708e-05
75	0xb9b57573	-0.00034610517
76	0xb98011b9	-0.00024427267
77	0x3aa01bf2	0.001221536
78	0x3a601927	0.000854867
79	0xbab50163	-0.0013809617
80	0x3b2b5776	0.002614466
81	0xba2968d6	-0.000646246
82	0x3a2eb75a	0.0006664895
83	0xbb030d1e	-0.0019996832
84	0x3a60733b	0.00085620926
85	0x3a56068a	0.00081644265
86	0xbb0e143c	-0.002167954
87	0x3a8c819d	0.001071978
88	0x3a00815b	0.0004902088
89	0xbb4441ea	-0.0029946514
90	0xba1264c0	-0.0005584471
91	0xb9edf9fb	-0.00045390413
92	0xb9f6add5	-0.0004705029
93	0xbab0315a	-0.0013442442
94	0xba246420	-0.00062710233
95	0x3bbf2bfe	0.0058341017
96	0x39081812	0.00012978938
97	0x3ad64290	0.0016346741
98	0xbb31c793	-0.0027127012
99	0xba4e7270	-0.0007875329
100	0xba11818c	-0.0005550615
101	0x3b865d7e	0.0041005006
102	0xba980c00	-0.0011600256
103	0xba379038	-0.0007002386
104	0x3bcd7d6d	0.0062710554
105	0xbbfab252	-0.007650652
106	0x3c257e3f	0.0101009
107	0xbcb8ed8f	-0.022574214
108	0x39a5f14a	0.00031651027
109	0xba147df0	-0.0005664518
110	0x3af6c7a2	0.0018827806
111	0xb8bfddd5	-9.148909e-05
112	0x3ae087ac	0.0017130277
113	0x3b035966	0.00200423
114	0xbb12b143	-0.0022383488
115	0xba4addda	-0.0007738747
116	0x3bbaa86f	0.0056963484
117	0xb9b68374	-0.00034811685
118	0x39c991b3	0.00038446262
119	0xbb246397	-0.0025083774
120	0xbadb84b8	-0.0016747927
121	0x3b4fc6c9	0.0031704179
122	0xbc057323	-0.0081451265
123	0xbababa64	-0.0014246223
124	0x3afbc9a5	0.0019209875
125	0xbba9b036	-0.0051784767
126	0x3b804364	0.0039142836
127	0x3b1e2ba0	0.002413489
128	0xbc233738	-0.009961896
129	0x3a35b43e	0.000693146
130	0x3a276107	0.00063850026
131	0xbb2b04ae	-0.0026095319
132	0xbab384cf	-0.0013696196
133	0x3adffaed	0.0017088332
134	0xbb9b312a	-0.0047360854
135	0xbb900645	-0.0043952786
136	0xbb2ab53b	-0.0026047963
137	0x3c53a5a7	0.012917913
138	0x3afac2c3	0.001913153
139	0x3b1414b0	0.0022595339
140	0xbb8ac894	-0.0042353366
141	0x3ab7e09d	0.0014028732
142	0xbb6a5476	-0.003575591
143	0x3bd8a77a	0.0066117616
144	0x3ac80e53	0.0015263058
145	0xbbc653f6	-0.0060524894
146	0x3c31a782	0.01084316
147	0xba65219d	-0.00087406655
148	0xba0d0c1b	-0.0005380527
149	0x3b0aa19e	0.002115346
150	0x3a8b181d	0.0010612045
151	0x3a9b4f94	0.0011849278
152	0xbb4d5a41	-0.0031334313
153	0x39422534	0.00018515141
154	0xb8b1b15c	-8.4730535e-05
155	0xbad150b4	-0.0015969486
156	0xbab2c91d	-0.0013640259
157	0x3aff3ce5	0.0019473104
158	0xbbb88684	-0.00563127
159	0xbb8dc1a2	-0.0043260613
160	0xbaa79b5c	-0.001278739
161	0x3c3c74e5	0.011502479
162	0xb880427b	-6.1158986e-05
163	0x398b9eae	0.00026630372
164	0x3aa30c49	0.0012439574
165	0x3a8b751b	0.0010639759
166	0xbb18cf3f	-0.0023316888
167	0x3ad69efa	0.0016374283
168	0x3b022469	0.0019858128
169	0xbbb037e4	-0.0053777564
170	0x3bfbc417	0.007683288
171	0x3a74bb7c	0.00093357987
172	0xbada06be	-0.0016634089
173	0x3bc20e8f	0.0059221457
174	0x3aa55de0	0.0012616478
175	0x3a8901c8	0.0010452801
176	0xbb671263	-0.0035258762
177	0x3a60c02f	0.00085735595
178	0xb9f9e4d1	-0.00047663462
179	0xba2f6b10	-0.0006691674
180	0x3b23f06d	0.002501513
181	0x3b11d1b0	0.0022250228
182	0xbc0b3264	-0.008495901
183	0x3b83df86	0.004024449
184	0x3b4161f8	0.0029507857
185	0xbc7207f2	-0.014772402
186	0x3a5cd9b9	0.0008424777
187	0xbad2f3ac	-0.0016094348
188	0x3a59834b	0.0008297457
189	0xb9f958a9	-0.00047559038
190	0x3ac4a43b	0.0015002558
191	0xbb447c2c	-0.0029981239

exp_avg_sq f4 [64, 3]
0	0x3994b7dd	0.0002836575
1	0x378e4d46	1.6963702e-05
2	0x3acf1793	0.0015799872
3	0x3bc6fc67	0.006072569
4	0x39c66642	0.0003784169
5	0x3c9d14c2	0.019174937
6	0x37088a8b	8.138489e-06
7	0x36872520	4.0276354e-06
8	0x39ac76c8	0.00032894895
9	0x3c0e84d0	0.008698657
10	0x3a82bff0	0.0009975415
11	0x3d14a6af	0.036291774
12	0x3b078d93	0.002068375
13	0x398a2e69	0.0002635599
14	0x3c3fe584	0.011712436
15	0x3bdf8b9b	0.006822062
16	0x39e00a2b	0.00042732185
17	0x3c274ae7	0.010210729
18	0x392d4951	0.00016525878
19	0x3883d1bd	6.2856336e-05
20	0x3b16e1be	0.0023022736
21	0x38e7a1a0	0.00011045043
22	0x38b7f52f	8.771789e-05
23	0x3c0b0d47	0.008487052
24	0x36d1d41e	6.253379e-06
25	0x36c95fee	6.0014345e-06
26	0x3a09b4c2	0.000525307
27	0x398a9dba	0.00026438927
28	0x379bfd33	1.8595345e-05
29	0x3a0c6bdf	0.000535665
30	0x396de3c9	0.00022686938
31	0x3976cc06	0.00023536393
32	0x3ccac613	0.024752652
33	0x38d42330	0.00010115502
34	0x38f9969d	0.00011901299
35	0x3c2204cd	0.00988884
36	0x3c080f6a	0.008304456
37	0x3a10d681	0.00055251276
38	0x3d22f505	0.03978445
39	0x3b7c35d6	0.0038484237
40	0x395b83e1	0.00020934596
41	0x3bc44700	0.005989909
42	0x36c42eb3	5.8466917e-06
43	0x376e740b	1.4212924e-05
44	0x3adc7bf8	0.0016821614
45	0x394ce77e	0.00019541194
46	0x388cf570	6.7214365e-05
47	0x3bfc1d1c	0.0076939
48	0x387584ab	5.853611e-05
49	0x38bf7774	9.1298396e-05
50	0x3c66c4cc	0.014085006
51	0x39b87758	0.00035184133
52	0x36c7830e	5.945919e-06
53	0x394cd079	0.00019532618
54	0x3bdf1c37	0.0068087834
55	0x3955f419	0.00020404196
56	0x3c7de432	0.0154963005
57	0x380442ed	3.1533582e-05
58	0x375e4a6a	1.3249557e-05
59	0x3aa4d172	0.0012574627
60	0x399a6e82	0.00029455504
61	0x38a1cd5a	7.715328e-05
62	0x3bb462cd	0.005504942
63	0x3b11c1d5	0.0022240777
64	0x394720a7	0.00018990283
65	0x3b725b22	0.003698059
66	0x3933f60a	0.00017162427
67	0x36ff4195	7.607227e-06
68	0x39dbb2b7	0.00041904088
69	0x3920f9da	0.00015351866
70	0x390b5ac7	0.0001328989
71	0x3c6125db	0.013741936
72	0x385e3262	5.2975847e-05
73	0x36bcfefe	5.6325216e-06
74	0x392b7c2f	0.00016354093
75	0x37f5ba6a	2.9293082e-05
76	0x37837b44	1.5673817e-05
77	0x3a2ba66a	0.000654793
78	0x38aec397	8.333398e-05
79	0x3764ec8d	1.3644935e-05
80	0x3a3a4283	0.0007105248
81	0x38dc01c5	0.00010490747
82	0x37883c91	1.6240667e-05
83	0x3a800ea2	0.0009769986
84	0x37bc3888	2.243767e-05
85	0x374c0a05	1.216168e-05
86	0x3ae1e7e9	0.0017235252
87	0x398d4bb7	0.00026950028
88	0x3756af66	1.2796232e-05
89	0x399cf4cf	0.00029937035
90	0x399515ba	0.00028435682
91	0x372596a2	9.869838e-06
92	0x39c17476	0.000368986
93	0x3a13786e	0.00056255504
94	0x39af34fa	0.00033418072
95	0x3cc3cc0b	0.023901006
96	0x39725618	0.00023110991
97	0x37ac791b	2.0560392e-05
98	0x3b04a9da	0.002024284
99	0x3a946549	0.0011321689
100	0x3837c07f	4.3809876e-05
101	0x3ad27431	0.0016056356
102	0x3956cab6	0.00020484146
103	0x391ceac3	0.00014964775
104	0x3c6ed14a	0.014576266
105	0x3a9addb9	0.0011815346
106	0x3a6e0d12	0.0009080927
107	0x3da90623	0.082531236
108	0x36f0f536	7.1811037e-06
109	0x365a39eb	3.2518244e-06
110	0x393ee6dc	0.00018205814
111	0x3adcd586	0.0016848303
112	0x39120932	0.0001392707
113	0x3c0a218c	0.00843085
114	0x3b1e2511	0.002413098
115	0x3982ee97	0.00024973296
116	0x3c9640dd	0.018341476
117	0x366ba9c4	3.5116545e-06
118	0x36820db5	3.8758976e-06
119	0x3930e524	0.0001687003
120	0x39c042c4	0.00036670838
121	0x39916889	0.0002773444
122	0x3c96ee22	0.018424097
123	0x3aac5230	0.0013147052
124	0x394de372	0.00019635053
125	0x3c15ee7b	0.009151096
126	0x3b749ead	0.0037326023
127	0x39f297e9	0.0004627102
128	0x3cfcbc15	0.030851403
129	0x38219459	3.852355e-05
130	0x39805f59	0.00024485102
131	0x3c0c37c7	0.00855822
132	0x3881b989	6.185758e-05
133	0x38abfad2	8.200634e-05
134	0x3bb943a5	0.005653816
135	0x3bb8c6ef	0.005638949
136	0x39c02880	0.0003665127
137	0x3cce06a4	0.02514965
138	0x3a7d4173	0.0009660937
139	0x3848892b	4.7811463e-05
140	0x3bdd015c	0.006744547
141	0x3a68a022	0.00088739593
142	0x39d3336a	0.00040283363
143	0x3cb8d27c	0.022561304
144	0x3a9ff355	0.0012203256
145	0x3a5ffc51	0.0008544373
146	0x3d23910a	0.039933242
147	0x3741b6a3	1.154622e-05
148	0x37922192	1.7420189e-05
149	0x3a07dc81	0.0005182699
150	0x3a649c68	0.0008720816
151	0x37b04f6e	2.1017822e-05
152	0x3ac8a5f0	0.0015308242
153	0x37bac66b	2.2265323e-05
154	0x3699fecb	4.589417e-06
155	0x3985b8eb	0.0002550551
156	0x38c93720	9.594695e-05
157	0x3886870a	6.414771e-05
158	0x3b46648f	0.003027234
159	0x3b19060f	0.0023349558
160	0x3a2cdc78	0.00065941317
161	0x3d60ede9	0.05491439
162	0x398a3e59	0.00026367864
163	0x372b29d0	1.02021295e-05
164	0x39e95042	0.0004450102
165	0x385effb3	5.3167063e-05
166	0x37fe8d00	3.0344818e-05
167	0x3b86e517	0.004116665
168	0x3bdbdff1	0.0067100455
169	0x3a3ddffa	0.0007243153
170	0x3d135fea	0.035980143
171	0x3858b645	5.1668165e-05
172	0x38163590	3.581267e-05
173	0x3b5ff524	0.0034173215
174	0x380e9957	3.3998247e-05
175	0x376c427a	1.4082174e-05
176	0x3b17cf16	0.0023164204
177	0x39dc46c8	0.00042014406
178	0x36a24ce9	4.8369297e-06
179	0x392285b7	0.00015499337
180	0x39b6b50a	0.0003484863
181	0x38adc7fa	8.2865314e-05
182	0x3bd351d8	0.0064489655
183	0x3a1636f1	0.0005730233
184	0x3a075db9	0.0005163807
185	0x3d549d8b	0.051908057
186	0x36b9d064	5.5376895e-06
187	0x36bbaf3c	5.5934343e-06
188	0x39fddd53	0.0004842082
189	0x3b0464d7	0.0020201707
190	0x399eaecd	0.00030266345
191	0x3c52699e	0.012842564

exp_avg f4 [64]
0	0x3a4a46ea	0.00077162555
1	0x3b6b7a65	0.0035931107
2	0xba29beee	-0.0006475289
3	0x38714ed5	5.7532296e-05
4	0x39aa9987	0.00032539314
5	0x38a026eb	7.6366436e-05
6	0xba3b75f7	-0.0007151062
7	0x39dcc8b7	0.00042111214
8	0x38801e6c	6.109182e-05
9	0xb984e999	-0.00025351046
10	0x3ada9ee8	0.0016679438
11	0xbaa574a4	-0.0012623263
12	0xbb928870	-0.004471831
13	0x3ab4ad2a	0.0013784517
14	0xba3359a5	-0.0006841666
15	0x3ab4417a	0.0013752424
16	0x3a679643	0.00088343414
17	0xb9ac4b2e	-0.0003286241
18	0x3b9df731	0.0048207273
19	0x3a23bfad	0.00062465185
20	0x397a0cf2	0.0002384668
21	0x3940aed6	0.00018375678
22	0x39d262de	0.00040127983
23	0xbb430b4e	-0.0029761377
24	0x3a14bf7f	0.0005674287
25	0xb8d0e2ea	-9.960479e-05
26	0x3a9d15f6	0.0011984694
27	0xb8b0a7cd	-8.423589e-05
28	0x3934e745	0.00017252292
29	0x3a9d377e	0.0011994687
30	0x39808827	0.00024515504
31	0xba2a2a48	-0.0006491286
32	0x3aa80a1a	0.0012820393
33	0xba92ca45	-0.0011199197
34	0xba71e310	-0.00092272554
35	0xbb2a6541	-0.0026000293
36	0x398b6d49	0.0002659357
37	0x3a991b16	0.0011681046
38	0xba981337	-0.0011602406
39	0xba04336a	-0.00050430617
40	0x39edc521	0.00045351035
41	0x37fa7cb1	2.9860386e-05
42	0x3b8437f2	0.0040349895
43	0x3a13f376	0.00056438835
44	0xba0841ba	-0.00051977823
45	0xbb3b585e	-0.0028586606
46	0x3a6b4536	0.0008974852
47	0xb985ce92	-0.00025521644
48	0x388cfe47	6.723083e-05
49	0xba20e01e	-0.00061369117
50	0x3a3f53aa	0.00072985387
51	0xba0f17a0	-0.00054585375
52	0xba160b98	-0.00057237735
53	0xbb194ff9	-0.0023393615
54	0x3a3904db	0.00070579135
55	0xba058517	-0.00050933793
56	0x3a8306ab	0.0009996494
57	0x3a428a15	0.00074210885
58	0x394b2a92	0.00019375447
59	0xb9136ea1	-0.00014060225
60	0x3b4c0b9a	0.0031134845
61	0x3b2900da	0.002578786
62	0xba0b0009	-0.00053024344
63	0x3a88ad50	0.0010427628

exp_avg_sq f4 [64]
0	0x39c0b6aa	0.0003675719
1	0x3be6e25d	0.0070460276
2	0x37acf10b	2.0616242e-05
3	0x3c2de355	0.010613282
4	0x3b28a086	0.0025730445
5	0x3beccc59	0.0072265086
6	0x398ca6b3	0.00026827081
7	0x3a026765	0.00049745134
8	0x37deda91	2.656624e-05
9	0x39938e16	0.00028143887
10	0x3a8f0c93	0.0010913782
11	0x39f9dc40	0.0004765708
12	0x3c227f20	0.009918004
13	0x3b87f0a3	0.004148559
14	0x3864c540	5.454314e-05
15	0x3a299697	0.0006469278
16	0x3a0515ad	0.00050767773
17	0x39bfba58	0.00036569196
18	0x3bf318c2	0.007418723
19	0x38af860b	8.369618e-05
20	0x39e9e66a	0.00044612895
21	0x3b1ad94b	0.0023628052
22	0x3944faba	0.0001878542
23	0x3a419555	0.0007384618
24	0x38776074	5.8979218e-05
25	0x38806c89	6.123732e-05
26	0x38e1de63	0.00010770259
27	0x39498686	0.00019218968
28	0x38c52aa9	9.401638e-05
29	0x39964ebc	0.0002866889
30	0x399a29c0	0.00029404275
31	0x3adbe844	0.0016777595
32	0x39a01370	0.0003053206
33	0x3a9a64cb	0.0011779306
34	0x3a68b342	0.0008876809
35	0x3b874935	0.0041286
36	0x3766a7df	1.3748154e-05
37	0x3b02cd02	0.001995862
38	0x3b551f84	0.0032520005
39	0x373e73c0	1.1351833e-05
40	0x3a92e111	0.0011205991
41	0x3ae5061d	0.0017473135
42	0x3ba8f888	0.0051565804
43	0x39babc17	0.00035616822
44	0x3992c6b4	0.00027995335
45	0x3bda3753	0.006659427
46	0x3aa5778f	0.0012624132
47	0x3b01f555	0.0019830067
48	0x3b543acf	0.0032383685
49	0x3818095d	3.6248344e-05
50	0x3a6b4df2	0.00089761533
51	0x380148f0	3.0823925e-05
52	0x397c47e6	0.00024059377
53	0x3b9bfd82	0.004760445
54	0x39955e5f	0.00028489807
55	0x394ffb6f	0.00019834725
56	0x3c08fd66	0.008361196
57	0x393e7409	0.00018163038
58	0x39084c0c	0.000129983
59	0x39e1a99a	0.00043041707
60	0x3a2829bd	0.0006414911
61	0x3b37bfc9	0.0028037897
62	0x379d62f6	1.876194e-05
63	0x3b2eaa8e	0.0026651951

exp_avg f4 [64]
0	0x3a20ad2f	0.0006129322
1	0xba35de59	-0.00069377344
2	0xb981046a	-0.00024608086
3	0x3ac2b631	0.0014855323
4	0xba4e8a42	-0.00078788784
5	0x391364c8	0.00014056556
6	0xb83f0869	-4.554578e-05
7	0xb923818f	-0.00015593156
8	0x3ad92554	0.0016566911
9	0x3a46cdc7	0.0007583764
10	0xb9d2fb97	-0.0004024177
11	0xbaed832c	-0.0018120757
12	0xbb5f9ea2	-0.0034121652
13	0x3949a91c	0.00019231852
14	0x3a605fe9	0.00085592136
15	0xba124648	-0.0005579931
16	0xba8e4cfc	-0.0010856683
17	0xba0ab490	-0.0005291188
18	0x3b4fa88e	0.003168616
19	0x3957a804	0.00020566589
20	0x3a663422	0.0008781572
21	0xb8919c82	-6.943291e-05
22	0x3a8f3671	0.0010926259
23	0xba903cf5	-0.0011004495
24	0x3a18fa89	0.00058356725
25	0xb9e577dd	-0.0004376759
26	0x3af2520e	0.0018487589
27	0x39c28b48	0.00037106336
28	0x394202af	0.00018502281
29	0xb951617b	-0.00019968108
30	0x37d3bcfc	2.5241163e-05
31	0xba8f0bca	-0.0010913548
32	0x3aab17c7	0.0013053351
33	0xbaf8b130	-0.0018973704
34	0xba780cd8	-0.0009462363
35	0xbac11d7c	-0.0014733518
36	0x39694fd3	0.00022250348
37	0x3aa051cf	0.0012231412
38	0xbad6bb8d	-0.0016382799
39	0xba143ca4	-0.0005654788
40	0xbb8a8b9b	-0.004228068
41	0xbb195fad	-0.0023402974
42	0xb983a57a	-0.00025109557
43	0xbaa794e2	-0.0012785459
44	0x39a28da8	0.0003100459
45	0xbb82457e	-0.0039755693
46	0x3b29d70e	0.0025915536
47	0x3b8d8831	0.004319214
48	0x3b028985	0.0019918394
49	0x3903e547	0.00012578546
50	0x3b1ef05d	0.0024252154
51	0x3a680a9b	0.0008851678
52	0xbad22d31	-0.0016035197
53	0xba1821ff	-0.00058034057
54	0xb9d99656	-0.00041501474
55	0x3a54c224	0.00081160874
56	0x3abb482b	0.0014288476
57	0x37568dc3	1.27884e-05
58	0x399603e4	0.00028613128
59	0x39716121	0.00023019734
60	0x3b2d05df	0.0026401205
61	0xbabffbf1	-0.0014647228
62	0x39cdd2c4	0.0003925768
63	0x36f64b75	7.3401557e-06

exp_avg_sq f4 [64]
0	0x3971e3f7	0.00023068475
1	0x38a6150f	7.919419e-05
2	0x385d582f	5.2772633e-05
3	0x3936b93e	0.0001742588
4	0x381f2d61	3.7950816e-05
5	0x39300f47	0.00016790359
6	0x39a320e7	0.00031114297
7	0x39481c57	0.00019084044
8	0x3902bdbf	0.00012468452
9	0x3a5921ac	0.00082829106
10	0x3a020e76	0.00049612613
11	0x39207f08	0.00015306112
12	0x3a63b421	0.0008686204
13	0x3a2942b2	0.0006456777
14	0x39df2683	0.00042562568
15	0x38fe93ad	0.000121391706
16	0x39143332	0.00014133452
17	0x38c7e105	9.5309726e-05
18	0x3a5d9c32	0.0008453756
19	0x386e62d8	5.6835677e-05
20	0x39804f96	0.0002447336
21	0x399aedeb	0.00029550432
22	0x3833845c	4.2800195e-05
23	0x39159d50	0.00014268351
24	0x3898bafe	7.282755e-05
25	0x3926317b	0.00015849427
26	0x39adaf46	0.0003312772
27	0x38b0ca93	8.4300664e-05
28	0x399fb194	0.0003045915
29	0x38104ef5	3.440581e-05
30	0x39919807	0.00027769824
31	0x3aa58086	0.0012626804
32	0x390a815a	0.00013208893
33	0x3a352ba1	0.0006911103
34	0x3a2ae9c3	0.00065198186
35	0x39cb0a04	0.0003872664
36	0x37b73651	2.1840593e-05
37	0x3a858209	0.0010185848
38	0x3a1d489a	0.0005999893
39	0x37689658	1.3863282e-05
40	0x3b1c3d13	0.0023840114
41	0x3b238b7c	0.0024954965
42	0x38ea73ce	0.0001117956
43	0x3a7f07f9	0.0009728666
44	0x390e0e5e	0.00013547527
45	0x3acdb7c6	0.0015695028
46	0x3a984b6a	0.0011619155
47	0x3b5d24cd	0.0033743859
48	0x39aec13c	0.00033331837
49	0x381c4e92	3.7266473e-05
50	0x39986ef3	0.00029074363
51	0x391a97fc	0.00014743203
52	0x395672c5	0.00020451385
53	0x3849508c	4.799715e-05
54	0x388b7d93	6.6514265e-05
55	0x3a943657	0.0011307698
56	0x397a14d7	0.00023849621
57	0x39b8e50b	0.00035265865
58	0x38cccaf8	9.765284e-05
59	0x38b92802	8.8289395e-05
60	0x3a167cd9	0.00057406496
61	0x39f60246	0.0004692247
62	0x38bfc11a	9.143558e-05
63	0x3b41c8b7	0.0029569098

exp_avg f4 [64]
0	0x3a7e29b1	0.00096955436
1	0x3b6c2b5a	0.0036036582
2	0xb9b16d4f	-0.00033841512
3	0x3a937eed	0.0011253037
4	0xba65a4c1	-0.0008760207
5	0xb870824d	-5.734181e-05
6	0xb9583294	-0.00020618207
7	0x3a186c9a	0.0005814523
8	0xba200dce	-0.00061055727
9	0xbaa9d799	-0.001295793
10	0x3a58e99f	0.00082745583
11	0xba22cc97	-0.0006210296
12	0xbb394eba	-0.0028275684
13	0x3a43435b	0.00074486964
14	0xbaab4a76	-0.0013068456
15	0x3b205c5c	0.0024469113
16	0x3aea52c7	0.0017877453
17	0x3a32f712	0.00068269775
18	0x3b173a49	0.0023075512
19	0x39726fc3	0.00023120553
20	0xba8e5e0a	-0.0010861766
21	0x3a218a79	0.00061622966
22	0x38bb59ed	8.933605e-05
23	0xba972843	-0.0011532385
24	0xba1e1a5f	-0.0006031151
25	0x391012c5	0.00013739902
26	0x3a02588e	0.0004972302
27	0xba55dc78	-0.00081581576
28	0x398411fb	0.00025190398
29	0x3a378960	0.00070013665
30	0x3a60d774	0.0008577027
31	0xbab4f29a	-0.0013805211
32	0x3a3b2c67	0.00071401004
33	0xba5b55d0	-0.0008366974
34	0xbad3a71d	-0.0016147826
35	0xbab3f407	-0.0013729342
36	0x39a4103e	0.0003129262
37	0xb9863020	-0.00025594328
38	0xba8c8620	-0.0010721125
39	0x39d3272c	0.00040274241
40	0xba29a8d2	-0.00064719946
41	0xba2b554b	-0.0006535842
42	0x3b586165	0.0033017036
43	0x3ac41bb1	0.0014961866
44	0xbaad68a6	-0.001323004
45	0xbad743b7	-0.0016423379
46	0xb98b8a07	-0.00026614984
47	0xb72f588e	-1.0451431e-05
48	0x3adb3b78	0.0016726097
49	0xba616cf4	-0.0008599304
50	0x391279de	0.00013969044
51	0xbad3f649	-0.0016171421
52	0xba2c4e88	-0.00065729814
53	0xbaffa810	-0.0019505043
54	0x3a6d2e69	0.0009047748
55	0xba860b80	-0.0010226816
56	0x3aa61e6f	0.0012673865
57	0x3adcba08	0.001684011
58	0x3967c724	0.00022104062
59	0xba2dd055	-0.000663047
60	0x3b022864	0.00198605
61	0x3b170901	0.0023046138
62	0xba536033	-0.0008063346
63	0xb989fd8f	-0.00026319592

exp_avg_sq f4 [64]
0	0x39d31cb6	0.00040266447
1	0x3a973f00	0.0011539161
2	0x384411db	4.674667e-05
3	0x3affc782	0.0019514414
4	0x3a0d0127	0.0005378895
5	0x3a4a958d	0.0007727973
6	0x3a0fa338	0.00054793386
7	0x39b41b6d	0.0003435271
8	0x39809c2f	0.00024530428
9	0x3a7d3ae3	0.0009659959
10	0x3a886fbf	0.001040928
11	0x39e52240	0.00043703802
12	0x3ad7445e	0.0016423573
13	0x39dbbe86	0.00041912886
14	0x3a648820	0.0008717794
15	0x3a365174	0.00069548865
16	0x3a5f3c05	0.00085157185
17	0x394ab502	0.00019331652
18	0x3a7d8345	0.0009670745
19	0x388e51b6	6.7863075e-05
20	0x39afda1b	0.00033541102
21	0x39951862	0.0002843766
22	0x384529e0	4.700746e-05
23	0x3a23eda1	0.0006253366
24	0x38b4b1c0	8.6161774e-05
25	0x39829041	0.0002490301
26	0x398851c3	0.0002600086
27	0x3948cd46	0.00019149957
28	0x39815b5e	0.0002467287
29	0x389b1bcf	7.396156e-05
30	0x3a053734	0.0005081773
31	0x3a8425fc	0.0010082121
32	0x38ccb47f	9.761098e-05
33	0x38d94e37	0.00010361935
34	0x3a649570	0.00087197777
35	0x3b56179f	0.0032667888
36	0x37dcb47d	2.631009e-05
37	0x39c6d309	0.00037922736
38	0x3a3b4916	0.00071443745
39	0x380186f6	3.088169e-05
40	0x3a30ddf9	0.00067469437
41	0x3a2bb76c	0.00065504643
42	0x3aa802da	0.0012818233
43	0x3ad2fe65	0.0016097544
44	0x3a0855a7	0.00052007515
45	0x3aa035cc	0.0012223064
46	0x3a26eaeb	0.0006367403
47	0x3a7c8c5c	0.0009633952
48	0x3b0ab7d9	0.002116671
49	0x389d641c	7.50499e-05
50	0x3987da54	0.00025911874
51	0x398ab5d2	0.00026456878
52	0x39572237	0.00020516744
53	0x3b047b8c	0.0020215241
54	0x38afac14	8.376702e-05
55	0x39b03606	0.00033609587
56	0x3ad2e30d	0.0016089395
57	0x3a2103ef	0.0006142249
58	0x38e8dd9e	0.000111039015
59	0x3919d7e6	0.00014671645
60	0x39a53b0a	0.0003151524
61	0x3afc83c0	0.0019265339
62	0x39263d8a	0.00015853919
63	0x3a33aff3	0.00068545266
