experiments/training_curves/SHAC/seed_400/best_policy.pt (torch, 167108 bytes, 63 tensors)

weight f4 [64, 3]
-0.36929443 0.19937083 0.38458905 -0.38100797 0.6030601 0.029494863 -0.22981192 0.27323887
0.48362848 -0.16134694 -0.49846917 0.0006793963 0.23398201 0.0603614 0.1376483 -0.3184674
-0.48431402 -0.13259462 0.5378517 0.31302688 -0.05164837 -0.55303514 -0.31851304 -0.2471448
-0.51072377 0.013753205 -0.44750214 -0.201649 0.05521321 0.3718017 -0.59491813 0.21616244
0.28135064 -0.09940438 -0.1974161 0.30984712 0.43595564 -0.54997075 -0.34171522 0.13815871
0.46702284 0.25483814 -0.019219624 -0.31402254 -0.20320287 -0.26630017 -0.33258525 -0.13666622
-0.64664114 -0.35925105 -0.32372847 0.49907988 -0.014603074 -0.040124934 -0.32162115 0.635344
-0.19125438 0.488614 0.29107308 -0.26091 0.5004753 0.48076648 -0.10176479 -0.03661028
-0.30829337 -0.1796784 0.087337986 0.48836848 -0.38246515 0.44988325 -0.21320613 -0.21193214
0.14794968 -0.55386657 0.41302094 -0.16298443 -0.050892096 -0.45306185 -0.09807977 -0.456995
0.37853858 0.102536455 0.07269592 0.15808813 -0.37755057 -0.53040546 -0.5256946 0.37246957
0.38473096 -0.069967866 -0.15735139 -0.35061657 -0.4663612 -0.0066707605 -0.18659182 -0.4131187
-0.13579763 0.34458297 -0.2571543 0.3184401 -0.49869972 -0.5394561 -0.27384636 0.19540478
-0.39535496 0.29386577 0.54659736 0.28745377 -0.44650322 0.32996118 0.40330708 0.47893044
0.5199704 -0.12982729 0.4403 -0.22057672 -0.38532424 -0.1480178 -0.3587488 0.11214021
0.49351063 0.1493407 0.51480484 0.123689726 0.14063756 0.5539695 -0.24523517 0.41568965
-0.05427504 -0.25738928 0.53671294 0.005829158 -0.10881126 -0.08488726 0.17328943 0.3864485
-0.37990147 -0.4287811 -0.17259975 0.44282627 -0.36128908 -0.5416503 -0.590804 0.44353697
-0.53173053 -0.49016783 0.11641897 0.005609994 -0.56627053 -0.50705105 0.33771515 0.5678167
-0.46508238 -0.06495072 0.09007593 0.35710266 0.06797413 0.1007124 0.40724504 0.19577397
-0.49554095 -0.21518648 0.15345724 -0.13004838 0.33556408 -0.62960863 0.07949335 0.56704724
-0.10287281 -0.27372083 0.09799117 -0.6074697 0.5512033 0.5290661 -0.40841895 -0.30835614
-0.4004316 -0.06278462 0.14284891 0.29578665 -0.32637239 0.55952775 -0.34073102 -0.564943
-0.36971965 -0.22765149 -0.5216386 0.110441804 0.17613557 -0.2635056 0.43483552 0.5341742
00000000: 2914 bdbe de27 4c3e dbe8 c43e 7a13 c3be
00000010: 2662 1a3f 369f f13c d153 6bbe f7e5 8b3e
00000020: 279e f73e 2238 25be 5a37 ffbe 8419 323a
00000030: fb98 6f3e 843d 773d adf3 0c3e 290e a3be
00000040: 02f8 f7be e2c6 07be a6b0 093f 0f45 a03e
00000050: 3e8d 53bd b693 0dbf 2414 a3be 8713 7dbe
00000060: cbbe 02bf 1f55 613c 001f e5be 137d 4ebe
00000070: 3f27 623d cb5c be3e 8e4c 18bf b059 5d3e
00000080: 310d 903e 8694 cbbd 7227 4abe 48a4 9e3e
00000090: 9435 df3e e2ca 0cbf 4cf5 aebe 7a79 0d3e
000000a0: 9e1d ef3e 257a 823e 7972 9dbc 90c7 a0be
000000b0: 6a14 50be 7f58 88be 9d48 aabe 3bf2 0bbe
000000c0: 468a 25bf c1ef b7be bdbf a5be 6687 ff3e
000000d0: bb41 6fbc 0b5a 24bd 87ab a4be e8a5 223f
000000e0: 30d8 43be 9d2b fa3e 8807 953e ff95 85be
000000f0: 261f 003f 0627 f63e 0f6a d0bd a9f4 15bd
00000100: a1d8 9dbe 9dfd 37be 42de b23d 6f0b fa3e
00000110: 79d2 c3be 1957 e63e b552 5abe bd04 59be
00000120: 1f80 173e 33ca 0dbf 7b77 d33e 64e5 26be
00000130: 3b74 50bd b9f7 e7be 0cde c8bd 40fb e9be
00000140: cfcf c13e a2fe d13d 99e1 943d dbe1 213e
00000150: 4f4e c1be a7c8 07bf ec93 06bf 55b4 be3e
00000160: 75fb c43e 504b 8fbd b920 21be 0484 b3be
00000170: e5c6 eebe 6596 dabb ed11 3fbe 4b84 d3be
00000180: 890e 0bbe 2e6d b03e baa9 83be 950a a33e
00000190: 9255 ffbe cc19 0abf 9735 8cbe 3118 483e
000001a0: f76b cabe 9375 963e ceed 0b3f 242d 933e
000001b0: 129c e4be acf0 a83e 447e ce3e 5f36 f53e
000001c0: c81c 053f 72f1 04be 006f e13e ddde 61be
000001d0: 3849 c5be fa91 17be ecad b7be c4a9 e53d
000001e0: 6dad fc3e c5ec 183e 40ca 033f 0a51 fd3d
000001f0: 4b03 103e f2d0 0d3f ee1e 7bbe 46d5 d43e
00000200: 814f 5ebd 87c8 83be 0566 093f 8502 bf3b
00000210: 70d8 debd 5fd9 adbd c972 313e 94dc c53e
00000220: 7282 c2be 3289 dbbe fdbd 30be 20ba e23e
00000230: e2fa b8be 98a9 0abf ee3e 17bf 4717 e33e
00000240: 7e1f 08bf 47f7 fabe 126d ee3d 0ad4 b73b
00000250: 1bf7 10bf 19ce 01bf 00e9 ac3e 6f5c 113f
00000260: 471f eebe e204 85bd bb79 b83d 29d6 b63e
00000270: 0536 8b3d 4e42 ce3d 6c82 d03e f978 483e
00000280: 8bb7 fdbe d859 5cbe e523 1d3e 672b 05be
00000290: 0ecf ab3e 082e 21bf 69cd a23d 022a 113f
000002a0: fbae d2bd 2325 8cbe 98af c83d 2283 1bbf
000002b0: a91b 0d3f e070 073f 4a1c d1be dbe0 9dbe
000002c0: 5f05 cdbe 3995 80bd fc46 123e 5971 973e
000002d0: 481a a7be 363d 0f3f 4c74 aebe 1ba0 10bf
000002e0: e54b bdbe 791d 69be 1b8a 05bf 502f e23d
000002f0: e25c 343e 35ea 86be c3a2 de3e a4bf 083f

bias f4 [64]
0.54714245 0.5186379 -0.26091573 0.34217882 -0.063394524 0.48265567 -0.47510585 0.42745233
-0.42390013 0.27180436 -0.14602199 -0.58758676 -0.20622303 0.33123663 -0.50880355 0.3281782
-0.3315702 -0.33003506 0.42011976 -0.011802857 0.53486234 0.49607384 0.003702611 -0.5170711
0.07480439 -0.38131124 0.5378864 0.3924981 0.0014395711 -0.35426548 0.43902534 -0.012816487
0.51057476 0.51385605 -0.06423357 -0.5119909 0.048666805 0.34262612 -0.28540507 -0.28657737
-0.2157978 0.020511674 0.51824766 -0.2295726 -0.24650481 -0.17501135 0.39398873 0.19181086
0.2888065 -0.21908842 0.038798913 -0.16364282 -0.42984772 -0.09986406 -0.0915963 0.06291983
0.33702907 -0.2401357 -0.06791053 0.12837523 0.31338766 0.3224351 -0.41528982 0.5365531
00000000: 8711 0c3f 74c5 043f bf96 85be 1032 af3e
00000010: fdd4 81bd a51e f73e 1341 f3be 08db da3e
00000020: 7009 d9be f129 8b3e ca86 15be 166c 16bf
00000030: 212c 53be d997 a93e f340 02bf f906 a83e
00000040: 92c3 a9be 5bfa a8be f019 d73e c560 41bc
00000050: bdec 083f 64fd fd3e 81a7 723b c65e 04bf
00000060: 0b33 993d 3a3b c3be ecb2 093f 83f5 c83e
00000070: feaf bc3a 4962 b5be eec7 e03e 3efc 51bc
00000080: 07b5 023f 128c 033f e48c 83bd d611 03bf
00000090: d856 473d b16c af3e 9d20 92be 45ba 92be
000000a0: 19fa 5cbe 1908 a83c e1ab 043f 1415 6bbe
000000b0: c26b 7cbe 2d36 33be e4b8 c93e 116a 443e
000000c0: 72de 933e b758 60be 9ceb 1e3d fc91 27be
000000d0: 0015 dcbe 8785 ccbd d796 bbbd 1ddc 803d
000000e0: 138f ac3e 22e6 75be ad14 8bbd cc74 033e
000000f0: 5974 a03e 3716 a53e dea0 d4be 8b5b 093f

weight f4 [64]
1.0014236 1.0334696 0.9705557 1.0374143 0.9995017 1.0267369 0.9948253 1.0016282
0.9888137 0.99755067 1.0221992 1.0044116 1.0377636 0.99020815 1.0044317 0.9925209
1.0160112 0.9902186 1.0172962 0.9802574 0.9930815 0.9922657 0.95527595 1.015851
0.9528595 0.98505926 0.97768044 0.9647449 0.9718926 0.98287463 0.97232896 1.0034125
0.98331183 0.98236775 0.9856857 1.0444914 0.9381196 0.9886373 1.0257004 0.9793362
1.0084851 0.9995039 1.041392 0.996393 1.0160209 1.0099283 0.9982631 1.0105351
1.0267352 0.9899178 0.9926038 0.9965724 0.9958854 1.0661082 0.9714112 1.0083021
1.0241002 0.9970874 0.99580514 0.9700055 0.9949042 1.0266696 0.99835 0.9913689
00000000: a62e 803f bb48 843f 5776 783f fec9 843f
00000010: 58df 7f3f 1d6c 833f dfac 7e3f 5a35 803f
00000020: e522 7d3f 7b5f 7f3f 6cd7 823f 8f90 803f
00000030: 70d5 843f 487e 7d3f 3891 803f da15 7e3f
00000040: a80c 823f f77e 7d3f c336 823f 26f2 7a3f
00000050: 973a 7e3f 2005 7e3f f78c 743f 6807 823f
00000060: 9aee 733f d82c 7c3f 4449 7a3f 86f9 763f
00000070: f4cd 783f ac9d 7b3f 8dea 783f d26f 803f
00000080: 53ba 7b3f 747c 7b3f e655 7c3f e5b1 853f
00000090: 9b28 703f 5617 7d3f 274a 833f c7b5 7a3f
000000a0: 0a16 813f 7ddf 7f3f 554c 853f 9d13 7f3f
000000b0: f90c 823f 5545 813f 2c8e 7f3f 3759 813f
000000c0: 0f6c 833f 416b 7d3f 481b 7e3f 5e1f 7f3f
000000d0: 58f2 7e3f 3c76 883f 68ae 783f 0b10 813f
000000e0: b715 833f 1f41 7f3f 16ed 7e3f 4852 783f
000000f0: 0bb2 7e3f e969 833f de93 7f3f 5aca 7d3f

bias f4 [64]
-0.010435726 0.0022288738 -0.0008997935 0.0069121714 0.012503819 0.018677555 0.009210249 0.0036098892
0.009985915 0.0027639952 0.00048433078 -0.0049063745 -0.0056292284 -0.021775285 -0.005117336 0.015975965
-0.0011547876 0.005639305 -0.0037241322 -0.0059785605 -0.0060022734 -0.0012994308 0.000732808 0.011560152
0.008912933 0.014214022 -0.00024959078 -0.010620493 -0.023529049 0.017964294 -0.002020761 -0.0025532856
0.00041653367 -0.008100064 -0.004669026 -0.0016971516 0.021239026 -0.00887902 0.005633476 0.022702685
-0.004816282 -0.0062083695 -0.0018121267 0.008822999 -0.008957956 -0.0002510616 -0.010803434 0.0023367857
0.008128665 -0.0040017604 -0.008727939 0.00812518 0.0016501644 -0.003951173 0.0002601149 -0.0054490324
0.009451696 0.0035055063 0.03784285 0.011540427 0.0051850807 6.2528896e-05 0.00064909406 -0.01213384
00000000: 9bfa 2abc 4c12 123b 1fe0 6bba 7f7f e23b
00000010: d1dc 4c3c ac01 993c 96e6 163c e493 6c3b
00000020: f79b 233c 2524 353b c7ed fd39 a7c5 a0bb
00000030: 6475 b8bb 1562 b2bc 53af a7bb 07e0 823c
00000040: 3e5c 97ba ebc9 b83b 9210 74bb cde7 c3bb
00000050: b8ae c4bb aa51 aaba ea19 403a cb66 3d3c
00000060: 8d07 123c eee1 683c 82db 82b9 9401 2ebc
00000070: febf c0bc db29 933c be6e 04bb 0655 27bb
00000080: 3462 da39 21b6 04bc a1fe 98bb f572 deba
00000090: 77fd ad3c 4f79 11bc 0699 b83b fbfa b93c
000000a0: e7d1 9dbb 946f cbbb e284 edba 578e 103c
000000b0: 64c4 12bc eba0 83b9 e300 31bc c224 193b
000000c0: 182e 053c 3321 83bb a1ff 0ebc 7a1f 053c
000000d0: 544a d83a d778 81bb 0860 8839 cc8d b2bb
000000e0: 49db 1a3c a3bc 653b 1b01 1b3d 0f14 3d3c
000000f0: 9ce7 a93b f221 8338 f727 2a3a 03cd 46bc

weight f4 [64, 64]
-0.016126415 -0.020689497 0.0025286258 0.13209668 0.057049472 0.15069589 0.09568323 -0.05198232
-0.1048174 0.0036634794 -0.040443264 -0.15643467 0.122501865 -0.023291722 -0.13097732 0.12969375
0.041266836 0.06201714 0.021398565 0.05862589 -0.014316779 -0.04340164 -0.0366722 -0.024666684
-0.069779836 0.04637355 0.07400205 -0.058938447 -0.12622917 0.10440762 -0.06033013 -0.10206676
-0.08758768 0.11672866 -0.11644967 -0.072037 -0.03658206 -0.11724569 0.083392724 -0.076955795
-0.030252771 -0.090273134 0.023630733 0.115822636 -0.13727689 0.10199154 -0.09525288 0.13376737
0.0937279 0.014770952 -0.061072726 0.031082543 0.0019760998 -0.075568505 0.021665674 -0.078908764
0.12858102 0.068522625 -0.071912505 0.072401695 -0.04934745 0.050207164 -0.11599614 0.026986025
0.059520252 -0.045891237 -0.064561106 0.15189241 -0.1704608 0.14546813 -0.11405695 -0.1020131
-0.12142941 0.020556575 0.15303268 0.10624416 -0.09107816 -0.00584921 -0.017681308 -0.08730096
-0.0021825936 0.016686399 -0.03799407 0.111076824 0.012844741 0.09366316 -0.07818271 0.041547764
0.09336193 0.041288562 0.053204656 -0.056219622 -0.09707886 0.021897929 -0.08417258 0.016777221
0.025199473 0.0061494885 -0.1064975 -0.021859417 0.13205117 0.0021246846 0.11322255 0.12494797
0.03795536 0.09556233 0.081318475 0.1171738 0.02731777 -0.07332824 0.0024600725 0.059037674
0.026028711 0.087755255 0.10501042 -0.07516136 0.003733172 -0.0716394 0.10224586 -0.08608789
0.13645329 0.12640339 -0.03846646 -0.12804887 0.10428919 0.07223461 0.09219451 -0.05181412
0.06943608 -0.10899249 -0.018035186 0.07196329 -0.10350418 0.0017185828 0.09040667 -0.0430257
-0.08727448 0.061755374 0.09810975 0.07817801 0.0705058 0.0265838 -0.05716859 -0.051981766
0.08691918 -0.122931965 -0.120809264 0.07232759 -0.031044958 0.062496927 -0.073548995 -0.054523654
0.07180152 0.018149653 -0.07426177 -0.036723442 -0.025919594 -0.09341713 -0.07000587 -0.060845662
0.093965024 0.048573617 0.061635807 -0.12462526 0.010072509 0.110745355 0.020708533 -0.13703221
-0.10815093 0.043428764 -0.0926161 -0.114998415 0.07755763 0.13467684 -0.11135981 0.045765407
0.10590655 0.054188583 -0.06328492 -0.13542698 -0.13352491 -0.029365774 -0.08738297 0.06668885
-0.033719834 0.05743684 -0.12194673 0.0028737225 -0.056446478 0.015514556 0.11070737 -0.11765435
0.12137976 0.041487467 -0.07752631 -0.13080694 0.09029945 -0.014068758 -0.013159763 0.08256464
0.10033119 0.07119136 -0.060771663 -0.024848681 -0.043843675 0.10183736 0.04538135 -0.044889618
-0.044643007 -0.06311685 0.119086325 0.024912657 0.11337894 -0.04045825 0.07773409 0.028259503
-0.039888464 -0.009056014 0.062336758 -0.047035705 -0.09044223 0.09771163 0.02476649 -0.04389898
0.06177937 -0.01533783 0.11913457 -0.08254895 0.11486143 -0.11946848 -0.064399324 0.068934515
0.042947475 0.085255384 0.037594467 0.03817912 0.11626958 -0.00044929117 0.04272709 -0.021501603
-0.1414521 -0.027402394 0.10037647 -0.08313136 0.046178862 -0.033311423 0.07435869 -0.0025717348
0.0600536 -0.113832854 -0.12007728 0.08892366 -0.09385461 0.056195192 0.08777024 -0.07617246
00000000: 8b1b 84bc 057d a9bc 4db7 253b 5a44 073e
00000010: b5ac 693d 0650 1a3e 92f5 c33d 6aeb 54bd
00000020: 81aa d6bd fc16 703b d6a7 25bd 6930 20be
00000030: 42e2 fa3d 48ce bebc eb1e 06be 70ce 043e
00000040: 6a07 293d af05 7e3d 0b4c af3c b421 703d
00000050: ec90 6abc ebc5 31bd 9735 16bd c911 cabc
00000060: bbe8 8ebd 31f2 3d3d 638e 973d 7169 71bd
00000070: 3842 01be aad3 d53d ba1c 77bd 6108 d1bd
00000080: 2b61 b3bd 700f ef3d 2a7d eebd 2288 93bd
00000090: 12d7 15bd 821e f0bd cec9 aa3d 009b 9dbd
000000a0: a9d4 f7bc 1fe1 b8bd 3d95 c13c 6b34 ed3d
000000b0: 5092 0cbe f1e0 d03d f113 c3bd 50fa 083e
000000c0: 6af4 bf3d dd01 723c 6527 7abd d1a0 fe3c
000000d0: 7481 013b a9c3 9abd 367c b13c eb9a a1bd
000000e0: beaa 033e 9755 8c3d dd46 93bd 5747 943d
000000f0: 8d20 4abd 07a6 4d3d 628f edbd cc11 dd3c
00000100: 82cb 733d 73f8 3bbd 9d38 84bd af89 1b3e
00000110: 478d 2ebe 99f5 143e b196 e9bd 3fec d0bd
00000120: fcaf f8bd 4366 a83c 99b4 1c3e 8a96 d93d
00000130: 3087 babd bbaa bfbb 64d8 90bc d9ca b2bd
00000140: d809 0fbb eab1 883c ac9f 1bbd 3f7c e33d
00000150: c072 523c 79d2 bf3d 421e a0bd fd2d 2a3d
00000160: 8a34 bf3d 321e 293d 20ed 593d 8c46 66bd
00000170: 48d1 c6bd 4963 b33c ac62 acbd 6270 893c
00000180: 206f ce3c a681 c93b 5c1b dabd 8512 b3bc
00000190: 6c38 073e 4b3e 0b3b 39e1 e73d b9e4 ff3d
000001a0: 1477 1b3d 2fb6 c33d 4d8a a63d d1f8 ef3d
000001b0: 84c9 df3c 1e2d 96bd 2b39 213b 7dd1 713d
000001c0: 2a3a d53c 07b9 b33d b40f d73d 33ee 99bd
000001d0: 3ca8 743b aeb7 92bd 4766 d13d d94e b0bd
000001e0: 69ba 0b3e e46f 013e 028f 1dbd 3e1f 03be
000001f0: 9295 d53d bdef 933d 7ad0 bc3d 0b3b 54bd
00000200: 8134 8e3d 7437 dfbd 87be 93bc 7d61 933d
00000210: 00fa d3bd 1242 e13a 2227 b93d b73b 30bd
00000220: f6bc b2bd 34f3 7c3d c4ed c83d cb1b a03d
00000230: 5865 903d 45c6 d93c 9d29 6abd d5ea 54bd
00000240: af02 b23d c1c3 fbbd d96a f7bd 7d20 943d
00000250: ff51 febc c7fc 7f3d dba0 96bd 3254 5fbd
00000260: ad0c 933d 95ae 943c 8e16 98bd 526b 16bd
00000270: 5455 d4bc 7b51 bfbd 3d5f 8fbd 4d39 79bd
00000280: bc70 c03d 21f5 463d d475 7c3d 873b ffbd
00000290: 2a07 253c 76ce e23d f1a4 a93c 2c52 0cbe
000002a0: 3c7e ddbd 5ce2 313d 83ad bdbd 4a84 ebbd
000002b0: 89d6 9e3d bae8 093e 9d10 e4bd 8274 3b3d
000002c0: 89e5 d83d d9f4 5d3d 869b 81bd 5fad 0abe
000002d0: c1ba 08be 7e90 f0bc d8f5 b2bd 2a94 883d
000002e0: cf1d 0abd e442 6b3d 35bf f9bd 1055 3c3b
000002f0: 6c34 67bd c430 7e3c 8cba e23d c4f4 f0bd
00000300: f495 f83d c3ee 293d 1dc6 9ebd 41f2 05be
00000310: ebee b83d a680 66bc 0c9c 57bc a617 a93d
00000320: 707a cd3d c7cc 913d b5eb 78bd 768f cbbc
00000330: 6d95 33bd 1b90 d03d cbe1 393d 2dde 37bd
00000340: 96db 36bd 6843 81bd 88e3 f33d a115 cc3c
00000350: 3833 e83d 8db7 25bd 0d33 9f3d 7980 e73c
00000360: 1662 23bd ad5f 14bc d454 7f3d 83a8 40bd
00000370: c739 b9bd 091d c83d 18e3 ca3c 6bcf 33bd
00000380: 5d0c 7d3d 864b 7bbc d3fc f33d 6d0f a9bd
00000390: 783c eb3d e4ab f4bd cbe3 83bd 8a2d 8d3d
000003a0: b1e9 2f3d 609a ae3d a8fc 193d b561 1c3d
000003b0: bf1e ee3d d78e ebb9 9a02 2f3d 2124 b0bc
000003c0: d2d8 10be fc7a e0bc 2e92 cd3d c640 aabd
000003d0: 0c26 3d3d 8f71 08bd 5e49 983d 8d8a 28bb
000003e0: c4fa 753d 3321 e9bd 14eb f5bd 9c1d b63d
000003f0: d936 c0bd ee2c 663d e2c0 b33d 4f00 9cbd

bias f4 [64]
-0.04867355 0.05679587 0.05689902 -0.017241834 0.07839883 -0.03298683 0.06613906 0.085940056
-0.08519864 0.098345034 -0.08110953 -0.05427573 -0.037808143 -0.082557075 0.028813453 0.06685221
-0.11921122 -0.009407307 -0.12790897 -0.086293094 -0.060306735 0.079495385 0.091558434 0.002057614
0.12592418 0.10136505 -0.042532668 0.076311156 0.1031845 0.09687187 -0.022945335 0.054661315
0.11135494 -0.016176773 0.07143872 0.095833935 0.022965394 -0.1029019 0.10602482 0.02385884
0.10265784 -0.049367927 -0.14285372 -0.09391052 0.008218313 0.021723874 -0.0011082529 -0.09265376
-0.049828578 0.024782727 0.09680114 0.044118397 -0.042415928 -0.1251533 0.028157545 -0.12464454
0.02504378 0.10383803 -0.015042158 0.05667696 0.03515459 -0.06013341 -0.053249933 -0.12953316
00000000: eb5d 47bd c9a2 683d f20e 693d bf3e 8dbc
00000010: 918f a03d 331d 07bd ea73 873d 5701 b03d
00000020: a07c aebd 1f69 c93d c11c a6bd 3a50 5ebd
00000030: b6dc 1abd af13 a9bd 310a ec3c d0e9 883d
00000040: 0325 f4bd 1b21 1abc 92fa 02be 6fba b0bd
00000050: 3204 77bd 7ace a23d fd82 bb3d 09d9 063b
00000060: 45f2 003e 7b98 cf3d bc36 2ebd 0649 9c3d
00000070: 6552 d33d c264 c63d dbf7 bbbc 8be4 5f3d
00000080: 0f0e e43d 2785 84bc 774e 923d 9544 c43d
00000090: ec21 bc3c 3bbe d2bd 8a23 d93d 9d73 c33c
000000a0: 463e d23d 0636 4abd 3f48 12be 2954 c0bd
000000b0: 1aa6 063c 44f6 b13c cc42 91ba 41c1 bdbd
000000c0: 0d19 4cbd 2505 cb3c ad3f c63d 7eb5 343d
000000d0: 53bc 2dbd 3028 00be a7aa e63c a345 ffbd
000000e0: 9d28 cd3c 08a9 d43d 6273 76bc 1a26 683d
000000f0: 42fe 0f3d 734e 76bd 9a1c 5abd 57a4 04be

weight f4 [64]
1.0293794 1.0054045 1.0269108 1.0427363 1.0181653 1.0321795 0.9884622 1.0335513
0.9898236 1.009021 1.0212296 1.006688 1.0117608 1.0046147 0.9915096 0.9976197
1.017009 0.9759353 1.0052156 0.983964 1.0107293 1.0098901 1.0144674 0.989189
1.056596 1.0124652 1.0032018 1.0003868 0.9783607 1.0021278 0.9993504 1.0252211
1.0178068 1.0321946 1.0026792 0.99940634 1.0107832 1.0030446 1.0082375 0.9900032
0.99014574 1.030564 1.0010579 0.97887564 0.9955967 0.9874411 1.0029322 0.9970249
1.0039405 1.0104373 1.0000145 0.9847929 1.0394571 1.0004551 1.0062788 1.0107207
1.0039152 0.9896355 1.0377804 1.0358608 1.0040182 1.0005958 1.0158002 1.0008115
00000000: b4c2 833f 18b1 803f d071 833f 6278 853f
00000010: 3e53 823f 751e 843f dc0b 7d3f 694b 843f
00000020: 1465 7d3f 9a27 813f a7b7 823f 27db 803f
00000030: 6181 813f 3797 803f 93d3 7d3f 0164 7f3f
00000040: 5a2d 823f e5d6 793f e8aa 803f 11e5 7b3f
00000050: 945f 813f 1444 813f 11da 813f 7e3b 7d3f
00000060: 8a3e 873f 7698 813f eb68 803f ad0c 803f
00000070: d975 7a3f b945 803f 6ed5 7f3f 723a 833f
00000080: 7e47 823f f41e 843f cb57 803f 18d9 7f3f
00000090: 5861 813f c463 803f ed0d 813f da70 7d3f
000000a0: 317a 7d3f 85e9 833f aa22 803f 9897 7a3f
000000b0: 6ddf 7e3f f1c8 7c3f 1560 803f 063d 7f3f
000000c0: 1f81 803f 0256 813f 7a00 803f 631b 7c3f
000000d0: ee0c 853f ea0e 803f becd 803f 4c5f 813f
000000e0: 4b80 803f c158 7d3f fdd5 843f 1697 843f
000000f0: ab83 803f 8613 803f be05 823f 971a 803f

bias f4 [64]
0.0054274937 0.0053487318 0.0052326773 -0.0014273381 -0.0052657085 -0.0051746643 0.0040817703 0.001252185
0.005347832 -0.004563197 0.004949892 -0.004669576 0.0057586343 -0.005140128 0.005326327 0.005072807
-0.004426464 0.021570032 0.0041445587 0.0026545234 -0.005441155 -0.0053228363 -0.0054809814 0.006060559
0.0043504196 0.005357363 -0.005059043 -0.0052015786 -0.005398544 -0.006492596 -0.004636461 -0.005232335
-0.0056028734 0.0053138644 -0.006189919 -0.006007971 0.0035064183 0.0061460184 0.0050625973 -0.005701301
0.00532773 -0.004728918 -0.0042471685 -0.005388099 -0.0054205786 0.004930353 -0.0051972475 -0.003021447
-0.0045884005 0.005367126 -0.00508894 0.0056218687 -0.00469419 -0.0048809852 0.0057129255 0.005580719
-0.004869068 0.00663137 -0.0037598344 0.0052378667 0.0055425833 0.005597697 -0.0047544 0.0053371782
00000000: 1ed9 b13b 6a44 af3b e176 ab3b 8515 bbba
00000010: f78b acbb 3b90 a9bb 5fc0 853b 5b20 a43a
00000020: de3c af3b df86 95bb b432 a23b 3e03 99bb
00000030: edb2 bc3b 856e a8bb 7888 ae3b ca39 a63b
00000040: df0b 91bb a3b3 b03c 14cf 873b 83f7 2d3b
00000050: b74b b2bb 306b aebb ce99 b3bb a797 c63b
00000060: f78d 8e3b d18c af3b 54c6 a5bb 0172 aabb
00000070: 45e6 b0bb d8bf d4bb 74ed 97bb 0274 abbb
00000080: 4f98 b7bb ed1f ae3b ced4 cabb 83de c4bb
00000090: f0cb 653b 8a64 c93b 25e4 a53b fbd1 babb
000000a0: 3d94 ae3b 0af5 9abb d52b 8bbb a68e b0bb
000000b0: 1c9f b1bb cc8e a13b ac4d aabb 7803 46bb
000000c0: 4b5a 96bb b7de af3b 1fc1 a6bb a737 b83b
000000d0: b8d1 99bb acf0 9fbb 7e33 bb3b 77de b63b
000000e0: b48c 9fbb f74b d93b 8e67 76bb 69a2 ab3b
000000f0: 8f9e b53b e36c b73b ccca 9bbb 7fe3 ae3b

weight f4 [1, 64]
0.13122846 0.07749567 0.09010088 -0.04477496 -0.10504961 -0.14685746 0.0206567 0.035169728
0.11264998 -0.067289926 0.09197589 -0.077104405 0.07030548 -0.09139373 0.106100544 0.08403016
-0.06445575 0.0030831685 0.03991688 0.0062557776 -0.13000393 -0.10861547 -0.073974416 0.08567565
0.073393255 0.056051664 -0.054356575 -0.023918249 -0.058596708 -0.03749907 -0.06618174 -0.10584823
-0.047811862 0.063204445 -0.041015282 -0.06151895 0.03368027 0.060880147 0.024345154 -0.076396756
0.10545115 -0.1380954 -0.05014623 -0.07601195 -0.08152 0.059890077 -0.12216295 -0.019408196
-0.06739514 0.0986096 -0.057964686 0.07709983 -0.15582512 -0.09780921 0.11947497 0.12714815
-0.10801077 0.042516008 -0.066325 0.1469686 0.10782588 0.12091949 -0.108586915 0.018891722
00000000: c160 063e 0db6 9e3d cf86 b83d f365 37bd
00000010: 4024 d7bd cd61 16be 3d38 a93c 220e 103d
00000020: 08b5 e63d 4dcf 89bd db5d bc3d eae8 9dbd
00000030: 52fc 8f3d a32c bbbd 3e4b d93d 0118 ac3d
00000040: 6001 84bd fc0e 4a3b e27f 233d 44fd cc3b
00000050: c01f 05be ca71 debd e67f 97bd b776 af3d
00000060: 344f 963d 6e96 653d 00a5 5ebd 34f0 c3bc
00000070: 1a03 70bd a098 19bd 4b8a 87bd f5c6 d8bd
00000080: 5fd6 43bd 5571 813d a4ff 27bd 4bfb 7bbd
00000090: 53f4 093d 765d 793d 7d6f c73c e775 9cbd
000000a0: c6f6 d73d e168 0dbe 2266 4dbd 27ac 9bbd
000000b0: f5f3 a6bd 4c4f 753d 9230 fabd f0fd 9ebc
000000c0: 7706 8abd d4f3 c93d 616c 6dbd 84e6 9d3d
000000d0: 9f90 1fbe 3250 c8bd 4baf f43d 2033 023e
000000e0: c034 ddbd 4425 2e3d 67d5 87bd f07e 163e
000000f0: d1d3 dc3d a3a4 f73d d162 debd d0c2 9a3c

exp_avg f4 [64, 3]
0.0025417393 -0.0017249249 -0.0021232162 -0.0016446522 0.0047919066 0.036726072 0.0023035305 -0.0016921649
-0.00045742874 0.028092094 -0.012573172 -0.062191315 -0.01269754 0.00624098 0.035998773 0.009061554
-0.002075712 -0.0029482502 -0.00025762134 0.0009875171 -0.0022260346 0.002280909 0.00032922727 0.011410951
0.00051147497 0.0011797885 -0.0032822937 0.001759891 -0.0014540948 -0.005970426 0.017141387 -0.010905989
-0.045844413 -0.009113138 0.0033501056 0.027449513 -0.0069068507 -0.0040811105 -0.019816546 -0.013722583
0.006126311 0.032846276 -0.00029183648 0.000526543 -0.0019473702 6.4323445e-05 0.0012182635 -0.0049881786
0.0042545116 0.0021638265 0.015973521 0.00088175543 4.7789857e-05 0.0009319621 0.00085783494 0.004173161
0.032786753 3.053931e-05 -0.0006850442 -0.0008778144 -0.005278751 0.004064012 0.0059374385 0.0015755591
-0.0028987287 -0.0027271174 0.0015496172 0.0009796215 -0.00039205587 -0.0040481584 -0.0012690806 -0.01237152
0.0024274494 -0.0023200046 -0.004420494 -0.00032737094 -0.00023997415 0.0035094584 0.0028780045 -0.0013783005
0.0011256457 -0.0026867539 0.0013077431 0.0055575143 0.0020261118 0.0016431354 0.0030467003 0.00050558505
-3.5195805e-07 -0.0007772005 -0.00094521214 -0.00019575417 -0.005468011 -0.0034142265 0.0007413293 -0.017175024
0.0002389898 0.0017840704 -0.0026423545 0.00037342525 -0.0005821519 -0.00028476262 -0.002511721 -0.00039359063
-0.012322587 -0.035937365 0.017080434 0.09024859 0.0018452477 -0.0010048054 -0.0071750637 -0.001349942
0.0013491967 0.003432321 -0.00442499 -0.00083133223 -0.01790888 0.0009047629 -0.00050564343 -0.0053958953
-0.012588681 0.005573588 0.04637362 -0.008676254 0.0034139866 0.01834005 0.0035424319 0.0024004336
0.030766647 -0.0024290956 -0.0007735052 0.02902935 -0.0041657523 -1.7204244e-05 0.012633619 -0.005207571
-0.0018746721 -0.020703398 0.0035253048 0.003058062 0.008304687 0.016240384 -0.0074245324 -0.032369863
0.021930862 -0.009566697 -0.053594142 -0.0015916625 -0.00041957927 -0.0032856 0.00042317458 0.001173369
-0.0032845747 -0.0012459288 0.00051327696 0.00744591 -0.007436308 0.00419192 0.011654469 -0.0071350723
-0.00092397124 -0.03145168 -0.001088168 -0.000532133 0.012173898 0.007918169 -0.005327278 -0.032668095
0.021540694 -0.009841277 -0.0582162 0.0049641374 -0.0037589855 -0.0063163647 0.0022836581 0.0016716204
0.006504108 0.0011330366 0.00014827607 -0.0024254266 0.00333139 0.002253937 0.003331168 0.0060573868
0.0015370859 0.027121948 0.0031376444 -0.0020435383 -0.018796513 -0.0133743845 0.004935519 0.036794256
00000000: 4f93 263b e016 e2ba a825 0bbb 5f91 d7ba
00000010: 6d05 9d3b 146e 163d d4f6 163b a2cb ddba
00000020: 0cd3 efb9 6421 e63c b5ff 4dbc 52bc 7ebd
00000030: 5809 50bc 2281 cc3b 7373 133d ea76 143c
00000040: ab08 08bb 6e37 41bb 5a11 87b9 936f 813a
00000050: aae2 11bb 4e7b 153b 239c ac39 fff4 3a3c
00000060: 8114 063a 22a3 9a3a c01b 57bb 25ac e63a
00000070: 5397 beba 90a3 c3bb 186c 8c3c 09af 32bc
00000080: 5ac7 3bbd 454f 15bc 728d 5b3b cddd e03c
00000090: dd52 e2bb d6ba 85bb 4f56 a2bc afd4 60bc
000000a0: 39bf c83b d189 063d a101 99b9 b407 0a3a
000000b0: e73e ffba 63e5 8638 24ae 9f3a e073 a3bb
000000c0: 6e69 8b3b fcce 0d3b e7da 823c 9b25 673a
000000d0: f871 4838 eb4e 743a 54e0 603a 03bf 883b
000000e0: 674b 063d 5617 0038 8a94 33ba 211d 66ba
000000f0: 5ff9 acbb 672b 853b d88e c23b fe82 ce3a
00000100: 99f8 3dbb 70b9 32bb 861c cb3a a566 803a
00000110: d98c cdb9 6aa6 84bb 4757 a6ba eab1 4abc
00000120: d815 1f3b 380b 18bb cbd9 90bb fca2 abb9
00000130: 92a1 7bb9 f1fe 653b e79c 3c3b 17a8 b4ba
00000140: 678a 933a 4014 30bb 9468 ab3a cf1b b63b
00000150: 84c8 043b 7a5e d73a 26ab 473b 3d89 043a
00000160: bff4 bcb4 0bbd 4bba 1dc8 77ba 5c43 4db9
00000170: 002d b3bb 37c1 5fbb c455 423a a3b2 8cbc
00000180: 5699 7a39 78d7 e93a 5a2b 2dbb 4ac8 c339
00000190: 8d9b 18ba 314c 95b9 b09b 24bb d75a ceb9
000001a0: ade4 49bc 0f33 13bd 44ec 8b3c 41d4 b83d
000001b0: 3ddc f13a adb3 83ba cc1c ebbb 89f0 b0ba
000001c0: 87d7 b03a caf0 603b 82ff 90bb c3ed 59ba
000001d0: a5b5 92bc 9c2d 6d3a 288d 04ba 0dd0 b0bb
000001e0: c140 4ebc a5a2 b63b 44f2 3d3d d926 0ebc
000001f0: 31bd 5f3b df3d 963c 2528 683b 9850 1d3b
00000200: 560a fc3c 7631 1fbb 0ec5 4aba f6ce ed3c
00000210: dd80 88bb d551 90b7 3dfd 4e3c 46a4 aabb
00000220: 8fb7 f5ba 2c9a a9bc cd08 673b c469 483b
00000230: 6210 083c 8e0a 853c 7e49 f3bb 4396 04bd
00000240: 5aa8 b33c a3bd 1cbc 8885 5bbd 559f d0ba
00000250: fafa dbb9 3953 57bb 88dd dd39 bbcb 993a
00000260: 0542 57bb 6f4e a3ba 6f8d 063a d2fc f33b
00000270: 46ac f3bb 605c 893b 63f2 3e3c 53cd e9bb
00000280: a936 72ba 7ad3 00bd dca0 8eba d77e 0bba
00000290: 0775 473c 35bb 013c 7290 aebb fbce 05bd
000002a0: 1c76 b03c 4f3d 21bc 1c74 6ebd 34aa a23b
000002b0: 5059 76bb 82f9 cebb 6da9 153b 461a db3a
000002c0: 6a20 d53b 6682 943a 8e7a 1b39 e8f3 1ebb
000002d0: 7353 5a3b cab6 133b ba4f 5a3b 0b7d c63b
000002e0: 0b78 c93a d92e de3c f0a0 4d3b e2ec 05bb
000002f0: 25fb 99bc 3c20 5bbc 22ba a13b 93b5 163d

exp_avg_sq f4 [64, 3]
0.00051719655 2.899502e-05 0.002252167 0.008478278 0.0007486829 0.042396232 1.07549895e-05 3.5394953e-06
0.00033658533 0.011124965 0.0012791805 0.06102659 0.00068551354 0.00019560059 0.013089592 0.008490373
0.0006709256 0.018436512 0.00036435778 0.0001498915 0.0045234053 0.00021362284 0.00016101559 0.014472261
1.4555684e-05 1.0594007e-05 0.0013687144 0.00037187192 2.793315e-05 0.00070238544 0.00021009534 0.00015165571
0.027006822 0.0001051566 0.00011479629 0.012547622 0.010573651 0.0011845398 0.09152645 0.003101154
0.0002888884 0.014476835 5.4846337e-06 1.4625983e-05 0.0016039691 0.00032902494 8.707248e-05 0.0068626753
8.7050255e-05 0.00015572825 0.025378505 0.0003711554 7.0288474e-06 0.0003264696 0.006596731 0.00038059265
0.026478544 7.301902e-05 1.2670491e-05 0.0009614399 0.00047969946 0.00010583785 0.007418054 0.0035404593
0.000274081 0.008260931 0.00025205337 2.0284964e-05 0.0013061342 0.00024194474 0.00022326974 0.026574994
4.9586928e-05 8.314736e-06 0.00026147687 0.00013103633 4.6501504e-05 0.0014329896 0.00011512344 2.020374e-05
0.00094328786 0.00013681347 2.47629e-05 0.0011234247 6.6988556e-05 1.3800729e-05 0.002747495 0.00022711293
1.1383979e-05 0.00024442605 0.000261723 1.1204673e-05 0.0003357309 0.00069003506 0.0006654774 0.039910085
0.00033533547 1.40986485e-05 0.0015517605 0.0012697469 5.345873e-05 0.0017305572 0.00038953687 0.00032502218
0.025764192 0.0011822892 0.00067220896 0.10180269 6.3886137e-06 3.6991985e-06 0.00016142789 0.0026087207
0.0002518884 0.011335704 0.0031590012 0.00067079236 0.044078957 2.338614e-06 8.668665e-07 6.983276e-05
0.00022984708 0.0002458905 0.02113734 0.0015024566 0.00020507614 0.010184293 0.0043414067 0.0010275834
0.06856959 3.580982e-05 0.000376904 0.015236713 2.9668205e-05 7.040103e-05 0.0042368784 0.0058437577
0.00066528755 0.04562869 0.0014235614 9.135888e-05 0.011821537 0.00066708983 0.0004978963 0.03250516
0.0008681167 0.0009192367 0.048799567 2.9122786e-05 3.5732988e-05 0.0011510238 0.000916154 3.455487e-05
0.0032625375 1.4879808e-05 5.6142376e-06 0.00045837206 7.7036944e-05 5.4573437e-05 0.0037229543 0.0023110271
0.0014638957 0.108136326 0.00070563424 1.402048e-05 0.00057329854 6.506551e-05 2.7007774e-05 0.0074656894
0.007350909 0.0010187963 0.062359136 5.1026524e-05 2.8772098e-05 0.0035051957 3.1058655e-05 1.19695505e-05
0.0027992965 0.00064703275 9.7627035e-06 0.00022835941 0.00074287754 0.00019148571 0.013095096 0.0010355723
0.001069297 0.096128784 5.353465e-06 3.608198e-06 0.00036312584 0.0032780566 0.0005203388 0.02818468
00000000: 7994 073a 553a f337 1899 133b 7ae8 0a3c
00000010: 4243 443a aca7 2d3d 5470 3437 1188 6d36
00000020: b877 b039 7c45 363c 2daa a73a 05f7 793d
00000030: 09b4 333a 221a 4d39 ba75 563c 351b 0b3c
00000040: 0ee1 2f3a 2b08 973c 4607 bf39 312c 1d39
00000050: 1339 943b f2ff 5f39 4bd6 2839 101d 6d3c
00000060: 3034 7437 eabc 3137 6f66 b33a cef7 c239
00000070: fc51 ea37 4a20 383a 0a4d 5c39 c505 1f39
00000080: 693d dd3c 8587 dc38 cabe f038 8b94 4d3c
00000090: 1b3d 2d3c 8f42 9b3a 3872 bb3d bb3c 4b3b
000000a0: f275 9739 3f30 6d3c a508 b836 1e62 7537
000000b0: 463c d23a fb80 ac39 af9a b638 4be0 e03b
000000c0: c08e b638 fc4a 2339 95e6 cf3c a297 c239
000000d0: 57d9 eb36 022a ab39 6429 d83b 488a c739
000000e0: 88e9 d83c ca21 9938 5893 5437 2409 7c3a
000000f0: 2c80 fb39 43f5 dd38 2613 f33b 0d07 683b
00000100: 87b2 8f39 db58 073c 0826 8439 a129 aa37
00000110: 9732 ab3a 8cb2 7d39 841d 6a39 cdb3 d93c
00000120: 8ffb 4f38 857f 0b37 d516 8939 cc66 0939
00000130: 9c0a 4338 27d3 bb3a 6d6e f138 347b a937
00000140: fa46 773a 9675 0f39 ecb9 cf37 e13f 933a
00000150: 357c 8c38 ae89 6737 510f 343b 2a25 6e39
00000160: d1fd 3e37 4f26 8039 de37 8939 b4fb 3b37
00000170: 0a05 b039 78e3 343a 6f73 2e3a c278 233d
00000180: f7cf af39 3c89 6c37 7164 cb3a a36d a63a
00000190: e038 6038 ddd3 e23a c13a cc39 bd67 aa39
000001a0: 6d0f d33c 0bf7 9a3a 2e37 303a ee7d d03d
000001b0: c65d d636 bf3f 7836 f844 2939 12f7 2a3b
000001c0: e40f 8439 63b9 393c 3f07 4f3b 1dd8 2f3a
000001d0: 238c 343d 15f1 1c36 9db2 6835 2d73 9238
000001e0: 1b03 7139 ddea 8039 3728 ad3c 14ee c43a
000001f0: b509 5739 05dc 263c 5c42 8e3b faaf 863a
00000200: 376e 8c3d 8032 1638 339b c539 68a3 793c
00000210: fcdf f837 44a4 9338 83d5 8a3b fe7c bf3b
00000220: b166 2e3a 26e5 3a3d cb96 ba3a ed97 bf38
00000230: 1faf 413c a4df 2e3a 4185 023a 2124 053d
00000240: 5392 633a eef8 703a 0ee2 473d b54c f437
00000250: 01e0 1538 f3dd 963a 0e2a 703a 02ef 1038
00000260: 4cd0 553b 4aa4 7937 ef61 bc36 a851 f039
00000270: e58e a138 c8e5 6438 cffc 733b 9a74 173b
00000280: 30e0 bf3a 9476 dd3d 50fa 383a 8139 6b37
00000290: 6a49 163a c873 8838 c18e e237 bea2 f43b
000002a0: e5df f03b 2289 853a 4b6c 7f3d 5005 5638
000002b0: 9c5b f137 6db7 653b fa44 0238 d4d0 4837
000002c0: 6774 373b a29d 293a 7eca 2337 c373 6f39
000002d0: abbd 423a 8ec9 4839 d08c 563c 0abc 873a
000002e0: a727 8c3a 2bdf c43d eaa1 b336 5f24 7236
000002f0: ed61 be39 aad4 563b 5967 083a 8fe3 e63c

exp_avg f4 [64]
0.00012478852 -0.002918108 0.00015704398 -0.0059212637 0.005481687 0.0041938033 0.00047983596 -0.0021696761
-9.295154e-05 -0.00078843476 -0.006848753 0.004039133 0.0059772558 0.0043411213 0.0001761978 -0.0013542634
-0.0038176184 0.0010332379 0.00080347544 0.0004873426 -0.0033997605 0.007899322 -1.862449e-05 0.002485246
-0.00035640533 -0.00065341656 0.0023239988 0.0010699775 -0.0006973542 0.00030312038 0.0018013932 0.0032766047
0.00040937806 0.0012193279 0.0029500339 0.011138143 -0.0010698822 -0.0036932041 0.003914133 -0.00096380024
0.0079995105 0.002134287 -0.0039680772 9.2392176e-05 0.0016550637 0.005736366 -0.00211219 -0.0029014118
-0.0075339996 0.00022132689 0.00022900754 0.0012296066 0.0007818341 0.007430133 0.0025023415 -0.0061209253
-0.005215968 -0.00035553597 -0.0020323892 -9.012658e-05 -3.1784373e-06 -0.0066529964 -0.004053273 0.005629031
00000000: aad9 0239 ba3d 3fbb 2cac 2439 2907 c2bb
00000010: b99f b33b 2c6c 893b 7e92 fb39 2031 0ebb
00000020: faee c2b8 f6ae 4eba 816b e0bb b45a 843b
00000030: dbdc c33b f73f 8e3b bdc1 3839 8a81 b1ba
00000040: 0231 7abb b66d 873a 53a0 523a 0482 ff39
00000050: 84ce 5ebb 286c 013c ca3b 9cb7 82df 223b
00000060: eadb bab9 0b4a 2bba 3b4e 183b 7d3e 8c3a
00000070: a6ce 36ba 21ec 9e39 ba1c ec3a 4ebc 563b
00000080: cba1 d639 dbd1 9f3a 5b55 413b c27c 363c
00000090: 4a3b 8cba af09 72bb 2142 803b 8aa7 7cba
000000a0: 6110 033c 65df 0b3b a506 82bb acc2 c138
000000b0: b9ee d83a 20f8 bb3b ab6c 0abb 9d25 3ebb
000000c0: c5df f6bb fc13 6839 be21 7039 c02a a13a
000000d0: 00f4 4c3a 7978 f33b 53fe 233b 0b92 c8bb
000000e0: b6ea aabb 3b67 bab9 d531 05bb 5702 bdb8
000000f0: 234d 55b6 6101 dabb 51d1 84bb bc73 b83b

exp_avg_sq f4 [64]
0.00053904107 0.009884027 2.5479147e-05 0.015956027 0.0014962199 0.009193641 0.0005930803 0.0009467965
6.744725e-05 0.00042591672 0.0011838549 0.00059303205 0.014630579 0.0041295425 5.020615e-05 0.0008904514
0.0008910965 0.00038419373 0.0077445954 0.00011963761 0.0006434483 0.0036784387 0.00030584063 0.0014343275
6.19777e-05 0.0001949813 0.0001530427 0.00023002733 0.00020316332 0.00024108743 0.00026939722 0.0027492838
0.00039207097 0.0013081685 0.0017089559 0.005021982 1.1977784e-05 0.0030526812 0.0052452795 3.1317097e-06
0.0012670781 0.0022609076 0.0070467847 0.0005134391 0.00019493178 0.007844558 0.0019497132 0.002450326
0.0038754896 9.068032e-05 0.00096644106 2.5793397e-05 0.0002783479 0.0072582704 0.000720657 0.00033358004
0.011643535 0.0001961577 0.00014501403 0.00063783734 0.0014301005 0.0055153808 1.1794447e-05 0.0052700234
00000000: 6f4e 0d3a 9df0 213c 0dbc d537 37b6 823c
00000010: cf1c c43a eda0 163c f278 1b3a 7032 783a
00000020: 7772 8d38 934d df39 942b 9b3a b575 1b3a
00000030: 19b5 6f3c 1d51 873b 7194 5238 2f6d 693a
00000040: 7998 693a 9c6d c939 60c6 fd3b f4e5 fa38
00000050: 16ad 283a f611 713b 3c59 a039 0b00 bc3a
00000060: 06fa 8138 e573 4c39 167a 2039 7e33 7139
00000070: 3d08 5539 6acc 7c39 e23d 8d39 542d 343b
00000080: e08e cd39 da76 ab3a 0bff df3a 708f a43b
00000090: 31f4 4837 7e0f 483b 98e0 ab3b 5d2a 5236
000000a0: 1614 a63a bc2b 143b b7e8 e63b 5198 063a
000000b0: 9a66 4c39 7686 003c 858d ff3a a695 203b
000000c0: edfb 7d3b a02b be38 c358 7d3a e65e d837
000000d0: 39ef 9139 c9d6 ed3b 79ea 3c3a 5be4 ae39
000000e0: 87c4 3e3c afaf 4d39 e80e 1839 8a34 273a
000000f0: 3672 bb3a 5eba b43b c4e0 4537 29b0 ac3b

exp_avg f4 [64]
-2.902811e-05 0.003845468 -1.5236479e-05 0.011273177 -0.0035829335 0.005951489 -0.0046004737 -0.003772882
0.0007753521 -0.003901253 -0.01686959 0.0024077517 0.0046838447 0.004666758 -0.0028485304 0.002511503
-0.002930313 0.0016632137 -0.005613568 -0.0019454007 -0.0058849654 0.0065546245 0.002223626 -0.000342108
-0.00054088805 0.0018072288 9.817589e-05 -0.00080343406 -0.0010522427 -0.0033075288 0.006430949 0.00464637
0.0017751605 0.000999141 0.0022300773 0.0033519848 -0.0024213686 -0.003339907 0.0037240628 -7.859853e-06
0.010152602 0.009403089 -0.0009121625 0.0020208936 -0.00046422268 0.0076909703 -0.006630863 -0.0155169675
-0.004715132 0.00067106413 -0.0009809454 0.0011247889 0.003941162 0.0010920101 0.0017088273 -0.019192303
0.0016169267 -0.005061672 -0.0007807006 -0.0006225975 -0.0025773344 -0.009217145 -0.0014445576 0.022365596
00000000: 6481 f3b7 3f04 7c3b 2ea0 7fb7 22b3 383c
00000010: a6cf 6abb b504 c33b 92bf 96bb 7542 77bb
00000020: 0041 4b3a 2aac 7fbb 1832 8abc 5fcb 1d3b
00000030: f07a 993b 9aeb 983b 69ae 3abb 0798 243b
00000040: 7f0a 40bb 3100 da3a 05f2 b7bb d1fc feba
00000050: abd6 c0bb 2dc8 d63b 41ba 113b f55c b3b9
00000060: 62ca 0dba 89e0 ec3a c8e3 cd38 8c9d 52ba
00000070: 68eb 89ba 20c3 58bb b6ba d23b 9440 983b
00000080: 81ac e83a 9cf5 823a 7d26 123b f9ac 5b3b
00000090: d3af 1ebb 57e2 5abb 680f 743b d0dd 03b7
000000a0: 1957 263c 6a0f 1a3c 301e 6fba f870 043b
000000b0: ea62 f3b9 8904 fc3b b647 d9bb e13a 7ebc
000000c0: 6581 9abb 5aea 2f3a 1193 80ba a76d 933a
000000d0: dd24 813b c721 8f3a bbfa df3a 2d39 9dbc
000000e0: 0fef d33a 62dc a5bb eea7 4cba d035 23ba
000000f0: 7fe8 28bb 8203 17bc 4f57 bdba 0e38 b73c

exp_avg_sq f4 [64]
0.0004321475 0.00012632045 3.1348845e-05 0.00020231557 1.6067783e-05 0.00027047974 0.00055260793 0.00033477868
0.00018485179 0.0013401688 0.00082845445 0.00011238776 0.0017902334 0.0008377094 0.00054553663 0.0002056996
0.00017912679 0.00014296596 0.0015554096 5.8138434e-05 0.00034234385 0.00046369043 0.00013188567 0.00023366281
0.00013283287 0.00024888435 0.0006420197 0.00011042567 0.0004473845 7.839023e-05 0.00048077 0.0019860642
0.00010820618 0.00083169935 0.0011091137 0.00043811664 2.6836133e-05 0.0014672577 0.001314403 1.961711e-05
0.0030435633 0.003487835 0.00022265925 0.0014808958 0.00012517425 0.003188697 0.002211609 0.0053427196
0.000303275 5.4864748e-05 0.00046334596 0.00022675515 0.0005199405 0.00010492476 0.0001306751 0.0019157191
0.00038071666 0.00059922895 0.0001354627 0.00019128324 0.0011887145 0.0007661844 5.7072633e-05 0.0065955105
00000000: db91 e239 e374 0439 917c 0338 ac24 5439
00000010: 4dc9 8637 2dcf 8d39 e4dc 103a 3c85 af39
00000020: c6d4 4139 9aa8 af3a a32c 593a b8b1 eb38
00000030: 44a6 ea3a ba99 5b3a 5802 0f3a 11b1 5739
00000040: fbd3 3b39 22e9 1539 e3de cb3a abd9 7338
00000050: 9d7c b339 7a1b f339 ca4a 0a39 6203 7539
00000060: 0d49 0b39 b17c 8239 364d 283a 5594 e738
00000070: ee8e ea39 6f65 a438 db0f fc39 a128 023b
00000080: c0ec e238 6606 5a3a ae5f 913a 05b3 e539
00000090: 281e e137 0051 c03a 0c48 ac3a 6c8f a437
000000a0: 8576 473b 2994 643b a379 6939 9e1a c23a
000000b0: 3541 0339 75f9 503b a4f0 103b fb11 af3b
000000c0: e200 9f39 931e 6638 3eed f239 1fc5 6d39
000000d0: 9e4c 083a 0d0b dc38 d405 0939 de18 fb3a
000000e0: ed9a c739 9315 1d3a fe0a 0e39 3493 4839
000000f0: a4ce 9b3a c4d9 483a 4661 6f38 271f d83b

exp_avg f4 [64]
-0.0020385424 -0.0008482955 -0.0012367569 -0.014570476 0.007192119 -0.006765944 0.005712198 -0.0014950742
0.0005067989 0.0012380616 -0.0087979585 0.005161921 -0.00030837496 0.007836843 0.0036979776 -0.0033270842
-0.0053012487 -0.0019574207 0.0028740722 0.0026494768 0.003529593 -0.0017026165 -0.0018915341 -3.730101e-05
0.00024379208 -0.0037804295 0.002465833 0.0023791436 -0.002956768 0.0044933045 -0.0035898325 0.0026387991
-0.0004677262 0.00031120965 0.0037908829 0.018964142 -0.0021242518 0.002192828 -6.0043112e-05 -0.00034851657
0.008388762 0.0005985271 -0.0029080827 -0.0018232906 0.0033381856 -0.0017154025 0.004676275 -0.0043036994
-0.012835603 0.0015210147 0.004152907 0.0019827771 0.0006368748 0.0041865217 0.0028281335 -0.0058119195
-0.010772988 -0.0034905558 -0.0039736633 -0.00019944181 0.0021986014 -0.0030432409 -0.0026454013 0.008520361
00000000: 1199 05bb 2660 5eba ad1a a2ba 01b9 6ebc
00000010: deab eb3b dab4 ddbb 642d bb3b 5ef6 c3ba
00000020: b3da 043a 7446 a23a 5025 10bc 5525 a93b
00000030: 63ad a1b9 1a66 003c c559 723b 360b 5abb
00000040: 19b6 adbb 1248 00bb ee5a 3c3b d8a2 2d3b
00000050: bf50 673b 542a dfba 5aed f7ba a873 1cb8
00000060: 70a2 7f39 15c1 77bb d099 213b 68eb 1b3b
00000070: 56c6 41bb 923c 933b 6543 6bbb b4ef 2c3b
00000080: 2639 f5b9 da29 a339 7670 783b b05a 9b3c
00000090: 0837 0bbb 8db5 0f3b cdd6 7bb8 1ab9 b6b9
000000a0: 0571 093c 79e6 1c3a 8895 3ebb 7bfb eeba
000000b0: 76c5 5a3b 5bd7 e0ba 703b 993b 0c06 8dbb
000000c0: 6c4c 52bc c95c c73a 1c15 883b 7bf1 013b
000000d0: f2f3 263a 172f 893b 3558 393b ea71 bebb
000000e0: 3081 30bc cfc1 64bb 8135 82bb 4121 51b9
000000f0: 6916 103b 1c71 47bb 785e 2dbb fc98 0b3c

exp_avg_sq f4 [64]
0.0007755901 0.0016098863 4.9944883e-05 0.0033271387 0.0005904296 0.0010516774 0.0010276812 0.00059537677
0.00022412595 0.0016362783 0.0014417008 0.0005911196 0.003309628 0.00078062876 0.0011257691 0.00084154785
0.0015495431 0.0002944211 0.0014164118 6.400511e-05 0.00047293495 0.00059267826 0.00010753174 0.0010311969
0.000104196595 0.0003733298 0.0004715468 0.000298277 0.00034887475 0.00014860713 0.0006322182 0.0016721593
8.1595696e-05 0.0001055226 0.0014581821 0.0044652293 2.5864098e-05 0.00057100656 0.0015892037 3.3892808e-05
0.0007196514 0.0011347443 0.0024352889 0.002383102 0.00044445664 0.0020181062 0.0010852765 0.0014585557
0.0030187066 0.00017348908 0.00046967863 0.00045985976 0.00039466197 0.003910744 0.00011911945 0.00043690426
0.0027319468 0.0012096614 0.00013932891 0.0003393953 0.00050274894 0.003487455 8.93951e-05 0.0015355193
00000000: f850 4b3a d202 d33a e97b 5138 200c 5a3b
00000010: 0fc7 1a3a 70d8 893a 42b3 863a 0f13 1c3a
00000020: 5a03 6b39 6478 d63a 74f7 bc3a 5df5 1a3a
00000030: 58e6 583b 1ca3 4c3a 8b8e 933a 529b 5c3a
00000040: 0a1a cb3a 885c 9a39 e5a6 b93a 7b3a 8638
00000050: 41f4 f739 f75d 1b3a aa82 e138 3a29 873a
00000060: 1f84 da38 7abb c339 f139 f739 1062 9c39
00000070: 2de9 b639 6cd3 1b39 72bb 253a 5b2c db3a
00000080: 5b1e ab38 044c dd38 7920 bf3a 0f51 923b
00000090: baf6 d837 9aaf 153a d44c d03a 2028 0e38
000000a0: fda6 3c3a b3bb 943a 5e99 1f3b d12d 1c3b
000000b0: f605 e939 3442 043b d63f 8e3a 022d bf3a
000000c0: 7ed5 453b 9fea 3539 333f f639 5519 f139
000000d0: a2ea ce39 b325 803b c5cf f938 4c10 e539
000000e0: 760a 333b 808d 9e3a d218 1239 def0 b139
000000f0: e9ca 033a c98d 643b a179 bb38 7a43 c93a

exp_avg f4 [64, 64]
-0.005784223 -0.0062790615 -0.007834579 0.0036712985 0.0041080182 0.0025476401 0.00092341774 0.0036987227
0.0025336475 -0.0034601642 -0.011917919 -0.0033048433 0.0019977482 0.0014655557 0.0014134451 0.0025152885
0.003037487 0.0013822134 0.0006873423 0.0011496369 0.0064272 0.003980843 0.0012555968 0.0010345213
0.00475878 0.00220507 0.0025295073 0.0034532698 0.0041659735 0.0008754846 0.003827751 0.0025228634
0.0021814094 0.004215367 0.002513099 -6.137742e-05 -0.009920385 0.0032676756 0.0015271682 -0.0011621579
0.0062228907 0.00011452998 -0.0012976226 2.9181227e-05 -0.0021942882 0.0020037915 0.0023294888 -0.007113147
-0.0042199777 0.0031165169 0.0011943897 -0.0031180566 -0.0020727525 0.0020216452 0.0024616728 -0.013477631
0.00233683 -0.015991483 0.0033669765 -0.0016578849 0.002077368 0.0036726564 -0.0064468575 -0.0058739735
-0.0081470525 -0.0074712527 -0.009391259 0.005674028 0.0039357855 0.0035334753 0.0027751185 0.0028867896
0.0028632923 -0.00485914 -0.010833887 -0.0013083419 0.0027117643 -0.0017085641 0.0028885924 0.0027658266
0.0030297474 0.0031376479 0.0014031635 0.0028858848 0.0067308205 0.004019691 0.002500046 0.0028231519
0.0046398845 0.002769609 0.0016758653 0.0024116102 0.0029912477 0.002683574 0.0025936232 0.0026953411
0.0026807752 0.0030158013 0.0029262619 -0.0023034678 -0.011157624 0.0048433905 0.002623285 0.0022132064
0.0021424955 -0.0034805113 -0.0022196898 0.0005073606 -0.0003720669 0.002551128 0.0027163646 -0.005429138
-0.0015920321 0.0027813998 0.0025451104 -0.0038486784 -0.0030322927 0.0028901575 0.0018263848 -0.014518207
0.0031972497 -0.01775324 0.0028477847 -0.0028238005 0.0026487408 0.0030063908 -0.004549971 -0.01045529
-0.019714903 -0.008850496 -0.016761895 0.007599372 0.0027691857 0.010013723 0.0042492216 0.011730003
0.010300666 -0.014286245 -0.01507037 -0.0031519139 0.0079793725 -0.007977567 0.0069814287 0.0088815885
0.0116224345 0.004532705 0.005184215 0.00440321 0.0045793103 0.009066425 0.0060715955 0.0046480997
-0.005035367 0.009095607 -0.010435359 -0.0024400146 0.013476897 0.003974005 0.012036096 0.009533213
0.0077083022 0.011802689 0.009109608 -0.0032448205 -0.018524842 0.0037672946 0.006825885 0.0026722592
-0.007649873 -0.015702643 -0.0006402581 0.0019363279 -0.0009829771 0.008229142 0.008418287 -0.016744494
-0.003062265 0.011208229 0.005949987 -0.009444712 -0.007888617 0.008065581 -0.0042019356 -0.026882652
0.00048666037 -0.02633225 0.011345608 -0.008994005 0.008048307 0.011887052 -0.005728479 -0.025408586
0.0037295928 0.0025523584 0.00298985 -0.0017363334 -0.0010043497 -0.0011853151 -0.0008837647 -0.0015590301
-0.0017053052 0.0023003586 0.003362818 -0.00023287204 -0.000872433 0.0017342168 -0.0011528165 -0.0011471836
-0.0015898966 -0.0009077615 -0.0009735079 -0.0010058203 -0.0010517067 -0.0010132878 -0.0013710543 -0.0008556309
-0.0008675788 -0.0014829804 0.000623448 0.0001907942 -0.0016111472 -0.00095086533 -0.0014168669 -0.0013244506
-0.0014077962 -0.0010572303 -0.0016894211 0.0007380051 0.0037323304 -0.0009931104 -0.00096708717 -0.0012108351
0.00028874158 0.0021298877 0.0007923313 -0.0002532573 -0.0002744443 -0.0009844574 -0.0016130302 0.0018686845
0.00032236092 -0.0012680403 -0.001335289 0.001311888 0.00081417104 -0.000990309 -0.00021804728 0.0048243655
-0.0006183384 0.005654649 -0.0015410805 0.0014318373 -0.0016885499 -0.0015706037 0.0013345222 0.004901841
00000000: 9489 bdbb 96c0 cdbb 9b5c 00bc 2b9a 703b
00000010: 8e9c 863b 4ff6 263b 8411 723a 4566 723b
00000020: 8d0b 263b ecc3 62bb 6043 43bc 1296 58bb
00000030: a7ec 023b e417 c03a 5943 b93a 8ad7 243b
00000040: 9310 473b 632b b53a c32e 343a 6aaf 963a
00000050: 439b d23b bb71 823b d692 a43a c698 873a
00000060: 8aef 9b3b f082 103b 17c6 253b 4150 623b
00000070: b882 883b c780 653a 01db 7a3b a056 253b
00000080: faf5 0e3b 1021 8a3b ceb2 243b c0b7 80b8
00000090: 1c89 22bc 8026 563b 432b c83a 8c53 98ba
000000a0: 64e9 cb3b d12f f038 fd14 aaba 35ca f437
000000b0: 0cce 0fbb 0b52 033b 56aa 183b 6715 e9bb
000000c0: bd47 8abb 7a3e 4c3b 118d 9c3a 4f58 4cbb
000000d0: 04d7 07bb 947d 043b 0454 213b 48d1 5cbc
000000e0: 8025 193b 9200 83bc 7ea8 5c3b 634d d9ba
000000f0: 7424 083b f3b0 703b 2940 d3bb 767a c0bb
00000100: 377b 05bc 69d1 f4bb ccdd 19bc 32ed b93b
00000110: c3f7 803b e191 673b c3de 353b 4b30 3d3b
00000120: 13a6 3b3b 6c39 9fbb 9e80 31bc ab7c abba
00000130: dbb7 313b e6f1 dfba 8a4e 3d3b df42 353b
00000140: ba8e 463b ffa0 4d3b 5bea b73a 1d21 3d3b
00000150: 378e dc3b 9db7 833b d0d7 233b a104 393b
00000160: 2c0a 983b 5482 353b b5a8 db3a 1b0c 1e3b
00000170: cf08 443b e7de 2f3b c7f9 293b 52a4 303b
00000180: f2af 2f3b c0a4 453b 87c6 3f3b c7f5 16bb
00000190: 78ce 36bc 4eb5 9e3b 6beb 2b3b 710b 113b
000001a0: 1c69 0c3b 4a19 64bb 3778 11bb 6500 053a
000001b0: f911 c3b9 d330 273b 0905 323b e9e6 b1bb
000001c0: bcab d0ba 2548 363b decb 263b 1c3a 7cbb
000001d0: 6eb9 46bb cc68 3d3b 4e63 ef3a c6dd 6dbc
000001e0: f388 513b 3e6f 91bc e6a1 3a3b 830f 39bb
000001f0: 7f96 2d3b de06 453b ec17 95bb aa4c 2bbc
00000200: 2681 a1bc ac01 11bc 3e50 89bc 2704 f93b
00000210: 3a7b 353b 9910 243c 0e3d 8b3b 332f 403c
00000220: 20c4 283c db10 6abc b7e9 76bc 5790 4ebb
00000230: eabb 023c 57b4 02bc 78c4 e43b 1584 113c
00000240: 066c 3e3c 1687 943b 59e0 a93b cd48 903b
00000250: 0a0e 963b 588b 143c 3cf4 c63b 164f 983b
00000260: b8ff a4bb be05 153c 11f9 2abc a7e8 1fbb
00000270: 34ce 5c3c 5f38 823b 0c33 453c 3231 1c3c
00000280: ed95 fc3b 1160 413c 7740 153c 0ea7 54bb
00000290: 69c1 97bc b7e4 763b acab df3b 1221 2f3b
000002a0: c9ab fabb d4a2 80bc fed6 27ba 62cc fd3a
000002b0: 3dd7 80ba 86d3 063c dbec 093c c02b 89bc
000002c0: 48b0 48bb b8a2 373c 1cf8 c23b febd 1abc
000002d0: 423f 01bc 8025 043c 64b0 89bb 0239 dcbc
000002e0: 7326 ff39 bbb6 d7bc eee2 393c 975b 13bc
000002f0: 0cdd 033c e9c1 423c f7b5 bbbb ab25 d0bc
00000300: 2f6c 743b 7845 273b 5cf1 433b ae95 e3ba
00000310: 62a4 83ba 935c 9bba 72ac 67ba 5f58 ccba
00000320: 8c84 dfba 9dc1 163b b962 5c3b 1d2f 74b9
00000330: fdb3 64ba a94e e33a 1a1a 97ba 185d 96ba
00000340: 1464 d0ba d8f6 6dba 0233 7fba bbd5 83ba
00000350: 6cd9 89ba 4cd0 84ba f3b4 b3ba 6b4c 60ba
00000360: 3a6e 63ba 9160 c2ba e36e 233a ee0f 4839
00000370: 212d d3ba 7e43 79ba 2ab6 b9ba 3099 adba
00000380: cd85 b8ba c392 8aba 916f ddba af76 413a
00000390: 1d9a 743b 412b 82ba 1f84 7dba e2b4 9eba
000003a0: 3d62 9739 9695 0b3b 74b4 4f3a 9fc7 84b9
000003b0: 4ae3 8fb9 e908 81ba 506c d3ba a6ee f43a
000003c0: 8d02 a939 5f34 a6ba dd04 afba a8f3 ab3a
000003d0: 186e 553a 42cd 81ba 9fa3 64b9 b615 9e3b
000003e0: fd17 22ba a24a b93b 15fe c9ba 7dac bb3a
000003f0: 5552 ddba b7dc cdba 22eb ae3a 9f9f a03b
