weights/2024-06-27_15-02-59/actor.pt (torch, 22551 bytes, 9 tensors)

mu_network.0.weight f4 [64, 3]
0	0xbcbf8415	-0.023378411
1	0x3e7b6d74	0.24553472
2	0xbc80fb7a	-0.015744913
3	0x3ecbc3f9	0.39797953
4	0x3e56626a	0.2093598
5	0x3e068ba0	0.131392
6	0xbed26cf8	-0.41098762
7	0x3ebc65fb	0.36796555
8	0xbec460e9	-0.38355187
9	0xbeed6fd9	-0.46374395
10	0x3e0f146a	0.13972631
11	0xbefc92ca	-0.4933074
12	0xbf17b8b3	-0.59266204
13	0xbebcfac7	-0.36910078
14	0x3f0e6d4e	0.55635536
15	0xbe76c79e	-0.24099585
16	0xbf0ad23f	-0.5422706
17	0x3e8aeda8	0.27134442
18	0xbef56dd0	-0.47935343
19	0x3e891575	0.26774183
20	0xbe12f1a0	-0.14349985
21	0x3ec40a61	0.38289168
22	0x3f218053	0.6308643
23	0x3efd98c5	0.49530616
24	0x3ede160b	0.43376192
25	0x3f1d0145	0.6133006
26	0xbe5f15e9	-0.21785702
27	0x3f0dc0d8	0.5537238
28	0xbcb36d50	-0.02190271
29	0x3e9c9b54	0.30587256
30	0x3d80669b	0.062695704
31	0x3ef5c9e2	0.48005587
32	0x3e405138	0.18780982
33	0x3ca5c2cb	0.020234486
34	0xbef37168	-0.4754746
35	0xbe996264	-0.2995788
36	0x3e97095b	0.29499325
37	0xbf0d0a32	-0.5509368
38	0xbe8c8871	-0.27447847
39	0xbea442b9	-0.32082155
40	0xbf041eb3	-0.51609343
41	0x3ebc4454	0.3677088
42	0x3eddf933	0.43354186
43	0xbf1df644	-0.61703897
44	0xbef0d89f	-0.4704027
45	0x3c53c48c	0.012925278
46	0xbed288ee	-0.41120094
47	0xbe9aa4ca	-0.3020385
48	0xbe911ab3	-0.28340682
49	0x3eae1147	0.33997557
50	0x3e26e3f8	0.162979
51	0xbef30eb9	-0.4747217
52	0x3eb43097	0.3519332
53	0x3e8217fe	0.2540893
54	0xbe56244e	-0.20912287
55	0xbf11e0e2	-0.5698377
56	0x3d815ce6	0.06316547
57	0xbd0dabbc	-0.034587607
58	0x3f0b525f	0.54422563
59	0xbe8f2f34	-0.279657
60	0xbec27861	-0.37982467
61	0x3edaa434	0.42703402
62	0xbe2a8911	-0.16653849
63	0x3edf5a6d	0.43623677
64	0xbe4dfbd1	-0.20115592
65	0x3edaf0f7	0.42761967
66	0xbef14af8	-0.4712751
67	0x3d89e1ee	0.06732546
68	0x3e1dacdb	0.1539797
69	0xbed1fc27	-0.4101269
70	0x3d67ab81	0.056560043
71	0x3ef32fe5	0.47497478
72	0x3eade387	0.33962652
73	0xbec8d825	-0.39227405
74	0xbe5b9415	-0.21443208
75	0x3db3b203	0.087741874
76	0xbe8eab62	-0.2786513
77	0xbed8fdb7	-0.4238107
78	0x3f095e28	0.53659296
79	0xbe8a8623	-0.27055463
80	0x3e770f31	0.24126889
81	0xbe8938c7	-0.2680113
82	0x3d70a5a4	0.058751717
83	0x3edfac73	0.43686256
84	0xbea530b1	-0.3226371
85	0xbe1ea72d	-0.1549346
86	0x3d9dd180	0.077059746
87	0x3f21d7a5	0.6321967
88	0x3e19caf4	0.15018827
89	0x3e212a07	0.15738688
90	0xbe58b628	-0.21163237
91	0xbcee4e5c	-0.029090099
92	0x3d24a43b	0.040195685
93	0x3ed275ab	0.411054
94	0xbe6f0b4a	-0.2334415
95	0x3eff3a42	0.49849135
96	0xbe3d672d	-0.1849639
97	0xbee769cc	-0.45197904
98	0xbf04d65c	-0.51889586
99	0xbf08bf6a	-0.53417075
100	0x3de0f27e	0.10983752
101	0xbe04054d	-0.12892647
102	0x3edbdf8b	0.42943987
103	0x3ea7e7c9	0.32794026
104	0x3da46688	0.08027369
105	0x3eb3f999	0.35151365
106	0x3c976993	0.018482959
107	0x3e6ca103	0.23108296
108	0xbea6c4a5	-0.32571903
109	0x3ea7f495	0.3280379
110	0x3e1807df	0.14846753
111	0x3e1ddaaf	0.15415452
112	0xbf2202d1	-0.6328555
113	0xbe706638	-0.23476493
114	0xbec21080	-0.37903214
115	0xbe5eacee	-0.21745655
116	0xbcd49954	-0.025952019
117	0x3db6f9c2	0.08934356
118	0xbf0b09c8	-0.543118
119	0x3ed9424c	0.42433393
120	0xbceb14da	-0.028696466
121	0xbec932fc	-0.3929671
122	0x3e541653	0.20711641
123	0x3f030c9a	0.51191103
124	0x3eb24840	0.34820747
125	0xbdb19ddd	-0.08672688
126	0x3ed53b21	0.41646674
127	0xbed5e665	-0.4177734
128	0x3d2f007a	0.042725064
129	0xbdd41407	-0.103553824
130	0xbe205a4c	-0.15659446
131	0x3f01e899	0.5074554
132	0xbe0fbb9b	-0.1403641
133	0xbc22cbb7	-0.009936265
134	0xbcec89fe	-0.028874394
135	0x3f1a67c1	0.60314566
136	0xbea275b6	-0.3173043
137	0xbede5ac7	-0.43428633
138	0xbee7e7cc	-0.45294034
139	0x3eaf1f87	0.3420374
140	0xbed0f53e	-0.40812105
141	0xbe87b75b	-0.26507077
142	0x3ea848d4	0.32868063
143	0x3ee3a2e1	0.44460204
144	0xbe78682d	-0.2425849
145	0xbe97644c	-0.29568708
146	0xbef4a470	-0.47781706
147	0xbf134f14	-0.5754254
148	0x3e846bf0	0.258636
149	0xbe077dbf	-0.13231562
150	0xbea982fd	-0.3310775
151	0x3f1db1d5	0.61599475
152	0x3ef47577	0.4774587
153	0x3db04eec	0.08608803
154	0x3c4a1251	0.0123334685
155	0x3e993afe	0.2992782
156	0xbe8f4556	-0.27982587
157	0x3e67d1d6	0.2263864
158	0x3e912f8c	0.28356588
159	0xbea85212	-0.32875115
160	0x3f16f300	0.5896454
161	0xbe7ac523	-0.24489264
162	0xbf07ef6b	-0.530997
163	0xbe45ca22	-0.19315389
164	0x3d8aead4	0.06783071
165	0x3e2b2848	0.16714585
166	0x3e697c9e	0.22801444
167	0xbdaffe9b	-0.08593484
168	0x3f042727	0.5162224
169	0x3effaf75	0.4993855
170	0x3e86fcfa	0.2636488
171	0x3e67cc14	0.22636443
172	0x3eb8948c	0.36050832
173	0xbd48c35e	-0.04901444
174	0x3ef97c94	0.48727858
175	0xbe02a1f2	-0.1275709
176	0x3d855894	0.065110356
177	0xbe1d1770	-0.15340972
178	0x3efa4301	0.48879245
179	0x3cecd55e	0.028910335
180	0x3e86006c	0.26172197
181	0x3dda27b8	0.10652107
182	0xbe8aa2fb	-0.2707747
183	0x3dd14e9d	0.102200724
184	0xbe93c400	-0.28860474
185	0xbea75dee	-0.3268885
186	0x3d8f32d9	0.0699212
187	0x3da7337e	0.08164118
188	0xbe4fe7e5	-0.20303304
189	0xbf1c27a5	-0.6099799
190	0x3eb8bd7f	0.36082074
191	0x3e0a3878	0.13498104

mu_network.0.bias f4 [64]
0	0x3e7d635a	0.24744931
1	0xbe9fb022	-0.31189066
2	0x3e86e8d5	0.26349512
3	0x3ea96654	0.33085883
4	0xbeca8197	-0.39551994
5	0x3ebe2e14	0.3714453
6	0x3e7eeb95	0.24894555
7	0xbea324d3	-0.31864032
8	0x3ea8381c	0.32855308
9	0xbef12448	-0.47097993
10	0xbeb50d4f	-0.35361716
11	0xbe17d5c1	-0.14827634
12	0xbdbfe4ec	-0.09369835
13	0xbf05fbea	-0.52337515
14	0xbd8426ad	-0.06452689
15	0x3ecb349a	0.3968857
16	0x3e9061a6	0.281995
17	0xbd6dd782	-0.058066852
18	0x3ef6767a	0.48137265
19	0xbef1409c	-0.47119606
20	0x3e97a0be	0.29614824
21	0xbe97dc01	-0.29660037
22	0xbe9e4860	-0.30914593
23	0x3dba2671	0.09089363
24	0x3da90ed1	0.08254779
25	0x3eb5bc0d	0.35495034
26	0xbe8c04d1	-0.27347425
27	0xbf15ded0	-0.5854311
28	0x3dd73c48	0.105095446
29	0x3e44646c	0.19178933
30	0xbc13642c	-0.008996051
31	0x3daacbe2	0.08339669
32	0x3eff5698	0.49870753
33	0x3f045260	0.51688194
34	0xbefc76ea	-0.49309474
35	0x3d0f9425	0.03505339
36	0xbcb42595	-0.021990577
37	0xbe5c78fc	-0.21530527
38	0xbe765929	-0.2405745
39	0x3eefb531	0.46817926
40	0xbd7e82e8	-0.06213656
41	0xbe57c522	-0.21071294
42	0x3eb17728	0.34661222
43	0xbe09a01c	-0.13439983
44	0x3e643c12	0.2228854
45	0xbeacfd63	-0.3378707
46	0x3f0b4684	0.54404473
47	0x3ecfd330	0.4059081
48	0x3e9fcdc9	0.3121169
49	0x3e7c620f	0.24646781
50	0x3e82c3b3	0.25539932
51	0xbe894f66	-0.2681839
52	0xbd54cb26	-0.05195155
53	0xbd5354fe	-0.051594727
54	0x3ea2a595	0.31766954
55	0xbdb9a8ee	-0.09065424
56	0xbe28e8cd	-0.16495056
57	0x3e21c67a	0.15798369
58	0x3ec9fb0b	0.39449343
59	0x3e42599c	0.18979496
60	0x3d52513a	0.051346995
61	0xbe86881e	-0.26275724
62	0x3e899744	0.2687322
63	0x3e80f205	0.25184646

mu_network.2.weight f4 [64]
0	0x3f7f376c	0.9969394
1	0x3f843ba4	1.0330701
2	0x3f824f3b	1.0180429
3	0x3f801ce7	1.000882
4	0x3f81bc40	1.0135574
5	0x3f836edb	1.0268205
6	0x3f875d66	1.0575378
7	0x3f85ee10	1.0463276
8	0x3f80f028	1.007329
9	0x3f87caa2	1.0608714
10	0x3f82fd96	1.0233638
11	0x3f77cdb2	0.9679824
12	0x3f8476c6	1.0348747
13	0x3f83a502	1.0284731
14	0x3f801b86	1.00084
15	0x3f8029cb	1.0012754
16	0x3f805521	1.0025979
17	0x3f7d8d72	0.99043953
18	0x3f80ef59	1.0073043
19	0x3f79e0ce	0.9760865
20	0x3f808d04	1.0043035
21	0x3f828ccb	1.0199217
22	0x3f7cf88e	0.98816764
23	0x3f79ba67	0.9755005
24	0x3f7c393c	0.9852483
25	0x3f6bc834	0.9210236
26	0x3f80d50b	1.0065016
27	0x3f7aa22a	0.9790369
28	0x3f86267f	1.0480498
29	0x3f84cdad	1.0375267
30	0x3f73d53b	0.9524724
31	0x3f737568	0.9510102
32	0x3f7aa7d9	0.97912365
33	0x3f7d6f53	0.9899799
34	0x3f865b46	1.0496604
35	0x3f813f24	1.0097394
36	0x3f802516	1.0011318
37	0x3f8497fa	1.035888
38	0x3f7a8e90	0.97873783
39	0x3f762855	0.9615529
40	0x3f82ae8f	1.0209521
41	0x3f802ded	1.0014015
42	0x3f7c9b33	0.98674315
43	0x3f72d7cc	0.9486053
44	0x3f7b2c78	0.9811473
45	0x3f85b199	1.0444824
46	0x3f82b42d	1.0211235
47	0x3f7d4974	0.98940206
48	0x3f7ffad5	0.99992114
49	0x3f827a4c	1.0193572
50	0x3f7c4b7e	0.9855269
51	0x3f81665e	1.0109365
52	0x3f7d03e0	0.9883404
53	0x3f85bb44	1.0447774
54	0x3f89d96f	1.076948
55	0x3f8012fa	1.0005791
56	0x3f84eb89	1.038438
57	0x3f82f225	1.0230147
58	0x3f7d854d	0.99031526
59	0x3f89937d	1.0748135
60	0x3f7113b5	0.94170696
61	0x3f7dde46	0.9916729
62	0x3f7bf37f	0.9841842
63	0x3f838143	1.0273823

mu_network.2.bias f4 [64]
0	0x3c1d4513	0.009598988
1	0x3bf231d3	0.0073911934
2	0x3cd0633d	0.025437946
3	0xbcbe1f38	-0.023208246
4	0xbba67c84	-0.0050807614
5	0xbbf8d538	-0.007593777
6	0xbc5d9b6b	-0.013525824
7	0x3bae387f	0.0053167935
8	0xbbea72a3	-0.007154779
9	0xbc58ed00	-0.013240099
10	0xbb890296	-0.0041812165
11	0x3d068f87	0.032851722
12	0x3cdc5cb0	0.026899666
13	0xbd577362	-0.052600272
14	0x3ae1159b	0.0017172577
15	0xbaf2009f	-0.001846332
16	0xbc88d0a5	-0.016701052
17	0x3bb72489	0.005589072
18	0xbd2ccd1b	-0.04218779
19	0x3d0af2f3	0.0339231
20	0xbb7d4743	-0.0038647212
21	0xbc26818f	-0.010162725
22	0xbcdd3c88	-0.027006403
23	0xba6a7d8e	-0.00089451007
24	0xbcfe566c	-0.031047069
25	0x3cfbb744	0.030727036
26	0x3a92590e	0.0011165456
27	0xbbfb52ca	-0.0076697813
28	0x3c98cd69	0.018652635
29	0x3c1ac8e7	0.009447313
30	0x3d48e7d9	0.049049232
31	0xbcf5b02a	-0.029991228
32	0x3c70e755	0.014703591
33	0x3cbc92fb	0.023019304
34	0xbc556ea7	-0.01302687
35	0xbcde0a94	-0.027104653
36	0xbcab2910	-0.020893604
37	0x3cb54187	0.022125972
38	0x3cafa230	0.021439642
39	0xbccbdcbf	-0.024885533
40	0xbc9b09b9	-0.018925535
41	0x3d01aa17	0.03165635
42	0xbcd29392	-0.025705133
43	0x3b1b07d7	0.0023655796
44	0xbaa4db23	-0.0012577515
45	0x3b35af2e	0.0027722823
46	0x3d7aafb9	0.06120274
47	0xba9e5c29	-0.0012081909
48	0x3c408f8d	0.011752975
49	0x3c185667	0.009297944
50	0xbcadda89	-0.02122237
51	0xbcb79deb	-0.022414168
52	0xbcb88ef2	-0.0225291
53	0xbabce3a9	-0.001441111
54	0x3d07a789	0.03311876
55	0x3c3a6f5f	0.011379092
56	0xbaa929bb	-0.0012906113
57	0x3c121d7e	0.008918164
58	0x3c8674d4	0.01641313
59	0xbbf81751	-0.007571139
60	0x3da7ea54	0.081989914
61	0x3d10a446	0.035312913
62	0x3d3847f0	0.04499048
63	0xbb90d5dd	-0.0044200257

mu_network.3.weight f4 [64, 64]
0	0xbe00802e	-0.12548897
1	0x3c2b4a19	0.010454678
2	0xbc7cb652	-0.015424328
3	0x3d4cf00a	0.050033607
4	0x3da4e306	0.08051114
5	0xbc94d2e8	-0.018166974
6	0xbc318ab7	-0.010836295
7	0xbd70060a	-0.05859951
8	0xbb7145db	-0.0036815319
9	0x3caca9b8	0.021077022
10	0x3d2c84b8	0.042118758
11	0x3cdfea10	0.02733329
12	0xbdbcc17f	-0.09216594
13	0x3df1ba8e	0.118031606
14	0xbca834fe	-0.020533081
15	0xbd3fcf03	-0.04682828
16	0x3c903f9c	0.017608456
17	0x3d61552c	0.055012867
18	0x3e0cefe3	0.13763385
19	0xbe088f57	-0.1333593
20	0xba1c57da	-0.00059640186
21	0xbdb6a7a5	-0.089186944
22	0x3e10b9e3	0.1413341
23	0x3b544f09	0.0032395741
24	0x3e01f8df	0.12692593
25	0xbd3c9b08	-0.046046287
26	0xbd80fa3e	-0.0629773
27	0xbdb2492e	-0.08705364
28	0x3dfefd4e	0.12450658
29	0xbe01eb8b	-0.12687509
30	0x3e0c2f37	0.13689886
31	0x3b36848c	0.002785
32	0xbd803cd7	-0.06261604
33	0xbd0339de	-0.03203761
34	0xbc4702ef	-0.0121466955
35	0x3dc3022e	0.095219
36	0xbc7a74a2	-0.0152865965
37	0x3ce8a06b	0.028396806
38	0xbd816773	-0.063185595
39	0xbde0f4d0	-0.10984194
40	0x3da3bebf	0.07995366
41	0xbdaa7d91	-0.08324731
42	0x3b472a7e	0.0030390318
43	0x3c9841e6	0.01858611
44	0xbde4bdb4	-0.111689955
45	0xbda47fb2	-0.080321684
46	0xbe05696a	-0.13028494
47	0x3de9e1bd	0.11420009
48	0x3da5f009	0.08102424
49	0x3d17b9fb	0.0370426
50	0x3db5c874	0.08876124
51	0xbd07829b	-0.03308354
52	0x3de37efc	0.11108205
53	0x3c91657a	0.017748583
54	0x3d189ea2	0.03726066
55	0xbd8a2f22	-0.06747271
56	0x3d0cc069	0.034363184
57	0xbd9bcf88	-0.07607943
58	0xbdee7423	-0.11643245
59	0x3d4a08a0	0.04932463
60	0xbcc79dfd	-0.024367327
61	0x3d1f6775	0.038917024
62	0xbda98757	-0.08277767
63	0x3d438d4d	0.047742177
64	0xbd8287b9	-0.06373543
65	0xbd3cd0e1	-0.04609764
66	0xbc129aad	-0.00894801
67	0x3d9d84d0	0.076913476
68	0x3cc2241a	0.023698855
69	0x3d84a423	0.06476619
70	0x3df6536c	0.1202763
71	0x3df5c43f	0.120003216
72	0x3e048090	0.12939668
73	0x3dd0d8f1	0.10197628
74	0x3d8ea19f	0.069644205
75	0xbd0bb47c	-0.03410767
76	0xbd8d165b	-0.068890296
77	0x3de6dd7e	0.11272715
78	0x3d3c1ef4	0.045927957
79	0x3d7beaa4	0.061503068
80	0xbdba8740	-0.09107828
81	0xbd3ff723	-0.046866547
82	0x3cfc0226	0.030762743
83	0xba6e2d77	-0.0009085754
84	0x3d93cb11	0.07216466
85	0x3cfd2c13	0.030904805
86	0x3c7939ca	0.015211532
87	0xbcc382ac	-0.02386602
88	0x3da72a22	0.08162333
89	0xbcc6f81b	-0.024288228
90	0xbd4ff8c1	-0.05077434
91	0x3df12fd4	0.117767006
92	0x3d66ec63	0.05637778
93	0xbdabd8fb	-0.08390995
94	0x3b02d612	0.0019964022
95	0x3ded2ff0	0.11581409
96	0x3d7ac5f0	0.061223924
97	0x3d1866a4	0.03720726
98	0x3e02a6e8	0.12758982
99	0x3d8752ac	0.06607565
100	0xbdf96164	-0.12176779
101	0x3cabcada	0.02097075
102	0xbb9fc560	-0.004875824
103	0xbd819282	-0.06326772
104	0x3cfbc0c6	0.03073157
105	0x3d441696	0.047873102
106	0x3de6ea19	0.11275119
107	0x3d7b40cb	0.06134109
108	0x3d158ffc	0.036514267
109	0xbd558b72	-0.05213494
110	0x3dd8045b	0.10547706
111	0x3dcd08dd	0.10011456
112	0xbcbd7e7e	-0.023131605
113	0xbd84df03	-0.064878486
114	0xbc56d7c3	-0.013112965
115	0x3d724066	0.059143446
116	0x3d863517	0.06553095
117	0xbdce177a	-0.100630715
118	0xbd0d3bc7	-0.034480836
119	0x3b81aa4e	0.0039570695
120	0x3dabef34	0.08395234
121	0xbdbfe4da	-0.09369822
122	0xbca6a318	-0.020341441
123	0x3de285ed	0.110607006
124	0xbd9ab149	-0.07553346
125	0x3dcbc44a	0.099495485
126	0xbdb2a322	-0.08722521
127	0xbde97dee	-0.11400972
128	0xbe1f4b73	-0.15556125
129	0x3cea5052	0.028602753
130	0xbd13945a	-0.03603015
131	0x3d927c41	0.07152606
132	0x3dd0830f	0.101812474
133	0xbd8a2367	-0.06745034
134	0x3c5fcee0	0.013660163
135	0xbdd7ec44	-0.10543111
136	0xbdbedeb5	-0.09319822
137	0xbe043930	-0.1291244
138	0x3cfcc4df	0.030855594
139	0x3de0bcb2	0.10973491
140	0x3e105c2a	0.14097658
141	0x3da34bc6	0.07973437
142	0xbcd60bbd	-0.026128644
143	0x3c384e4e	0.011249138
144	0xbdd2755d	-0.102762915
145	0xbd561f77	-0.0522761
146	0xbda222a5	-0.07916764
147	0x3d46f8d7	0.048577156
148	0x3da115d2	0.0786549
149	0xbd37c7a0	-0.04486811
150	0x3d7381f4	0.059450105
151	0xbcda5ac8	-0.026654616
152	0xbd84bf3c	-0.064817876
153	0xbcbd67bf	-0.023120759
154	0xbc85d66f	-0.016337601
155	0xbdf00703	-0.117200874
156	0xbda0d03d	-0.07852218
157	0xbe15d357	-0.14631401
158	0x3bf24a05	0.0073940777
159	0x3dd2ac6b	0.10286792
160	0x3dba520c	0.090976804
161	0x3dbd3772	0.09239091
162	0x3d055034	0.03254719
163	0x3c705d78	0.014670722
164	0xbd6c3bac	-0.057674095
165	0x3e06a261	0.1314788
166	0xbc3fc978	-0.011705749
167	0x3dbdaa22	0.09260966
168	0xbc35ee1d	-0.011104134
169	0xbdb9d778	-0.090743005
170	0x3e0271ce	0.12738726
171	0xbbc79f19	-0.006091964
172	0x3daa4a18	0.083149135
173	0x3e0eb095	0.13934548
174	0x3dea7e14	0.11449829
175	0x3d019a17	0.031641092
176	0x3ddd44c0	0.10804129
177	0xbda3bfe7	-0.07995587
178	0xbe0140d3	-0.12622385
179	0xbdbbf009	-0.091766424
180	0xbd8be44f	-0.06830656
181	0x3c865479	0.016397702
182	0x3d61133d	0.054949988
183	0xbd87e699	-0.0663578
184	0xbdaf6b38	-0.08565372
185	0x3c07363d	0.0082526775
186	0x3da94bd0	0.08266413
187	0xbca98add	-0.020696098
188	0xbcf733d9	-0.03017609
189	0x3d28ef99	0.041244123
190	0xbb8b7d3e	-0.0042568734
191	0xbdf3f1da	-0.11911364
192	0x3d79aeda	0.060957767
193	0xbdf68dbb	-0.12038752
194	0xbc870432	-0.016481493
195	0x3d64d54c	0.05586748
196	0x3ca221b3	0.01979146
197	0x3d8b5e4e	0.068050966
198	0xbc064aa7	-0.008196509
199	0xbc4d4135	-0.012527754
200	0xbe015971	-0.12631775
201	0xba34db00	-0.00068990886
202	0xbdef0b77	-0.116721086
203	0xbd8978c9	-0.06712491
204	0x3daa706a	0.083222225
205	0xbda4544d	-0.080238916
206	0xbd171c05	-0.036891956
207	0xbc6681fa	-0.014069075
208	0xbdb3cdf4	-0.08779517
209	0x3ccdcfd0	0.025123507
210	0x3d247337	0.04014894
211	0xbcce9286	-0.025216352
212	0x3caf4fdf	0.02140039
213	0xbd177a18	-0.036981672
214	0xbdb3592e	-0.08757244
215	0x3d8a4013	0.067505024
216	0x3dd89973	0.10576143
217	0xbc377469	-0.011197188
218	0xbd966a3d	-0.07344482
219	0x3d477979	0.04869983
220	0xbd8dac6a	-0.06917651
221	0xbd97ce36	-0.074123785
222	0xbd148c99	-0.036266897
223	0xbc6efe90	-0.01458706
224	0x3e024b7e	0.1272411
225	0x3dac1dfe	0.08404158
226	0xbcc420dd	-0.023941452
227	0xbde3975d	-0.11112855
228	0x3dc88290	0.09790528
229	0xbb44e732	-0.003004503
230	0x3d9e6c3a	0.07735486
231	0x3d9e496f	0.0772885
232	0x3d1e821b	0.038698297
233	0x3d817580	0.063212395
234	0xbd439110	-0.047745764
235	0xbb3be79c	-0.0028671985
236	0x3d5ed3de	0.05440127
237	0x3da0b0fd	0.07846258
238	0x3c1828ed	0.009287101
239	0x3d8a0ad3	0.06740346
240	0xbda07dfe	-0.07836531
241	0xbcbcde4c	-0.023055218
242	0xbdec876f	-0.115492694
243	0x3d199e04	0.03750421
244	0xbd1e5d90	-0.038663447
245	0xbdad750e	-0.08469592
246	0x3dabb760	0.083845854
247	0xbd8b350d	-0.06797228
248	0x3c9858cc	0.01859703
249	0x3db8c50d	0.090219595
250	0x3a9a6de2	0.0011782015
251	0xbd7deefb	-0.061995488
252	0x3d8c9ecf	0.06866228
253	0xbaba73e8	-0.0014225217
254	0x3cdfbd06	0.027311813
255	0xbc017872	-0.007902252

mu_network.3.bias f4 [64]
0	0x3db92ce1	0.09041763
1	0xbde5c5c5	-0.11219362
2	0x3dd1d9e0	0.102466345
3	0x3dfdef4c	0.12399158
4	0x3d8ec23f	0.06970643
5	0xbdbb46b2	-0.091443434
6	0xbd69b4fb	-0.057057362
7	0x3def94a1	0.116982706
8	0x3d928fdb	0.071563445
9	0xbd537ccf	-0.0516327
10	0xbcd47c19	-0.02593808
11	0xbc52641b	-0.01284125
12	0x3d7fb5a6	0.062429093
13	0x3d0ca2ce	0.03433495
14	0xbd7584f2	-0.05994124
15	0x3d86225b	0.065495215
16	0x3daf72c5	0.085668124
17	0xbdaa64f3	-0.08320036
18	0xbd0d9dcf	-0.034574326
19	0xbc35b191	-0.011089698
20	0x3ce93b50	0.028470665
21	0x3d4e7a68	0.050409704
22	0x3d4f12ae	0.050554924
23	0x3d7dfe10	0.06200987
24	0xbda08d32	-0.07839431
25	0x3c2fcd27	0.0107300645
26	0xbccf9aa2	-0.02534229
27	0x3dca84aa	0.09888585
28	0x3c764a28	0.015032329
29	0x3cbdb48d	0.023157382
30	0x3df92e60	0.121670485
31	0x3d7ea122	0.062165387
32	0x3da69f34	0.08135834
33	0xbe080907	-0.13284694
34	0x3db6f1ed	0.089328624
35	0x3d9ac5df	0.07557272
36	0xbd384502	-0.044987686
37	0x3d5dbab2	0.054133125
38	0x3d337a6a	0.043817915
39	0xbde9e504	-0.114206344
40	0x3d80799c	0.06273195
41	0xbc778613	-0.015107649
42	0x3df2d389	0.118567534
43	0xbcda8e4d	-0.026679182
44	0xbd634080	-0.055481434
45	0x3daff8da	0.085923865
46	0xbb806474	-0.003918225
47	0x3d7e9b06	0.06215956
48	0xbe0121c3	-0.12610535
49	0x3ddf51ec	0.10904297
50	0xbdee855e	-0.116465315
51	0xbca1149c	-0.019663148
52	0xbd3e6991	-0.046487395
53	0xbd9d7e20	-0.07690072
54	0x3bfbdf97	0.007686566
55	0xbcbb1dcd	-0.022841359
56	0xbdcbc8e0	-0.09950423
57	0xbd0c40bd	-0.034241427
58	0xbd7594d2	-0.05995638
59	0xbd9b21eb	-0.07574829
60	0x3d2c14da	0.042012073
61	0x3d13224a	0.035921372
62	0x3ce16009	0.027511613
63	0xbdce487a	-0.100724176

mu_network.5.weight f4 [64]
0	0x3f817572	1.0113966
1	0x3f74038f	0.9531793
2	0x3f7fac94	0.9987271
3	0x3f816573	1.0109085
4	0x3f796fe9	0.97436386
5	0x3f81c58c	1.0138412
6	0x3f7f411a	0.9970871
7	0x3f806b23	1.0032696
8	0x3f81ba13	1.013491
9	0x3f81d890	1.0144215
10	0x3f8040ed	1.0019814
11	0x3f7c1696	0.98471963
12	0x3f752819	0.9576431
13	0x3f81a95a	1.0129807
14	0x3f822e7a	1.0170434
15	0x3f79361a	0.9734818
16	0x3f73af21	0.951891
17	0x3f7f7207	0.99783367
18	0x3f7cb907	0.9871983
19	0x3f829474	1.0201554
20	0x3f70dcdd	0.9408701
21	0x3f7e6e21	0.99386793
22	0x3f7866ee	0.9703206
23	0x3f822128	1.0166368
24	0x3f7a9414	0.978822
25	0x3f80c477	1.0059956
26	0x3f80b946	1.0056541
27	0x3f88bbb0	1.0682278
28	0x3f7b79c8	0.982327
29	0x3f79faac	0.9764812
30	0x3f7a8ecd	0.97874147
31	0x3f844432	1.0333312
32	0x3f82a5a3	1.0206798
33	0x3f81b2f0	1.0132732
34	0x3f763fa7	0.96190876
35	0x3f81d858	1.0144148
36	0x3f7b1571	0.9807959
37	0x3f82ba09	1.0213023
38	0x3f80deb5	1.0067965
39	0x3f7e51d6	0.9934362
40	0x3f7cb2b4	0.9871018
41	0x3f815abb	1.0105814
42	0x3f83b24a	1.0288785
43	0x3f76a2ec	0.9634235
44	0x3f818ab1	1.012045
45	0x3f7a0b0a	0.97673094
46	0x3f888bf2	1.0667708
47	0x3f809f4e	1.0048616
48	0x3f82048e	1.015764
49	0x3f83b58d	1.028978
50	0x3f7e9cca	0.9945799
51	0x3f808b8c	1.0042586
52	0x3f79c485	0.9756549
53	0x3f7e6bc5	0.99383193
54	0x3f8303eb	1.0235571
55	0x3f80e816	1.0070827
56	0x3f802de1	1.0014001
57	0x3f823406	1.0172126
58	0x3f78c23c	0.9717138
59	0x3f793798	0.97350454
60	0x3f829116	1.0200527
61	0x3f8158c7	1.0105218
62	0x3f81608b	1.0107588
63	0x3f7d0b49	0.98845345

mu_network.5.bias f4 [64]
0	0xbbe0a221	-0.006855265
1	0x3b7aa7b2	0.0038246927
2	0xbbc87c73	-0.006118351
3	0xbbd5bad9	-0.006522518
4	0x3bc18ffa	0.005907056
5	0x3bd8e404	0.0066189785
6	0x3bc43e52	0.0059888745
7	0x3cd10957	0.025517149
8	0x3bd7a6ae	0.006581149
9	0x3bdba4e5	0.0067030066
10	0x3beb61ef	0.0071833055
11	0x3bb2e915	0.0054599144
12	0x3b6ad3ea	0.0035831877
13	0xbbed9d0e	-0.0072513884
14	0xbbe6eaa9	-0.0070470166
15	0x3b1aee25	0.002364048
16	0x3b5e4bce	0.0033919695
17	0xbbf5b2e9	-0.0074981344
18	0xbaba0658	-0.0014192564
19	0x3bf73c05	0.0075449967
20	0x3ad52844	0.001626261
21	0xbbf7a82f	-0.007557891
22	0x3ba6f2d0	0.0050948635
23	0xbc34692b	-0.011011402
24	0x3bd9c55e	0.0066458425
25	0x3bf24559	0.007393521
26	0xbbee5c57	-0.0072741914
27	0x3c191879	0.009344214
28	0xbb2bb054	-0.002619763
29	0x3b5e783d	0.003394618
30	0x39e71d47	0.00044081567
31	0x3d036a97	0.032084074
32	0xbbf3edd0	-0.007444121
33	0x3bd6cacd	0.0065549375
34	0x3ba86387	0.0051388177
35	0x3bdc4e6a	0.006723215
36	0xbba1bee8	-0.004936088
37	0x3be3ea6e	0.0069554364
38	0xbbc6e895	-0.0060702064
39	0xbc0427de	-0.008066146
40	0xbb8c7b22	-0.0042871395
41	0xbbb0f91e	-0.005400791
42	0xbc03a2f3	-0.008034456
43	0xbb7de139	-0.003873898
44	0xbc0d2018	-0.008613609
45	0x3a0551cf	0.0005085738
46	0xbc0d5851	-0.008627013
47	0xbbea5d2d	-0.0071522207
48	0x3bf2aeb7	0.0074060815
49	0x3be8c7a9	0.0071038795
50	0x3befc06f	0.007316641
51	0xbbeeb721	-0.0072850143
52	0x3d344836	0.04401418
53	0x3bc6ec9c	0.0060706865
54	0xbbd1a2a4	-0.006397562
55	0x3bb1ada7	0.0054223123
56	0x3bc6c944	0.006066473
57	0xbbf56054	-0.00748829
58	0xbb89a0e1	-0.0042000865
59	0xbb22145d	-0.0024731376
60	0xbbef4a0d	-0.0073025287
61	0xbbe68a30	-0.007035516
62	0xbbef5575	-0.0073038884
63	0xbc281378	-0.010258548

mu_network.6.weight f4 [1, 64]
0	0x3dd0bcc7	0.101922564
1	0xbd774f02	-0.060378082
2	0x3d1f8bcc	0.03895168
3	0x3de1f33f	0.11032724
4	0xbdae8dbf	-0.0852313
5	0xbd3b8c9c	-0.045788392
6	0xbdb005cd	-0.085948564
7	0xbcf08653	-0.029360926
8	0xbdeb4b3a	-0.11488958
9	0xbdb5c290	-0.088750005
10	0xbdab2705	-0.08357052
11	0xbcc76208	-0.024338737
12	0xbd9070b3	-0.07052746
13	0x3dda969d	0.106732585
14	0x3dfc8e5f	0.12331843
15	0xbcd57f33	-0.02606163
16	0xbd0976c9	-0.033560548
17	0x3d6407cc	0.0556715
18	0x3d10a977	0.035317864
19	0xbe08ff93	-0.13378744
20	0xbcb50f3d	-0.022101993
21	0x3dd0a8b7	0.1018843
22	0xbd748165	-0.059693713
23	0x3d010c09	0.03150562
24	0xbdae0ab3	-0.084981345
25	0xbde99045	-0.1140447
26	0x3dabd196	0.08389585
27	0xbe04b246	-0.12958631
28	0x3ce1facf	0.027585415
29	0xbd406786	-0.046973728
30	0x3bb4e16b	0.005520036
31	0xbd41f774	-0.04735513
32	0x3de1f22d	0.110325195
33	0xbda99996	-0.08281247
34	0xbdaa8ac3	-0.08327248
35	0xbd3171bb	-0.043321352
36	0x3dbd49c2	0.09242584
37	0xbddeb682	-0.10874654
38	0x3db23a5b	0.08702537
39	0x3cd0a267	0.025468064
40	0x3d2fec45	0.042949934
41	0x3df84545	0.12122587
42	0x3defdeef	0.11712443
43	0x3d8417cd	0.06449852
44	0x3d148f7c	0.03626965
45	0x3b44f19a	0.0030051232
46	0x3e266de1	0.16252853
47	0x3d7015d9	0.058614586
48	0xbdee9bf2	-0.11650838
49	0xbe07470f	-0.132107
50	0xbd657500	-0.056019783
51	0x3d9d68e1	0.0768602
52	0xbc9fe44c	-0.01951804
53	0xbdbb2c6e	-0.09139334
54	0x3dca19ff	0.098682396
55	0xbccd48ad	-0.025059069
56	0xbd5cc78f	-0.05390125
57	0x3e0bd6b3	0.1365612
58	0x3dc231b9	0.0948214
59	0x3cf626eb	0.030047854
60	0x3d88cba8	0.06679469
61	0x3dfc7e09	0.12328727
62	0x3e014837	0.12625204
63	0x3c5b4210	0.01338245
