weights/2024-06-27_15-02-59/critic.pt (torch, 22250 bytes, 9 tensors)

critic.0.weight f4 [64, 3]
0.16348661 -0.39563492 0.39296615 0.16784322 0.072383426 -0.015307168 0.3856975 -0.3299069
0.42281082 -0.3858405 0.19385232 0.1099163 0.37507415 0.23656683 -0.33450007 0.1727044
-0.50021636 -0.02121356 0.13701037 0.32704607 0.3769737 0.030185586 -0.0051467996 -0.45024404
0.29890952 0.3483372 -0.4219882 -0.16041322 0.43042156 -0.28691465 0.4671276 -0.17011912
-0.3355747 -0.34377053 0.47276732 0.093680225 -0.066937275 -0.46367443 0.60433286 -0.30707818
-0.15405256 -0.15822794 0.006100521 0.15880847 -0.12005128 -0.45130768 0.4728969 -0.29011205
-0.25982577 -0.17008224 -0.14999165 0.09885806 -0.3562261 0.06473074 -0.0045712464 0.3172194
-0.061355386 -0.43713164 -0.5289616 0.4400912 -0.4213902 0.18866946 -0.4102357 -0.106059484
-0.287217 0.4800786 -0.11493972 -0.50853753 -0.04448899 0.1324813 -0.20968777 -0.06397755
-0.27426606 -0.11242816 -0.44106203 -0.030523254 0.14548135 0.4277592 0.16515495 0.36853257
0.32886422 0.13639124 -0.44010493 0.29679245 -0.20382479 -0.47935262 0.47631407 0.336089
-0.3322603 0.3004928 0.39046177 -0.04603223 -0.00040345214 -0.1932264 0.48116812 -0.078432314
0.1674307 -0.043329813 0.21398236 0.05963615 -0.35945785 0.05989476 0.22137688 0.33558387
0.2676435 0.21404076 0.1834062 -0.20233634 0.43100756 0.2499552 -0.020477355 -0.4038971
0.19123085 -0.49768475 0.44424373 -0.24015206 0.4512178 0.23263305 -0.22661746 -0.273518
0.45477685 -0.4954839 0.09375083 -0.28517398 0.18794978 -0.45689324 0.2953529 0.12688783
-0.4980593 0.45876378 -0.43041012 0.12560418 -0.39488113 0.054904733 -0.4818132 0.3200835
-0.40442038 -0.0070812483 -0.04048377 -0.23758353 -0.45194602 0.42351463 -0.26569504 0.05546098
-0.15047646 0.075880006 0.421737 0.4803202 -0.192121 -0.05125375 -0.12190985 0.19037695
-0.110642165 0.39226002 -0.23811857 0.5616498 0.4121152 0.15053053 -0.19813997 -0.24159142
0.047101367 -0.48955986 -0.5600969 -0.3869549 -0.567013 -0.15895694 0.029054444 0.16768911
0.069896325 0.2505236 -0.39121392 -0.082225226 0.047364708 0.40812945 -0.31730282 0.049264565
-0.4811145 -0.19493628 -0.16506527 -0.32990453 -0.35129443 0.23614798 0.30290025 0.38475552
-0.079051234 0.4444021 0.027641239 0.4766882 0.32686952 -0.28691444 -0.03348705 -0.57231814
00000000: 0969 273e a990 cabe dc32 c93e 18df 2b3e
00000010: c33d 943d eaca 7abc 257a c53e 8fe9 a8be
00000020: a97a d83e e38c c5be 3981 463e cc1b e13d
00000030: b809 c03e 933e 723e 9843 abbe 6cd9 303e
00000040: 2e0e 00bf 0fc8 adbc 724c 0c3e 9572 a73e
00000050: b202 c13e c347 f73c 7ca6 a8bb 6386 e6be
00000060: ab0a 993e 4159 b23e d60e d8be 5d43 24be
00000070: 3760 dc3e 7ae6 92be 592b ef3e b533 2ebe
00000080: 72d0 abbe b102 b0be 8f0e f23e 6bdb bf3d
00000090: 6916 89bd bc66 edbe 8fb5 1a3f 5a39 9dbe
000000a0: f4bf 1dbe 8106 22be e1e6 c73b b09e 223e
000000b0: 72dd f5bd cd11 e7be 8b1f f23e 9189 94be
000000c0: e207 85be 0a2a 2ebe 6997 19be 1876 ca3d
000000d0: 4463 b6be 8d91 843d 65ca 95bb 956a a23e
000000e0: c94f 7bbd b8cf dfbe 076a 07bf a253 e13e
000000f0: 75c0 d7be 9132 413e 6a0a d2be b735 d9bd
00000100: 1b0e 93be ddcc f53e 8465 ebbd 842f 02bf
00000110: 163a 36bd 2ea9 073e 64b8 56be a906 83bd
00000120: 9a6c 8cbe bc40 e6bd e2d2 e1be e70b fabc
00000130: 10f9 143e 4103 db3e 611e 293e 4db0 bc3e
00000140: e460 a83e 25aa 0b3e 6f55 e1be 2ef5 973e
00000150: 72b7 50be b56d f5be 70df f33e db13 ac3e
00000160: 061e aabe 31da 993e 9bea c73e 4b8c 3cbd
00000170: 6e86 d3b9 24dd 45be ab5b f63e 1fa1 a0bd
00000180: f472 2b3e 9a7a 31bd 311e 5b3e 0945 743d
00000190: dc0a b8be 3554 753d 9fb0 623e a6d1 ab3e
000001a0: 9208 893e 802d 5b3e d6ce 3b3e 4231 4fbe
000001b0: 06ad dc3e 42f4 7f3e 20c0 a7bc 9acb cebe
000001c0: 05d2 433e 89d0 febe ea73 e33e 6cea 75be
000001d0: 0506 e73e 5c37 6e3e 680e 68be 8d0a 8cbe
000001e0: 83d8 e83e 11b0 fdbe 6f00 c03d 5302 92be
000001f0: e875 403e e9ed e9be 7f38 973e e2ee 013e
00000200: a101 ffbe 16e3 ea3e b75e dcbe 629e 003e
00000210: dc2d cabe c9e3 603d 38b0 f6be fce1 a33e
00000220: 3010 cfbe d109 e8bb 4fd2 25bd 1949 73be
00000230: 7865 e7be e9d6 d83e 2e09 88be 0d2b 633d
00000240: 8016 1abe fa66 9b3d e9ed d73e 87ec f53e
00000250: 5ebb 44be 74ef 51bd dfab f9bd 2df2 423e
00000260: 5c98 e2bd 4ed6 c83e 5bd5 73be 48c8 0f3f
00000270: c300 d33e ad24 1a3e 34e5 4abe be63 77be
00000280: 5ded 403d 97a7 fabe 8362 0fbf f41e c6be
00000290: c427 11bf 9cc5 22be 9603 ee3c b2b6 2b3e
000002a0: ce25 8f3d a144 803e 314d c8be b365 a8bd
000002b0: 7f01 423d 58f6 d03e 8475 a2be a4c9 493d
000002c0: a454 f6be 609d 47be df06 29be 3fe9 a8be
000002d0: dddc b3be c7d0 713e be15 9b3e adfe c43e
000002e0: 9de5 a1bd ac88 e33e e16f e23c 7a10 f43e
000002f0: 715b a73e 73e6 92be b829 09bd 7183 12bf

critic.0.bias f4 [64]
-0.16461039 -0.2971114 0.10632372 0.46047306 -0.3908887 -0.26153842 0.33283168 0.057783026
0.33961552 -0.090187296 0.07678055 -0.22448958 0.4664394 -0.1304283 -0.5336601 0.3847786
0.29020345 -0.5371419 0.042765465 0.42900926 0.12157781 -0.31043628 0.010591086 0.00031252374
-0.08484522 -0.45688373 0.18029554 -0.41587383 0.0817846 -0.19638716 -0.47473297 -0.4401968
-0.6121831 -0.20301528 -0.08305561 0.041466247 -0.2869103 -0.21245459 0.0817249 0.36974642
0.59209406 0.36369237 0.0066372193 0.20881198 0.05696247 -0.37862128 -0.17065273 0.55138165
-0.21621893 -0.337145 -0.032679603 0.17739354 -0.17162775 0.06278112 -0.2376691 0.14841959
0.5059638 -0.47081855 0.34199634 0.37711582 -0.5573397 0.20267044 0.40017974 0.06545642
00000000: a08f 28be fc1e 98be 40c0 d93d 20c3 eb3e
00000010: 9022 c8be 5de8 85be ea68 aa3e e5ad 6c3d
00000020: 16e2 ad3e 1eb4 b8bd 1f3f 9d3d 99e0 65be
00000030: 25d1 ee3e ff8e 05be f39d 08bf b301 c53e
00000040: 8c95 943e 2282 09bf d72a 2f3d 1aa7 db3e
00000050: c9fd f83d 81f1 9ebe 3c86 2d3c 3ada a339
00000060: 55c3 adbd aaec e9be 659f 383e 6aed d4be
00000070: af7e a73d b719 49be 3310 f3be 7a61 e1be
00000080: 08b8 1cbf 3de3 4fbe 0f19 aabd 83d8 293d
00000090: e8e5 92be b28d 59be 625f a73d 674f bd3e
000000a0: 7a93 173f e335 ba3e 087d d93b cfd2 553e
000000b0: 7b51 693d a6da c1be 97bf 2ebe 5927 0d3f
000000c0: 7f68 5dbe 459e acbe 0cdb 05bd a7a6 353e
000000d0: 2fbf 2fbe 6393 803d 875f 73be 4efb 173e
000000e0: d886 013f 210f f1be 251a af3e 5315 c13e
000000f0: d1ad 0ebf d788 4f3e 5ce4 cc3e 040e 863d

critic.2.weight f4 [64]
0.9542279 0.9824106 0.970262 0.95751595 1.0255026 1.0820935 0.9972296 0.98909414
0.97492284 0.9440544 0.952895 0.92542225 1.0500833 1.0097625 1.0675141 0.98372656
1.0249236 1.051837 0.99813855 1.0305786 1.0216789 0.9258213 0.9637254 1.0579823
0.9707845 0.9585592 0.9799905 0.9834296 1.0159814 1.0200824 0.975697 1.0683582
1.0227035 1.0582068 0.9535469 0.9880498 1.0779674 0.9589592 0.93614614 1.0202934
0.99947196 1.0213624 0.949813 0.96316224 0.9703553 1.0503508 0.95167154 0.969838
0.9591017 1.049508 0.95342416 0.9598705 0.98311317 0.96209556 0.9480993 0.9860485
1.0390166 0.9946067 0.967336 1.0343794 0.93562806 0.9693692 1.0207981 0.97494394
00000000: 4848 743f 437f 7b3f 1763 783f c41f 753f
00000010: ab43 833f 0a82 8a3f 704a 7f3f 4635 7d3f
00000020: 8b94 793f 8dad 713f edf0 733f 79e8 6c3f
00000030: 2169 863f e63f 813f 4da4 883f 81d5 7b3f
00000040: b230 833f 98a2 863f 0286 7f3f 00ea 833f
00000050: 60c6 823f a002 6d3f b5b6 763f f76b 873f
00000060: 5585 783f 2364 753f a8e0 7a3f 0bc2 7b3f
00000070: ae0b 823f 0f92 823f 47c7 793f f6bf 883f
00000080: f3e7 823f 5273 873f a61b 743f d5f0 7c3f
00000090: d6fa 893f 5a7e 753f 46a7 6f3f f998 823f
000000a0: 65dd 7f3f 01bc 823f f226 733f cd91 763f
000000b0: 3469 783f e571 863f bfa0 733f 4e47 783f
000000c0: b087 753f 4756 863f 9b13 743f 13ba 753f
000000d0: 4ead 7b3f e54b 763f a3b6 723f ad6d 7c3f
000000e0: 7ffe 843f 8b9e 7e3f 55a3 773f 8b66 843f
000000f0: 5285 6f3f 9428 783f 83a9 823f ed95 793f

critic.2.bias f4 [64]
-0.023060787 0.02192703 -0.017795922 0.032816425 -0.06700834 -0.08569028 0.05747604 0.05729248
0.043001328 0.04132903 0.04477377 0.038857713 0.0586251 -0.0027171846 -0.063129686 0.04269218
0.05459498 -0.055153735 -0.01695065 0.058067165 0.048768044 0.034662545 0.008126684 -0.061425038
0.05157293 0.018600719 0.050084796 0.0032469772 0.06301775 -0.055574693 0.0150226215 -0.06743712
-0.047741737 -0.07009347 -0.050193887 -0.042968746 -0.08764714 -0.030070167 -0.01962973 0.06439394
0.050908685 0.058597747 0.033729754 -0.047844306 0.058091704 -0.056845102 -0.043299716 0.07700891
0.015543587 -0.064493835 0.018529309 0.04287239 -0.0047629774 -0.04260935 0.054911926 0.043644052
0.04282589 -0.070349514 -0.02180739 0.057507202 -0.030545484 0.067778185 0.05363412 0.041754678
00000000: fae9 bcbc 51a0 b33c c1c8 91bc 846a 063d
00000010: ab3b 89bd 637e afbd ff6b 6b3d 85ab 6a3d
00000020: 2922 303d a148 293d b364 373d 4429 1f3d
00000030: df20 703d cb12 32bb 234a 81bd ffdd 2e3d
00000040: fc9e 5f3d e2e8 61bd 17dc 8abc d6d7 6d3d
00000050: 00c1 473d 50fa 0d3d c925 053c d298 7bbd
00000060: 233e 533d 8960 983c b725 4d3d 3dcb 543b
00000070: 730f 813d 4aa2 63bd 7121 763c 791c 8abd
00000080: d78c 43bd 2a8d 8fbd 1b98 4dbd ffff 2fbd
00000090: 5880 b3bd b655 f6bc 87ce a0bc f8e0 833d
000000a0: a085 503d 3104 703d 3628 0a3d 64f8 43bd
000000b0: 91f1 6d3d 69d6 68bd 0b5b 31bd d9b6 9d3d
000000c0: 87aa 7e3c 5815 84bd c7ca 973c f69a 2f3d
000000d0: c012 9cbb 2487 2ebd 54eb 603d 1bc4 323d
000000e0: 336a 2f3d 6813 90bd 69a5 b2bc ac8c 6b3d
000000f0: 863a fabc 4acf 8a3d 73af 5b3d f406 2b3d

critic.3.weight f4 [64, 64]
-0.15094967 0.030485092 0.046924062 -0.04053693 0.060439646 -0.06787515 -0.078678936 0.008004613
-0.012372877 -0.061612092 -0.068189 0.11279663 -0.01189221 0.07545427 -0.033646636 0.06443275
-0.108043015 -0.042055666 0.06004456 0.03377139 -0.09251449 0.011167484 0.022050625 0.14252047
-0.009651145 -0.0030952215 -0.0667809 0.13257216 -0.019133104 0.037136603 0.15075772 0.02584221
0.10387405 0.17362273 0.007655149 0.0923135 -0.071661904 0.10439498 0.04438572 0.12085538
-0.057499412 -0.08499964 0.023260653 -0.0151680885 0.048828818 0.054007296 -0.05857314 -0.043617874
0.009751959 0.13474528 0.15905724 -0.16396055 0.10910814 0.05062773 -0.09440971 -0.12498378
-0.16202231 0.080560066 0.019810883 -0.058724593 -0.06073769 0.04586796 0.05609549 -0.021186223
-0.0401612 -0.00517304 0.15156113 0.00719192 -0.07800931 -0.09372206 0.048564106 0.045317758
0.104518406 0.03327002 0.07533762 0.07247121 0.06448907 -0.0049382825 0.011596563 0.078865804
-0.08011023 -0.03127257 0.04435369 0.098030224 0.09079448 0.02188106 0.04260652 -0.10843888
0.13525312 0.07920077 -0.09601167 -0.08722741 0.111419946 -0.03601178 0.019114023 0.006163088
0.074220575 0.06591052 0.047372486 -0.018679721 -0.14147608 -0.020017171 -0.05559062 -0.008028074
0.08195218 0.0967644 0.12535708 0.028146658 -0.050003096 -0.014873208 -0.07775691 0.09867201
0.07192839 0.002313803 0.042754143 0.08895246 0.061811466 0.0035297708 0.10219743 0.012184277
0.09045464 -0.08517665 0.103426196 0.08284951 0.03197904 0.14002109 0.04708402 -0.05330293
-0.0580593 -0.088923834 -0.019699631 0.08258497 0.04542296 -0.04551098 -0.02746134 -0.1342615
0.014996937 -0.06311075 -0.1207127 -0.086578906 -0.06911974 0.03258114 -0.115614206 0.0815305
-0.07212048 0.07187833 -0.1384682 -0.027194833 -0.1284244 0.029810388 0.017021723 0.060949452
0.024687286 0.053065855 0.110301785 0.09293452 0.016295556 -0.084690385 -0.0064256405 -0.087207094
-0.077634685 -0.06982825 0.046313595 -0.09574373 -0.11668144 0.016361332 0.14968732 -0.02319906
0.14568028 0.106797606 0.055254504 -0.050925322 -0.03269608 -0.09659536 0.117829956 0.03638816
0.051502485 0.013299167 0.027980048 -0.093801744 -0.12804893 0.099502735 -0.07196684 0.10673442
0.11462623 -0.0054456517 0.12229112 -0.016718179 0.023664424 0.053689834 0.06996804 0.09858925
0.08523891 0.008185628 0.023591055 -0.12720065 0.045620553 0.08357029 -0.022074342 -0.100540236
-0.028123857 -0.069784306 -0.097441934 0.09571307 -0.12026549 0.010574445 -0.028021585 0.04399931
0.06397134 0.046215203 -0.083313085 -0.015225651 0.08390851 -0.113086134 0.15281375 0.15140918
-0.067119114 -0.08041395 0.07146277 0.066856146 -0.064871185 0.045375947 0.013760168 0.03466197
-0.016930114 0.12578194 0.016461205 0.1233837 0.04962908 0.06275687 0.0007387877 -0.10939278
0.030709475 -0.0803945 0.090652056 -0.02197743 -0.053171247 0.07175339 -0.047301568 -0.13716349
0.074226394 0.013669454 0.125814 0.00563022 0.13497522 -0.025546048 0.097685166 0.09873589
0.04171058 0.07683567 0.046366792 -0.09390128 -0.020612758 0.066259846 0.030123824 -0.0084938025
00000000: 8d92 1abe dfbb f93c 7233 403d 0d0a 26bd
00000010: 908f 773d 2002 8bbd 6c22 a1bd c825 033c
00000020: 9cb7 4abc f65c 7cbd ada6 8bbd eb01 e73d
00000030: 8bd7 42bc c587 9a3d 0ed1 09bd 51f5 833d
00000040: a845 ddbd 9042 2cbd 49f1 753d de53 0a3d
00000050: 3d78 bdbd d3f7 363c 83a3 b43c e3f0 113e
00000060: d61f 1ebc 33d9 4abb 6dc4 88bd ffc0 073e
00000070: 07bd 9cbc 8d1c 183d 3b60 1a3e 0bb3 d33c
00000080: ebbb d43d 28ca 313e 0bd8 fa3b dc0e bd3d
00000090: 7ac3 92bd 09cd d53d cdcd 353d 0783 f73d
000000a0: 8184 6bbd 4b14 aebd 208d be3c 9383 78bc
000000b0: ba00 483d c136 5d3d 64ea 6fbd a8a8 32bd
000000c0: aec6 1f3c abfa 093e e7df 223e 46e5 27be
000000d0: 1774 df3d 065f 4f3d e159 c1bd 7ff7 ffbd
000000e0: 2de9 25be adfc a43d 6f4a a23c 3389 70bd
000000f0: 16c8 78bd 0be0 3b3d 62c4 653d bb8e adbc
00000100: 1280 24bd 9b82 a9bb d732 1b3e 33aa eb3b
00000110: 58c3 9fbd 5af1 bfbd 28eb 463d 1d9f 393d
00000120: bf0d d63d 2546 083d 9c4a 9a3d c96b 943d
00000130: d812 843d 51d1 a1bb 83ff 3d3c 6584 a13d
00000140: d510 a4bd ab17 00bd 37ac 353d 12c4 c83d
00000150: 75f2 b93d e93f b33c 2d84 2e3d 3415 debd
00000160: cb7f 0a3e 0334 a23d c4a1 c4bd 49a4 b2bd
00000170: 2430 e43d 1781 13bd 0395 9c3c bbf3 c93b
00000180: f500 983d 18fc 863d a709 423d 3706 99bc
00000190: 1bdf 10be 0dfb a3bc fdb2 63bd 2f88 03bc
000001a0: 8bd6 a73d 6a2c c63d 9b5d 003e d293 e63c
000001b0: 0cd0 4cbd c1ae 73bc 043f 9fbd 8d14 ca3d
000001c0: 314f 933d 2ca3 173b f81e 2f3d b52c b63d
000001d0: 052e 7d3d ba53 673b e34c d13d 90a0 473c
000001e0: 4840 b93d 1871 aebd 1dd1 d33d 01ad a93d
000001f0: 74fc 023d b061 0f3e 2cdb 403d 2c54 5abd
00000200: 97cf 6dbd b31d b6bd 1f61 a1bc 4f22 a93d
00000210: 6d0d 3a3d b969 3abd 9bf6 e0bc d97b 09be
00000220: b6b5 753c 3540 81bd 3838 f7bd 4850 b1bd
00000230: a68e 8dbd cd73 053d 24c7 ecbd 76f9 a63d
00000240: e7b3 93bd f234 933d 9cca 0dbe b3c7 debc
00000250: b081 03be ea34 f43c 2471 8b3c 22a6 793d
00000260: fe3c ca3c 955b 593d e7e5 e13d 7454 be3d
00000270: 427e 853c 2772 adbd 2e8e d2bb a299 b2bd
00000280: effe 9ebd 1d02 8fbd 53b3 3d3d 4a15 c4bd
00000290: aef6 eebd 3308 863c a247 193e f40b bebc
000002a0: 362d 153e b4b8 da3d 8c52 623d 1297 50bd
000002b0: 53ec 05bd cad3 c5bd d550 f13d c00b 153d
000002c0: 45f4 523d c0e4 593c 6a36 e53c 211b c0bd
000002d0: 421f 03be 17c8 cb3d 5a63 93bd 9397 da3d
000002e0: 28c1 ea3d 7071 b2bb c473 fa3d 90f4 88bc
000002f0: e5db c13c dfe9 5b3d 674b 8f3d 29e9 c93d
00000300: bd91 ae3d 031d 063c 0742 c13c e340 02be
00000310: 9edc 3a3d e626 ab3d 40d5 b4bc 0ae8 cdbd
00000320: 0164 e6bc 13eb 8ebd a38f c7bd 3705 c43d
00000330: c14d f6bd 7040 2d3c 868d e5bc 9f38 343d
00000340: 6803 833d 274c 3d3d 0da0 aabd 0275 79bc
00000350: 3ad8 ab3d b499 e7bd 357b 1c3e 020b 1b3e
00000360: bf75 89bd 12b0 a4bd 135b 923d e0eb 883d
00000370: 2fdb 84bd 21dc 393d 5472 613c b6f9 0d3d
00000380: 06b1 8abc fbcc 003e a6d9 863c 98b0 fc3d
00000390: dd47 4b3d ad86 803d 34ab 413a 5209 e0bd
000003a0: 7092 fb3c dfa5 a4bd c9a7 b93d 030a b4bc
000003b0: 18ca 59bd 71f3 923d 4abf 41bd 9674 0cbe
000003c0: 0204 983d d8f5 5f3c 63d5 003e b57d b83b
000003d0: f236 0a3e f245 d1bc 290f c83d 0b36 ca3d
000003e0: b7d8 2a3d 055c 9d3d 1beb 3d3d 504f c0bd
000003f0: 16dc a8bc 3eb3 873d 3dc6 f63c 9729 0bbc

critic.3.bias f4 [64]
0.07132503 0.0016330432 0.030920632 0.014386197 -0.09501896 -0.08600601 -0.047986355 -0.08804176
0.12678397 -0.070572995 0.04818761 0.07609323 -0.14904065 0.027680192 0.12924032 -0.14375775
0.050375532 -0.1163723 -0.07196581 -0.036932718 -0.044791188 -0.06701828 -0.058003362 -0.043573476
-0.06450779 -0.07016689 -0.029304484 -0.1936652 -0.051239092 0.058372837 -0.0194649 0.11719809
-0.058702126 -0.0041718883 -0.044963613 0.0285728 -0.055128355 0.028753988 0.12151497 -0.114614844
-0.094777085 0.0614975 -0.071872845 0.12682626 0.0088244965 -0.111620575 0.08201016 -0.123399
-0.07008436 0.044523425 -0.07940826 -0.15982156 0.018334676 0.13453674 0.0017547006 0.007658985
-0.0645602 -0.16454758 -0.026809549 -0.118411824 -0.087164946 -0.10044371 0.1397748 0.043833055
00000000: db12 923d d60b d63a 444d fd3c 15b4 6b3c
00000010: 4d99 c2bd eb23 b0bd 578d 44bd 3d4f b4bd
00000020: a8d3 013e 9388 90bd 5f60 453d c4d6 9b3d
00000030: 1d9e 18be 92c1 e23c 9357 043e 3b35 13be
00000040: 9356 4e3d 9a54 eebd d062 93bd c346 17bd
00000050: f776 37bd e140 89bd ef94 6dbd 1a7a 32bd
00000060: a91c 84bd a9b3 8fbd f50f f0bc 2c50 46be
00000070: 15e0 51bd 5b18 6f3d db74 9fbc 8d05 f03d
00000080: a471 70bd 56b4 88bb c42b 38bd 8111 ea3c
00000090: 45ce 61bd 7c8d eb3c d7dc f83d 30bb eabd
000000a0: 7d1a c2bd cde4 7b3d 1232 93bd bede 013e
000000b0: 9f94 103c 5499 e4bd f1f4 a73d 9db8 fcbd
000000c0: 6488 8fbd 325e 363d cca0 a2bd 43a8 23be
000000d0: 9a32 963c 00c4 093e fbfd e53a 39f8 fa3b
000000e0: 2338 84bd 297f 28be b39f dbbc e681 f2bd
000000f0: 8983 b2bd 6fb5 cdbd 2021 0f3e 4a8a 333d

critic.5.weight f4 [64]
1.2450471 1.2268134 1.1937584 1.3198563 1.2954663 1.2375233 1.2512826 1.2186154
1.2852097 1.281577 1.285575 1.2596974 1.3186247 1.3127177 1.279816 1.242685
1.2609891 1.2225444 1.2312119 1.2956802 1.2409657 1.2242407 1.3104988 1.237272
1.2336962 1.230026 1.2933109 1.2798287 1.252055 1.2618651 1.1630604 1.211009
1.2972064 1.3181326 1.2293329 1.3079579 1.2465401 1.2438163 1.2652972 1.2347713
1.2878176 1.2767091 1.2408252 1.2592212 1.2282329 1.2317107 1.2217728 1.2473516
1.2334989 1.2481066 1.2325209 1.2299404 1.2315135 1.2457631 1.2369872 1.2208211
1.3307627 1.2406149 1.2010635 1.2588714 1.2505199 1.2082827 1.2285278 1.221639
00000000: b45d 9f3f 3908 9d3f 13cd 983f 0df1 a83f
00000010: d7d1 a53f 2a67 9e3f 072a a03f 97fb 9b3f
00000020: c081 a43f b70a a43f b98d a43f c43d a13f
00000030: b2c8 a83f 2207 a83f 03d1 a33f 4d10 9f3f
00000040: 1768 a13f 567c 9c3f 5a98 9d3f d9d8 a53f
00000050: f7d7 9e3f ebb3 9c3f 6dbe a73f ee5e 9e3f
00000060: c2e9 9d3f 7e71 9d3f 368b a53f 6dd1 a33f
00000070: 5743 a03f cc84 a13f 2adf 943f 5802 9b3f
00000080: dc0a a63f 92b8 a83f c85a 9d3f 2a6b a73f
00000090: a08e 9f3f 5f35 9f3f 42f5 a13f fc0c 9e3f
000000a0: 35d7 a43f 346b a33f 5cd3 9e3f 292e a13f
000000b0: bc36 9d3f b2a8 9d3f 0d63 9c3f 38a9 9f3f
000000c0: 4be3 9d3f f5c1 9f3f 3fc3 9d3f b06e 9d3f
000000d0: 3ca2 9d3f 2a75 9f3f 9955 9e3f de43 9c3f
000000e0: 6f56 aa3f 78cc 9e3f 73bc 993f b322 a13f
000000f0: 0911 a03f 02a9 9a3f 6640 9d3f ab5e 9c3f

critic.5.bias f4 [64]
-0.2433383 0.23869008 0.22352514 -0.30070925 -0.29047522 -0.2290466 0.25482914 -0.24274802
0.26664987 -0.26794723 -0.2724216 0.24720378 -0.32617447 0.29379752 0.27437574 -0.23043579
0.2762397 -0.22310981 -0.22734924 0.29360664 0.24274455 0.22515021 0.28107208 -0.23935089
0.23180208 0.23151824 0.28548458 -0.27946755 -0.2619029 0.2648089 0.26599714 0.22842929
0.28761777 0.2873476 -0.23016785 -0.2930608 0.23688053 -0.2764082 0.25700954 -0.22423853
-0.27217576 0.25890797 -0.22974892 0.25218034 0.22391285 -0.23540334 0.22495703 -0.24537596
-0.23406741 0.2513736 -0.24568118 -0.26417258 -0.24538086 0.25437638 -0.23872316 0.22599304
-0.29748031 -0.22487468 0.26435113 -0.25954068 -0.25731143 -0.22418958 0.23820348 0.25412214
00000000: ad2d 79be 2c6b 743e c6e3 643e 90f6 99be
00000010: 2bb9 94be 318b 6abe f778 823e f092 78be
00000020: 5586 883e 6130 89be d87a 8bbe fd22 7d3e
00000030: 5700 a7be a16c 963e fa7a 8c3e 5cf7 6bbe
00000040: 4a6f 8d3e e676 64be 3dce 68be 9c53 963e
00000050: 0792 783e c78d 663e aee8 8f3e 6618 75be
00000060: 865d 6d3e 1e13 6d3e 092b 923e 5f16 8fbe
00000070: 2318 86be 0895 873e c730 883e 5ee9 693e
00000080: a342 933e 3a1f 933e 1fb1 6bbe 110c 96be
00000090: cf90 723e 6085 8dbe c196 833e c99e 65be
000000a0: 9f5a 8bbe 968f 843e 4d43 6bbe c81d 813e
000000b0: 6949 653e 930d 71be 235b 663e d643 7bbe
000000c0: 5eaf 6fbe 0ab4 803e d993 7bbe a141 87be
000000d0: 1f45 7bbe 9f3d 823e d873 74be b86a 673e
000000e0: 574f 98be 8c45 66be 0859 873e 84e2 84be
000000f0: 53be 83be f491 65be 9deb 733e 4c1c 823e

critic.6.weight f4 [1, 64]
0.28404072 -0.2921259 -0.25511536 0.2618691 0.24887618 0.30842742 -0.24981408 0.21477327
-0.25087675 0.24079353 0.22939706 -0.27017453 0.26259887 -0.24966529 -0.21243332 0.3234131
-0.22501905 0.3124946 0.30631876 -0.26786378 -0.29427207 -0.3072403 -0.22131036 0.26414308
-0.2895868 -0.31130165 -0.24522837 0.26325387 0.25028306 -0.26060256 -0.14374468 -0.2629734
-0.25682098 -0.2500854 0.32303247 0.25491863 -0.32033178 0.22044076 -0.2467328 0.328307
0.24233598 -0.2708387 0.31018373 -0.25812304 -0.3213446 0.2692859 -0.31023636 0.26397124
0.31257984 -0.228918 0.22851686 0.22797056 0.27859193 -0.25388092 0.28463838 -0.29729643
0.25409618 0.33551753 -0.13250473 0.264975 0.27013054 0.28190917 -0.24931353 -0.24796487
00000000: c96d 913e 8791 95be 7b9e 82be b513 863e
00000010: 66d9 7e3e 33ea 9d3e 43cf 7fbe 86ed 5b3e
00000020: eb72 80be 9492 763e 10e7 6a3e 5154 8abe
00000030: 5c73 863e 42a8 7fbe 1f88 59be 6796 a53e
00000040: 656b 66be 4bff 9f3e d0d5 9c3e 7125 89be
00000050: d4aa 96be 9a4e 9dbe 2f9f 62be c33d 873e
00000060: b944 94be ee62 9fbe 251d 7bbe 36c9 863e
00000070: 1a25 803e b36d 85be ce31 13be 73a4 86be
00000080: 0a7e 83be 320b 80be 8364 a53e b284 823e
00000090: 8702 a4be 39bb 613e 86a7 7cbe db17 a83e
000000a0: ec26 783e 5fab 8abe 67d0 9e3e b428 84be
000000b0: 4887 a4be d7df 893e 4dd7 9ebe 3d27 873e
000000c0: 770a a03e 7b69 6abe 5300 6a3e 1d71 693e
000000d0: 9aa3 8e3e aefc 81be 1fbc 913e 3d37 98be
000000e0: e518 823e f4c8 ab3e 52af 07be ceaa 873e
000000f0: 8d4e 8a3e 6656 903e 0c4c 7fbe 81ea 7dbe
