weights/2024-06-27_15-02-59/target_critic.pt (torch, 22924 bytes, 9 tensors)

critic.0.weight f4 [64, 3]
00000000: 7460 273e 4898 cabe aa30 c93e d3b7 2b3e
00000010: b12f 943d 212f 7abc 886d c53e 8c07 a9be
00000020: 5280 d83e ba87 c5be 5f6b 463e aef3 e03d
00000030: 0e02 c03e cf30 723e de46 abbe 64d4 303e
00000040: ba14 00bf 035d adbc 0a4c 0c3e 6a8b a73e
00000050: 5f03 c13e 3738 f73c 857a a5bb b982 e6be
00000060: d00b 993e 6863 b23e ce09 d8be a430 24be
00000070: 2d67 dc3e 35e2 92be 022f ef3e e182 2ebe
00000080: f8ca abbe c0ff afbe f417 f23e e8ad bf3d
00000090: ac16 89bd 547c edbe 76b3 1a3f 1f31 9dbe
000000a0: 2ed9 1dbe 60d8 21be d29d c63b 49a1 223e
000000b0: 37d8 f5bd 7b14 e7be 1729 f23e 318f 94be
000000c0: d40b 85be 0f35 2ebe 0ba5 19be 6256 ca3d
000000d0: 996f b6be deb0 843d a8fa 95bb 4276 a23e
000000e0: 81c8 7bbd ebdc dfbe 9d6d 07bf 1e5b e13e
000000f0: 18c0 d7be 423b 413e 2704 d2be 631d d9bd
00000100: 522b 93be 77ad f53e 8151 ebbd a733 02bf
00000110: d626 36bd 68a5 073e c4b9 56be fc0a 83bd
00000120: 6167 8cbe efea e5bd 2dd6 e1be 5138 fbbc
00000130: 8124 153e 8517 db3e 7e63 293e ceaa bc3e
00000140: c747 a83e 81b9 0b3e 8656 e1be 00f4 973e
00000150: fca7 50be 1187 f5be 4fdb f33e ae1c ac3e
00000160: 0b18 aabe 1ada 993e 23fe c73e 3b7f 3bbd
00000170: 86a1 a1b9 2ae5 45be 1977 f63e 4a9b a0bd
00000180: 7860 2b3e b220 32bd 4232 5b3e aa2b 743d
00000190: 0510 b8be fa7d 753d eab6 623e 2dd9 ab3e
000001a0: 4f08 893e f62c 5b3e 94bb 3b3e 7e47 4fbe
000001b0: 1ca3 dc3e d70f 803e a11c a7bc c8d0 cebe
000001c0: 5ac2 433e 86d4 febe be84 e33e 9aee 75be
000001d0: c504 e73e a353 6e3e 1123 68be 430d 8cbe
000001e0: 09e3 e83e d8b0 fdbe ced7 bf3d ce03 92be
000001f0: 8883 403e 6ff5 e9be 4740 973e 89d2 013e
00000200: 6df4 febe 68e6 ea3e 2e58 dcbe e39c 003e
00000210: ca31 cabe be76 613d 5eac f6be 52e1 a33e
00000220: f015 cfbe 9fdd e5bb 6b6a 25bd 4b8b 73be
00000230: cd64 e7be 80ee d83e 8b0d 88be ae93 623d
00000240: ed17 1abe da9b 9b3d 2bf0 d73e 18e9 f53e
00000250: 4ec3 44be 0aa3 51bd fe96 f9bd 3dc9 423e
00000260: adb4 e2bd 03da c83e e3bc 73be f4c4 0f3f
00000270: a608 d33e 1508 1a3e eae2 4abe 9f70 77be
00000280: 6ae8 403d 01b0 fabe ff65 0fbf 3e30 c6be
00000290: 2621 11bf 30a7 22be b91e ee3c 4397 2b3e
000002a0: a623 8f3d f34a 803e 644a c8be 5484 a8bd
000002b0: bff5 413d 77fd d03e 1f71 a2be 6598 493d
000002c0: 6259 f6be a19f 47be a3f8 28be 08d4 a8be
000002d0: 94e7 b3be c1f3 713e c01d 9b3e 9f05 c53e
000002e0: afcb a1bd 2b8b e33e 8a3c e23c d718 f43e
000002f0: 826b a73e 98ed 92be 5459 09bd 348e 12bf
0.16345388 -0.39569306 0.3929494 0.16769342 0.07235659 -0.0152700255 0.38560128 -0.3301357
0.422854 -0.38580114 0.19376896 0.10983978 0.37501568 0.23651432 -0.33452505 0.1726852
-0.50031626 -0.021162516 0.13700882 0.32723552 0.37697884 0.030178173 -0.005050006 -0.45021608
0.29891825 0.34841466 -0.4219498 -0.1603418 0.43047467 -0.28688207 0.46715552 -0.17042114
-0.3355329 -0.3437481 0.472839 0.09359342 -0.066937774 -0.46383917 0.60430086 -0.3070154
-0.15414879 -0.15805197 0.006061294 0.15881838 -0.1200413 -0.45132813 0.47296974 -0.29015496
-0.25985587 -0.17012428 -0.15004365 0.098797575 -0.35632017 0.06479047 -0.0045769997 0.3173085
-0.061470512 -0.43723235 -0.5290163 0.4401483 -0.42138743 0.18870261 -0.41018793 -0.10601308
-0.28743988 0.47983906 -0.11490155 -0.50860065 -0.04447063 0.13246691 -0.20969301 -0.063985795
-0.27422622 -0.11226451 -0.44108716 -0.030666502 0.14564706 0.4279138 0.1654186 0.36849064
0.32867262 0.13644983 -0.44011325 0.29678345 -0.20376581 -0.4795461 0.47628257 0.3361563
-0.33221468 0.3004921 0.39061078 -0.045775633 -0.00030828657 -0.193257 0.4813774 -0.07842119
0.16736019 -0.043488212 0.2140589 0.059611954 -0.35949722 0.059934594 0.22140089 0.3356413
0.2676415 0.2140387 0.18333274 -0.20242116 0.43093193 0.25012085 -0.020399394 -0.40393662
0.19117108 -0.49771518 0.44437212 -0.240168 0.45120826 0.23274092 -0.22669627 -0.27353868
0.45485714 -0.49548984 0.09367333 -0.28518528 0.18800175 -0.45695063 0.29541227 0.12677969
-0.49795857 0.4587891 -0.43036026 0.12559848 -0.3949111 0.055044882 -0.4817838 0.32007843
-0.40446424 -0.0070149447 -0.04038469 -0.23783605 -0.45194092 0.4236946 -0.26572832 0.05531662
-0.1504819 0.07598086 0.4217542 0.480294 -0.19215128 -0.051180877 -0.121870026 0.19022079
-0.110696174 0.3922883 -0.23802523 0.561599 0.41217536 0.15042146 -0.19813123 -0.24164055
0.047096647 -0.48962405 -0.5601501 -0.3870868 -0.56691206 -0.1588409 0.029067384 0.1675692
0.06989221 0.25057182 -0.39119256 -0.082283646 0.047353502 0.40818378 -0.3172693 0.0492176
-0.4811507 -0.19494487 -0.16501097 -0.32974267 -0.35137618 0.23628141 0.30296135 0.3848085
-0.07900178 0.44442114 0.027616758 0.476752 0.3269921 -0.28696895 -0.033532456 -0.57248235

critic.0.bias f4 [64]
00000000: bb83 28be 371f 98be e1b5 d93d 18b6 eb3e
00000010: 901d c8be 0cdf 85be a05c aa3e cf7e 6c3d
00000020: 74d7 ad3e 5bd0 b8bd 9a1c 9d3d 08f8 65be
00000030: 0acd ee3e 58a4 05be 2f9b 08bf a808 c53e
00000040: d493 943e 9b7c 09bf 7188 2f3d 2aa4 db3e
00000050: 7be9 f83d a9f7 9ebe 4ac6 2d3c 1589 b539
00000060: 36c2 adbd 5de7 e9be a79e 383e 16ed d4be
00000070: ed56 a73d 8e19 49be 2705 f3be ce5d e1be
00000080: 28b5 1cbf 4ad6 4fbe 3028 aabd e8ff 293d
00000090: dfdf 92be d78d 59be 423d a73d 6842 bd3e
000000a0: c394 173f 2136 ba3e 2fcb d73b 53d3 553e
000000b0: 35f1 683d 7bd9 c1be 7ecd 2ebe 2d22 0d3f
000000c0: 8669 5dbe f296 acbe 72b4 05bd e19c 353e
000000d0: 66de 2fbe 8a96 803d f062 73be 6b0d 183e
000000e0: 4187 013f ec09 f1be 7e1f af3e 2011 c13e
000000f0: 6eb0 0ebf f383 4f3e 9ee6 cc3e d430 863d
-0.16456501 -0.29711315 0.10630394 0.46037364 -0.39085054 -0.26146734 0.33273792 0.05773812
0.3395344 -0.09024116 0.07671471 -0.22457898 0.46640807 -0.13050973 -0.5336179 0.38483167
0.29019034 -0.5370576 0.04285473 0.42898685 0.12153908 -0.31048325 0.010606358 0.00034625144
-0.084843084 -0.4568433 0.18029271 -0.41587132 0.08170877 -0.19638655 -0.47464868 -0.4401688
-0.6121392 -0.20296589 -0.083084464 0.041503817 -0.28686425 -0.21245514 0.08165981 0.36964726
0.5921137 0.36369422 0.0065855007 0.20881395 0.056870658 -0.37861237 -0.17070577 0.55130273
-0.21622285 -0.33708912 -0.03264279 0.17735626 -0.17174682 0.06278713 -0.2376821 0.14848869
0.50597006 -0.47077882 0.34203714 0.37708378 -0.5573796 0.20265178 0.40019697 0.06552282

critic.2.weight f4 [64]
00000000: dd47 743f eb7d 7b3f 6465 783f 5a1c 753f
00000010: 5440 833f 677d 8a3f 6d4e 7f3f 8f36 7d3f
00000020: 7d92 793f 07ae 713f dbef 733f 72eb 6c3f
00000030: ea68 863f de3d 813f 19a3 883f d4da 7b3f
00000040: 4131 833f b09d 863f d384 7f3f a8ec 833f
00000050: 7cc6 823f 3cfc 6c3f f6b4 763f 2369 873f
00000060: ea86 783f 6d69 753f 86d6 7a3f 40c0 7b3f
00000070: 5e0c 823f 7590 823f 5dc5 793f 43bf 883f
00000080: 7ae5 823f e46f 873f 6c1c 743f e3f1 7c3f
00000090: a9f7 893f 387f 753f a6a7 6f3f d897 823f
000000a0: fce8 7f3f b7be 823f 7720 733f c591 763f
000000b0: 1b6b 783f e370 863f 81a2 733f 9f49 783f
000000c0: cb8b 753f 4d53 863f f711 743f b0b8 753f
000000d0: e8af 7b3f d44f 763f d2b7 723f ea68 7c3f
000000e0: 1ffe 843f 799f 7e3f 9ba2 773f 5364 843f
000000f0: 2891 6f3f 5c2a 783f f4ad 823f 399f 793f
0.95422155 0.9823901 0.9702971 0.95746386 1.0254006 1.081952 0.99729043 0.98911375
0.9748915 0.9440617 0.95287865 0.9254676 1.0500767 1.0097005 1.0674773 0.9838078
1.0249406 1.0516872 0.9981205 1.0306597 1.0216823 0.9257238 0.96369874 1.057896
0.9708086 0.9586399 0.97983587 0.98340225 1.0160024 1.0200335 0.9756678 1.0683368
1.0226281 1.0581021 0.9535587 0.9880659 1.0778705 0.95897245 0.93615186 1.0202589
0.9996488 1.0214452 0.9497141 0.96316177 0.9703843 1.05032 0.95169836 0.96987337
0.9591643 1.0494171 0.9533991 0.95984936 0.98315287 0.9621556 0.9481174 0.98597586
1.0390052 0.99462086 0.9673249 1.0343117 0.93580866 0.96939635 1.0209336 0.9750858

critic.2.bias f4 [64]
00000000: 231d bcbc 6f99 b33c e6b9 91bc 9c98 053d
00000010: e002 89bd e638 afbd c4cc 6a3d 407e 6a3d
00000020: 6cb2 2f3d b820 293d 663a 373d 8de8 1e3d
00000030: 6bf9 6f3d b5e3 37bb 3537 81bd 8213 2f3d
00000040: 56b6 5f3d d25f 61bd a2e6 89bc 84be 6d3d
00000050: d985 473d 06ec 0d3d dae6 053c 5058 7bbd
00000060: 1bee 523d f7a2 983c 8029 4d3d e050 583b
00000070: 85e3 803d 727c 63bd b444 773c f303 8abd
00000080: 0703 43bd ed6a 8fbd 5a90 4dbd 45a5 2fbd
00000090: fa51 b3bd 3ad1 f5bc bfba a0bc 4cc0 833d
000000a0: ac7a 503d 2104 703d f90b 0a3d 62ee 43bd
000000b0: 2a85 6d3d baaf 68bd 7797 31bd 9a91 9d3d
000000c0: deb6 7d3c f8e5 83bd 5a39 983c 397c 2f3d
000000d0: bac6 9fbb 475c 2ebd c4b7 603d 9ade 323d
000000e0: 226c 2f3d 4bec 8fbd 3ab6 b1bc 9c40 6b3d
000000f0: b1a1 fabc 65cc 8a3d 62cb 5b3d 7e40 2b3d
-0.022963112 0.021923749 -0.017788839 0.032616243 -0.066900015 -0.085557744 0.057324186 0.057249308
0.042894766 0.04129097 0.044733427 0.038795996 0.058587473 -0.0028059308 -0.06309358 0.042743213
0.05461725 -0.055023022 -0.016833607 0.058043018 0.04871163 0.034648918 0.008172715 -0.06136352
0.051496606 0.018632395 0.050088406 0.003300719 0.06293396 -0.055538602 0.015092064 -0.067390345
-0.04761031 -0.07002816 -0.050186493 -0.042882223 -0.0875587 -0.030006994 -0.019620297 0.06433162
0.05089824 0.058597688 0.033702824 -0.04783476 0.057988323 -0.05680821 -0.04335734 0.07693787
0.0154854935 -0.064403474 0.018582035 0.042843077 -0.004875985 -0.04256847 0.054862753 0.04366932
0.042827733 -0.07027491 -0.021693338 0.057434663 -0.030594679 0.067772664 0.053660758 0.04180955

critic.3.weight f4 [64, 64]
00000000: c78b 1abe 8893 f93c 1642 403d 4b08 26bd
00000010: 508d 773d ca0d 8bbd dd1f a1bd e759 033c
00000020: 2a90 4abc 0764 7cbd a2a7 8bbd 7efa e63d
00000030: 2d7b 42bc 1679 9a3d 80e1 09bd 72f3 833d
00000040: e94c ddbd 2753 2cbd b6a4 753d 0667 0a3d
00000050: 1575 bdbd 07d2 373c 6959 b43c 07e7 113e
00000060: 79fc 1dbc c05a 48bb 60c4 88bd 8cc5 073e
00000070: d275 9cbc 671e 183d 335c 1a3e 5d85 d33c
00000080: 12b6 d43d c1c2 313e 2713 fa3b 4903 bd3d
00000090: 2ed2 92bd 9bd3 d53d d8d9 353d 4977 f73d
000000a0: 9598 6bbd 7c0f aebd d8ae be3c ed5c 79bc
000000b0: 8413 483d 3c25 5d3d e8e8 6fbd 8cc9 32bd
000000c0: 2e2e 203c c5f5 093e 20d7 223e d2df 27be
000000d0: 946e df3d d56b 4f3d 2553 c1bd f6f6 ffbd
000000e0: a5e9 25be f20d a53d 8855 a23c 8f8f 70bd
000000f0: 0ca5 78bd 0cee 3b3d 10c7 653d c84e adbc
00000100: cb1f 24bd 4803 a9bb 403e 1b3e cd2d ec3b
00000110: 96c6 9fbd 8ae6 bfbd 8ff7 463d db07 393d
00000120: 04df d53d c626 083d c420 9a3d a29a 943d
00000130: 9627 843d fd31 a2bb 475b 3e3c 827c a13d
00000140: 071c a4bd 0ae7 ffbc fec6 353d badb c83d
00000150: 6fda b93d ed30 b43c f58d 2e3d 4115 debd
00000160: 2668 0a3e cf50 a23d 669a c4bd 3085 b2bd
00000170: cd64 e43d 9e51 13bd 7cac 9c3c 5459 cb3b
00000180: ac12 983d bf19 873d 941f 423d e54f 99bc
00000190: 01dd 10be d19f a4bc 3299 63bd 75bb 05bc
000001a0: 79c4 a73d 7614 c63d ff40 003e 5bbf e63c
000001b0: d11a 4dbd 5565 73bc 1d81 9fbd dbf6 c93d
000001c0: 1686 933d 8e35 183b 042b 2f3d 8437 b63d
000001d0: 9426 7d3d 8a33 633b 6614 d13d a2b3 483c
000001e0: bc22 b93d c546 aebd 66bb d33d 5893 a93d
000001f0: 7267 033d 4965 0f3e 56e7 403d e7a4 5abd
00000200: 4c07 6ebd f63b b6bd a17e a1bc ef2d a93d
00000210: 2cd5 393d 659b 3abd bb8a e0bc 0269 09be
00000220: dd30 773c 0655 81bd 4d05 f7bd e665 b1bd
00000230: 3f94 8dbd f734 053d ddfd ecbd 1ffe a63d
00000240: 42a6 93bd 3604 933d 78d6 0dbe 2feb debc
00000250: 6d7d 03be 75c1 f33c 8a4d 8b3c f996 793d
00000260: 8a7a ca3c 7045 593d f401 e23d a427 be3d
00000270: 9f11 853c 5b8e adbd c90d d4bb 94d7 b2bd
00000280: 3e26 9fbd ac34 8fbd 32c2 3d3d 2511 c4bd
00000290: 4b11 efbd 0bef 853c 7546 193e 760f bdbc
000002a0: d84a 153e 95d2 da3d ba9e 623d 6279 50bd
000002b0: 3bcc 05bd b1ec c5bd 9263 f13d 21ae 153d
000002c0: 0bda 523d f16f 593c 5cc9 e43c 0b19 c0bd
000002d0: e122 03be 29d8 cb3d 764d 93bd a895 da3d
000002e0: 58ed ea3d aaef b3bb d98a fa3d d170 88bc
000002f0: 8573 c13c d5ff 5b3d fb68 8f3d 0e04 ca3d
00000300: f08b ae3d cf39 023c c5bc c13c cafb 01be
00000310: 7d97 393d 0c71 aa3d ac39 b3bc 95e3 cdbd
00000320: 6810 e6bc 0e02 8fbd 6fb4 c7bd eae8 c33d
00000330: f4dc f5bd 0489 2b3c 0593 e8bc 8e99 343d
00000340: cc2e 833d f348 3c3d bfe7 aabd 23f1 75bc
00000350: 2ef1 ab3d 1e93 e7bd 7059 1c3e 19a1 1a3e
00000360: 5071 89bd dbb2 a4bd bda4 923d a4b6 883d
00000370: cea4 84bd 1f9d 393d 2ceb 5d3c 1c74 0c3d
00000380: f706 8cbc ef8d 003e acf4 863c 4e66 fc3d
00000390: cd4e 4a3d c481 803d 3b35 513a 87ee dfbd
000003a0: 7243 fe3c 9b82 a4bd 609c b93d ac5c b4bc
000003b0: aa9e 59bd 9f57 923d baed 41bd 3616 0cbe
000003c0: 5017 983d 3a3a 5b3c b8b6 003e 6660 bc3b
000003d0: 43eb 093e 402a d1bc 8421 c83d 7f7b ca3d
000003e0: 602b 2b3d eb46 9d3d dc1e 3e3d bf2b c0bd
000003f0: 5e79 a9bc 39f2 873d a0b9 f83c 8e86 0abc
-0.15092383 0.030465856 0.046938024 -0.040535253 0.0604375 -0.067897394 -0.078674056 0.00801704
-0.012363473 -0.06161883 -0.06819083 0.11278246 -0.011870188 0.075426266 -0.03366232 0.06442918
-0.10805685 -0.042071488 0.059971534 0.033789657 -0.09250847 0.011219508 0.02201529 0.14248286
-0.009642714 -0.003057167 -0.066780806 0.13258952 -0.01909915 0.03713837 0.15074234 0.025820429
0.1038629 0.17359449 0.0076316777 0.09229142 -0.07168995 0.10440751 0.044397205 0.12083299
-0.05751856 -0.08499047 0.023276731 -0.015219909 0.048846737 0.053990588 -0.058571726 -0.04364924
0.009776635 0.1347266 0.15902376 -0.16393974 0.10909763 0.050639946 -0.09439687 -0.12498276
-0.1620241 0.080593005 0.019816175 -0.05873066 -0.060704276 0.045881316 0.056098044 -0.02115573
-0.040069383 -0.005157862 0.15160465 0.0072076083 -0.07801549 -0.09370144 0.048575934 0.045173507
0.104429275 0.033240102 0.07525781 0.07256056 0.06452863 -0.0049498067 0.011618442 0.07885076
-0.08013158 -0.031238098 0.044379227 0.098075345 0.09074866 0.021995986 0.04261585 -0.108438976
0.13516292 0.07925569 -0.09599762 -0.0871681 0.11152039 -0.035966508 0.019125216 0.006205717
0.074254364 0.065967076 0.047393396 -0.018714854 -0.14146806 -0.020095738 -0.05556602 -0.008162369
0.08191771 0.09671871 0.12524794 0.028167417 -0.050074402 -0.014855702 -0.07788298 0.09861537
0.07203309 0.002322528 0.042765632 0.088973075 0.06180437 0.003466817 0.10208969 0.012249859
0.09039828 -0.08509592 0.10338478 0.08280057 0.032081075 0.14003481 0.04709562 -0.05337992
-0.058112428 -0.088981554 -0.019713702 0.08260714 0.045369312 -0.045558352 -0.027409902 -0.13418964
0.0150873335 -0.06315045 -0.12061558 -0.08662014 -0.06913041 0.032521214 -0.11571858 0.081539385
-0.072094455 0.071785375 -0.13851345 -0.027211754 -0.12840815 0.029755333 0.017004747 0.060934994
0.024716634 0.053044736 0.11035529 0.092849046 0.016243754 -0.08474418 -0.00647137 -0.087325245
-0.07770966 -0.06992468 0.046327777 -0.095735826 -0.1167322 0.016349336 0.14968283 -0.023078661
0.14579332 0.106846966 0.055327155 -0.05089701 -0.032665472 -0.09664286 0.1178657 0.036543015
0.051477473 0.013271318 0.027928047 -0.093797766 -0.12806274 0.09953339 -0.07192509 0.10673076
0.11471051 -0.0054912167 0.12233514 -0.016655358 0.023614654 0.053710777 0.07002445 0.098640546
0.08522785 0.007948353 0.023649583 -0.12693706 0.045310486 0.08322343 -0.021878086 -0.100531735
-0.028083995 -0.06982814 -0.09751212 0.09565909 -0.12005034 0.010469679 -0.028390417 0.044091754
0.0640541 0.045968007 -0.08344983 -0.015011105 0.08395611 -0.11307357 0.15268493 0.15100516
-0.06711066 -0.080419265 0.071603276 0.06675461 -0.064767465 0.045315858 0.013544839 0.034290418
-0.017093165 0.12554143 0.01647409 0.123242006 0.049391557 0.06274751 0.0007980649 -0.10934167
0.03103802 -0.080327235 0.09063029 -0.022016846 -0.05312983 0.07145619 -0.047345854 -0.13680348
0.074263215 0.0133805815 0.12569702 0.0057487963 0.13468651 -0.025532842 0.097720176 0.09886836
0.041789412 0.07679542 0.04641615 -0.09383344 -0.020687755 0.06637997 0.03036195 -0.008454932

critic.3.bias f4 [64]
00000000: b41e 923d 223b d23a 78e9 fd3c 7927 703c
00000010: 7444 c2bd 673b b0bd 02b8 44bd 2551 b4bd
00000020: 78a2 013e 4d4d 90bd 67ec 453d 63ee 9b3d
00000030: 3f76 18be f877 e13c cc3c 043e 0f37 13be
00000040: 2e2b 4e3d 0471 eebd a367 93bd 49a7 17bd
00000050: 8d89 37bd e63f 89bd 035d 6ebd f85b 32bd
00000060: 9a0d 84bd fdb3 8fbd 0e9a f0bc 3630 46be
00000070: 8c8a 51bd 7f0e 6f3d a35d a0bc 5c1b f03d
00000080: 566d 70bd f554 8abb 502e 38bd e6f1 ea3c
00000090: dee0 61bd 21c8 ec3c 7ccf f83d ded2 eabd
000000a0: 8fee c1bd 3b9d 7b3d 473e 93bd 75d0 013e
000000b0: 348d 113c 3ea2 e4bd e5ed a73d a7b5 fcbd
000000c0: 7889 8fbd 6903 363d da8b a2bd 518b 23be
000000d0: 4da6 963c c6c1 093e 47c9 e83a 6eb2 fb3b
000000e0: e9d2 83bd 1f8b 28be 1c9b dcbc 8764 f2bd
000000f0: 7b57 b2bd 9fa5 cdbd ca1c 0f3e db2b 333d
0.071347624 0.0016039351 0.030995116 0.0146578485 -0.09485713 -0.0860508 -0.048027046 -0.088045396
0.12659633 -0.07045994 0.048321154 0.07613828 -0.14888857 0.027523026 0.12913817 -0.14376472
0.050334148 -0.1164265 -0.071975015 -0.03702477 -0.044808913 -0.06701641 -0.05819417 -0.04354474
-0.06447907 -0.07016752 -0.029370334 -0.19354329 -0.05115752 0.058363434 -0.0195759 0.117239684
-0.05869802 -0.0042215534 -0.044966042 0.0286798 -0.05514609 0.028904023 0.121489495 -0.11466001
-0.094693296 0.061429244 -0.07189613 0.12677176 0.008883763 -0.11163758 0.08199672 -0.12339335
-0.07008642 0.044436846 -0.07936831 -0.15971114 0.018389845 0.13452825 0.0017760181 0.0076811826
-0.06436712 -0.1645932 -0.02692943 -0.1183558 -0.08708092 -0.10041355 0.13975826 0.043742996

critic.5.weight f4 [64]
00000000: 8c3b 9f3f 8de5 9c3f 2fb5 983f eab5 a83f
00000010: 389e a53f 434a 9e3f e703 a03f e7dc 9b3f
00000020: 9a58 a43f c0e0 a33f b261 a43f db1a a13f
00000030: d48f a83f 3cd7 a73f 03a4 a33f 84f1 9e3f
00000040: 6a37 a13f d661 9c3f d57b 9d3f 5ea8 a53f
00000050: 35b5 9e3f 6499 9c3f a385 a73f eb3f 9e3f
00000060: 04cd 9d3f 9453 9d3f 745d a53f 37a2 a33f
00000070: 5017 a03f d959 a13f 8aa0 943f 21e8 9a3f
00000080: 1edc a53f 2386 a83f 8e3a 9d3f c43a a73f
00000090: 226d 9f3f a9fd 9e3f 41cf a13f 93f0 9d3f
000000a0: 62ac a43f 4645 a33f 82b5 9e3f 850a a13f
000000b0: 671c 9d3f 4c8b 9d3f 8448 9c3f c387 9f3f
000000c0: 0bc2 9d3f 929d 9f3f 4ea2 9d3f 7f3d 9d3f
000000d0: 237c 9d3f 3b4d 9f3f 0135 9e3f 0829 9c3f
000000e0: a425 aa3f 46af 9e3f 176f 993f 33fa a03f
000000f0: 18e8 9f3f c690 9a3f 2922 9d3f c72c 9c3f
1.2440047 1.2257553 1.1930293 1.3180516 1.293891 1.2366413 1.2501191 1.2176789
1.2839539 1.2802963 1.2842314 1.2586321 1.3168893 1.3112559 1.2784427 1.2417455
1.2595036 1.2217357 1.2303416 1.2942007 1.239905 1.2234311 1.3087658 1.2363256
1.2328191 1.2291131 1.2919145 1.2783879 1.2507114 1.2605544 1.1611493 1.210209
1.29578 1.3165935 1.2283494 1.3064809 1.245518 1.2421161 1.2641374 1.2339042
1.2865107 1.2755516 1.2399142 1.2581335 1.2274293 1.2308135 1.220963 1.2463306
1.2324842 1.2469962 1.2315156 1.2284392 1.2303509 1.2445444 1.2359926 1.2200022
1.3292737 1.2397239 1.1987027 1.2576355 1.2492704 1.2075431 1.227605 1.2201165

critic.5.bias f4 [64]
00000000: 001c 78be 9559 733e bef1 633e bf2f 99be
00000010: 010a 94be 7d90 69be 33e6 813e 6f83 77be
00000020: d7ec 873e 0a96 88be 4cdc 8abe 7d0c 7c3e
00000030: 6040 a6be 3fc3 953e a5d8 8b3e 78f9 6abe
00000040: f1c5 8c3e f584 63be e3d4 67be 13a8 953e
00000050: f37e 773e b499 653e 7028 8f3e 230e 74be
00000060: a75f 6c3e d113 6c3e 9286 913e ed70 8ebe
00000070: 2a7b 85be faf8 863e 685d 873e 60f0 683e
00000080: 2e9c 923e 266f 923e adaf 6abe 5d63 95be
00000090: a686 713e e9cd 8cbe df03 833e 82aa 64be
000000a0: 5cbe 8abe 36fd 833e 9846 6abe 8b8f 803e
000000b0: c857 643e 0f0a 70be 2167 653e 7531 7abe
000000c0: 39a8 6ebe c523 803e ee7e 7abe 2e99 86be
000000d0: 8c25 7abe 50a8 813e 3d68 73be c874 663e
000000e0: 14a5 97be 2850 65be f35a 863e 654c 84be
000000f0: 6027 83be 06a0 64be 75e2 723e 9573 813e
-0.24229431 0.23764642 0.22260186 -0.2991924 -0.28913882 -0.22809024 0.2537094 -0.24171232
0.26547882 -0.2667697 -0.27121198 0.24614139 -0.3247099 0.29250523 0.27313724 -0.22946727
0.27494767 -0.22218688 -0.22639804 0.29229793 0.24169521 0.22421914 0.2796054 -0.23833518
0.23083363 0.23054434 0.28422982 -0.2782053 -0.2607053 0.2636183 0.2643845 0.22747946
0.2863478 0.28600425 -0.22918577 -0.2917737 0.2358652 -0.27500847 0.2558889 -0.22330669
-0.27098358 0.25779122 -0.22878492 0.25109515 0.22299111 -0.23441337 0.22402622 -0.24432929
-0.2330636 0.2502729 -0.24462482 -0.26288742 -0.24428385 0.25323725 -0.23770232 0.22505486
-0.29618132 -0.22393858 0.26241264 -0.25839534 -0.25615978 -0.22326669 0.23719199 0.25283495

critic.6.weight f4 [1, 64]
00000000: dd03 913e b524 95be 6255 82be 8458 853e
00000010: dea5 7d3e 708d 9d3e 7af0 7ebe aa43 5b3e
00000020: 41f5 7fbe f6a1 753e aaf0 693e deea 89be
00000030: 20c2 853e 878d 7ebe e995 58be 4932 a53e
00000040: 9259 65be 5aa9 9f3e 4e7a 9c3e b290 88be
00000050: ae3d 96be 1bf9 9cbe d956 61be dedf 863e
00000060: 87ea 93be ad02 9fbe a612 7abe 333a 863e
00000070: ae46 7f3e 2ded 84be 7502 12be 4954 86be
00000080: 76f2 82be 52e9 7ebe acfb a43e 7df4 813e
00000090: 1e96 a3be 317c 603e 46cb 7bbe ccba a73e
000000a0: 8430 773e 9f38 8abe 9870 9e3e 16bf 83be
000000b0: 4a31 a4be e685 893e 6d81 9ebe 90c2 863e
000000c0: 929f 9f3e ef9d 69be e545 693e ce56 683e
000000d0: f12d 8e3e d986 81be bc56 913e b6e1 97be
000000e0: b687 813e e068 ab3e f62a 06be f130 873e
000000f0: d6d1 893e 9d09 903e a099 7ebe 67be 7cbe
0.2832326 -0.29129568 -0.25455767 0.26044095 0.24770305 0.3077197 -0.24896422 0.2141253
-0.249959 0.23987564 0.22845712 -0.26937002 0.26124668 -0.24858676 -0.21150936 0.32264927
-0.2239745 0.31183892 0.3056206 -0.26672894 -0.29343933 -0.30658802 -0.22005786 0.26342672
-0.28889868 -0.3105673 -0.24421176 0.26216277 0.24929306 -0.259622 -0.1425875 -0.2623618
-0.25575608 -0.24893692 0.3222326 0.25381842 -0.31950468 0.21922375 -0.24589261 0.32759702
0.24139601 -0.26996323 0.30945277 -0.25731725 -0.32068855 0.2685997 -0.3095812 0.26320314
0.3117643 -0.22814153 0.22780569 0.22689363 0.27769426 -0.25298193 0.28386486 -0.2966439
0.25298852 0.3347845 -0.13102326 0.26404527 0.26917905 0.28132334 -0.24863291 -0.24682008
